logs/rsl_rl/franka_reach/2025-06-16_20-11-58/model_650.pt (torch, 172795 bytes, 36 tensors)

std f4 [7]
000000 2a 16 08 3e c1 06 f9 3d 0a 49 03 3e b1 95 14 3e
       0.13289705 0.12159491 0.12820831 0.14510228
000010 ab 0b 06 3e 1f b4 11 3e e8 11 25 3e
       0.13090388 0.14228867 0.16120112

actor.0.weight f4 [64, 32]
000000 5d 6c b6 be 39 96 6e 3e 08 f3 dd be ef b8 c9 3e
       -0.3562955 0.23299493 -0.4334948 0.39398906
000010 b7 87 b9 3d 70 7f 59 3e b8 4f 15 3e 0b 49 e2 3e
       0.09059089 0.2124002 0.14581192 0.44196352
000020 32 f3 23 3f 23 72 ce 3c b8 21 a6 3e 28 ad 49 3e
       0.6404296 0.025200909 0.324476 0.1969496
000030 08 e5 67 3e 6e 74 cf 3d b3 eb 97 bd 44 9f c0 bd
       0.22645962 0.10129629 -0.07418003 -0.094053775
000040 40 09 05 bf 4d 62 10 bd a1 aa 3f bf 6c 2f 6a bd
       -0.5196724 -0.035249997 -0.74869734 -0.05717413
000050 f7 6c 3c 3f af 34 ad bc 72 ac 30 bf 96 e2 a0 3d
       0.7360377 -0.021143286 -0.6901313 0.07855718
000060 cc 13 11 be a7 34 bb bd 36 c5 89 be fd 31 68 be
       -0.14167708 -0.09140902 -0.26908273 -0.22675319
000070 89 a7 bc 3d b5 ff ae be b7 56 27 bc 37 0a 6b be
       0.09211642 -0.34179464 -0.0102135455 -0.22953115
000080 40 95 73 3d 1c 0d d8 3d 1f 83 a2 be 35 56 58 3f
       0.059468508 0.105493754 -0.31740662 0.8450654
000090 b1 1f 52 3f 2b bb 8d 3e 2b 2a 69 3d 4c 01 26 be
       0.8207961 0.2768186 0.05692498 -0.16211432
0000a0 94 d6 78 3e bd b7 83 3d d9 0b 4d be 5f 9b 04 3f
       0.24300605 0.0643153 -0.20024051 0.5179958
0000b0 a3 95 35 be af da df 3c 01 1d 72 3d df bc 7b 3e
       -0.17732863 0.027325956 0.05910969 0.24583767
0000c0 82 af db 3e 93 17 8e bf 6d a2 78 bf 2d 21 03 c0
       0.4290734 -1.1100944 -0.9712284 -2.0489
0000d0 07 f5 07 bf c8 8d 11 3e 72 f5 a3 3e e8 fb 9a 3e
       -0.5310826 0.14214242 0.32023197 0.30270314
0000e0 aa eb 6a 3d 06 8f f4 3d 4e 89 7b 3d 4d cb 03 be
       0.057353653 0.11941342 0.06141024 -0.12870522
0000f0 3a 32 be 3d 45 40 dc bd 78 58 d8 3b 12 52 b8 bc
       0.09286924 -0.10754446 0.006602343 -0.022500072
000100 fd c9 2f 3f 04 f5 46 be 9c 51 45 3f fd 83 7a be
       0.68667585 -0.19429404 0.7707765 -0.24464412
000110 78 4e 60 3e 30 ca 22 bc 68 20 81 3e 9c 20 21 3f
       0.21904933 -0.009935901 0.25220037 0.6294038
000120 31 de 5b 3f d1 fd 06 be f2 4c 9f bc 5c 8a e3 bd
       0.8588591 -0.13182761 -0.01944587 -0.11110374
000130 61 f7 e6 3d 2c f9 cc 3d 67 f4 28 3e 84 df ae 3d
       0.112776525 0.10008463 0.16499482 0.08538726
000140 67 f5 4c bf 34 d0 26 3f e0 9b dc 3c 9a c2 e4 bf
       -0.80061954 0.6516144 0.026929796 -1.7871888
000150 80 cd b5 3e 7d e5 22 bd 69 e2 6d be 3a a5 6c 3d
       0.35508347 -0.03976964 -0.232309 0.05777476
000160 de 85 ba bd 5d f6 28 bd 13 c8 d9 3d cc e1 36 bd
       -0.091075644 -0.041250575 0.10633864 -0.04464893
000170 d2 c1 44 3d e9 45 a9 3e 1d 83 f6 be 3d 0a 01 bf
       0.048036404 0.3306115 -0.48146906 -0.5040625
000180 11 6c 8d bf 75 5d 18 3c c0 52 0a 3b ee 8a 41 bf
       -1.1048604 0.009299626 0.0021106452 -0.75602615
000190 c0 f1 93 bd 1e 80 f4 be ff 50 91 3e 8c 64 8b bd
       -0.072238445 -0.47753996 0.28382108 -0.06806287
0001a0 c6 66 18 3e 62 78 42 be 3c f9 9a be ee 0c d9 3d
       0.14882955 -0.18991235 -0.30268276 0.10598169
0001b0 e7 4e 94 3e 44 a3 83 be fe f5 23 be b8 9a 25 bd
       0.28966448 -0.257105 -0.16011807 -0.040430754
0001c0 35 16 13 3f 9d 5c 73 3e 97 93 cb bd f5 9f a3 3e
       0.5745576 0.23765798 -0.0994026 0.31957975
0001d0 52 89 00 3f 74 15 1f be 58 78 12 bf 33 37 26 be
       0.50209534 -0.15535527 -0.5721488 -0.16231994
0001e0 44 a9 14 bb 18 f9 fa be df 9d 6a be 71 20 82 bd
       -0.0022683898 -0.49018168 -0.22911786 -0.06353844
0001f0 6a 68 ae be ee 1e ce be c9 80 ea 3d d8 31 a0 be
       -0.34064037 -0.40257972 0.11450345 -0.31288028
000200 5d b1 4b bd 10 f9 fc bd 5b ae a3 3d 66 9d 97 3e
       -0.049729694 -0.123521924 0.0799224 0.29612273
000210 b6 cc 10 bf b1 bf 77 3f 8b 5b ad 3d 73 80 45 be
       -0.56562364 0.9677687 0.08464726 -0.1928728
000220 3a 61 58 be c2 fb 1a bd 51 67 59 be 6a da 6d bc
       -0.21130839 -0.03783775 -0.21230818 -0.014517406
000230 82 6e 48 3d f1 6e 8c bd 96 ff e5 bd 41 dc 9d bd
       0.048933513 -0.06857098 -0.1123039 -0.07708026
000240 59 3c 63 be 39 77 f1 be d5 9a d3 be 94 e9 f1 3f
       -0.2219099 -0.47161272 -0.41329065 1.8899407
000250 74 ff 63 3f fb 6d 0d be 3e 52 95 be a7 8d 47 bf
       0.89061666 -0.13811485 -0.29164308 -0.7795052
000260 ad d1 94 bc 9f 2d 1a bf 97 d4 ce 3c 52 33 e4 3d
       -0.018166387 -0.6022586 0.025247855 0.11142601
000270 24 a8 1f be eb 96 4a 3d 35 4e a9 be 46 14 ca bc
       -0.15591484 0.049460333 -0.3306748 -0.02466787
000280 90 bb e9 3e 24 80 15 bf 5c 16 d2 3e af b5 2c be
       0.4565091 -0.5839865 0.41032684 -0.16866182
000290 45 9c a5 3e 9a c1 96 3f 01 9f ad 3c 63 63 ba 3e
       0.32345787 1.1777833 0.021193983 0.3640395
0002a0 35 b0 00 3e 55 8b a2 bd 1f 9b 24 3d b0 67 94 bd
       0.12567218 -0.07936732 0.040186998 -0.07246339
0002b0 dd 1b 77 bc b0 62 58 3c 53 c6 bd bc 98 f0 a2 bd
       -0.015082327 0.013207123 -0.023165857 -0.07956046
0002c0 4d bb bf 3d 25 4c 2c bf 82 e9 bd 3d f1 31 ab bf
       0.09361897 -0.6730369 0.09273054 -1.3374616
0002d0 f7 a9 48 bf 77 b7 a8 3d 0e e8 69 3d 6e bc 70 3f
       -0.78384346 0.08238118 0.05710607 0.9403752
0002e0 2a 19 b5 3d 48 50 6e 3e 1d 6b 7c 3e 49 af bb 3d
       0.0884269 0.23272812 0.24650235 0.09164292
0002f0 a6 03 b3 3d 3a d1 70 3d 59 26 8b 3d 01 b0 3f bd
       0.0874093 0.058793284 0.067944236 -0.04679871
000300 5e cb b8 3d be 99 27 3d d1 a1 b2 3b 8c 19 0b bf
       0.09023164 0.040918104 0.005451419 -0.54335856
000310 f1 6f ee bd c7 87 f0 be 06 07 ba 3d d7 28 93 3e
       -0.11642445 -0.4697859 0.09083371 0.28742096
000320 6d c7 ed 3d f1 e2 ee 3c 2b 0a ae 3d 9c 3e 73 3c
       0.11610303 0.029160948 0.08498033 0.01484647
000330 c1 ac a0 be 65 ea a0 bd c1 5c ca 3d e9 31 51 be
       -0.313818 -0.07857207 0.09880973 -0.20429195
000340 0e 02 b4 3f 6c 36 bd 3e 19 2a 2f be 9d f7 0e be
       1.4063127 0.36955583 -0.17105903 -0.13961644
000350 59 f2 08 bd 69 6b db bd d5 3a dd be 84 7c ae 3e
       -0.033434246 -0.10713846 -0.43208948 0.34079373
000360 f0 82 ce 3c 53 18 59 3e 6d dc c0 3e c6 a7 ea bd
       0.02520892 0.21200685 0.37668172 -0.114577815
000370 ba ac 9c bd d0 2a ca 3d 12 6e 97 bd dc 52 f3 bd
       -0.076501325 0.09871447 -0.07394041 -0.118810385
000380 f5 cb 7b 3f b8 01 02 3c 7c 0f 8f 3f 9c 37 96 be
       0.9835809 0.00793498 1.11766 -0.29339302
000390 ad ad d9 be 0d b5 d6 be 5a e2 43 bf 7e cf 62 3e
       -0.42515317 -0.41935006 -0.7651726 0.22149464
0003a0 33 11 06 3e 33 0e 6c 3d 54 3c 59 bd 3c 6a 84 3e
       0.13092498 0.05763073 -0.05303605 0.258623
0003b0 94 23 bf 3e bc e1 14 3e 4b bb 9b bc bc 60 78 be
       0.3733183 0.14539236 -0.019010207 -0.24255651
0003c0 1e d8 42 3f 7b 13 89 3d c5 99 d2 3c a3 0f fa bf
       0.7611102 0.06693169 0.025708089 -1.9536022
0003d0 ff d7 17 bf b3 a1 fa bd 1c ed 12 bf 77 cd 28 3e
       -0.5931396 -0.12237873 -0.5739305 0.16484629
0003e0 11 57 68 bd 55 c8 47 be 75 82 e7 bd f7 29 12 bf
       -0.056723658 -0.19510014 -0.113041796 -0.57095283
0003f0 73 ca d1 3c 5d d2 d5 bd 78 a7 a7 3b d1 4d c7 bc
       0.02560923 -0.10440514 0.0051163994 -0.024329098

actor.0.bias f4 [64]
000000 d6 df 86 be 18 bb 14 be b6 2a 25 bf 14 49 e3 3b
       -0.26342648 -0.14524496 -0.64518297 0.006936202
000010 6f d0 fe 3d 60 ce a1 be c8 db cc be 5d 3c ee bc
       0.12442099 -0.31602764 -0.4001143 -0.029081518
000020 49 09 c8 3e fa 82 87 3e c8 94 ed bd ef 63 ab bc
       0.39069584 0.26467115 -0.116006434 -0.020921675
000030 e9 c6 f5 bd 40 a3 77 be f4 0f 29 bf 15 50 92 be
       -0.1200083 -0.24183369 -0.6603997 -0.28576723
000040 cb 1a 2c 3f 15 3b 57 3e 24 2a 8d 3e 87 5b 52 3e
       0.6722838 0.21018632 0.27571213 0.20542727
000050 07 1d 0c 3e 3d 24 78 3e c2 55 a7 be a5 a0 12 3e
       0.13682948 0.24232574 -0.32682616 0.14319094
000060 7b 17 2b bf 95 68 35 3f 62 be 9a bd eb 25 db be
       -0.66832703 0.70862705 -0.07555844 -0.42802367
000070 2d d2 e3 bd fd 9a 3c 3e ac fb 5a be 7a f9 e4 3e
       -0.11124072 0.18418498 -0.21385068 0.44721586
000080 81 1c 39 bf b4 d5 6b be 15 6f b2 3e 02 0f 59 bd
       -0.7230912 -0.2303074 0.34850374 -0.05299283
000090 7f 75 c8 3c fd 23 28 3d 04 02 10 bf e0 08 8c be
       0.024470089 0.041049946 -0.56253076 -0.2735052
0000a0 20 7e 09 3e 7d ae 8f bd 2c 87 0b 3f c9 13 40 be
       0.13427019 -0.07015703 0.5450313 -0.18757547
0000b0 21 da da 3d 2f ff b2 3d cd 18 7e be 9d 09 d3 bc
       0.10686136 0.08740079 -0.24814148 -0.02576142
0000c0 14 1f 01 3f 13 91 07 bf d1 ab 65 3d 9c 90 52 be
       0.50438046 -0.5295574 0.05607206 -0.20562977
0000d0 55 69 8f bc 03 54 81 be ed 9a 14 bf eb 64 99 be
       -0.01750628 -0.25259408 -0.580489 -0.29959807
0000e0 eb 28 d7 be 9a 9a f0 3c b0 29 13 3e bf 64 88 3e
       -0.42023405 0.029370595 0.14371371 0.26639363
0000f0 c5 4c 7a bd 6b 7a 91 3e ea 4f 96 3e 34 92 b6 bd
       -0.06110837 0.2841371 0.29357845 -0.08914605

actor.2.weight f4 [64, 64]
000000 85 ee 1a be b2 44 1f 3e e2 01 f4 3e 98 b0 69 3e
       -0.1513005 0.15553549 0.47657686 0.22821271
000010 ba f5 00 be 41 21 88 3e ec 93 90 3e 72 83 b1 bd
       -0.12593737 0.2658787 0.28237855 -0.08667649
000020 85 cd 36 3e 5f 29 ed bd 37 32 e0 3d 99 6d 8a bd
       0.17851837 -0.115801565 0.10947078 -0.06759185
000030 e4 ee 92 3c 60 ba 80 3e c5 f7 38 3e 98 03 26 bd
       0.017936178 0.25142193 0.18063267 -0.04053077
000040 cf ee 82 b9 af 6a 1f 3e 32 c6 c7 3d 02 76 71 bd
       -0.00024973458 0.1556804 0.097546 -0.05895043
000050 9e 72 33 be bc 4d 78 3e 57 4c bb bd ee 7f 00 bd
       -0.17524192 0.24248403 -0.0914542 -0.031372003
000060 ae 8d c6 3d 3c 1a 4b bf c1 98 ea 3c bb 60 9f be
       0.09694992 -0.79336905 0.028637292 -0.31128487
000070 3c 94 7a be 07 02 de bc 81 4b 0d be 56 a1 44 be
       -0.2447061 -0.027100576 -0.13798334 -0.1920217
000080 70 c8 93 be 00 72 9f 3e d9 96 2d 3e 9c 73 ff be
       -0.2886386 0.31141663 0.16952075 -0.4989289
000090 ec 76 bb 3d 47 74 22 bd 82 02 c0 3e de 77 cb 3c
       0.09153542 -0.039661672 0.37501913 0.02483743
0000a0 f4 75 a5 3d 0a 21 14 3e fe 01 7c 3e 06 7b ae bc
       0.080791384 0.14465728 0.24610135 -0.021298897
0000b0 12 0f 0b bc c7 3d 5e bb a4 c7 36 be c6 0d 5a 3e
       -0.00848748 -0.0033911334 -0.17849594 0.21294317
0000c0 4a 20 5e be e1 7f c6 bd e3 4a 4e be 11 5d e4 be
       -0.21692005 -0.0969236 -0.20145755 -0.44602254
0000d0 6f 21 89 bc 38 65 d8 bc d3 b3 cf be 95 ff 27 3e
       -0.016739575 -0.026415452 -0.40566882 0.1640609
0000e0 0e 2f cc 39 e2 7f 3e be 3b f3 07 3e ba 27 f1 be
       0.0003894497 -0.18603471 0.13276379 -0.4710062
0000f0 ac 46 67 bc 0f 39 d3 3d e1 75 f3 3d 0d aa 29 be
       -0.014115971 0.103136174 0.11887718 -0.16568775
000100 d1 bf 05 3e 76 76 ae 3e 3b bb 54 3c 36 d2 2b 3e
       0.13061453 0.34074754 0.012984092 0.16779408
000110 50 f5 48 be dc 35 e1 bb f1 33 db 3c e2 2e fc 3d
       -0.1962483 -0.0068728756 0.026758166 0.1231363
000120 56 b0 1b 3d 3a 43 54 3e da 23 13 3d 79 ad 62 bd
       0.038009964 0.2072877 0.035922863 -0.055341218
000130 45 12 94 bd ca b1 8d 3e 83 64 eb 3d 1c 21 db bd
       -0.07230047 0.27674705 0.114937805 -0.106996745
000140 28 b3 ad bd 94 94 c3 bb 57 b7 a6 3d ce d6 17 bd
       -0.08481437 -0.0059686396 0.08140438 -0.037070088
000150 de f5 c2 3d 66 a1 b6 3d 80 50 dc bc 3b b0 97 3d
       0.09519552 0.08917503 -0.026893854 0.0740666
000160 b6 d0 3d 3d c9 1f 2f bc 08 2b 8f bd 5e 0f 1c bd
       0.04634162 -0.0106887305 -0.069906294 -0.038100593
000170 e0 6d 0e be da a4 c9 bc 0d 47 2f be ce cc 37 3e
       -0.13909101 -0.02461474 -0.17116947 0.1794922
000180 1b 6c 72 3e e3 32 66 3d af 43 6e be 2b 62 48 be
       0.23674051 0.056200873 -0.23268007 -0.19568698
000190 b4 e3 99 bc 97 7e 4e bd bb 61 a3 3d 87 53 06 3e
       -0.018785335 -0.050413694 0.07977625 0.131178
0001a0 87 56 8d be 2e d5 9e be 3b 26 5f bc 49 63 25 bd
       -0.27605078 -0.31022018 -0.013619955 -0.04037789
0001b0 86 34 9a 3d 35 8b 39 3d c8 c6 cf 3d 6c bd 16 be
       0.07529549 0.045298774 0.101453364 -0.14720696
0001c0 c3 ff a1 be c0 85 59 3d 98 aa 05 be 8b c3 b0 3e
       -0.31640443 0.05310607 -0.13053358 0.34524187
0001d0 59 66 0a bd 3b 93 15 bb ec 79 e9 3c e0 04 1e 3e
       -0.033789013 -0.0022823352 0.02850052 0.15431547
0001e0 c8 f4 6f 3d e7 38 a0 be 65 2b f7 3b 93 ad 77 3e
       0.05858305 -0.31293413 0.007543015 0.24187307
0001f0 5e a5 37 3e db 92 20 bc 32 51 0e 3e 4e 07 a9 be
       0.17934176 -0.009800638 0.13898161 -0.33013386
000200 e3 24 8e 3e 2b 95 52 bd 73 90 de be 6f 5c be be
       0.27762517 -0.05141179 -0.4346958 -0.37179896
000210 7e 28 85 3e 2a 94 a7 be f3 83 90 bd 01 d0 c5 bd
       0.26007456 -0.32730228 -0.07056417 -0.09658814
000220 63 4c bd bb cd a0 82 bc 08 ec 08 be ae 66 c3 3d
       -0.0057769283 -0.015945816 -0.13371289 0.09541069
000230 4a 4a 4c bb e2 33 e0 3d 53 cf 5e 3e ff 9a 2e 3e
       -0.003117221 0.10947396 0.21758775 0.17051314
000240 c2 7e 7e be 1b 2a b9 bd 3d e2 8b bc 26 49 63 bd
       -0.24853042 -0.09041234 -0.017075652 -0.05548968
000250 96 20 f6 bd 52 7c 55 3e cf 5f 8a 3e c4 71 cb bd
       -0.12017934 0.20848206 0.2702622 -0.099338084
000260 87 e7 26 3e fb f5 85 be b9 2b aa be 81 3a 22 bc
       0.16299258 -0.2616423 -0.33236483 -0.009901644
000270 ce b5 0a 3d c4 48 4d 3c b6 26 cb 3d 06 02 90 be
       0.03386479 0.012529556 0.09919493 -0.28126544
000280 3b fa 47 3e 68 86 65 3e 59 82 24 3c 6b 53 26 be
       0.19529049 0.22414553 0.010040843 -0.16242759
000290 91 51 96 be 19 06 94 be 88 b0 10 be 36 ec f8 bd
       -0.29359105 -0.28910902 -0.14129841 -0.12154429
0002a0 56 dd 84 bd 96 b8 19 be 8c 92 6a be 89 5f 7d bd
       -0.06487529 -0.1501182 -0.22907466 -0.061858688
0002b0 cd 31 7b 3e 1e 48 f8 3c d6 40 37 3e ae cf fc bd
       0.24530716 0.030307826 0.17895827 -0.12344299
0002c0 c7 e9 73 3e 45 df f2 3d 8b 60 12 3d 82 71 45 3e
       0.23819648 0.118589915 0.0357366 0.19281581
0002d0 be 53 1e 3e 1f 1a 55 be 65 0a bb 3d 56 2c 1e bd
       0.15461633 -0.20810746 0.09132842 -0.0386165
0002e0 46 fc 23 3e a0 84 69 bd 43 43 dd be 0d 4a 43 bd
       0.16014203 -0.057011247 -0.4321538 -0.047678042
0002f0 79 97 e8 3c c5 5b 9b bd d5 02 4c be 96 35 4f 3c
       0.02839254 -0.07585863 -0.19922955 0.012647053
000300 fd 7b 52 3d ee 3f 33 3d 40 1b 54 be 59 67 b3 be
       0.051387776 0.04376214 -0.2071352 -0.35039786
000310 21 a7 2a 3e 46 d9 88 3e 18 ed 2a 3e b3 c8 6c bd
       0.16665317 0.26728266 0.16692007 -0.05780859
000320 df af 40 3d 02 9e 93 3e 4a 59 82 bd ad e1 92 bd
       0.047042724 0.28831488 -0.06364687 -0.071719505
000330 ce b5 8a 3c 4a bb c6 bd 68 77 f3 bd 99 7d 63 bd
       0.016932394 -0.09703691 -0.11888009 -0.0555397
000340 0f 22 42 bc da 2a 63 3d f5 78 11 3e c8 41 42 3e
       -0.0118489405 0.05546079 0.14206298 0.18970406
000350 16 60 21 3e ed 11 5d bb 92 0c bc bd 1e 55 09 3e
       0.1575931 -0.0033732608 -0.09182085 0.13411376
000360 f5 a4 c0 be 04 de 29 3e 30 34 21 bd 50 1e 39 be
       -0.37625852 0.16588598 -0.03935641 -0.1807797
000370 15 cf 02 3d f3 d2 15 3e 6f 16 c1 3d 05 ee 80 bc
       0.03193577 0.14631252 0.09428107 -0.015738497
000380 5f 74 12 3e e8 96 25 be 17 e0 d8 bd 9f 03 2c be
       0.14302205 -0.16170847 -0.10589617 -0.16798256
000390 57 fd d0 3e bb 1a 32 3d 18 55 76 bc cf f7 11 3b
       0.40818283 0.043482523 -0.015034936 0.002227295
0003a0 39 d0 e2 3d 16 f4 b1 3a c7 e5 eb 3c 49 f0 59 3d
       0.110748716 0.0013576772 0.02879609 0.05320767
0003b0 22 4c 06 be df c8 e8 3c dd 6b 5b bd 98 a6 42 3e
       -0.1311498 0.028416095 -0.053569663 0.19008863
0003c0 2a 76 58 bd a3 0e d2 3d ee 94 2b be b5 8e d8 3d
       -0.052847065 0.10256698 -0.16756031 0.10574094
0003d0 bf 48 75 bd a1 e9 19 3d 46 75 3e 3e ba d1 d4 bb
       -0.05988383 0.03757632 0.18599424 -0.006494728
0003e0 ba 3b 2e 3e 74 7b de bd 1f 73 54 3d d4 61 1a 3e
       0.17014971 -0.108633906 0.0518676 0.15076381
0003f0 39 fd 7e 3d 27 38 4c bd c3 04 3d 3e f5 0d 15 3e
       0.06225321 -0.04985824 0.18458848 0.14556105

actor.2.bias f4 [64]
000000 c0 cf d2 be 0a 56 1f bd 49 71 f8 bd 26 5f 0c 3e
       -0.41174126 -0.038900413 -0.121309824 0.13708171
000010 c6 49 89 be 10 5e af be c3 df f9 bd 3e aa c6 be
       -0.26814097 -0.34251451 -0.12200882 -0.3880176
000020 0f 6b b1 bd 76 ff 64 be ae 97 be be e3 4e 8a be
       -0.08662998 -0.22363076 -0.37225097 -0.2701331
000030 35 ff 82 be d1 90 1e bc 09 1f 3f be 7c 7d ba bd
       -0.25585333 -0.009678082 -0.18664183 -0.091059655
000040 b5 74 9b be c1 28 17 bf 1c dd 5e be 2a ab a3 be
       -0.30362478 -0.5904656 -0.21764034 -0.31966525
000050 c3 f3 f4 be fd 44 82 be a4 cd 93 be 91 d0 60 bd
       -0.47842225 -0.2544326 -0.2886783 -0.054886404
000060 ed 44 b8 be ff 85 11 bf a5 13 c3 be 07 4f 54 be
       -0.35990086 -0.56845087 -0.38100925 -0.20733272
000070 75 a0 a0 bd 74 fb 95 be dc bc 69 3e f6 ca ce be
       -0.07843105 -0.29293406 0.2282595 -0.40389222
000080 8f 0c fe bd 50 02 39 be cf 83 0d bf a7 c8 e8 be
       -0.12404739 -0.18067288 -0.5527925 -0.45465586
000090 f8 b5 15 bf fd 9a db be e1 f8 19 be ac fb 57 be
       -0.5848079 -0.42891684 -0.15036346 -0.21092099
0000a0 75 89 fa be fe 56 a8 be ab d8 07 be 96 9c 19 bd
       -0.48932996 -0.3287887 -0.13266246 -0.037502848
0000b0 31 b7 75 be 9e 19 04 bf dc 20 53 bb db 94 10 be
       -0.23995663 -0.5160159 -0.003221563 -0.14119284
0000c0 85 e0 eb bc d5 b5 9b be fd 61 65 be d0 5b f0 be
       -0.028793583 -0.30412164 -0.22400661 -0.46945047
0000d0 69 c4 af be 34 61 7d be 1b 2c cb be df be bc be
       -0.34329537 -0.24744111 -0.39682087 -0.36864373
0000e0 d1 90 0b be 84 3b 92 be 36 08 7b be e2 8f e1 be
       -0.13629462 -0.28561032 -0.24514851 -0.44055086
0000f0 61 18 ac be 55 cb 7a be 6b 36 6b be 8a 22 45 3d
       -0.3361235 -0.24491628 -0.22969978 0.048128642

actor.4.weight f4 [7, 64]
000000 f0 40 97 3d 28 03 38 bb 2a 7b 46 bd 35 b2 72 3c
       0.07385433 -0.0028078053 -0.048457302 0.014812996
000010 42 26 8d 3d 3f 37 16 bd eb 11 f3 bb bd 90 80 bb
       0.06892063 -0.03667378 -0.0074179075 -0.003923504
000020 fe 4a d2 3c f3 9d 32 bc 35 b9 35 3d 3c 48 91 3d
       0.025670525 -0.010901916 0.04436608 0.07093856
000030 25 0a d0 bc e1 35 35 3c 79 45 8e 3c bf eb 9e bc
       -0.025395462 0.011060209 0.017367112 -0.019399522
000040 ff 73 a0 3d 1d 91 c6 bd a5 f3 b8 bc 60 8c 32 bd
       0.078346245 -0.09695647 -0.022577116 -0.043590903
000050 17 10 25 bb 48 b6 08 3d e0 47 f6 3c f4 0d 19 3e
       -0.0025186592 0.033376962 0.03006357 0.14946729
000060 a1 ff 76 bc 2c e2 ee 3d fd 3e 0a 3d 4f 9c db bc
       -0.015075595 0.116642326 0.033751477 -0.026807932
000070 6b 14 8c bd aa 57 3b 3d eb 53 01 bd 5a 54 31 3e
       -0.06839832 0.0457379 -0.03157417 0.17317334
000080 29 d1 56 3e d8 93 8a bd e0 6e 7f ba 71 f3 41 3c
       0.20978226 -0.0676648 -0.00097439997 0.011837826
000090 46 6a 9e bd 6a 22 ed bc 73 be 05 be e2 58 e6 3d
       -0.07735114 -0.028947074 -0.13060932 0.11247422
0000a0 ff ce be 3d 1d ae 0f 3e 3e 17 ee bd d4 4e 96 3b
       0.09316825 0.14031263 -0.11625527 0.0045870338
0000b0 0a 41 f2 bd 19 99 fb 3d 11 d7 36 3d 79 8d 37 bc
       -0.118288115 0.122850604 0.044638697 -0.011203163
0000c0 1d 50 18 3d 49 b2 b7 bc 00 ab cf 3d de 2d 68 bd
       0.037185777 -0.02242388 0.101400375 -0.056684367
0000d0 64 ac a6 3d 8a 20 84 bd 8e b5 48 3d f9 e5 5c 3d
       0.0813835 -0.06451519 0.04900127 0.053930257
0000e0 76 34 95 bd 3d 24 65 bd c8 00 69 3d 8f 11 db bb
       -0.07285397 -0.055942763 0.05688551 -0.0066854428
0000f0 f3 e3 6d 3e dc 07 0d 3e 7e a3 a9 3d 60 dc b8 bd
       0.23231487 0.1377253 0.08283137 -0.09026408
000100 87 3c c6 bc 93 ef 17 bd df 4a 2d 3c 4b 1c f9 3b
       -0.024198784 -0.03709371 0.010576933 0.0076022497
000110 12 d4 79 3d f0 f1 76 3d e7 9f 83 3b 21 88 5d 3d
       0.06099326 0.060289323 0.0040168646 0.0540849
000120 00 26 25 bc 54 c4 83 3d dc 14 aa bd f9 da 46 bd
       -0.010079861 0.06433931 -0.0830476 -0.048548672
000130 30 e8 84 bc 5e 5f d5 3c 60 79 46 bd f7 da eb bc
       -0.016223997 0.026046451 -0.048455596 -0.028790934
000140 0b 82 55 bd 9f c8 36 be 45 4d 8c bd 0d d0 15 3d
       -0.05212597 -0.17849968 -0.068506755 0.036575366
000150 00 95 02 be 79 1d ab bd 2d 81 4f 3c f1 1b ee bc
       -0.12752151 -0.08355231 0.012665075 -0.029066058
000160 75 1f 16 3c c3 ce 08 bb 1d 0a 85 bd 9f 94 b7 3c
       0.009162773 -0.0020875193 -0.064960696 0.022409735
000170 35 c3 5a 3d 7d 70 2d bb b2 b7 1a 3d 48 70 2a 3d
       0.05340882 -0.0026464753 0.03777284 0.041610986
000180 2e ec 41 3e 80 73 1b 3b 0d ee 63 be a5 b1 42 bd
       0.18937752 0.0023719966 -0.22258778 -0.047532696
000190 da 27 34 bd 98 fc 1b bd 0a 43 16 bd 70 4d 40 3d
       -0.043983318 -0.03808269 -0.036685027 0.04694885
0001a0 14 ad 30 bd 7b f0 20 be 1e 8c 1c 3c d3 6c 8c 3d
       -0.04313381 -0.15716736 0.009554891 0.06856694
0001b0 9b 6a 8f bc 33 7f c7 bd 4f 74 04 3c a5 ad 8d bb
       -0.017506888 -0.09741058 0.008084371 -0.0043236786
0001c0 bc ed 30 3d 26 c5 76 bc 6b 48 46 3d 37 2a 94 3c
       0.04319547 -0.015061652 0.048408907 0.018086536
0001d0 e9 b4 36 3d ee 39 08 be 36 de 06 3d fd 87 b1 bd
       0.044606123 -0.13303348 0.03292676 -0.08668516
0001e0 f0 67 88 3d 12 74 5e bd a8 30 bf bc af 2d 3d bc
       0.066604495 -0.054309912 -0.02333863 -0.011546536
0001f0 3b b1 e8 3c 29 a1 e5 bc 7f b7 93 3c 5d 84 23 3d
       0.028404823 -0.028030949 0.018031834 0.039921153
000200 61 7e 59 3e 6a 0b 01 bd 9d 40 c3 3c ad 3c b4 bc
       0.21239616 -0.031505026 0.023834521 -0.022001589
000210 2e 48 66 bd a0 bf f7 bc 74 49 be 3c 86 4c 65 bc
       -0.05622118 -0.030242741 0.023228385 -0.013995295
000220 dc 23 c0 39 ca c9 13 3d 19 32 78 bd 4b df 49 bd
       0.0003664781 0.036081113 -0.06059465 -0.049285214
000230 f6 ce 7b bd c8 af 26 3b 26 ae 3b be 8f b2 2c bd
       -0.06147667 0.0025434364 -0.18328151 -0.042162474
000240 fa 82 2b be 01 c1 78 3c 6d 5c 1f bb f2 db 14 3d
       -0.16749182 0.0151827345 -0.0024316565 0.03634257
000250 48 e6 db 3c 2d 0b e8 bd 61 0e 9f bd ab 46 9a 3d
       0.026843205 -0.113302566 -0.077664144 0.0753301
000260 8b 7a 56 bd 7f 8a fe 3d 6e d0 e0 3c cb 8b 8b 3c
       -0.05236296 0.1242876 0.027443137 0.017034432
000270 f3 a0 2b 3d 69 ca f5 bd a6 32 d9 3c 75 e3 58 3e
       0.04190154 -0.12001497 0.026513409 0.21180518
000280 5b 33 8f bc fc fb f0 bd c8 83 b7 3c 4b d6 c5 bd
       -0.017480543 -0.11766812 0.022401705 -0.09660014
000290 59 ce 00 bd 00 15 bc bd 9f 59 96 bd ae 22 44 3d
       -0.03144679 -0.09183693 -0.073413126 0.047884636
0002a0 82 3d 9d 3d 32 45 52 3e 31 fa d8 bd 2c fd b4 bc
       0.07677747 0.20534208 -0.10594595 -0.022093378
0002b0 3e 91 de 3d ec eb 26 3e 68 2d 71 3d 15 46 16 3d
       0.108675465 0.16300935 0.058881193 0.03668793
0002c0 3e 00 54 3d 30 ac e7 bd b3 5d 81 3d 4f ff 72 3d
       0.051758043 -0.11312139 0.063167 0.059325512
0002d0 f6 e7 b6 bd ee 11 26 be f9 f3 11 bc 6c ec 34 3e
       -0.08930962 -0.16217777 -0.008908265 0.17668313
0002e0 44 80 29 bd 96 13 a1 3d e8 c8 5f 3d 6e 06 2c be
       -0.04138209 0.07865064 0.05463496 -0.16799328
0002f0 38 80 09 3e f6 70 9c 3e 4a a5 4e bc a6 f1 d8 3c
       0.13427818 0.30554932 -0.01261265 0.026482414
000300 c8 07 15 be ff 03 f7 3c 71 12 cc bc 8e 04 3e 3d
       -0.1455375 0.030153273 -0.024911137 0.046391062
000310 aa 5c b6 bd 07 ce 98 bc 6e e9 16 3e a8 a8 a4 3d
       -0.08904393 -0.018652929 0.14737484 0.08039981
000320 95 9c 3e 3d 31 b4 28 bd 3a 52 19 3d 64 11 d2 3c
       0.046536047 -0.04118747 0.037431933 0.025643058
000330 c1 74 f4 3b a4 cf ff 3b 87 e7 a9 be 1c b4 17 3b
       0.007460207 0.007806735 -0.33184454 0.0023148125
000340 1a 59 1a bb d0 93 43 bd ab 2d db bc 57 57 e8 3d
       -0.0023551644 -0.047748387 -0.026755175 0.11344784
000350 6f 7d 82 3c af 4e 9b 3b 51 61 d8 3d 0e 10 91 3d
       0.015928952 0.0047396044 0.10565437 0.0708314
000360 fb fc 01 bd 66 ed 03 3d 77 1b 13 3e dd b7 87 3d
       -0.0317354 0.032208823 0.14365946 0.06626866
000370 1f 6f a3 bd 45 2a b0 3d ed 77 66 3d 9c c6 a7 3c
       -0.07980179 0.08601812 0.056266714 0.020480447
000380 76 90 1b be 3e 6f fa bb 87 83 93 bd ee b0 4a be
       -0.15191826 -0.0076426556 -0.07202821 -0.19794056
000390 56 3a 40 3e 6e 0d f0 bc f5 51 a7 bd 42 f5 44 bb
       0.18772253 -0.029303279 -0.08169929 -0.0030053412
0003a0 b1 a4 16 be bb 57 8d bd 3d 9d ce bd 28 3b 14 3c
       -0.14711262 -0.06901499 -0.100885846 0.009047307
0003b0 f2 7d 37 bd 29 1e 19 be de 27 06 bd 48 8e 94 3d
       -0.044797845 -0.14952911 -0.032752864 0.072537005
0003c0 e5 1e 46 bd 23 64 ae bd 66 49 73 bd 17 5d 36 3c
       -0.048369307 -0.08515193 -0.05939617 0.011130593
0003d0 29 ce 2f 3d e6 79 65 3d 18 f7 3d be ce 68 ad 3b
       0.04292122 0.056024455 -0.1855129 0.0052920347
0003e0 eb de b7 bd 43 1c 89 3b 17 d9 87 bc 8f 03 65 be
       -0.08978065 0.0041842773 -0.016583009 -0.22364639
0003f0 61 c4 19 3c e4 0b 34 3e 1d ba a9 bc fd 7f 17 3d
       0.009385199 0.17582661 -0.020718629 0.036987294

actor.4.bias f4 [7]
000000 bb 96 d5 3c b9 e5 40 3e 8c a6 2c be 21 8c 2c 3e
       0.02607285 0.18837632 -0.16860408 0.1685033
000010 df 2f 58 3e 82 b3 a4 be 73 c1 02 3e
       0.21112011 -0.32168204 0.12769108

critic.0.weight f4 [64, 32]
000000 fd b4 70 be a6 b7 3c be 34 cf 65 be 64 9b a0 3e
       -0.23506542 -0.18429431 -0.22442323 0.31368554
000010 f7 e9 20 be a6 5d a0 3d fe 4b 9b be 66 ca 0b 3e
       -0.1571425 0.07830362 -0.30331415 0.13651428
000020 aa eb 36 3d 6a 0d 03 3d 9c 07 c4 3d 5b 43 1f 3d
       0.04465834 0.031995215 0.09571764 0.038882595
000030 05 b3 ff bc 5b 1a ac bc 17 a5 d1 3a aa 37 39 bd
       -0.031213293 -0.021008661 0.0015994635 -0.0452191
000040 08 34 fc bd 38 ea f2 bd 8b 6a 66 3e f6 f8 87 3f
       -0.12314612 -0.1186108 0.2250158 1.0622852
000050 b7 b8 4b 3f 8f ef 34 3d 6f c2 4f be cd 31 21 bf
       0.7957873 0.044173773 -0.20289014 -0.62966615
000060 6a 84 fd bd 47 1f 90 3c 5e 57 f8 bd 9e 62 27 be
       -0.123787716 0.01759304 -0.12126039 -0.16346213
000070 af f6 49 bd 9a f4 c8 bd 3c 1b e6 3c 03 00 12 bd
       -0.04930752 -0.09812279 0.028089158 -0.035644542
000080 65 77 52 bd 5a f9 df 3e ca 58 80 bc 1c 3b 34 3e
       -0.051383395 0.43744928 -0.015667338 0.17600673
000090 e9 59 58 3d f6 9c 32 be 33 79 c7 3d b4 14 85 3c
       0.05282012 -0.17442688 0.09739914 0.016245224
0000a0 50 35 53 3c 2e d0 ba 3c f8 73 0e 3e 73 ca b4 3c
       0.012891129 0.022804346 0.13911426 0.022069192
0000b0 c5 f0 d4 bc 8a c5 38 bd 61 5b b7 3c 32 93 95 bc
       -0.025993714 -0.045110263 0.02238244 -0.018258665
0000c0 ef 45 40 bf d4 a7 0f bf db a2 74 3e 8f 38 94 bf
       -0.7510671 -0.5611546 0.2389025 -1.157976
0000d0 5e d0 84 bf 2b a3 8d 3d 69 83 c5 3e 33 3b 3d 3d
       -1.0376089 0.069158874 0.3857682 0.046199035
0000e0 44 a6 1c bc 5a 30 b7 bd 52 c5 55 bd 36 e6 ce bc
       -0.009561125 -0.08944769 -0.052190132 -0.025256258
0000f0 73 40 10 3d 08 2c a7 3d c7 2e 02 be eb 8b a8 3c
       0.035217714 0.08162695 -0.12713157 0.02057453
000100 f1 06 90 bc 27 03 e8 3d ce c8 01 bd 80 90 a3 bd
       -0.017581435 0.11328726 -0.031685643 -0.079865456
000110 03 de 26 3e de a5 4a bd b8 fe 16 be f0 47 77 3a
       0.16295628 -0.04947459 -0.14745605 0.0009433022
000120 8a 0f 81 3d 4a c5 a0 bd 8f 70 ae bd 97 d9 ad bd
       0.06301792 -0.0785013 -0.085175626 -0.084887676
000130 1a 84 6a bd b2 a5 80 3d ae 93 e9 3b d4 dc 89 3c
       -0.057254888 0.06281604 0.0071282005 0.016828932
000140 8c b0 52 3e cd d9 e5 3c 9f 51 22 bf 30 d8 e6 be
       0.2057516 0.028057957 -0.63405794 -0.45086813
000150 d9 3b ab 3e a4 4a 60 3d 6d 76 b2 3c fe 9b 49 be
       0.33444098 0.054758683 0.021784985 -0.19688413
000160 a4 e8 b3 bd 6c 32 8c 3d 88 5d 63 3d f9 1f 9d 3b
       -0.08784607 0.06845555 0.05550912 0.004795071
000170 e6 f4 83 3d 20 a4 c2 bd 99 35 83 3d 77 44 44 3c
       0.06443195 -0.095039606 0.06406707 0.011979214
000180 13 a9 23 be 18 b1 09 3d e9 80 35 be bd f5 da be
       -0.15982465 0.033616155 -0.17724957 -0.42765608
000190 e2 32 90 bb 5c 91 40 3e b7 a6 11 3d dd 51 81 3e
       -0.004400597 0.1880545 0.035559382 0.2525777
0001a0 f9 83 c1 3d a6 dc 14 be 39 49 69 bd 36 04 11 be
       0.09449 -0.14537296 -0.056954596 -0.14161763
0001b0 03 f4 20 be 3c 2f ad 3b 26 ae 13 3b de 04 95 bd
       -0.15718083 0.005285172 0.002253422 -0.07276319
0001c0 3d 4c 94 be 29 db 4c bd 2f 01 ae be 9a a9 2f be
       -0.28964415 -0.050013695 -0.33985278 -0.17154542
0001d0 c4 33 13 be 14 c5 fd bd 01 b4 8a bf 96 f5 3c 3e
       -0.14375216 -0.12391105 -1.0836183 0.18453059
0001e0 4c 40 25 3e f6 9b 36 3b 01 dd c8 3c 83 3b 0f bd
       0.16137809 0.0027863956 0.024519445 -0.034968864
0001f0 75 12 11 be da 10 6e bd 52 f1 b7 3d ed 54 1f 3d
       -0.14167197 -0.05812154 0.08981575 0.03889935
000200 82 04 9d be 77 c5 f7 bc e0 5e 4b be 38 0f 6d 3e
       -0.30667502 -0.030245526 -0.1986041 0.23150337
000210 c3 7f c6 3e a9 a9 c1 3d 0b 81 76 3e 15 85 8d 3d
       0.3876935 0.09456188 0.24072663 0.06910149
000220 51 a1 ec 38 6a c9 1e bd c2 a4 ac bc 91 86 05 bc
       0.000112834045 -0.038766302 -0.021074656 -0.008149759
000230 13 e0 ca bc 15 65 22 3c 40 1c c5 bb 71 9a 13 bd
       -0.02476505 0.009911795 -0.0060153306 -0.03603596
000240 82 23 13 be 15 95 46 be c6 9a d2 3e 49 d8 b4 bd
       -0.14369014 -0.19392808 0.41133708 -0.088303156
000250 e8 25 38 be 17 04 24 3d 14 77 21 bf 08 14 aa 3e
       -0.1798321 0.040042963 -0.63072324 0.33218408
000260 de 4b 11 be 83 87 70 bc 21 67 8d 3d f5 94 ae bd
       -0.14189097 -0.014680746 0.06904436 -0.08524505
000270 95 dc 5f 3b 3e db b5 bc 73 58 08 bd 85 0f 7d 3d
       0.0034158577 -0.02219927 -0.033287477 0.06178238
000280 f1 f3 8b bd 88 9f a4 bd ee a0 3b be c3 28 d8 bd
       -0.068336375 -0.08038241 -0.18323109 -0.1055465
000290 f6 b7 5f 3d ae cb 2a 3e 27 2f 58 bd e1 14 51 bd
       0.0546188 0.1667926 -0.052779343 -0.051045302
0002a0 b2 4d fb 3d df cd 9a 3d f8 d3 46 3e 92 20 b4 3d
       0.122706786 0.07558798 0.19416797 0.08795275
0002b0 9b 16 2b be 17 5c 87 bc 5b da e4 3c 1a bb 3a bd
       -0.16707842 -0.016523404 0.027936151 -0.04558859
0002c0 f2 e0 32 bd c9 ee a0 be d4 4d f1 be 72 bd 01 bf
       -0.043671556 -0.3143218 -0.4712969 -0.50679696
0002d0 8e 8e db be 05 d1 1a be a6 37 14 3f a5 3a f3 3e
       -0.42882198 -0.15118797 0.5789741 0.4750568
0002e0 6d b0 91 3d 0a 7f ae 3c cb 97 27 3d ba cd 5c 3d
       0.07113729 0.021300811 0.040916245 0.053907134
0002f0 9e 32 8d 3c 46 9d 55 3c b7 8c 20 3d f6 30 b9 bd
       0.01723605 0.013037985 0.039196696 -0.09042542
000300 1c 60 3a 3e 8c de b1 3e 16 92 fb 3d d5 ed b7 bd
       0.18200725 0.34740102 0.12283723 -0.0898091
000310 1d a8 f1 bc d2 00 30 3d cf c9 d4 bd 33 fa 14 be
       -0.029499108 0.042969532 -0.103900544 -0.14548568
000320 bb c5 28 3d b2 ee 4f 3d d1 a5 fe 3c 88 87 0e 3d
       0.041204195 0.050764747 0.031084927 0.03479722
000330 91 23 13 bd 2b 99 da ba de c9 49 3c 2c 9b 8d bc
       -0.03592259 -0.0016677728 0.012316195 -0.017285906
000340 3d e7 4a 3d 91 1f 4b be 8d ae 89 3e c2 27 40 c0
       0.049536932 -0.1983626 0.26890984 -3.0024266
000350 ab cf 12 be 6c 01 11 3e 3d 83 53 bf 41 08 61 3e
       -0.14337032 0.14160699 -0.8262213 0.21975805
000360 60 94 1e bd e0 5e 87 bd 8d 11 64 3d 69 8f 6e 3d
       -0.03871572 -0.06609893 0.0556808 0.058242235
000370 bc 57 30 ba 3e 2a b7 39 16 f9 11 3d d3 a5 f5 3b
       -0.00067269406 0.00034935953 0.035637937 0.0074965744
000380 87 95 56 3d 20 fa 9f 3d 39 7e d0 bd ec 60 89 be
       0.052388694 0.078113794 -0.10180325 -0.26831758
000390 32 88 60 be f0 5e 6a be 9b 12 29 be f8 48 20 3e
       -0.21926954 -0.22887778 -0.16511004 0.15652835
0003a0 cf 7b c4 3d dc ae db bb 7a 33 1a 3d 3c d6 98 bc
       0.09593927 -0.0067041945 0.037646748 -0.018656842
0003b0 95 a0 2a bd da c5 c5 bb 93 2b ad 3c a7 84 91 bb
       -0.04165705 -0.0060355486 0.021138942 -0.004440862
0003c0 24 be 2a bd 38 fc 16 3d 04 64 16 3d b0 4e c0 3e
       -0.04168524 0.03686163 0.036716476 0.37560034
0003d0 d5 bb 07 be e0 4c 02 3e 01 ce 09 bf f5 75 e8 bd
       -0.13255246 0.12724638 -0.5382996 -0.113506235
0003e0 c5 e7 07 3e 7a 04 91 bd b3 3e 3e bd db e7 05 be
       0.13272007 -0.07080932 -0.046446513 -0.13076727
0003f0 f2 ba 22 bc ef 2b 50 bd 3d 99 b4 bc 70 18 62 bd
       -0.009932267 -0.05082315 -0.022045726 -0.055199087

critic.0.bias f4 [64]
000000 aa 4d ff 3d 9d cf 98 be a3 46 09 3e 27 4d 11 be
       0.12465985 -0.29845896 0.13405852 -0.14189588
000010 e0 9b 1d bb 8a 57 0f be c4 23 0b bc ae d8 8d 3d
       -0.0024049208 -0.13998237 -0.008492414 0.06926094
000020 2c 20 48 3d 1d 14 ad 3e 18 13 d6 3e ab d3 1e be
       0.048858806 0.33804408 0.41811442 -0.15510432
000030 16 3c 30 be 6e f8 0a be cf 8a a6 3e c3 73 3b 3e
       -0.17210421 -0.13571331 0.32527778 0.18305878
000040 12 8c 97 bc a7 61 ab bd 92 f3 b9 3d 0f c7 06 3f
       -0.018499408 -0.08368235 0.090796605 0.5264749
000050 05 64 1a 3f 8e 14 14 be 1b da f1 3d f3 87 17 3d
       0.6030887 -0.14460966 0.118091784 0.036994886
000060 f1 67 24 3e e4 52 90 bd 4f 3b c9 3c 19 bd 89 3e
       0.16055275 -0.0704706 0.024564413 0.26902083
000070 d7 11 2c 3e 5d 65 91 bd d1 1d ee bd 21 36 c2 3e
       0.1680368 -0.07099412 -0.11626781 0.37931922
000080 11 13 b6 bd 31 65 1d be 70 de 99 bd 8f 1f c1 bd
       -0.088903554 -0.15370633 -0.0751313 -0.094298474
000090 31 ff 31 3e 48 f1 e4 3e b0 dc c9 bd 55 22 24 3e
       0.17382504 0.44715333 -0.09856546 0.16028722
0000a0 2f 02 c1 3c 2c 3e 73 3d e8 97 a7 3e 67 97 86 be
       0.023560612 0.059385464 0.32733083 -0.26287386
0000b0 df f4 9e be 4e b3 97 3e 16 5a 90 be 27 db 60 be
       -0.31046197 0.29628986 -0.2819373 -0.219586
0000c0 1a a3 82 3e f0 58 92 bd 77 72 a7 be 47 32 88 be
       0.25515062 -0.0714587 -0.32704517 -0.2660086
0000d0 c3 43 80 3e 38 dd cc bd 65 d4 c6 bd 41 55 b2 be
       0.25051698 -0.10003132 -0.0970848 -0.3483067
0000e0 6f 28 5e 3e 26 b0 08 be 64 5d 87 be 8f 64 43 3e
       0.21695112 -0.13348445 -0.2643844 0.19081329
0000f0 4c da a2 3d ca 25 a3 3d dc c3 cd 3d 8b e0 08 bc
       0.07951793 0.07966192 0.10047123 -0.008354316

critic.2.weight f4 [64, 64]
000000 95 53 9a bd a4 b8 2b bd a4 bd ae 3c 18 c0 2d bd
       -0.07535473 -0.041924134 0.021330662 -0.042419523
000010 92 0b b1 bc 0e 1d c5 3d a1 07 10 3e 53 d4 9a bd
       -0.021611962 0.09624682 0.1406541 -0.07560029
000020 ab ca 27 be 96 59 02 bf b8 1b d7 be 1f 20 d1 3e
       -0.16385905 -0.5091795 -0.42013335 0.4084482
000030 23 c5 df 3d 97 d3 be 3e 40 6a a7 be 73 ed a9 3d
       0.10926273 0.37270805 -0.3269825 0.08297243
000040 9b 04 f7 bd 4e 28 27 3f 6f 58 2b bf 75 8f 15 bf
       -0.12061425 0.65295875 -0.66931814 -0.58422023
000050 a9 67 86 bf 01 e9 22 3f 81 69 84 bd a9 0f 85 be
       -1.0500385 0.63636786 -0.06465436 -0.2598851
000060 a9 25 c4 bd 17 67 93 3e 5a 96 2b 3e 53 60 88 be
       -0.095774956 0.2878959 0.16756573 -0.2663599
000070 75 6b e8 bd d9 69 68 3e ff 0d 68 3e dd 1a 98 be
       -0.11348621 0.22696628 0.22661589 -0.29707995
000080 64 55 2a b9 0c c0 75 3d c7 34 f0 3d 55 93 8f bc
       -0.00016244274 0.059997603 0.117288165 -0.017526308
000090 0b 07 8e be 24 c2 24 bf fb f4 a0 ba f0 32 85 be
       -0.27739748 -0.64358735 -0.0012280041 -0.26015425
0000a0 3b f9 1e 3d c2 82 71 3e 4f 9d 11 be e4 a0 44 3e
       0.038811903 0.23585036 -0.14220165 0.19202
0000b0 9a 1d 26 3e 7c e7 a9 be 06 f6 8e 3e 3f cc 14 3f
       0.1622223 -0.3318442 0.27922076 0.58124155
0000c0 21 5a 0f bf 04 b2 da 39 78 a5 6f bc f9 82 1e 3f
       -0.559969 0.00041712832 -0.014626853 0.619186
0000d0 7b 2b 5e be 56 2c 58 bd 76 f5 a7 bd 2e b6 29 3e
       -0.21696274 -0.052776657 -0.08201115 0.16573402
0000e0 85 d9 a5 be f3 4e dd 3c fa ef b7 3d 2a dc d3 bc
       -0.32392517 0.027015185 0.08981319 -0.025861818
0000f0 69 81 48 be 67 e7 30 be 8d 4d c5 bd 00 30 03 be
       -0.19580616 -0.17275773 -0.09633932 -0.1281128
000100 7b 1a 7f bd ad 26 43 bd 10 ef 31 3d be 62 44 3d
       -0.062281113 -0.047644306 0.04344088 0.04794573
000110 d3 72 19 bc 13 fc 8f 3d 16 7a bd 3b 6c 92 60 bd
       -0.009365755 0.07030501 0.005782376 -0.05482714
000120 a6 7c 3d be 84 8b 67 bc cb b0 d6 3d db 9c 00 3e
       -0.18504581 -0.014132384 0.10482939 0.12559836
000130 e4 8a 02 3e 4b 9a 4a bd ef 9d b1 3d 92 b3 df 3b
       0.12748295 -0.04946355 0.086727016 0.0068268264
000140 ce 2d df 3d 20 92 2f bd f5 9e f8 3c 55 f7 89 bd
       0.108974084 -0.042863965 0.030349234 -0.06736628
000150 d6 2b 9a 3c c3 b1 8f 3d 93 f4 2d bd 5e 85 7a 3c
       0.01881973 0.07016327 -0.042469572 0.015290586
000160 29 86 cd 3d c1 54 f8 3d 4a 0e 7b 3d f4 ad 0e 3d
       0.10035355 0.121255405 0.061292924 0.034833863
000170 a5 b8 02 3e 1b 75 02 be df f7 51 3d a9 0b fa 3d
       0.12765749 -0.12739985 0.05126178 0.12209255
000180 f9 48 7b 3d 83 03 1c be be 6c 5d 3d df 2a 0d be
       0.06134889 -0.15235715 0.054058783 -0.13785885
000190 ab b2 f6 bd 1f 25 41 bd 88 1d c3 3d 26 98 fb 3d
       -0.12045797 -0.047154542 0.09527117 0.122848794
0001a0 4c 8b 2e 3c 53 7a ed 3c 3c f7 5b bc af 6f 0e 3e
       0.010653328 0.028988993 -0.0134256445 0.13909791
0001b0 45 8a cb 3c 5d d2 c5 bd f1 eb 00 bd 87 e2 ff 3c
       0.024846205 -0.09659264 -0.03147501 0.031235946
0001c0 f8 ad bd 3c 7b 9c b0 3c d2 1b 93 3d 43 3f 0a 3c
       0.023154244 0.02155899 0.07183041 0.008437934
0001d0 f0 9d af bd b1 93 12 be 09 c2 86 3b d4 a8 88 bd
       -0.08575046 -0.14314152 0.0041124863 -0.066728264
0001e0 f5 c1 8b 3d 3e e8 2c 3b d9 8f 85 3d 26 6f 6b 3d
       0.06824104 0.0026383544 0.065215774 0.057479046
0001f0 bf 7e 24 3d 8e 96 62 3d 1f 56 ca 3d 79 a1 b9 3d
       0.040159937 0.05531936 0.098797075 0.090640016
000200 5b cc 96 3d 92 92 be 3c 02 3b a4 3c 40 27 c3 bd
       0.073631965 0.02326325 0.020047668 -0.09528971
000210 c5 58 86 3d c7 de 3e bb b1 2d 9e bd 91 ee d7 3d
       0.065599 -0.0029124485 -0.07723559 0.1054355
000220 b3 df fc bb 05 57 c2 3c d1 a0 8d bd b9 bc 85 bc
       -0.0077170967 0.023723135 -0.06915439 -0.016325342
000230 d7 6a 1a be d8 1f d6 3b 97 14 1f bc 7e 77 b9 3d
       -0.15079819 0.006534558 -0.009709499 0.090559945
000240 fd 1b 80 3d 2a e6 39 3e 7c 8f 05 3d f6 46 31 bd
       0.06255338 0.18154207 0.03260754 -0.043280564
000250 af 6d 76 ba 3d 15 c0 bd 94 aa 12 bc 9b 57 b4 bd
       -0.00094004994 -0.09379051 -0.008951802 -0.08805772
000260 a4 de cf bc 4a 8c 10 3e 09 76 c0 ba fd 76 a7 bd
       -0.025374718 0.14116016 -0.0014683615 -0.08176992
000270 18 69 fb bc ef be 09 3e a3 80 97 3d e3 ec 9a bd
       -0.030689761 0.13451742 0.073975824 -0.07564714
000280 86 bf 01 bc ac b5 a1 bd 75 81 bd 3d eb 0d f9 bc
       -0.007919198 -0.07895979 0.092532076 -0.030402144
000290 e8 d8 90 3d aa f1 96 3d d7 a3 1f 3d 14 8e a5 39
       0.070726216 0.073703125 0.03897461 0.0003157711
0002a0 18 08 77 bd 23 b2 66 bd b9 93 49 3c ca f8 f3 bc
       -0.060310453 -0.05632223 0.012303286 -0.029781718
0002b0 8e 90 c1 bd 27 c0 f4 bc 23 fb 02 be 4f 4c 80 bd
       -0.094514 -0.029876782 -0.12791114 -0.06264555
0002c0 e3 e7 7b bd 23 01 e5 3d d7 84 df 3d 65 96 a7 bd
       -0.06150044 0.111818574 0.10914009 -0.08182982
0002d0 b1 f6 a4 3d 33 d2 b0 3d f4 30 07 3e c4 7b ab 3d
       0.08054865 0.08633842 0.13202268 0.08373216
0002e0 ac ca 6b 3d cd b1 df 3c 79 62 11 3d 6f 7d 19 3c
       0.05756633 0.027306462 0.0354943 0.009368285
0002f0 03 2e 02 3e 2b 29 a0 3d cb 5b 7c 3d 07 ea 8a ba
       0.12712865 0.07820352 0.061610978 -0.001059831
000300 99 15 d4 ba aa e7 26 3d ef c5 42 bd 03 20 86 bc
       -0.0016180753 0.040748276 -0.047552045 -0.016372686
000310 d2 98 aa bc 47 b0 e2 bd a8 85 69 3d c2 a7 ac 3d
       -0.020824824 -0.110687785 0.05701223 0.08430435
000320 6e 95 0b bd f6 96 e0 3d 22 ff 29 bd 6e a1 8a 3d
       -0.034078054 0.109662935 -0.04150308 0.067690715
000330 6c cc 3a bd 08 b2 a5 bd ac 3d 9b 3d ea f2 88 3d
       -0.04560511 -0.080905974 0.07580122 0.06686957
000340 95 98 1c bc 29 84 bf 39 2b 02 63 bc a2 32 46 3e
       -0.009557863 0.00036528826 -0.013855497 0.19355252
000350 8e 91 f6 bc 39 6e 2d 3e df 01 7f 3d 44 0f 95 3d
       -0.030098703 0.16936578 0.062257644 0.07278302
000360 a8 9b 9c bc 6d ce 3b be f5 b4 0e 3c e2 0c b3 bd
       -0.019117191 -0.18340464 0.008710136 -0.087426916
000370 d7 db a4 bd 96 fb 29 bb 09 f9 92 bd 60 53 11 3e
       -0.080497436 -0.002593731 -0.07176406 0.14191961
000380 54 b1 82 bc 0f 99 21 bd 06 4a d5 bb a8 85 cb 3c
       -0.015953697 -0.03945261 -0.0065090684 0.024844006
000390 55 b7 27 3d d1 8c 9a bd 09 a8 1a bc 3e 19 ae bc
       0.040946323 -0.0754639 -0.009439477 -0.02125227
0003a0 e7 8b 3f 3e 9c 53 d8 bc 0c 0e 16 3d 6b dc 4b 3d
       0.18705712 -0.026407056 0.03663449 0.049770754
0003b0 df 15 84 3c 1a 55 fd bc 91 91 2d bd 12 3d 7a 3d
       0.01612371 -0.030924369 -0.04237515 0.061093397
0003c0 14 46 c8 bd 04 dd 11 3e e6 a5 9e 3d cd 25 52 bb
       -0.09778991 0.14244467 0.07746486 -0.0032065988
0003d0 31 4d f7 bd e2 fc c4 bc 9b 91 a4 bc d2 f2 54 bd
       -0.1207527 -0.024046365 -0.020088961 -0.051989384
0003e0 76 51 d6 3d 2b 70 fc 3b 2a d6 1f bc c6 43 e3 3d
       0.10464756 0.007703801 -0.009755651 0.11096911
0003f0 d9 04 1e 3c 89 cd 29 bd b2 bc e6 bc 1e dc a3 bd
       0.00964471 -0.04145578 -0.028166149 -0.080009684

critic.2.bias f4 [64]
000000 61 ba 1d 3c 31 3e a6 bd a4 41 3f 3b 29 d5 1c be
       0.009626956 -0.08117331 0.0029183412 -0.15315689
000010 c3 54 66 3d 1a 4b 17 bc 9a 30 a4 bc 56 14 eb 3d
       0.05623318 -0.009234214 -0.020042706 0.11478488
000020 11 fe f8 3d c7 37 a7 3d 65 4c 81 3d 50 48 94 be
       0.12157834 0.081649356 0.06313399 -0.2896142
000030 7a 10 b2 bd 2a c5 19 3d 8e 09 a2 3c 42 cb 27 3e
       -0.08694549 0.037541546 0.019779947 0.1638613
000040 ef e6 e6 3d cf b1 1f be aa 25 c4 bd 23 62 4d 3d
       0.11274516 -0.15595172 -0.09577496 0.05014242
000050 90 c2 a5 bd ec 10 ba bd 74 34 87 3d 25 0b 00 bd
       -0.080937505 -0.09085259 0.066018015 -0.03126063
000060 9f 59 b2 bd ba a9 96 3c 7b f2 4d be e3 a2 22 bd
       -0.087085 0.018391479 -0.2011203 -0.039706122
000070 e1 91 a2 bd 52 ca de bb ab fd a6 3d 17 72 12 3d
       -0.079379804 -0.006799021 0.08153852 0.035753336
000080 e4 13 e3 bc 80 25 48 3e d5 e8 ed 3d 4f f2 db 3d
       -0.027719446 0.19545555 0.11616675 0.10739576
000090 88 2c b0 bc 49 75 5a bc ab 17 33 be 04 40 ca bd
       -0.02150561 -0.013333627 -0.17489497 -0.09875491
0000a0 b8 43 95 be 00 0a b2 3b 12 25 9a 3d 3a 84 85 3e
       -0.29153228 0.005433321 0.07526602 0.26077443
0000b0 3b 6c b6 3c 60 68 de bd b6 73 67 3d 58 00 a0 bc
       0.022268405 -0.10859752 0.056506835 -0.019531414
0000c0 27 ab 1f 3d ac 62 2c bd 04 9c 2f 3e f7 84 88 3c
       0.038981583 -0.04208629 0.17149359 0.016664965
0000d0 13 4f e0 bc 84 cf a0 bd 4a 8c 8c 3d 9a 2e 94 bc
       -0.027381456 -0.078520805 0.068626955 -0.018088628
0000e0 df 97 b5 bd ca 47 b5 bd 57 4d 2b bd 85 69 19 3d
       -0.08866858 -0.08851583 -0.041821804 0.037454147
0000f0 d0 a3 0b be 27 77 ca bd 7b 66 29 bd a7 93 73 3c
       -0.13636708 -0.09886008 -0.0413575 0.014866746

critic.4.weight f4 [1, 64]
000000 80 59 00 be 78 53 96 3b 89 33 63 bb 98 5b c6 38
       -0.12534142 0.004587587 -0.0034668169 9.4584364e-05
000010 0d 3b 5f 3b 9a 4a 85 3b 60 d0 a1 bb 0d 1a ce bd
       0.0034062297 0.004067731 -0.0049381703 -0.100635625
000020 5f 02 51 bb cb 8a a9 bb 85 4c a0 3b 23 c0 f2 3d
       -0.0031892282 -0.005174016 0.0048919343 0.118530534
000030 62 0a 06 38 02 82 64 3b 0a 0c 8d 3b a4 31 ac bd
       3.195776e-05 0.003486753 0.0043044137 -0.08407906
000040 55 ad bb 39 4b 17 0f 3e fb 5e 94 bb 10 a7 c8 3a
       0.00035796562 0.1397373 -0.004527924 0.0015308578
000050 a2 07 8f 3b 37 91 ce ba 62 d3 8f 3d b9 1a 8a bb
       0.0043649236 -0.001575983 0.0702274 -0.0042146114
000060 2e 22 d8 bb 88 39 88 bb fe b8 c5 3d 1a ab a7 bc
       -0.0065958714 -0.004157249 0.09654425 -0.02046733
000070 e2 cd 67 3b 64 0f d0 3b bd 98 0a 3c 17 5b 97 bb
       0.0035370518 0.006349491 0.008459267 -0.004619013
000080 3c 6e 09 bc 2e 8e a7 bd b9 d8 f7 b9 01 68 a7 3a
       -0.008388098 -0.081814155 -0.00047272982 0.0012772084
000090 76 3a 47 ba 6e 62 b7 ba 74 46 b7 bd 3b 01 93 3b
       -0.0007599959 -0.0013991126 -0.08948985 0.0044862307
0000a0 04 ae 5b 3d 98 1e 11 be 0c ff 9d 3b 24 e9 21 be
       0.05363275 -0.14171827 0.0048216637 -0.15811592
0000b0 4e e0 96 3b 72 b8 f0 3d de ea cc 3b c2 00 4c 3b
       0.004604376 0.1175393 0.0062535843 0.0031128381
0000c0 f0 bb 1d bb df 99 91 bb 1b 23 ce bd fc 3e b7 b9
       -0.0024068318 -0.0044433917 -0.100652896 -0.00034951407
0000d0 14 e2 04 bb 72 d4 c3 b9 d4 ad 01 3a 5f 5c 23 bc
       -0.0020276355 -0.00037351582 0.0004946862 -0.009970753
0000e0 90 25 8f bb ba 70 84 3b 4d ac 67 ba d8 df e5 3b
       -0.0043684915 0.0040417584 -0.00088376255 0.0070152096
0000f0 94 19 89 3b d0 21 81 3d 83 20 29 bb dc 4c 8a 3b
       0.0041839574 0.06305277 -0.0025806732 0.004220588

exp_avg f4 [7]
000000 2a 85 55 3b ce 0a 16 3c 27 bc d6 39 d1 61 73 3b
       0.0032580593 0.0091578495 0.00040957445 0.003713716
000010 5c 19 54 3b 5a dc dc bb 41 48 84 39
       0.0032363748 -0.006740135 0.00025230835

exp_avg_sq f4 [7]
000000 bd 20 bf 3a 8b 9f 07 3b 32 dd ce 3a e9 ea b3 3a
       0.00145819 0.002069446 0.0015782474 0.0013726625
000010 51 ef 0e 3b 9c 62 cb 3a 5d 0e 93 3a
       0.0021810124 0.0015517059 0.001121949
