logs/rsl_rl/franka_reach/2025-06-16_20-11-58/model_600.pt (torch, 172795 bytes, 36 tensors)

std f4 [7]
0	0x3e1276b7	0.14303099
1	0x3df8a3f4	0.121406466
2	0x3e160665	0.14650877
3	0x3e2071a1	0.15668346
4	0x3e11fbe8	0.14256251
5	0x3e1d9d69	0.15392078
6	0x3e2edd1a	0.17076531

actor.0.weight f4 [64, 32]
0	0xbeaf6d62	-0.3426314
1	0x3e79151d	0.2432446
2	0xbee29056	-0.44250745
3	0x3ed68cd3	0.41904315
4	0x3d5ef68f	0.054434355
5	0x3e4f7235	0.2025841
6	0x3df83bf1	0.12120808
7	0x3edb9520	0.4288721
8	0x3f1f16a6	0.62143934
9	0xbae3e51e	-0.0017387008
10	0x3e902778	0.28155112
11	0x3e62b7f3	0.22140484
12	0x3e3c9b51	0.18418624
13	0x3dba60ad	0.09100471
14	0xbd71dec3	-0.059050333
15	0xbde2aa27	-0.1106761
16	0xbf07602e	-0.52881134
17	0xbdc44f53	-0.095854424
18	0xbf38ccff	-0.721878
19	0xbd6ff9e9	-0.058587942
20	0x3f45386e	0.7703923
21	0xbcad8d19	-0.021185445
22	0xbf2e0e0a	-0.6799017
23	0x3da52f72	0.0806569
24	0xbe10da76	-0.14145836
25	0xbdaf8f6f	-0.0857228
26	0xbe89b6b2	-0.26897198
27	0xbe69a029	-0.22815003
28	0x3df7df1f	0.12103104
29	0xbeb4793c	-0.35248744
30	0xbcc0cb1c	-0.02353435
31	0xbe8120f2	-0.25220448
32	0x3d27dc81	0.040981773
33	0x3de05f6a	0.10955699
34	0xbea5a3c4	-0.32351506
35	0x3f5562e8	0.83354044
36	0x3f506cb9	0.814159
37	0x3e8f6e9b	0.28014073
38	0x3d8ae181	0.06781293
39	0xbe2028b6	-0.1564053
40	0x3e80d61e	0.25163358
41	0x3db3ae0b	0.087734304
42	0xbe54cd6d	-0.20781489
43	0x3f05453a	0.52058756
44	0xbdcfd0ba	-0.10147233
45	0x3cf67582	0.030085329
46	0x3cf864c1	0.03032148
47	0x3e488fec	0.19586152
48	0x3eca3ee8	0.3950112
49	0xbf916800	-1.1359863
50	0xbf742d98	-0.9538207
51	0xc005bcf6	-2.0896583
52	0xbf044631	-0.51669604
53	0x3e115770	0.14193511
54	0x3e9e5b72	0.30929142
55	0x3e9ffbb1	0.31246713
56	0x3d69c8f6	0.057076417
57	0x3dce22e8	0.100652516
58	0x3d86d859	0.06584234
59	0xbe176f33	-0.14788513
60	0x3dd34529	0.10315926
61	0xbde6e9b7	-0.11275046
62	0x3c540b5b	0.0129421605
63	0xbcc20238	-0.023682699
64	0x3f2ba047	0.6704144
65	0xbe3cf279	-0.18451871
66	0x3f4b678f	0.7945489
67	0xbe77558e	-0.2415373
68	0x3e57dd66	0.2108055
69	0xbc8c127a	-0.017098654
70	0x3e840827	0.2578747
71	0x3f252b4f	0.6451921
72	0x3f5c1ce6	0.85981596
73	0xbe1a8f02	-0.15093616
74	0xbd16809e	-0.036743753
75	0xbe084e80	-0.13311195
76	0x3deb8656	0.11500232
77	0x3d321568	0.043477446
78	0x3dfe5c7c	0.12419984
79	0x3d9bf50b	0.076150976
80	0xbf3d93ac	-0.74053454
81	0x3f17dda6	0.59322584
82	0x3cf951bf	0.030434487
83	0xbfe77f8d	-1.80858
84	0x3eb52ab8	0.35384154
85	0xbd2376e2	-0.039908297
86	0xbe6f30ea	-0.23358503
87	0x3d81818c	0.06323537
88	0xbdba9b45	-0.091116466
89	0xbd6aaa95	-0.057291586
90	0x3de22000	0.1104126
91	0xbd0f0cb5	-0.034924228
92	0x3d4e8ae0	0.05042541
93	0x3ea2ec8c	0.31821096
94	0xbefc8758	-0.4932201
95	0xbefee139	-0.49781206
96	0xbf8bad67	-1.0912293
97	0x3c3df9ba	0.011595184
98	0xbc7bb3f0	-0.015362725
99	0xbf43696c	-0.76332736
100	0xbd68d313	-0.05684192
101	0xbee8a8cb	-0.4544128
102	0x3e8ccca5	0.2749988
103	0xbd97fa11	-0.07420743
104	0x3e0d435b	0.13795225
105	0xbe271fe0	-0.16320753
106	0xbea42291	-0.32057622
107	0x3d7d8065	0.061890025
108	0x3e9144c6	0.28372782
109	0xbe6aad8a	-0.22917762
110	0xbe16d098	-0.1472801
111	0xbd970aef	-0.07375132
112	0x3f0ce699	0.55039364
113	0x3e782000	0.24230957
114	0xbdf7aad1	-0.120931275
115	0x3e92e184	0.2868768
116	0x3efc1978	0.4923818
117	0xbe1ee22b	-0.15515964
118	0xbf184eb1	-0.59495074
119	0xbe2fd799	-0.17172088
120	0xbb2f79d0	-0.0026775487
121	0xbefb29dc	-0.49055374
122	0xbe7381fc	-0.23780054
123	0xbd9ba6c3	-0.07600167
124	0xbeb74a86	-0.35799044
125	0xbeca047d	-0.3945655
126	0x3e072e0b	0.13201158
127	0xbea1fde0	-0.31639004
128	0xbd2f0688	-0.042730838
129	0xbe0bdfcc	-0.1365959
130	0x3d922ca2	0.07137419
131	0x3e9dbcba	0.3080805
132	0xbf119bf5	-0.56878597
133	0x3f7872ca	0.97050154
134	0x3dc7a097	0.09747427
135	0xbe551029	-0.20806946
136	0xbe52c85a	-0.2058424
137	0xbd5653e4	-0.052326098
138	0xbe4c2033	-0.19934158
139	0xbca8c409	-0.02060129
140	0x3d66404f	0.056213673
141	0xbda3efd7	-0.0800473
142	0xbd803dfa	-0.06261821
143	0xbdc2800e	-0.09497081
144	0xbe660881	-0.22464181
145	0xbed2d5de	-0.41178793
146	0xbed4016a	-0.4140733
147	0x3ff4a4d0	1.9112797
148	0x3f661821	0.8988057
149	0xbe0d62a5	-0.13807161
150	0xbe994e82	-0.2994271
151	0xbf47e831	-0.7808867
152	0xbc979c30	-0.018507093
153	0xbf186bad	-0.595393
154	0x3cb2aa09	0.021809595
155	0x3e007a85	0.12546737
156	0xbe205dc6	-0.15660772
157	0x3d8a0f2a	0.067411736
158	0xbea49621	-0.3214579
159	0xbc783256	-0.01514872
160	0x3ee9e347	0.4568121
161	0xbf0ffa02	-0.56240857
162	0x3ed84530	0.42240286
163	0xbe35fb76	-0.17771706
164	0x3ea70a40	0.32625008
165	0x3f9866e7	1.1906403
166	0x3c90fe3a	0.01769935
167	0x3eb9643b	0.36209282
168	0x3de65b98	0.11247939
169	0xbd95c187	-0.07312303
170	0x3da46d37	0.080286436
171	0xbdf27f73	-0.11840715
172	0xbc36fc7c	-0.011168595
173	0x3c7c7b62	0.015410276
174	0x3c68fd87	0.014220602
175	0xbd9948ca	-0.074845865
176	0x3d9c0b1c	0.076193064
177	0xbf4b41c1	-0.7939721
178	0x3db372fc	0.08762166
179	0xbfa84d2a	-1.3148549
180	0xbf4c383d	-0.7977331
181	0x3da92e37	0.08260768
182	0x3d31d5f7	0.043416943
183	0x3f6fc9f7	0.9366755
184	0x3db437b4	0.08799687
185	0x3e7181d9	0.23584689
186	0x3e86b080	0.26306534
187	0x3dbd1415	0.09232346
188	0x3db663c4	0.089057475
189	0x3d397844	0.04528071
190	0x3da66548	0.081247866
191	0xbd3afa12	-0.045648642
192	0x3dd0f744	0.10203412
193	0x3d45acf7	0.048260655
194	0x3c95473e	0.018222447
195	0xbf08cca0	-0.5343723
196	0xbe0c7a6a	-0.13718572
197	0xbeeebed7	-0.46629974
198	0x3dab582f	0.08366429
199	0x3e9c0a18	0.3047645
200	0x3e037716	0.12838396
201	0x3cc537a8	0.02407439
202	0x3dd43787	0.103621535
203	0xbc1b586c	-0.009481531
204	0xbe9b621f	-0.30348298
205	0xbd8cb719	-0.068708606
206	0x3da1129c	0.078648776
207	0xbe2cdedd	-0.1688189
208	0x3f9b4ee5	1.2133452
209	0x3e415f2f	0.18883966
210	0xbe27191d	-0.16318174
211	0xbe08a883	-0.13345532
212	0xbd3134b7	-0.043263163
213	0xbddba27b	-0.1072435
214	0xbed5c23c	-0.41749752
215	0x3eb10f1c	0.3458184
216	0x3cd04853	0.025425112
217	0x3e5ed689	0.21761526
218	0x3ed0974c	0.4074043
219	0xbddd96b5	-0.10819761
220	0xbdb3a8b2	-0.087724105
221	0x3dbf12c9	0.09329755
222	0xbd980fcf	-0.0742489
223	0xbdf75b9d	-0.12078021
224	0x3f7e04ee	0.9922627
225	0x3c7fb8fc	0.015608069
226	0x3f90f2a8	1.1324053
227	0xbe92712b	-0.28601965
228	0xbedbe9ac	-0.42951715
229	0xbedb33c9	-0.42812946
230	0xbf4286b5	-0.75986797
231	0x3e5de1b8	0.21668136
232	0x3e0229cd	0.12711258
233	0x3d789cae	0.060696296
234	0xbd5f2d28	-0.054486424
235	0x3e84d0ce	0.25940555
236	0x3eaeee6e	0.34166282
237	0x3dc15bf5	0.094413675
238	0xbd1b00fa	-0.03784273
239	0xbe7806bc	-0.24221319
240	0x3f2bb909	0.67079216
241	0xbd2bc2e7	-0.04193392
242	0x3cbc1ac9	0.02296199
243	0xbff5ed24	-1.9212995
244	0xbf16d901	-0.5892487
245	0xbdfafdb7	-0.122554235
246	0xbf13e9ec	-0.5777881
247	0x3e2eb1b4	0.17059976
248	0xbd68fe94	-0.05688341
249	0xbe469e00	-0.1939621
250	0xbddd1ce6	-0.107965276
251	0xbf10f3a4	-0.56621766
252	0x3d01fea2	0.031736977
253	0xbdf69f06	-0.1204205
254	0xbc1c9a0a	-0.00955821
255	0xbcdbd5d6	-0.026835363

actor.0.bias f4 [64]
0	0xbe7a85a5	-0.24465044
1	0xbe0ceee1	-0.13763
2	0xbf2438c2	-0.64149106
3	0xb9fc50b0	-0.00048125302
4	0x3dfb7490	0.12278092
5	0xbea22736	-0.3167054
6	0xbecea1e9	-0.40357903
7	0xbca7e3fd	-0.020494455
8	0x3ecb4697	0.39702293
9	0x3e86b5cf	0.26310584
10	0xbdeb1e24	-0.11480358
11	0xbcbb8cf9	-0.02289437
12	0xbdf2ba28	-0.11851913
13	0xbe7e639f	-0.2484269
14	0xbf277b6b	-0.65422696
15	0xbe901268	-0.28139043
16	0x3f2bee84	0.6716082
17	0x3e5cfda0	0.21581125
18	0x3e928648	0.28618073
19	0x3e3997bb	0.18124287
20	0x3e0e74a2	0.1391168
21	0x3e7b2091	0.24524142
22	0xbea84e32	-0.32872158
23	0x3e0ac395	0.13551171
24	0xbf2aa17a	-0.66652644
25	0x3f34f8c1	0.7069207
26	0xbda0b163	-0.07846334
27	0xbeda2515	-0.42606416
28	0xbdcbfd3a	-0.099604085
29	0x3e3c0757	0.18362175
30	0xbe4c8efb	-0.19976418
31	0x3ee9e480	0.45682144
32	0xbf3a2ae1	-0.7272168
33	0xbe6a509b	-0.22882311
34	0x3eaffe64	0.34373772
35	0xbd59e8b4	-0.05320044
36	0x3c8adbd4	0.016950525
37	0x3d3391af	0.043840107
38	0xbf0f2f81	-0.5593186
39	0xbe937c84	-0.28805935
40	0x3dffc2e3	0.124883436
41	0xbd6bf2b0	-0.05760449
42	0x3f0af8a9	0.54285675
43	0xbe3c55f2	-0.1839216
44	0x3ddec0d2	0.10876621
45	0x3dc00420	0.09375787
46	0xbe81e19c	-0.2536744
47	0xbccde9e7	-0.025135947
48	0x3f009b97	0.5023741
49	0xbf084842	-0.53235257
50	0x3d8d509a	0.06900139
51	0xbe4eee6d	-0.2020814
52	0xbc24ad28	-0.010051049
53	0xbe8156c1	-0.252615
54	0xbf143a46	-0.5790142
55	0xbe9ad210	-0.3023839
56	0xbed90faa	-0.42394763
57	0x3cb9e661	0.022692861
58	0x3e17eb4d	0.14835854
59	0x3e86beab	0.26317343
60	0xbd7575ea	-0.059926905
61	0x3e924121	0.28565314
62	0x3e95a4b1	0.29227212
63	0xbda65826	-0.08122282

actor.2.weight f4 [64, 64]
0	0xbe196634	-0.14980394
1	0x3e1b3e84	0.15160567
2	0x3ee784b4	0.45218432
3	0x3e68f668	0.22750247
4	0xbe0bf4de	-0.13667628
5	0x3e8ba7d9	0.27276495
6	0x3e930418	0.2871406
7	0xbdb1123f	-0.08646058
8	0x3e3d3c94	0.1848014
9	0xbe007064	-0.12542874
10	0x3e111e47	0.14171706
11	0xbd9a5978	-0.07536596
12	0x3c9a2533	0.018816566
13	0x3e875575	0.26432386
14	0x3e3e3e35	0.18578418
15	0xbd28053f	-0.041020628
16	0xbc38bb81	-0.011275173
17	0x3e20b590	0.1569426
18	0x3dbf8e08	0.09353262
19	0xbd467cdd	-0.048458923
20	0xbe4145e2	-0.18874314
21	0x3e6c1301	0.23054124
22	0xbdb417bb	-0.08793589
23	0xbd3da106	-0.046296142
24	0x3dcb0f5e	0.099150404
25	0xbf48f07e	-0.7849196
26	0x3d1399b3	0.03603525
27	0xbe9eb5e8	-0.30998158
28	0xbe705b9b	-0.23472445
29	0xbce84c80	-0.02835679
30	0xbe0b4f12	-0.13604382
31	0xbe5aa814	-0.21353179
32	0xbe93410a	-0.28760558
33	0x3e99a626	0.30009574
34	0x3e2225db	0.15834753
35	0xbefcb51a	-0.4935692
36	0x3da4d1a2	0.08047797
37	0xbcd43543	-0.025904303
38	0x3ebf95af	0.37418887
39	0x3d0edf14	0.034880713
40	0x3d94e097	0.072693996
41	0x3e1e07cd	0.15432663
42	0x3e826bc8	0.25472856
43	0xbd1bda21	-0.03804982
44	0xbc288f84	-0.010288123
45	0xbc3fbc24	-0.011702571
46	0xbe4ae785	-0.1981488
47	0x3e62fe2a	0.22167268
48	0xbe5e8722	-0.21731237
49	0xbdc5d4e9	-0.0965975
50	0xbe4586da	-0.19289723
51	0xbee40c03	-0.44540414
52	0xbcf00e5d	-0.029303724
53	0xbca8db9a	-0.020612527
54	0xbecd056b	-0.40043196
55	0x3e09f64b	0.1347286
56	0x3b06c2e6	0.0020562946
57	0xbe45317b	-0.19257157
58	0x3e08ab82	0.13346675
59	0xbef12b20	-0.47103214
60	0xbc4db157	-0.012554488
61	0x3de8977e	0.1135702
62	0x3e0803a1	0.13282634
63	0xbe1762b8	-0.14783752
64	0x3e0c6f4c	0.13714331
65	0x3eafdc9e	0.34348005
66	0x3cebd1ee	0.028786626
67	0x3e2a61c5	0.16638859
68	0xbe5094ea	-0.20369306
69	0x3be57198	0.007002067
70	0x3cbe47ec	0.023227654
71	0x3e043469	0.12910618
72	0x3d1b3b6b	0.037898462
73	0x3e6121c6	0.2198554
74	0x3cf209d0	0.029545695
75	0xbd45fcd5	-0.048336823
76	0xbd8f14a9	-0.069863625
77	0x3e9170f9	0.28406504
78	0x3df5adb5	0.119960226
79	0xbddc20e7	-0.10748463
80	0xbdb7a4bd	-0.08966968
81	0xbc79b979	-0.015241974
82	0x3dd3a08d	0.10333357
83	0xbce9ddcc	-0.028548144
84	0x3db51130	0.08841169
85	0x3dbd5035	0.09243814
86	0xbd0c32e7	-0.03422823
87	0x3d9c9806	0.07646184
88	0x3d5013d9	0.05080018
89	0xbc411b97	-0.011786363
90	0xbd6e35bb	-0.05815671
91	0xbd4e626c	-0.05038683
92	0xbe145372	-0.14484957
93	0xbc815708	-0.01578857
94	0xbe2d4321	-0.16920139
95	0x3e5cd51f	0.21565674
96	0x3e6113df	0.21980236
97	0x3d48db1f	0.049037095
98	0xbe5aa716	-0.213528
99	0xbe58c9de	-0.21170756
100	0xbc2a8e9c	-0.010409977
101	0xbd8d9bf1	-0.06914509
102	0x3dc2e888	0.09517008
103	0x3e0a9eba	0.13537112
104	0xbe8ac84a	-0.27105933
105	0xbe9c6e4b	-0.30552897
106	0xbbfe6d70	-0.007764511
107	0xbd278018	-0.040893644
108	0x3d8631ab	0.06552442
109	0x3d26b078	0.040695637
110	0x3db8dc83	0.09026434
111	0xbe14eac0	-0.14542675
112	0xbe993c84	-0.29928982
113	0x3d1c243d	0.038120497
114	0xbdd6ab5c	-0.10481903
115	0x3ea9013a	0.33008748
116	0xbd6020e5	-0.05471887
117	0xbc56becd	-0.013107014
118	0x3cddde26	0.027083468
119	0x3e1b9961	0.15195228
120	0x3c99cd63	0.018774694
121	0xbea76c68	-0.32699895
122	0x3cbd7e69	0.023131566
123	0x3e6d8e11	0.23198725
124	0x3e28579c	0.1643967
125	0x3c6cf15a	0.01446184
126	0x3e1113a3	0.14167647
127	0xbea733e6	-0.32656783
128	0x3e8b6434	0.27224886
129	0xbd260ae7	-0.04053774
130	0xbee9d1ba	-0.4566782
131	0xbebf5625	-0.3737041
132	0x3e8ef9ab	0.27924857
133	0xbea61576	-0.32438248
134	0xbdabe119	-0.08392543
135	0xbdc4e2ca	-0.09613569
136	0xbbbafb22	-0.005706207
137	0xbcfe340c	-0.031030677
138	0xbe0649e8	-0.1311413
139	0x3dca5a81	0.098805435
140	0x3ac4aab0	0.0015004482
141	0x3db916cc	0.09037551
142	0x3e63e716	0.22256121
143	0x3e2ff328	0.171826
144	0xbe6ff265	-0.2343231
145	0xbdb64b38	-0.089010656
146	0xbc65c6b1	-0.0140244225
147	0xbd70729a	-0.058703043
148	0xbe091467	-0.13386689
149	0x3e370b49	0.17875399
150	0x3e8d64f5	0.27616087
151	0xbdd95292	-0.10611452
152	0x3e1c5199	0.15265502
153	0xbe7a7f8a	-0.24462715
154	0xbebe4ffb	-0.37170395
155	0xbbaf8373	-0.005356246
156	0x3c98da53	0.018658793
157	0xbc29a85b	-0.0103550805
158	0x3dbe7976	0.093005106
159	0xbe9a0d36	-0.30088204
160	0x3e6078e1	0.21921112
161	0x3e6cfff7	0.23144518
162	0x3c0ee32a	0.008721152
163	0xbe2436f0	-0.16036582
164	0xbe916329	-0.28395966
165	0xbe8d19ae	-0.27558655
166	0xbe18b2d4	-0.14911968
167	0xbdf20998	-0.11818236
168	0xbd95b4ca	-0.073098734
169	0xbe2fadf1	-0.17156197
170	0xbe4e1fb5	-0.20129283
171	0xbd96d820	-0.07365441
172	0x3e816b38	0.25277114
173	0x3cc21dfc	0.023695938
174	0x3e2b7a32	0.16745833
175	0xbe00a8f2	-0.12564448
176	0x3e80ed74	0.25181162
177	0x3ddb77eb	0.10716232
178	0x3d07235a	0.0329927
179	0x3e4ef54f	0.20210765
180	0x3e326b33	0.17423706
181	0xbe55d446	-0.20881757
182	0x3dc317f0	0.0952605
183	0xbd5794f1	-0.052632276
184	0x3e0c75ec	0.13716859
185	0xbd446af0	-0.047953546
186	0xbeddbf66	-0.43310088
187	0xbd7fe4ea	-0.06247417
188	0x3cb6a3b1	0.022294851
189	0xbd8b4c3f	-0.06801652
190	0xbe49911a	-0.19684258
191	0x3c63e23f	0.013908922
192	0x3d591cc0	0.053005934
193	0x3d1f7a3d	0.038934935
194	0xbe4f2088	-0.20227253
195	0xbeab0ddc	-0.3340901
196	0x3e1851e8	0.14874995
197	0x3e89b930	0.268991
198	0x3e1457a6	0.1448656
199	0xbd965dd9	-0.07342119
200	0x3d9db0ac	0.07699713
201	0x3e90c186	0.28272647
202	0xbdacf949	-0.08445985
203	0xbd978104	-0.07397655
204	0x3b860590	0.0040900186
205	0xbe01bafe	-0.12668988
206	0xbde190f3	-0.11013975
207	0xbd2d6db5	-0.042340953
208	0xbc031458	-0.008000456
209	0x3cfcdd91	0.03086737
210	0x3e1438ae	0.14474747
211	0x3e511bd4	0.20420772
212	0x3e0b9691	0.13631655
213	0xbb34531d	-0.002751536
214	0xbdc2ce4b	-0.095120035
215	0x3de4652e	0.11152111
216	0xbeb7d26b	-0.35902724
217	0x3e2ace38	0.16680229
218	0xbd25c50e	-0.04047113
219	0xbe39220f	-0.18079399
220	0x3caa0464	0.020754047
221	0x3e15a592	0.14613941
222	0x3dd846b7	0.10560363
223	0xbc4ade82	-0.012382152
224	0x3e142fc5	0.14471348
225	0xbe269d8a	-0.16271034
226	0xbdec259a	-0.115306094
227	0xbe2f86f5	-0.17141326
228	0x3ed35c26	0.4128124
229	0x3b80529f	0.003916099
230	0xbbcfc4f0	-0.0063406155
231	0x3bda6df8	0.0066659413
232	0x3db86452	0.090035096
233	0xbc6aaffb	-0.014324184
234	0x3d174f57	0.0369409
235	0x3d11c71b	0.035590272
236	0xbe1312fe	-0.14362714
237	0x3c94e162	0.018173877
238	0xbd2dd9ef	-0.042444166
239	0x3e51dd88	0.20494664
240	0xbcf9a171	-0.03047249
241	0x3d6508d1	0.05591661
242	0xbe312672	-0.17299822
243	0x3de845cc	0.11341438
244	0xbd92fbd2	-0.07176937
245	0x3cccd5bf	0.025004266
246	0x3e485f64	0.19567639
247	0xbc9c6461	-0.019090833
248	0x3e37242e	0.17884895
249	0xbdcb8dfd	-0.099391915
250	0x3d92a38d	0.07160101
251	0x3e1f1363	0.15534739
252	0x3da2866e	0.07935797
253	0xbcb064fb	-0.021532526
254	0x3e47e6c2	0.19521621
255	0x3e0b38a4	0.13595825

actor.2.bias f4 [64]
0	0xbed619e3	-0.41816625
1	0xbd24180e	-0.040062003
2	0xbdf4e73b	-0.11958166
3	0x3e01a19d	0.12659307
4	0xbe873909	-0.26410702
5	0xbea952c2	-0.33070952
6	0xbdfdf4f5	-0.124002375
7	0xbec4135c	-0.3829602
8	0xbdb34ca2	-0.08754851
9	0xbe590ee0	-0.2119708
10	0xbebf093a	-0.37311727
11	0xbe8cd913	-0.27509364
12	0xbe85be9a	-0.2612198
13	0xbbf98d07	-0.0076156887
14	0xbe3bbe04	-0.18334204
15	0xbdae2517	-0.08503168
16	0xbe9d8bfd	-0.30770865
17	0xbf18da73	-0.5970833
18	0xbe5a5fc0	-0.21325588
19	0xbea30a42	-0.31843764
20	0xbef333a9	-0.4750035
21	0xbe8412b1	-0.2579551
22	0xbe966368	-0.29372716
23	0xbd85e8e3	-0.0653856
24	0xbeb831df	-0.3597555
25	0xbf10fbfd	-0.56634504
26	0xbec60576	-0.3867604
27	0xbe58d390	-0.21174455
28	0xbd8ace41	-0.06777621
29	0xbe973649	-0.29533604
30	0x3e71e88b	0.23623864
31	0xbecf555c	-0.40494812
32	0xbdf85757	-0.12126034
33	0xbe3d1a66	-0.18467101
34	0xbf0e1856	-0.55505884
35	0xbee8ca7b	-0.4546698
36	0xbf15973f	-0.5843391
37	0xbed752ec	-0.42055452
38	0xbe1c7c35	-0.15281756
39	0xbe589a49	-0.21152605
40	0xbef5766e	-0.47941917
41	0xbea7befb	-0.32762894
42	0xbe0e2233	-0.13880233
43	0xbd312fb3	-0.04325838
44	0xbe7540fd	-0.23950572
45	0xbf0351a8	-0.5129647
46	0x3b980b0f	0.00463999
47	0xbe081b70	-0.13291717
48	0xbcbb286b	-0.022846421
49	0xbe9655ea	-0.29362422
50	0xbe67085f	-0.22561787
51	0xbef26fc5	-0.47350898
52	0xbeaade82	-0.33372885
53	0xbe7758df	-0.24154995
54	0xbec841b9	-0.39112642
55	0xbebc4bf9	-0.36776713
56	0xbe11671e	-0.14199492
57	0xbe97d839	-0.29657152
58	0xbe72e864	-0.23721462
59	0xbee04a3f	-0.43806645
60	0xbeac0fe3	-0.3360587
61	0xbe7e8f68	-0.24859393
62	0xbe6f6fd7	-0.23382507
63	0x3d392981	0.045205597

actor.4.weight f4 [7, 64]
0	0x3da2fe39	0.079586454
1	0x3b7e25af	0.0038779785
2	0xbd17e26d	-0.03708117
3	0x3b8b5a2f	0.004252694
4	0x3d981cac	0.07427344
5	0xbd095413	-0.033527445
6	0xbb858f43	-0.004075916
7	0x3c3a65ac	0.0113767795
8	0x3d4b9407	0.049701717
9	0x3ad62862	0.0016338939
10	0x3d204c91	0.03913552
11	0x3d93f483	0.07224371
12	0xbcbe8bd5	-0.023260036
13	0x3bc7d5aa	0.006098469
14	0x3c2dde50	0.010612085
15	0xbd29a6e8	-0.04141894
16	0x3da0a0cf	0.07843172
17	0xbdcd510b	-0.10025223
18	0xbce27b51	-0.027646692
19	0xbd6cc0e9	-0.05780116
20	0xbbc8ec60	-0.0061316937
21	0x3d2fae5f	0.042890903
22	0x3ceb4525	0.028719494
23	0x3e182df6	0.14861283
24	0xba447e4d	-0.0007495627
25	0x3de18b9b	0.11012956
26	0x3cfe2698	0.031024262
27	0xbcc26c43	-0.023733264
28	0xbd8ffae0	-0.070302725
29	0x3d7aeec6	0.06126287
30	0xbc8f3224	-0.017479964
31	0x3e34f4e4	0.17671543
32	0x3e5396d3	0.20663004
33	0xbd89a273	-0.06720438
34	0x3b8a2314	0.0042156074
35	0x3bbaf2bb	0.0057052053
36	0xbd7a1b5f	-0.06106126
37	0xbcfdf7c9	-0.031001942
38	0xbdffb901	-0.124864586
39	0x3ded1885	0.11576942
40	0x3dc3b688	0.095562994
41	0x3e0fb87c	0.14035219
42	0xbded8e08	-0.11599356
43	0xbbe57a3e	-0.007003098
44	0xbdf368cf	-0.11885225
45	0x3df33fa7	0.11877375
46	0x3d42ab29	0.047526512
47	0xbbf862b6	-0.0075801266
48	0x3d16b56b	0.036794107
49	0xbcab32e7	-0.020898296
50	0x3de6eb77	0.1127538
51	0xbd4a49ba	-0.049386717
52	0x3dae8d51	0.08523048
53	0xbd9d7080	-0.07687473
54	0x3d35c036	0.04437276
55	0x3d508f7a	0.05091808
56	0xbd8c5cd5	-0.06853644
57	0xbd3b9dac	-0.045804664
58	0x3d7fa437	0.062412467
59	0xbb939594	-0.004503915
60	0x3e6f6131	0.2337692
61	0x3e11d232	0.1424034
62	0x3dc4ea82	0.09615041
63	0xbdac0361	-0.08399082
64	0xbcbacc47	-0.022802485
65	0xbc3665c4	-0.011132661
66	0xbc4b5f11	-0.012412802
67	0x3c95ea96	0.018300336
68	0x3d49564e	0.049154572
69	0x3d96a0a5	0.07354859
70	0x3c74b915	0.014936705
71	0x3d6e220e	0.058137946
72	0x3aa947c1	0.0012915061
73	0x3d872a1d	0.06599829
74	0xbdb769a7	-0.089556985
75	0xbd281f18	-0.04104528
76	0xba738b7e	-0.00092905003
77	0x3d1f2649	0.03885487
78	0xbd449cbc	-0.048001036
79	0xbcb023ba	-0.02150141
80	0xbd31ccc5	-0.043408174
81	0xbe345b35	-0.17612918
82	0xbd84c960	-0.06483722
83	0x3d1fd5e7	0.039022353
84	0xbe045f5e	-0.12927005
85	0xbd73c554	-0.05951436
86	0x3c143c11	0.009047524
87	0xbd1a5200	-0.037675858
88	0x3b373fa2	0.0027961512
89	0xbae16188	-0.0017195204
90	0xbd4c298e	-0.049844317
91	0x3cd5d700	0.026103497
92	0x3d5a37c2	0.05327583
93	0x3a0be1cc	0.00053360756
94	0x3cb3fae9	0.02197023
95	0x3d41ea5e	0.04734265
96	0x3e4869e3	0.19571643
97	0x3a588c93	0.0008260693
98	0xbe63f7bc	-0.22262472
99	0xbd3fbcc4	-0.04681088
100	0xbd47a3bb	-0.04874013
101	0xbd2428ff	-0.04007816
102	0xbd111bb4	-0.03542681
103	0x3d7033b3	0.058643054
104	0xbd319e41	-0.043363813
105	0xbe2f2b69	-0.17106403
106	0x3a60151f	0.0008548069
107	0x3d114f84	0.035476223
108	0xbc66acb6	-0.014079263
109	0xbddae2f2	-0.10687818
110	0x3c367987	0.011137373
111	0xba15befa	-0.00057123567
112	0x3d4fb613	0.05071075
113	0xbc0eb7e4	-0.008710835
114	0x3d0f8332	0.035037227
115	0x3c76b3da	0.015057528
116	0x3d56f1f1	0.052476827
117	0xbe0d0e17	-0.13774906
118	0x3d1497fe	0.036277764
119	0xbd97d60f	-0.07413875
120	0x3d8900e0	0.0668962
121	0xbd86cbf8	-0.06581873
122	0xbd07ded3	-0.033171486
123	0xbb9c7060	-0.0047741383
124	0x3d063ae5	0.03277101
125	0xbcd845d6	-0.026400488
126	0x3cee85c6	0.029116523
127	0x3d467a97	0.048456755
128	0x3e5183ee	0.20460483
129	0xbc853087	-0.016258491
130	0x3c88484e	0.01663604
131	0xbc6e7b99	-0.014555835
132	0xbd6afa3f	-0.05736756
133	0xbcc35545	-0.02384437
134	0x3cebf763	0.028804487
135	0xbc2b061c	-0.010438468
136	0x3992a780	0.00027972087
137	0x3c9545f2	0.01822183
138	0xbd636216	-0.055513464
139	0xbd3ad922	-0.04561723
140	0xbd82cb16	-0.06386392
141	0xba8d3233	-0.0010772407
142	0xbe336afc	-0.1752128
143	0xbd73a4f5	-0.059483487
144	0xbe34be53	-0.17650728
145	0x3c6d2a01	0.014475347
146	0xbc365894	-0.011129517
147	0x3d1bafd1	0.03800947
148	0x3cd05d24	0.025435038
149	0xbde77420	-0.11301446
150	0xbda6d788	-0.08146578
151	0x3d94f848	0.072739184
152	0xbd849de7	-0.0647543
153	0x3dfd2ee7	0.123624615
154	0x3cf51907	0.02991916
155	0x3cd45a68	0.025922015
156	0x3cf95f31	0.030440899
157	0xbdef377c	-0.11680505
158	0x3ccedad6	0.025250833
159	0x3e58a492	0.21156529
160	0xbc0c3700	-0.008558035
161	0xbdef3f13	-0.11681952
162	0x3c8da2c7	0.017289532
163	0xbdbce54a	-0.09223421
164	0xbc95e437	-0.018297298
165	0xbdc28dd6	-0.09499709
166	0xbd8d5493	-0.06900897
167	0x3d17dae4	0.037073985
168	0x3dae6d3e	0.0851693
169	0x3e534470	0.20631576
170	0xbde5d0ef	-0.112214915
171	0xbc8288ab	-0.015934309
172	0x3df58150	0.11987555
173	0x3e286bc9	0.16447367
174	0x3d892c2d	0.06697879
175	0x3cf42ea0	0.029807389
176	0x3d77ba25	0.060480256
177	0xbdee0868	-0.11622697
178	0x3d968fd4	0.07351652
179	0x3d5bb2ac	0.05363719
180	0xbdb9b68f	-0.090680234
181	0xbe17bbcf	-0.14817737
182	0xba8d10b0	-0.001076242
183	0x3e301760	0.17196417
184	0xbd2f6614	-0.04282196
185	0x3d936803	0.07197573
186	0x3d5ef02c	0.054428264
187	0xbe274f33	-0.16338806
188	0x3e0ac2f5	0.13550933
189	0x3e9d7447	0.30752775
190	0xbcbbdd3a	-0.022932637
191	0x3ca55a33	0.020184612
192	0xbe15e93b	-0.14639752
193	0x3ca2bb53	0.019864714
194	0xbc3c95c9	-0.011510321
195	0x3d1b98c9	0.037987504
196	0xbd9682cd	-0.07349167
197	0xbcca19e9	-0.024670558
198	0x3e1e9228	0.15485442
199	0x3d94f9c7	0.07274204
200	0x3c9fcac5	0.019505868
201	0xbd22b247	-0.0397208
202	0x3d1dc0e9	0.03851405
203	0x3c767a90	0.01504387
204	0x3c42232d	0.011849207
205	0x3c75ed3b	0.015010173
206	0xbeada0dd	-0.3391179
207	0xbc8386d3	-0.0160555
208	0x3c043331	0.008068846
209	0xbd59a950	-0.053139985
210	0xbc61cb0e	-0.013781322
211	0x3df3d71d	0.11906264
212	0x3c48f1f9	0.012264722
213	0x3c0a8feb	0.008457164
214	0x3dd170c9	0.1022659
215	0x3d9bdcb6	0.07610457
216	0xbcf5e7f4	-0.03001783
217	0x3d534b15	0.051585276
218	0x3e170055	0.1474622
219	0x3d85b5a6	0.06528787
220	0xbd9e1e32	-0.07720603
221	0x3da1b963	0.07896688
222	0x3d3fb51a	0.04680357
223	0x3cb60a48	0.0222217
224	0xbe202f4a	-0.1564304
225	0x3b4bfa8d	0.0031124682
226	0xbda3e9b5	-0.080035605
227	0xbe4bd238	-0.19904411
228	0x3e41ec24	0.18937737
229	0xbcc5b885	-0.024135837
230	0xbdb237dd	-0.08702061
231	0xbb86f89e	-0.004118993
232	0xbe11e30d	-0.14246769
233	0xbda6bd2b	-0.0814155
234	0xbddfdc80	-0.10930729
235	0x3c58cd18	0.013232492
236	0xbd266501	-0.04062367
237	0xbe14d094	-0.14532691
238	0xbce495e8	-0.027903512
239	0x3d785123	0.060624253
240	0xbd4f420d	-0.0506001
241	0xbdd5e102	-0.104433075
242	0xbd5d91cf	-0.054094132
243	0x3cca087c	0.024662249
244	0x3d2c4e27	0.04206672
245	0x3d598c20	0.05311215
246	0xbe3fa9d2	-0.18717125
247	0x39cefc87	0.0003947953
248	0xbdd7b2be	-0.10532139
249	0x3be1e432	0.006893658
250	0xbc22a14b	-0.009926151
251	0xbe72ba43	-0.23703866
252	0x3c2978db	0.010343756
253	0x3e34d184	0.17658049
254	0xbc308eff	-0.01077628
255	0x3cce5afd	0.025189871

actor.4.bias f4 [7]
0	0x3cf5c426	0.030000757
1	0x3e3f91a5	0.18707903
2	0xbe2d6d10	-0.16936135
3	0x3e2c243a	0.16810694
4	0x3e578ad6	0.21049055
5	0xbea38460	-0.31936932
6	0x3e02eb07	0.12784968

critic.0.weight f4 [64, 32]
0	0xbe5af3ef	-0.21382116
1	0xbe3cafef	-0.18426488
2	0xbe6d44ff	-0.23170851
3	0x3e986ab2	0.29768902
4	0xbe26b1ff	-0.16278838
5	0x3daffd9d	0.08593295
6	0xbe9ce2b9	-0.30641726
7	0x3e14fb90	0.14549088
8	0x3d4fa839	0.05069754
9	0x3cf9282e	0.030414667
10	0x3dd6d568	0.10489923
11	0x3d0da4df	0.03458106
12	0xbd256dc1	-0.040387873
13	0xbcaae101	-0.020859243
14	0x3b81f81d	0.003966345
15	0xbd590e5f	-0.05299222
16	0xbded3c62	-0.11583783
17	0xbdcd621c	-0.100284785
18	0x3e66e239	0.22547235
19	0x3f8675f7	1.050475
20	0x3f3e3440	0.7429848
21	0x3d34f2a1	0.0441767
22	0xbe589de8	-0.21153986
23	0xbf2560b4	-0.6460068
24	0xbdfd858d	-0.123789884
25	0x3d184c00	0.037181854
26	0xbe04c373	-0.12965183
27	0xbe1e751b	-0.1547436
28	0xbd590ff0	-0.052993715
29	0xbdba790c	-0.09105119
30	0x3d0e200a	0.034698524
31	0xbd0eb27f	-0.034838196
32	0xbd984e8d	-0.07436857
33	0x3ec48717	0.38384315
34	0x3c6f794f	0.014616325
35	0x3e1b984d	0.15194817
36	0x3dbf80eb	0.09350761
37	0xbe112477	-0.14174066
38	0x3da43e21	0.08019663
39	0xbcc1ea13	-0.023671186
40	0xbbca459b	-0.0061728484
41	0x3c6cd3ad	0.014454764
42	0x3e07e630	0.13271403
43	0x3b966300	0.0045894384
44	0xbc3e0e69	-0.011600115
45	0xbd36f299	-0.044664953
46	0x3c89af91	0.01680735
47	0xbc458dec	-0.012057763
48	0xbf4da7a8	-0.8033395
49	0xbf067d1d	-0.5253466
50	0x3e545e30	0.20739055
51	0xbf929eef	-1.1454753
52	0xbf44e737	-0.76915306
53	0x3d8da01a	0.069153026
54	0x3edad150	0.42737818
55	0x3e32a2d1	0.17444922
56	0xbc1c9a5e	-0.009558288
57	0xbd83a45b	-0.06427833
58	0xbcf26b55	-0.029592196
59	0xbc6c27fa	-0.014413828
60	0x3c321153	0.010868388
61	0x3da0968a	0.07841213
62	0xbda1b393	-0.07895579
63	0x3c144a22	0.009050878
64	0xbc93d184	-0.01804424
65	0x3dcd2f44	0.10018781
66	0xbd5a9850	-0.053367913
67	0xbda0a582	-0.07844068
68	0x3e2a6c55	0.16642888
69	0xbd35583e	-0.044273607
70	0xbe1862c5	-0.14881428
71	0x3c7dd763	0.015493247
72	0x3d968ea1	0.07351423
73	0xbd977391	-0.073950894
74	0xbda6753a	-0.08127828
75	0xbd8d8f98	-0.06912154
76	0xbd0f5fc3	-0.035003435
77	0x3d426f85	0.047469635
78	0x3c539559	0.012914025
79	0x3d2b8730	0.04187697
80	0x3e9b6536	0.30350655
81	0x3de06672	0.1095704
82	0xbf1d22f4	-0.6138146
83	0xbf00cc7f	-0.50312036
84	0x3e91c6e6	0.2847206
85	0x3d604b07	0.05475905
86	0x3d1b10ef	0.037857946
87	0xbe565b9e	-0.20933387
88	0xbdb3e851	-0.08784545
89	0x3da9f750	0.08299124
90	0x3d48379a	0.04888115
91	0x3b695036	0.0035600788
92	0x3d6bfcb1	0.057614032
93	0xbdb93438	-0.09043163
94	0x3d824a31	0.06361807
95	0x3a13bdcb	0.00056358863
96	0xbe24ab83	-0.16081052
97	0x3d35088c	0.044197604
98	0xbe35e098	-0.17761457
99	0xbed5b45b	-0.41739163
100	0x3ba92c51	0.0051627536
101	0x3e3fe41e	0.18739364
102	0x3d304873	0.043037843
103	0x3e814ddd	0.25254717
104	0x3dcc3ddf	0.099727385
105	0xbe1bc433	-0.15211563
106	0xbd821d25	-0.06353215
107	0xbe258a3d	-0.16166015
108	0xbe13199e	-0.14365241
109	0x3bdcefe5	0.006742465
110	0xbacea24a	-0.0015764919
111	0xbd656fea	-0.056014933
112	0xbea4bc35	-0.3217484
113	0xbdd68296	-0.10474126
114	0xbeb00a69	-0.34382942
115	0xbe629244	-0.22126108
116	0xbdee381d	-0.116317965
117	0xbdfdc51c	-0.12391111
118	0xbf8a09b9	-1.0784217
119	0x3e3d6e94	0.18499213
120	0x3e25406a	0.16137853
121	0x3b2849f1	0.0025678838
122	0x3c17eb29	0.009272375
123	0xbd2120bd	-0.039337862
124	0xbe128ee9	-0.14312328
125	0xbd66a3b8	-0.056308478
126	0x3dbdf689	0.092755385
127	0x3d30b6f0	0.043143213
128	0xbe9ce7cc	-0.30645597
129	0xbcee74ee	-0.02910849
130	0xbe4a7247	-0.19770156
131	0x3e6c7c1b	0.23094217
132	0x3ec6f5d7	0.38859436
133	0x3dc00b16	0.093771145
134	0x3e739d08	0.23790371
135	0x3d9356a0	0.07194257
136	0x3ba7c6ca	0.005120133
137	0xbd0c37c5	-0.034232873
138	0xbc714d18	-0.014727853
139	0xbad38f01	-0.0016140641
140	0xba29902c	-0.00064683217
141	0x3cb1282f	0.021625606
142	0xbc0eb197	-0.008709333
143	0xbd14f1f8	-0.036363572
144	0xbe04fad3	-0.12986307
145	0xbe24267d	-0.16030307
146	0x3ed0da06	0.4079134
147	0xbdf90d7c	-0.12160775
148	0xbe2923e2	-0.16517594
149	0x3d240471	0.0400433
150	0xbf223687	-0.6336445
151	0x3ea9885f	0.33111855
152	0xbe114c18	-0.14189184
153	0xbc4f3746	-0.012647456
154	0x3d83ac1b	0.06429311
155	0xbdb8b83b	-0.09019514
156	0x3b3a685d	0.0028443553
157	0xbcc8119b	-0.024422457
158	0xbce59809	-0.028026598
159	0x3d6a5d32	0.057217784
160	0xbd9194fe	-0.07108496
161	0xbd89bdf8	-0.06725687
162	0xbe33a71a	-0.17544213
163	0xbde21dc4	-0.110408336
164	0x3d36aa68	0.044596106
165	0x3e24ee30	0.16106486
166	0xbd806ecc	-0.06271133
167	0xbd771508	-0.06032279
168	0x3de496a5	0.11161546
169	0x3d67f190	0.056626856
170	0x3e22fc40	0.15916538
171	0x3d72739a	0.059192277
172	0xbe0d4a34	-0.13797837
173	0xbca66203	-0.020310408
174	0x3d1de568	0.038548857
175	0xbd1c347a	-0.038135983
176	0xbcbfdf24	-0.023421831
177	0xbe90ea22	-0.2830363
178	0xbeefad08	-0.468117
179	0xbee2727e	-0.44227976
180	0xbed079eb	-0.40718016
181	0xbe1ad162	-0.15118936
182	0x3f132060	0.57471275
183	0x3ef7a882	0.4837075
184	0x3d91b009	0.07113654
185	0x3c666ff8	0.014064781
186	0x3d36d126	0.044633053
187	0x3d427051	0.047470395
188	0x3c9b042a	0.018922884
189	0x3b20ec29	0.0024554825
190	0x3d01e55a	0.031712867
191	0xbdc05938	-0.09392017
192	0x3e3555c8	0.17708504
193	0x3eb49e78	0.35277152
194	0x3e1147e1	0.14187576
195	0xbdbb6444	-0.091499835
196	0xbcf69c39	-0.03010379
197	0x3d35fcb0	0.044430435
198	0xbdd458ca	-0.10368498
199	0xbe19dd85	-0.15025909
200	0x3d1fbeaa	0.03900019
201	0x3d3f53b1	0.046710674
202	0x3cb6beb7	0.022307737
203	0x3cf56f6a	0.029960353
204	0xbd06a4fd	-0.03287219
205	0x3a9d86cf	0.0012018326
206	0x3c1bba27	0.009504831
207	0xbc92a262	-0.017899696
208	0x3da20cce	0.079125986
209	0xbe2272fd	-0.15864177
210	0x3e8bc951	0.2730203
211	0xc03d305d	-2.9560769
212	0xbe03cf2e	-0.12872002
213	0x3e11014f	0.14160655
214	0xbf53ba9b	-0.8270661
215	0x3e61cbdd	0.22050424
216	0xbd1e94c6	-0.0387161
217	0xbd899651	-0.06718124
218	0x3d7b94e1	0.06142128
219	0x3d8d5d92	0.06902613
220	0xbb02da7c	-0.0019966653
221	0xbb0d4966	-0.0021558641
222	0x3d1b100e	0.037857108
223	0x3bbe4cf2	0.0058075124
224	0x3d4ef5ed	0.0505275
225	0x3db90333	0.09033813
226	0xbdbc5221	-0.09195352
227	0xbe89ed11	-0.2693868
228	0xbe54f077	-0.20794855
229	0xbe648d57	-0.22319542
230	0xbe26c935	-0.16287692
231	0x3e223798	0.1584152
232	0x3dd6222d	0.10455737
233	0xbc76dbb5	-0.015067031
234	0x3d38e3d4	0.04513915
235	0xbd06e71e	-0.032935254
236	0xbd17e6bf	-0.03708529
237	0x3b28299c	0.0025659567
238	0x3c92db8f	0.01792696
239	0x3c04ddbe	0.008109508
240	0xbd9d9137	-0.07693713
241	0xbb1414f3	-0.0022595495
242	0x3cc98f71	0.024604531
243	0x3ead76b1	0.33879617
244	0xbddb9982	-0.10722639
245	0x3e024cef	0.1272466
246	0xbf0989bb	-0.53725785
247	0xbdec6d0c	-0.115442365
248	0x3e07e7c5	0.13272007
249	0xbd93a0db	-0.07208415
250	0xbd718d23	-0.05897249
251	0xbdecf827	-0.11570769
252	0xbca78d8c	-0.020453237
253	0xbd3d7da5	-0.046262402
254	0xbc528a7f	-0.012850403
255	0xbd43acc7	-0.047772195

critic.0.bias f4 [64]
0	0x3dfb716e	0.12277494
1	0xbe999bef	-0.3000178
2	0x3e03db28	0.1287657
3	0xbe1030b4	-0.14081079
4	0xbbb341cc	-0.00547049
5	0xbe0ccc08	-0.13749707
6	0xbc061fbd	-0.008186278
7	0x3d84a2f7	0.064763956
8	0x3d3e8980	0.04651785
9	0x3ea9520d	0.33070412
10	0x3ed5ce15	0.4175879
11	0xbe112fc7	-0.14178382
12	0xbe315894	-0.17318946
13	0xbe05a228	-0.13050139
14	0x3ea67885	0.32513824
15	0x3e43ab92	0.19108418
16	0xbb9b35c2	-0.004736633
17	0xbda32d1b	-0.079675876
18	0x3dadea39	0.0849194
19	0x3f068d66	0.52559507
20	0x3f1a252a	0.6021296
21	0xbe167b66	-0.1469551
22	0x3df36dfd	0.11886213
23	0x3d113bee	0.035457544
24	0x3e15b32f	0.14619134
25	0xbd97ac01	-0.07405854
26	0x3cbb8349	0.02288975
27	0x3e87dfc1	0.26537898
28	0x3e2c4012	0.16821316
29	0xbd78169d	-0.06056844
30	0xbdea64dc	-0.11445019
31	0x3ebc861d	0.3682107
32	0xbdb823e2	-0.08991219
33	0xbe0fbc0e	-0.14036581
34	0xbd824e5b	-0.06362601
35	0xbdcda699	-0.100415416
36	0x3e346af1	0.1761892
37	0x3ee26bf5	0.4422299
38	0xbdc6e57a	-0.09711738
39	0x3e196921	0.1498151
40	0x3cce2fa1	0.025169196
41	0x3d7591b3	0.059953403
42	0x3eaa3a8f	0.33247802
43	0xbe832170	-0.25611448
44	0xbea03a90	-0.3129468
45	0x3e970728	0.29497647
46	0xbe8eca3c	-0.27888668
47	0xbe5fe021	-0.21862842
48	0x3e835e1b	0.25657734
49	0xbd8f29c2	-0.069903865
50	0xbea93428	-0.33047605
51	0xbe89654c	-0.26835096
52	0x3e8178b1	0.25287393
53	0xbddf40c8	-0.10901028
54	0xbdd45f90	-0.103697896
55	0xbeae73a5	-0.34072605
56	0x3e5a8f09	0.21343626
57	0xbe00b5c0	-0.12569332
58	0xbe89725b	-0.2684506
59	0x3e339d84	0.17540556
60	0x3db8d54e	0.0902506
61	0x3da27833	0.079330824
62	0x3dc9cb67	0.09853249
63	0xbc2f226a	-0.010689357

critic.2.weight f4 [64, 64]
0	0xbda8ef80	-0.08248806
1	0xbce2f08d	-0.027702594
2	0x3c11350b	0.008862744
3	0xbd3b8c8b	-0.04578833
4	0xbcb4e4c1	-0.022081735
5	0x3dc0b67e	0.094098076
6	0x3e109cbe	0.14122292
7	0xbdb48abf	-0.08815526
8	0xbe187247	-0.14887343
9	0xbf02a038	-0.51025724
10	0xbedad7f7	-0.42742893
11	0x3ed129b3	0.40852126
12	0x3de4f0ac	0.11178717
13	0x3ec1dd97	0.37864372
14	0xbeac97de	-0.33709615
15	0x3da45655	0.08024279
16	0xbde9df90	-0.11419594
17	0x3f2833ad	0.6570385
18	0xbf2ad82e	-0.66736114
19	0xbf137406	-0.5759891
20	0xbf844882	-1.0334628
21	0x3f218cd9	0.6310554
22	0xbd83827f	-0.064213745
23	0xbe8534d7	-0.26016876
24	0xbdc6f526	-0.09714727
25	0x3e8c7db7	0.27439663
26	0x3e2d5359	0.16926326
27	0xbe81cd53	-0.25351962
28	0xbdedfae0	-0.11620116
29	0x3e629ff4	0.2213133
30	0x3e6b07b5	0.22952159
31	0xbe9d748e	-0.30752987
32	0xbb351032	-0.0027628061
33	0x3d45378e	0.048148684
34	0x3dfd9202	0.123813644
35	0xbc95740d	-0.018243814
36	0xbe86a288	-0.26295877
37	0xbf237c10	-0.6386118
38	0xba80a3f3	-0.0009814486
39	0xbe8492cf	-0.25893256
40	0x3d254ae5	0.040354628
41	0x3e7451aa	0.23859277
42	0xbe399684	-0.18123823
43	0x3e3a84dc	0.18214744
44	0x3e2629f0	0.16226935
45	0xbeadc7fa	-0.33941633
46	0x3e91a28a	0.2844432
47	0x3f11e3f1	0.56988436
48	0xbf0de52c	-0.55427814
49	0x3bdc9190	0.0067312196
50	0x3b28e3b1	0.002577048
51	0x3f1ba16c	0.60793185
52	0xbe5ec17c	-0.21753496
53	0xbd2c5ff2	-0.042083688
54	0xbdb152c2	-0.08658363
55	0x3e2cd672	0.1687868
56	0xbea1f27b	-0.3163031
57	0x3cddf041	0.027092101
58	0x3dad4cdb	0.08461925
59	0xbced81ef	-0.028992621
60	0xbe488d62	-0.19585183
61	0xbe323182	-0.17401698
62	0xbdd0bf46	-0.101927325
63	0xbe0385bd	-0.12843986
64	0xbd897575	-0.06711856
65	0xbd8a8235	-0.06763116
66	0x3d332954	0.043740585
67	0x3d4b1c91	0.04958779
68	0xbc05af67	-0.008159495
69	0x3d92278d	0.0713645
70	0x3c10fafd	0.008848903
71	0xbd57528b	-0.052568953
72	0xbe33d12f	-0.17560266
73	0xbc73288a	-0.014841208
74	0x3dd79f5d	0.10528443
75	0x3dfcdf0d	0.12347231
76	0x3df541c3	0.11975434
77	0xbd57161b	-0.052511316
78	0x3db32ad6	0.08748405
79	0x3bd86fd7	0.006605129
80	0x3dde7d2d	0.10863719
81	0xbd31037d	-0.043216217
82	0x3cdda368	0.027055457
83	0xbd88896e	-0.06666838
84	0x3c92a383	0.017900234
85	0x3d86d028	0.065826714
86	0xbd29f62d	-0.041494537
87	0x3c707322	0.014675887
88	0x3dd376c0	0.10325384
89	0x3de0bd6c	0.10973629
90	0x3d754b91	0.05988652
91	0x3d18271e	0.03714668
92	0x3e054200	0.13013458
93	0xbe02c772	-0.12771395
94	0x3d5be684	0.053686634
95	0x3dfabca5	0.12243012
96	0x3d7941e2	0.060853846
97	0xbe1dc248	-0.15406144
98	0x3d5b2321	0.0535003
99	0xbe0d2334	-0.1378296
100	0xbdf98cff	-0.12185096
101	0xbd35f093	-0.044418883
102	0x3dc2d416	0.095131084
103	0x3df741fc	0.120731324
104	0x3c740556	0.01489385
105	0x3ce92a6f	0.028462617
106	0xba8320b5	-0.0010004254
107	0x3e1c793c	0.15280622
108	0x3cccea5d	0.025014097
109	0xbdbd679c	-0.092482775
110	0xbcc350aa	-0.023842175
111	0x3cebc1b0	0.02877888
112	0x3d2d1d1b	0.042264085
113	0x3ca44b83	0.020055538
114	0x3d94c1fa	0.072635606
115	0x3bd96d9b	0.0066353804
116	0xbda3c322	-0.07996203
117	0xbe1b938c	-0.15193003
118	0x3bce1241	0.006288797
119	0xbd82e45f	-0.063912146
120	0x3d85ad72	0.06527223
121	0x3b9ee7d2	0.0048494125
122	0x3d9148ae	0.07093941
123	0x3d663e54	0.056211784
124	0x3d36ffb1	0.04467744
125	0x3d691af8	0.056910485
126	0x3dca24cb	0.09870299
127	0x3db74c66	0.08950119
128	0x3d97676f	0.07392775
129	0x3c900ba0	0.017583668
130	0x3c887fd3	0.016662514
131	0xbdb350e1	-0.08755661
132	0x3d8930c4	0.066987544
133	0xbb11a864	-0.0022225613
134	0xbda32d2a	-0.07967599
135	0x3de4aa9e	0.11165355
136	0x3b14d002	0.002270699
137	0x3ce704f3	0.028200602
138	0xbd803889	-0.06260783
139	0xbcc5169e	-0.024058636
140	0xbe0e4713	-0.138943
141	0x3ca46c1f	0.020071087
142	0xbc62b936	-0.013838103
143	0x3db61d09	0.08892257
144	0x3d901cb6	0.07036726
145	0x3e35be8b	0.17748468
146	0x3d0baeb4	0.034102157
147	0xbd33e5d6	-0.04392036
148	0x3b442838	0.0029931199
149	0xbdc04ff0	-0.09390247
150	0xbc20f458	-0.009823881
151	0xbda6d816	-0.08146684
152	0xbcb38bf8	-0.021917328
153	0x3e13234e	0.14368936
154	0xbb1d7578	-0.0024026316
155	0xbda5a20c	-0.080875486
156	0xbd0090e4	-0.03138818
157	0x3e0a4c65	0.13505705
158	0x3d95f119	0.07321376
159	0xbd9c054b	-0.07618197
160	0xbb919aca	-0.004443501
161	0xbd92a78c	-0.07160863
162	0x3db70a83	0.08937552
163	0xbcd385f8	-0.025820717
164	0x3da78a16	0.08180635
165	0x3d9fef29	0.07809288
166	0x3d1311b0	0.03590554
167	0x3b34681c	0.0027527874
168	0xbd7dd418	-0.061969846
169	0xbd7cb43c	-0.061695322
170	0x3c365ca7	0.0111304885
171	0xbcea0cfc	-0.028570645
172	0xbdc81eda	-0.097715095
173	0xbcbe4303	-0.023225313
174	0xbe009ae5	-0.12559088
175	0xbd8dedd2	-0.06930126
176	0xbd8e17b4	-0.06938115
177	0x3de1ebfd	0.11031339
178	0x3de8e6d0	0.11372149
179	0xbda21403	-0.07913973
180	0x3db72d37	0.08944171
181	0x3da2e3a6	0.07953577
182	0x3e06a237	0.13147818
183	0x3db2ab91	0.0872413
184	0x3d60452f	0.05475348
185	0x3cfe170f	0.031016855
186	0x3d28ddc9	0.041227136
187	0x3c4c0d5b	0.012454356
188	0x3e084006	0.13305673
189	0x3daeaa0d	0.08528528
190	0x3d8af2d3	0.06784596
191	0x3a53e6f2	0.0008083425
192	0x3c326dbd	0.010890421
193	0x3d1360fc	0.035981163
194	0xbcf0012f	-0.02929744
195	0xbc9b4d0b	-0.018957635
196	0xbcba0bd3	-0.022710716
197	0xbde25bb3	-0.110526465
198	0x3d658483	0.056034576
199	0x3db1a9e5	0.08674983
200	0xbd0675f1	-0.03282732
201	0x3dd6cb1c	0.10487959
202	0xbd254f8b	-0.04035906
203	0x3d8e0428	0.069343865
204	0xbd1ffa6f	-0.03905719
205	0xbda77b84	-0.081778556
206	0x3da79d51	0.081843026
207	0x3d8d8156	0.069094345
208	0xbc2f1d5f	-0.010688155
209	0xbb14d7c1	-0.0022711607
210	0xbc5e0c80	-0.013552785
211	0x3e4c78ca	0.19967952
212	0xbcaf3944	-0.021389611
213	0x3e30f082	0.17279246
214	0x3d7923ac	0.060825035
215	0x3d92c039	0.0716557
216	0xbca06c4e	-0.019582894
217	0xbe2edab0	-0.1707561
218	0x3c577d63	0.013152453
219	0xbdb22ef1	-0.087003596
220	0xbda23348	-0.07919937
221	0xbaa56ef6	-0.001262157
222	0xbd8cff5e	-0.06884645
223	0x3e12b6ec	0.14327592
224	0xbc85d646	-0.016337525
225	0xbd1330af	-0.0359351
226	0xbbe4e025	-0.006984728
227	0x3cbdb700	0.02315855
228	0x3d2c22f0	0.042025506
229	0xbd9d48c0	-0.076798916
230	0xbc208d88	-0.009799369
231	0xbca90fed	-0.020637477
232	0x3e3fd54c	0.1873371
233	0xbce5dca3	-0.02805931
234	0x3d17a6fd	0.037024487
235	0x3d65cf22	0.05610574
236	0x3c6302df	0.013855665
237	0xbcc763f4	-0.024339654
238	0xbd221deb	-0.039579313
239	0x3d906bc9	0.070518084
240	0xbdb6547b	-0.08902832
241	0x3e10d0b8	0.1414212
242	0x3d96dffc	0.073669404
243	0xba8e5ace	-0.0010860802
244	0xbdfb1559	-0.12259931
245	0xbcf28cf2	-0.029608224
246	0xbcca5c90	-0.02470234
247	0xbd570493	-0.052494597
248	0x3dcf2c0b	0.101158224
249	0x3c4549f0	0.012041554
250	0xbcaa5619	-0.020793008
251	0x3de487a7	0.11158686
252	0x3c3037b4	0.010755468
253	0xbd2a3efd	-0.041563977
254	0xbcf01ee0	-0.029311597
255	0xbda44003	-0.08020022

critic.2.bias f4 [64]
0	0x3c2af036	0.010433247
1	0xbda568ea	-0.080766514
2	0xbb181977	-0.0023208538
3	0xbe1b2da1	-0.15154125
4	0x3d6045f5	0.054754216
5	0xbbdff792	-0.0068349326
6	0xbca317fd	-0.0199089
7	0x3df33970	0.1187619
8	0x3dfe26ed	0.12409768
9	0x3da84acd	0.08217392
10	0x3d7846a6	0.06061425
11	0xbe95282a	-0.29132205
12	0xbdb64cb4	-0.08901349
13	0x3d2a0c8d	0.041515876
14	0x3c9fb35b	0.019494703
15	0x3e2f9848	0.17147934
16	0x3deb5ee7	0.114927106
17	0xbe1fa94f	-0.1559193
18	0xbdbeebec	-0.09322342
19	0x3d5b2a57	0.053507175
20	0xbda44256	-0.08020465
21	0xbdbb42cf	-0.09143602
22	0x3d7fc42e	0.06244295
23	0xbd14c99a	-0.036325075
24	0xbdb2640b	-0.08710488
25	0x3c849e77	0.016188843
26	0xbe448203	-0.1919022
27	0xbd021f66	-0.031768225
28	0xbdac90ac	-0.084260315
29	0xbbf10819	-0.0073557016
30	0x3dacd3eb	0.08438858
31	0x3d23498b	0.039865058
32	0xbce4b992	-0.027920518
33	0x3e454aa2	0.19266751
34	0x3df24ea1	0.118314035
35	0x3dde7b8c	0.108634084
36	0xbcca2b9e	-0.024679001
37	0xbc78d980	-0.015188575
38	0xbe34445d	-0.17604204
39	0xbdd3a28c	-0.10333738
40	0xbe90c506	-0.28275317
41	0x3c47b88c	0.0121899955
42	0x3d9366c0	0.071973324
43	0x3e85159e	0.25993055
44	0x3cbeb7d8	0.023281023
45	0xbde00f18	-0.10940379
46	0x3d7181da	0.058961727
47	0xbc92802a	-0.017883379
48	0x3d32be34	0.043638423
49	0xbd25da2b	-0.040491264
50	0x3e2f7341	0.1713381
51	0x3c727da9	0.0148004675
52	0xbcbb797a	-0.022885073
53	0xbda2d8a3	-0.079514764
54	0x3d855121	0.06509615
55	0xbc82c018	-0.015960738
56	0xbdba1726	-0.090864465
57	0xbdbbf293	-0.09177127
58	0xbd2ecd81	-0.042676453
59	0x3d1c3456	0.03813585
60	0xbe0f01b0	-0.13965487
61	0xbdc50980	-0.096209526
62	0xbd2d654f	-0.042332944
63	0x3c8d7d3b	0.017271629

critic.4.weight f4 [1, 64]
0	0xbe007c25	-0.12547357
1	0xba24fbd1	-0.0006293627
2	0x3a741636	0.0009311171
3	0xbb13731d	-0.0022499033
4	0x38ce7a87	9.845668e-05
5	0x399d8a41	0.0003004838
6	0x3b0bee85	0.0021351886
7	0xbd897d8d	-0.067134
8	0x39431678	0.0001860502
9	0x3a754912	0.00093568966
10	0x3a12497a	0.0005580407
11	0x3defc38d	0.1170722
12	0x3920b51f	0.00015326262
13	0x3b08840f	0.0020830666
14	0x3a0fe98f	0.000548982
15	0xbdbc7f71	-0.09203995
16	0x3aa06644	0.0012237509
17	0x3e0e8a85	0.13920029
18	0x3a474fb2	0.0007603123
19	0xbb21dc62	-0.0024698009
20	0xb9ccd2f5	-0.00039067087
21	0x3b1829b0	0.0023218207
22	0x3d9332a2	0.07187392
23	0xbb2095c9	-0.0024503341
24	0x39e1ddb3	0.00043080523
25	0xb83b2187	-4.46155e-05
26	0x3dadc500	0.084848404
27	0xbc37d1bd	-0.011219439
28	0xbae33b0b	-0.0017336322
29	0x3904f558	0.00012679899
30	0xb9678b7b	-0.00022081837
31	0x3ae6b9da	0.0017602996
32	0x3a38b2b8	0.0007045674
33	0xbdaac629	-0.08338577
34	0x3b0d4d37	0.0021560916
35	0xb84de08d	-4.9084938e-05
36	0xbb00b20d	-0.0019637377
37	0x3b0ba195	0.0021306027
38	0xbdb80bed	-0.0898665
39	0xbb4c194c	-0.0031143008
40	0x3d51ab0e	0.05118852
41	0xbe160acd	-0.14652558
42	0xbb5309fe	-0.0032202
43	0xbe228b9a	-0.15873566
44	0xb9b55218	-0.00034584175
45	0x3df2e4ba	0.118600324
46	0xb9e68ad4	-0.00043972454
47	0xb96c998a	-0.00022563912
48	0xb96437d5	-0.00021764573
49	0x39072a9d	0.00012890478
50	0xbda80a1a	-0.08205052
51	0x39e8b315	0.00044383915
52	0x397279fe	0.00023124364
53	0xbb3fa980	-0.0029245317
54	0x3aae10e8	0.0013280185
55	0xba289a11	-0.0006431649
56	0x3b099f0d	0.0020999343
57	0x3a95ab36	0.0011418823
58	0xbaa9e491	-0.0012961795
59	0xbb37287a	-0.002794771
60	0xbb09113f	-0.002091482
61	0x3d82b451	0.06382049
62	0xba3dd208	-0.0007241075
63	0xbb54ae35	-0.0032452468

exp_avg f4 [7]
0	0xbb5d29cd	-0.003374684
1	0xbba172bc	-0.0049270075
2	0xbb104f1d	-0.0022019811
3	0x3baeac16	0.005330573
4	0x3c09a4e7	0.008401132
5	0x3af1da79	0.0018451951
6	0x3b9b62e3	0.004742013

exp_avg_sq f4 [7]
0	0x3adc69b4	0.001681617
1	0x3b130c8d	0.00224379
2	0x3ad73f92	0.0016422144
3	0x3a9e9942	0.0012100118
4	0x3adc442b	0.0016804984
5	0x3aa4c7c5	0.0012571743
6	0x3a8de454	0.0010825493
