logs/rsl_rl/franka_reach/2025-06-16_20-11-58/model_750.pt (torch, 172795 bytes, 36 tensors)

std f4 [7]
00000000: 9b30 f53d 6331 db3d d5a7 d93d 3e2b 043e
00000010: e088 e73d 0f61 fd3d c680 1b3e
0.119721614 0.10702779 0.106277145 0.1290712 0.11305404 0.12372028 0.15185842

actor.0.weight f4 [64, 32]
00000000: 998b babe 9bec 5b3e fdcb dfbe 6602 c03e
00000010: e637 d13d dd24 6f3e 605c 123e b807 e93e
00000020: 3020 233f 0bfb 893d 50ab a53e 5151 293e
00000030: 0e5f 9a3e a08d c43d 8864 3ebd 841c c8bd
00000040: b88c 13bf 09b6 80bd 7a20 47bf b288 cbbd
00000050: 76d2 383f 6ba6 acbc cb69 32bf 0cb5 983d
00000060: ab34 11be 7031 9fbd f3d3 91be 795c 70be
00000070: 7e49 993d ef9c a8be e76f 403c 39b0 7abe
00000080: 2ec3 f93c 13d8 c63d 8eb3 9ebe 9866 563f
00000090: 3b15 583f 20b7 8d3e 9008 9f3d 956a 18be
000000a0: 5c4c 643e fa32 0d3e 7ee0 3abe b7e8 fd3e
000000b0: 8133 f0bd 0d0d 613d f3a2 b43d 642a 4a3e
000000c0: a01d 933e 41dd 94bf aab9 7cbf 3872 03c0
000000d0: 8ead 04bf 7837 113e 9dce 983e 99ed a13e
000000e0: c765 683d 45ee d83d e9d7 a13d 2bc2 13be
000000f0: 6c5d c03d 4a4d c5bd 268a 3a3c 7c8b 04ba
00000100: a675 2e3f 49f0 31be de3d 473f 9e0e 84be
00000110: 5f48 623e 30fd 993b ca86 6f3e 35f0 223f
00000120: 04ef 573f 3f94 edbd c37b 483c 0c66 11be
00000130: 73e4 e33d 5a23 b03d 420e 3c3e fa67 b53d
00000140: 5022 5fbf 2164 263f 0f1a db3c 97d7 e3bf
00000150: 2aaf b03e 1483 22bd 1351 54be 5d98 5f3d
00000160: 9412 b9bd 8d87 19bd 78fa 063e dd72 14bd
00000170: 1a17 383d 64b2 a73e a3fe fbbe 430b 03bf
00000180: d6da 8cbf 74dc 0a3c 2ac8 b33b 91b3 3bbf
00000190: 9c45 c2bd fe65 f6be 73b1 853e 8cd6 83bd
000001a0: 80a3 243e 4e0b 62be f7fa a5be 732d fe3d
000001b0: e91d 8d3e f2fb 81be 9e3f 1abe 3de5 81bc
000001c0: 7759 013f cd78 733e 761e d6bd 5386 af3e
000001d0: 9def ff3e fbd0 1ebe f806 14bf 82b0 32be
000001e0: 8513 1cbb c4ef fabe 33ae 65be 8249 90bd
000001f0: 2c7b a8be 4a4c d9be be2f 003e 743d a7be
00000200: ff89 37bd 7976 0dbe 25cf a53d d89e 933e
00000210: 50f1 08bf 65a2 783f 9294 a53d 7b7f 46be
00000220: 9156 48be 75f8 c63c 8908 34be 46dd c1bd
00000230: 16a6 763d 586f f0bd 1ede cebd 9f44 c2bd
00000240: 761f 82be 9515 e4be 7db0 d9be 5622 f53f
00000250: cbb6 653f db64 0dbe bb53 97be 9bcd 47bf
00000260: b633 96bc 27c2 16bf bc4f 7b3c d123 f53d
00000270: efa2 23be 8883 713d dfe7 a7be 319e 07bd
00000280: d135 ea3e 0244 16bf 3fac cc3e 2bd6 33be
00000290: dcc9 a83e 9920 973f c556 003d 3b8f be3e
000002a0: abb6 0f3e c37e c6bd dd22 5c3d 43f3 8dbd
000002b0: 1bfb c1bb ac4e 87bc 9e43 29bc 0d87 0abd
000002c0: 2de5 743c 320f 41bf d536 c63d 4868 a9bf
000002d0: 7180 49bf 2b77 a83d 6f34 883d b143 713f
000002e0: 73a6 b53d b3a3 693e a8ee 6a3e 3290 a63d
000002f0: 0abb aa3d 9186 873d cb53 903d 5647 1abd
00000300: eac2 bc3d 0e84 153d f687 d5bb a112 0fbf
00000310: 06eb d1bd 9a4c f0be 43c0 a93d 6d16 973e
00000320: 67c2 f73d 5494 cc3c 9e68 143e 80ad 513d
00000330: 3c02 b9be 508e 81bd de29 a13d 132a 7bbe
00000340: 629d a63f f3bb dc3e 6c0f 40be 8915 f8bd
00000350: 99c1 09bd 4826 dbbd 3702 d8be fea8 ab3e
00000360: 0ad6 cf3c d7b8 623e 2d8f c23e 756c febd
00000370: b7b8 94bd f19d c93d 17f8 8ebd 26e1 ffbd
00000380: 2630 773f 69fc 9e3b 84f8 913f 5044 98be
00000390: 756a d3be 1996 d3be fc29 3ebf 5c33 6f3e
000003a0: 4641 f23d e38a 8e3d d4e0 a9bc fd09 663e
000003b0: 0aff cc3e c825 293e ad37 e3bc 1c7d 8cbe
000003c0: 5d5d 3d3f c9c0 043c af88 dc3c 6669 fcbf
000003d0: 233a 17bf 38c1 f9bd f2ee 16bf a755 193e
000003e0: c7f2 6abd 31b1 51be 1e7c dabd 63f4 0bbf
000003f0: e819 ed3c 126e b4bd b43f 353c 5df5 cdba
-0.3643463 0.21476977 -0.43710318 0.3750183 0.1021574 0.23353906 0.14293051 0.455137
0.6372099 0.06737336 0.32357264 0.16534926 0.30150646 0.09597325 -0.046482593 -0.09771064
-0.57636595 -0.062847205 -0.7778393 -0.09938182 0.7219614 -0.021075448 -0.6969268 0.07456407
-0.14180247 -0.07773101 -0.28482017 -0.23472776 0.07484721 -0.3293223 0.01174543 -0.24481286
0.030488577 0.09709182 -0.30996364 0.83750296 0.84407395 0.27678776 0.07765305 -0.14884408
0.22294754 0.13788977 -0.182497 0.4959161 -0.117285736 0.054944087 0.088201426 0.19742733
0.2873354 -1.1630021 -0.987208 -2.0538464 -0.51827323 0.14181316 0.29845133 0.31626585
0.056737687 0.10592321 0.0790251 -0.14429538 0.09392819 -0.09633882 0.011385476 -0.0005056185
0.6814827 -0.17376818 0.77828777 -0.25792402 0.2209792 0.0046993718 0.23391262 0.63647777
0.84349084 -0.11600541 0.012236538 -0.14199084 0.111275576 0.08600493 0.18364814 0.088577226
-0.8716173 0.64996535 0.026745824 -1.7800168 0.3450864 -0.039675787 -0.20734052 0.054588664
-0.090367466 -0.037482787 0.13181484 -0.036242355 0.044943906 0.3275329 -0.4921771 -0.5118906
-1.1004283 0.008475412 0.005486508 -0.7332087 -0.09485933 -0.4812469 0.26111946 -0.06437406
0.16077995 -0.22074625 -0.32418033 0.124110125 0.27561882 -0.25387532 -0.1506333 -0.01585638
0.5052714 0.2377655 -0.10455029 0.3428217 0.49987498 -0.15509407 -0.57823133 -0.17450145
-0.0023815345 -0.49011052 -0.22429733 -0.070452705 -0.32906473 -0.42441016 0.12518212 -0.32664073
-0.044809338 -0.13814725 0.0809615 0.28832126 -0.53493214 0.97122794 0.08084978 -0.19384567
-0.19564272 0.024288395 -0.17581381 -0.09466033 0.060216986 -0.11739987 -0.10100959 -0.09485745
-0.25414628 -0.44547716 -0.42517462 1.9151103 0.89732045 -0.13808005 -0.2955607 -0.78048104
-0.018335205 -0.5889 0.015338834 0.11969722 -0.15980123 0.05896333 -0.3279409 -0.033109847
0.45744184 -0.5869752 0.39975163 -0.17562167 0.32966506 1.1806823 0.03133275 0.3721865
0.14034526 -0.09692147 0.053744186 -0.06931164 -0.0059198267 -0.016517006 -0.010331063 -0.0338202
0.014947218 -0.7541381 0.09678427 -1.3234949 -0.7871161 0.082258545 0.06650626 0.94243914
0.08869638 0.22816353 0.22942603 0.08132972 0.08336456 0.066174634 0.07047232 -0.037665688
0.092168644 0.03650289 -0.006516452 -0.558878 -0.10249905 -0.46933442 0.08288624 0.29509297
0.12097626 0.024973072 0.14493033 0.051190853 -0.36134517 -0.06325972 0.07869314 -0.24527769
1.301678 0.43112144 -0.18755883 -0.121134825 -0.033631895 -0.10700661 -0.4218919 0.33527368
0.025370616 0.22140823 0.3799986 -0.1242303 -0.07261794 0.09844578 -0.06980913 -0.124941155
0.96557844 0.004851867 1.1403966 -0.29739618 -0.41292158 -0.41325453 -0.74282813 0.23359436
0.11828856 0.06960084 -0.02073709 0.22464748 0.4003833 0.16518319 -0.02773651 -0.274392
0.73970586 0.008102604 0.026920645 -1.9719665 -0.59073085 -0.12195057 -0.5895835 0.1497408
-0.057360437 -0.2047775 -0.10668205 -0.5466978 0.028943017 -0.08810057 0.011062551 -0.0015713383

actor.0.bias f4 [64]
00000000: b0ba 8bbe 4d1f 10be 61b1 24bf 2b27 db3a
00000010: f747 003e dde4 a2be d5c4 cbbe 76c3 ddbc
00000020: 93c2 c63e 1fd1 8b3e a33e eabd e33a c5bc
00000030: 5864 fcbd 9782 82be 31bf 28bf 8275 8fbe
00000040: 6596 2b3f cda1 523e 065e 8f3e 1ace 4a3e
00000050: e570 103e c94e 703e 6b35 aabe c929 0f3e
00000060: accc 2abf f839 353f 40d2 a6bd f800 dabe
00000070: bcc9 eabd 42dc 3e3e 0daf 56be df24 e53e
00000080: fc3e 37bf 1532 5ebe 0524 b33e 2041 78bd
00000090: a0fe 173d 33f4 2b3d a153 12bf 2bc0 92be
000000a0: 6694 0c3e a6c4 8bbd c54f 0c3f 29e8 45be
000000b0: 9bd6 dc3d c5ef bc3d eb7e 79be 2ed2 e9bc
000000c0: 6ca3 013f ad83 07bf ce59 833d 72ac 4dbe
000000d0: 6331 90bc b0ee 81be 1734 14bf ef6d 97be
000000e0: 56c3 d5be aaf1 223d 7330 0f3e a2ec 8e3e
000000f0: 3c86 5bbd 896a 943e b58e 963e a541 b4bd
-0.2729087 -0.1407444 -0.6433316 0.0016720047 0.12527452 -0.31815234 -0.39798608 -0.027070742
0.38820323 0.27307984 -0.11437728 -0.024075931 -0.123238266 -0.25490257 -0.65916735 -0.2801934
0.6702636 0.20569535 0.28001422 0.19805184 0.14105566 0.23467554 -0.3324388 0.13980784
-0.66718554 0.7079158 -0.08145571 -0.42578864 -0.11464259 0.18638709 -0.20965214 0.44754693
-0.7158048 -0.21698792 0.34988418 -0.060608983 0.037108064 0.041980933 -0.5715886 -0.28662238
0.13728485 -0.06824617 0.5480922 -0.19326843 0.1078312 0.0922542 -0.24364822 -0.028542604
0.50639987 -0.52935296 0.06413613 -0.20085314 -0.017601674 -0.25377417 -0.5789198 -0.2957606
-0.41750592 0.03978125 0.13983326 0.27914912 -0.053594813 0.2898753 0.29405752 -0.08801583

actor.2.weight f4 [64, 64]
00000000: 4b19 0bbe a867 1e3e f564 ed3e cae7 7d3e
00000010: 9ba7 f7bd 48c6 893e acbb 853e 8a63 c1bd
00000020: e89b 393e d10a 07be f66a c43d 45d6 84bd
00000030: 7ba4 a83c 1a37 653e f4b1 383e 0694 2abd
00000040: c165 b9bb 4379 1c3e 32f1 913d e18d 24bd
00000050: 567d 2abe a7be 4a3e f198 b1bd bf8c 0bbd
00000060: b4bf 893d db65 49bf 9775 233d 476a a7be
00000070: f423 5ebe 95d0 e4bc b20b 0bbe df3d 64be
00000080: 9e0a 94be f77f a73e 301c 233e f000 02bf
00000090: d9bf 9e3d e860 6cbd c9f3 c03e 355d 133d
000000a0: 083c 943d 66c4 123e 6982 813e 9a27 78bc
000000b0: 5f9d c7bc f955 a0ba 8dcb 29be f27e 5e3e
000000c0: 4f06 55be 3496 aebd 5306 6ebe ac94 f4be
000000d0: 46ea 68bc f51b 8dbc ab5f cdbe 4241 293e
000000e0: 0bcc 8c3c 7d7d 31be d53b 0f3e 5648 ecbe
000000f0: ca2c e9bc fb00 d13d 0b1a 093e 1ed6 35be
00000100: bb52 0e3e 6ba9 b03e ee65 46bb da91 173e
00000110: 39bf 4fbe eae4 99bc ef2d 433d a799 fc3d
00000120: 4eba d13c 7927 4a3e e7ff 3f3d d747 51bd
00000130: b064 8ebd ef83 8e3e b02b ec3d 4225 e2bd
00000140: 8f28 a8bd 152c 53bc d832 a93d 02b8 18bd
00000150: 53ed b83d 1491 bc3d 05e5 b0bc df41 8a3d
00000160: d7ef 653d e1c2 65bc 4b3f 86bd 5cd0 16bd
00000170: 2816 1ebe a9ad 1bbd 953d 2dbe c18d 263e
00000180: 3225 673e 23fa 753d 8114 78be bda9 37be
00000190: 51c3 b6bc 36bd 98bc dc6a 883d 22f7 013e
000001a0: fead 87be bf8f aabe 0702 a1bc 1054 35bd
000001b0: 2d77 c03d 2b66 143d ce49 b63d e118 1cbe
000001c0: da85 adbe 4fcf 903d e5fc 13be b349 b83e
000001d0: b132 acbc 7dd0 e6bb fcbd ee3c bede 203e
000001e0: 32da 923d ac42 a9be d3e0 cebb 46ab 813e
000001f0: 6146 343e 2808 4cbc 1332 003e f778 abbe
00000200: 0eac 8e3e b782 80bd 11ae e3be 7606 b8be
00000210: fe97 733e 7207 aebe 63c9 72bd d23a 91bd
00000220: 7559 56bb 408d ddbc c83e d4bd ddfd df3d
00000230: a3bc aeba 570d dd3d 05bf 5e3e e5e7 2f3e
00000240: 4446 72be e6af afbd d147 5ebc 9188 3bbd
00000250: 3397 e9bd 5242 443e 8998 833e f8e8 b7bd
00000260: bccc 363e e95d 88be a019 aabe b15b 91ba
00000270: 97e5 fe3c d2a3 c63c 89b9 ce3d a398 8abe
00000280: 5e16 623e 7b67 823e 5f86 6c3c bf95 22be
00000290: 435a 99be de52 99be b4b0 10be aad9 f6bd
000002a0: 75d0 a9bd fc75 0bbe 002e 74be e698 52bd
000002b0: 4ce5 6a3e e97d de3c b10e 373e 62ad f1bd
000002c0: 9bab 5c3e 00fa 143e 522d 293d 4647 373e
000002d0: f664 2f3e 146f 4dbe 752a f83d cda4 66bd
000002e0: 6a6b 393e e588 82bd 23a7 ddbe 3c47 96bd
000002f0: 8676 cb3c f6ae 9fbd bf31 52be 78db 7e3b
00000300: 66b2 a33c 48ad 493d 128d 6dbe 4352 bbbe
00000310: 3aee 2d3e 4555 863e edcb 2c3e c224 d6bd
00000320: 0108 1e3d 6573 8a3e 0d09 47bd 563a 65bd
00000330: 2ca8 d93c 078c 82bd eb1d eebd 6c92 8fbd
00000340: 6813 4bbb 28d2 3a3d 4f64 153e baa2 423e
00000350: 481e 1e3e ac15 af3c 1f19 b8bd 1fed 073e
00000360: 260d bebe e29e 203e 8778 62bd e721 31be
00000370: bc7f 96bc 29b9 2a3e 36d3 c33d d972 0fbd
00000380: df35 123e 87bf 2ebe 5214 b4bd 9d8e 3cbe
00000390: ab7d d93e 9471 8c3d 845c 78bc d272 afba
000003a0: 6426 f83d 1056 a2bc 5b84 223d d673 673d
000003b0: d3f8 d3bd e83a 2a3d 24c3 75bd 1622 443e
000003c0: aa13 25bd df4d ad3d 72e3 1abe 2354 f93d
000003d0: 46bb 5abd 0fd7 013d 7f4f 283e ef96 e3bb
000003e0: b0c0 373e 2be5 febd 9766 d63c 3129 1d3e
000003f0: 7c06 713d 87c4 c5bc bef2 203e 0bcd e53d
-0.13583867 0.15469229 0.46366087 0.24795452 -0.12092515 0.2690909 0.26119745 -0.09442814
0.1812588 -0.1318772 0.09590714 -0.06486181 0.020586243 0.22384301 0.18036634 -0.041645072
-0.005657882 0.15280633 0.071260825 -0.04017437 -0.16649374 0.1979929 -0.086717494 -0.034069773
0.067260176 -0.78671044 0.039907064 -0.3269827 -0.21693403 -0.02793149 -0.1357868 -0.22289227
-0.2891435 0.32714817 0.15928721 -0.5078268 0.07751436 -0.057709605 0.37685993 0.03597756
0.072380126 0.14332733 0.25294808 -0.0151461605 -0.024367033 -0.0012232653 -0.16581555 0.21728113
-0.20803188 -0.08524743 -0.232446 -0.47769678 -0.014216011 -0.017225245 -0.4011205 0.165288
0.017187139 -0.17333026 0.13987668 -0.46148938 -0.02846374 0.10205265 0.13388841 -0.1775746
0.13898747 0.34504256 -0.0030273157 0.14801732 -0.2028779 -0.018785913 0.047651228 0.12333994
0.025601532 0.1974162 0.046874907 -0.051093902 -0.06952798 0.27835032 0.1153177 -0.110422626
-0.08210861 -0.012888928 0.08261651 -0.03728486 0.09029641 0.09207359 -0.02159358 0.06750845
0.056136932 -0.0140235135 -0.06555041 -0.0368198 -0.1543814 -0.038007412 -0.16918023 0.16265012
0.22572783 0.060053002 -0.24226572 -0.17935844 -0.022309931 -0.01864491 0.06661007 0.1269193
-0.26499933 -0.33312795 -0.019654287 -0.04426962 0.09397731 0.036230247 0.08900796 -0.15243866
-0.33891183 0.07070791 -0.1445194 0.35993728 -0.021020265 -0.0070438967 0.029143326 0.1570997
0.07170524 -0.3305868 -0.006313422 0.25325984 0.17604972 -0.0124531165 0.12519102 -0.33490726
0.27865642 -0.06274932 -0.4446874 -0.3594243 0.23788449 -0.33990055 -0.05927409 -0.07091297
-0.003270713 -0.027044892 -0.10363537 0.109370925 -0.0013331365 0.1079356 0.21752556 0.17178304
-0.23659617 -0.08578472 -0.013566927 -0.045784537 -0.11405792 0.19165924 0.25702313 -0.08979982
0.17851537 -0.26634148 -0.33222675 -0.0011089948 0.031115336 0.024248037 0.10093982 -0.27069578
0.22078845 0.25469574 0.014436333 -0.15877436 -0.29951677 -0.29946035 -0.14129907 -0.12053235
-0.08291713 -0.13619226 -0.23845673 -0.051415347 0.22939032 0.027159648 0.17876698 -0.11800648
0.21549837 0.14548492 0.041302986 0.17898282 0.17128357 -0.20061904 0.12117473 -0.05630951
0.18107381 -0.06373767 -0.43291578 -0.07337806 0.02483679 -0.07797043 -0.20526789 0.0038888138
0.019982528 0.04923752 -0.23198345 -0.36586198 0.16985407 0.2623693 0.16874667 -0.1045623
0.038581852 0.27041164 -0.048592616 -0.055963837 0.026569448 -0.06374364 -0.116268 -0.0701035
-0.0030986909 0.045610577 0.14589046 0.19007388 0.15441239 0.021372639 -0.089891665 0.13274048
-0.37119406 0.15685609 -0.055290725 -0.17298089 -0.018371455 0.16672195 0.0956177 -0.035021637
0.14278363 -0.1706525 -0.08792938 -0.18413778 0.4247869 0.06857601 -0.015158776 -0.001338566
0.121166974 -0.019816428 0.039677005 0.056506954 -0.10350194 0.041560084 -0.060000554 0.19153628
-0.040301956 0.08462118 -0.15125826 0.12174251 -0.053401254 0.031699236 0.16436575 -0.006945483
0.17944598 -0.12446054 0.026171966 0.15347745 0.058844075 -0.024141563 0.15717599 0.112207495

actor.2.bias f4 [64]
00000000: 3505 d8be 3baa 18bd 796c ffbd 2724 0e3e
00000010: b9d7 84be 717b b0be 2a39 e8bd 2698 c8be
00000020: 76a3 b2bd f1b9 52be c1c3 bebe 4720 8abe
00000030: b4e7 82be 6df4 54bc 055d 3fbe 1b95 abbd
00000040: 8038 98be 0c2c 16bf 7339 5dbe b9f0 a7be
00000050: 3249 fdbe 2c43 83be 8db0 91be bcda 65bd
00000060: e5f9 b9be cd72 14bf a21f c8be daaf 5bbe
00000070: cd94 7dbd b102 92be 5d7e 613e 7960 ccbe
00000080: 7a3c 0dbe 99f0 34be 1af4 07bf 8653 f2be
00000090: b383 15bf 36fa ddbe 4799 18be 7d2a 56be
000000a0: f9e9 f6be 15d7 acbe e1b0 13be f76a 17bd
000000b0: eeb2 7fbe 2058 06bf a030 73bc 2bc8 fbbd
000000c0: 9b9a bcbc c66b a2be b3d5 68be d772 f0be
000000d0: ab99 aebe dc90 7ebe 88c7 c7be c0c6 bfbe
000000e0: 30c3 04be 614a 93be c1bb 7dbe 3856 e1be
000000f0: 3534 abbe 0eee 78be 48b5 7bbe b570 513d
-0.42191473 -0.03727172 -0.124718614 0.13880979 -0.25945833 -0.34469178 -0.11339028 -0.3917858
-0.08722584 -0.20578744 -0.37258723 -0.2697775 -0.255674 -0.012997729 -0.18687828 -0.08378049
-0.29730606 -0.5866096 -0.21603946 -0.32800844 -0.49469906 -0.25637186 -0.2845501 -0.056116804
-0.36323467 -0.5798767 -0.39086634 -0.21453801 -0.061909486 -0.28517678 0.2202086 -0.39917353
-0.13792601 -0.17669906 -0.53106844 -0.47329348 -0.5840408 -0.43354958 -0.1490222 -0.20914645
-0.48225382 -0.33757845 -0.14422943 -0.036967244 -0.249706 -0.5247822 -0.014843136 -0.122940384
-0.02302294 -0.3172285 -0.2273777 -0.46962616 -0.34101614 -0.24859947 -0.39019418 -0.37456322
-0.12965083 -0.28767684 -0.24778654 -0.44011092 -0.33438268 -0.2430956 -0.24580872 0.051132876

actor.4.weight f4 [7, 64]
00000000: 3dc6 933d d168 76bb cb5e 57bd 99a2 983c
00000010: 32a0 953d 6ad6 d4bc 42ba 4abb 8363 f5bc
00000020: 24f5 d63c 0d0e 38bc 5c73 853d ce72 c73d
00000030: e12c 83bc f74d e63c 4448 313c 7156 0bbd
00000040: 5437 a33d 1874 b9bd aa5b 2cbd 2c50 b5bd
00000050: 26fa 12bc 5bc0 873d 1871 1d3b 8936 093e
00000060: 2e8e 63bc 8932 013e d586 0a3d 2e75 dfbc
00000070: a374 4bbd 6c62 3f3d 1726 f1bc d99d 2c3e
00000080: c999 563e 6725 a0bd 6586 ac39 6a1f af3c
00000090: 1961 95bd 4da6 0cbd 12fd 05be 2637 ec3d
000000a0: ef05 de3d 720e ec3d 7df0 d7bd 070f 2c3d
000000b0: 4259 e2bd d36a fc3d 91d4 523d 0dfa 403c
000000c0: c240 8e3d 1e6e 3cbd 4c50 a33d 15ee 54bd
000000d0: 1511 b03d 8b6d 93bd dc0d 523d c26b 703d
000000e0: f9c4 86bd a878 80bd d205 7c3d 8d9f 29bc
000000f0: 97bb 6a3e 9e93 0c3e 81a7 b33d 2d63 cabd
00000100: 56c4 babc 8652 00bd 0a2b f73c 599d 273c
00000110: a702 8b3d d732 483d 2573 573c 3f08 2c3d
00000120: 6823 a1bc 87f8 943d e8d8 7dbd ac88 dabc
00000130: 4c4e 8dbc 9b82 8a3c 4227 4fbd 94ed 05bd
00000140: f2f9 aabc b9fd 34be 49ae a4bd cd99 e43c
00000150: b483 edbd dbcc b1bd 137d 55bc e771 33bd
00000160: d09d b33b 4d4f 5c3c 112a 8abd 99e2 6f3c
00000170: b780 233d a1d4 a4bc 0a16 333d 0bfe f33c
00000180: 1a31 403e 02f6 b0bc a75a 5abe 34e6 d7bc
00000190: 2610 aabc badd fbbc 7a09 0ebd d423 323d
000001a0: 63ec 2cbd 465d 1cbe 6c62 663b b39e ab3d
000001b0: 8ed1 bebb b1f4 c3bd c98b ea3a 1c02 c93b
000001c0: 635b 1b3d 1ffd aebc d2a5 203d 9125 bc3b
000001d0: 1bbd 6a3d 9ec0 0bbe 93ef 313d 96a0 bcbd
000001e0: 0a4d 843d b42d 47bd c55e 0abd 7cc5 883c
000001f0: 8a41 873c 5442 0abd c65c 963b 672d b13c
00000200: 99e0 5a3e 13c8 1dbd 318f da3c e12c 89bc
00000210: c635 3ebd 53a5 2bbd 3d01 bd3c ac6b be3a
00000220: 3607 7cbc d087 f33c b721 80bd 245c 4fbd
00000230: 222b 71bd d3dc ec3b 7da7 47be 24f3 14bd
00000240: f81b 32be c32b 843c 2df1 5b3c b4e3 4e3d
00000250: 3fd1 aa3c 588f f4bd a008 96bd 6cf1 713d
00000260: a37c 4bbd 9196 f93d a79c 5e3c efda e33c
00000270: 4eff 133d f77a f1bd 39ff fa3c 90d5 5a3e
00000280: 380c 8dbc 4008 e4bd c50f b73c 09f1 c3bd
00000290: 612b 83bd 40fc b6bd 0010 89bd d272 783d
000002a0: 37a2 823d 39f2 523e 7206 e0bd eeca 86bc
000002b0: c5bc b73d 48f1 263e 7945 853d 346d 143d
000002c0: aaff 0f3d 3359 eabd a9c6 6c3d 3e2c 823d
000002d0: 3251 b0bd c916 14be 6bb1 7abc c9ee 393e
000002e0: 5b8a 26bd bac0 9b3d 4410 273d d446 14be
000002f0: a04f 093e a534 9c3e cf8a 16bd 47bb eb3c
00000300: e5de 11be 7efd 863d 42ac 0dbc d95e 093d
00000310: 2878 b3bd 3831 e7bc cdf4 123e ec79 943d
00000320: 9724 173d 0bd2 11bd 89e6 543d c225 923c
00000330: 46ea 453c 95e1 753c ed49 a5be 0650 5a3c
00000340: d735 573c 13b9 2dbd 183f 9ebc 7a65 e13d
00000350: 427a f23b 3690 76bc b381 ce3d 0293 4d3d
00000360: 4676 dcbc dd86 3d3d 819c 113e 5873 b13d
00000370: 53b8 8abd f6fb be3d ca6e 1d3d 9e89 9e3c
00000380: 14cb 15be 1bf3 923b 7fd3 a6bd 207f 3cbe
00000390: 5d3c 433e 92ad 0bbd 5fde 9bbd 968a 483c
000003a0: 0770 14be f26e 81bd b5e6 d5bd 7dca 703b
000003b0: 988e 23bd 6db3 2abe 7406 b6bc b51a 5e3d
000003c0: c5eb 5fbd a783 bebd 70b1 88bd 322b 443c
000003d0: 164d 2c3d 1167 f43c 52eb 3cbe ca0d 8abb
000003e0: 96fb c6bd 4e68 89bb 2a87 d6bc c6e0 4ebe
000003f0: 16e8 c23b 9041 2e3e 27a3 1fbd b732 f83c
0.07215545 -0.0037599097 -0.052580636 0.01863222 0.073059455 -0.025981147 -0.0030933772 -0.029954677
0.026239939 -0.011233819 0.06516144 0.09738694 -0.01601261 0.028113348 0.010820452 -0.034017984
0.079695374 -0.09055346 -0.042079605 -0.08853182 -0.008970773 0.06628486 0.0024023708 0.1339971
-0.013888879 0.12616934 0.033819992 -0.027277555 -0.04967178 0.04672472 -0.029437108 0.16857089
0.20957102 -0.07819634 0.00032906528 0.021377284 -0.072939105 -0.034338284 -0.1308482 0.11533956
0.108409755 0.11526193 -0.105439164 0.04200652 -0.11052181 0.123250626 0.05147225 0.011778367
0.06945945 -0.046003453 0.079743 -0.051984865 0.08597008 -0.07198628 0.05128275 0.058696516
-0.06580538 -0.06273013 0.06152899 -0.010352981 0.22923122 0.13728186 0.08772183 -0.098821975
-0.022798698 -0.0313287 0.03017189 0.010230386 0.06787615 0.04887661 0.013150011 0.04200005
-0.019670203 0.07273965 -0.061974436 -0.026676498 -0.017249249 0.01690798 -0.05057455 -0.032697275
-0.020871136 -0.17674913 -0.08041055 0.02790537 -0.11597386 -0.08681651 -0.013030308 -0.043809798
0.005481459 0.013446641 -0.06746305 0.014641427 0.039917674 -0.02012092 0.04372219 0.029784223
0.18768731 -0.02160168 -0.21323644 -0.026354887 -0.020759653 -0.030745376 -0.034677006 0.0434912
-0.042217623 -0.15269956 0.003515388 0.08379879 -0.0058233207 -0.095681556 0.0017894442 0.0061342847
0.03792895 -0.021360932 0.03922064 0.005741783 0.05730925 -0.13647696 0.043441366 -0.09210317
0.064600065 -0.04862757 -0.033781786 0.01669573 0.016510744 -0.03375466 0.004588696 0.021628095
0.2137474 -0.038520884 0.026679607 -0.016745033 -0.046438 -0.041905712 0.02307188 0.0014527938
-0.015382579 0.029727846 -0.062564306 -0.05062498 -0.058879025 0.0072284727 -0.19497485 -0.03636469
-0.17393482 0.016134148 0.0134242 0.050510123 0.02085173 -0.11941403 -0.07325864 0.05906813
-0.04967941 0.121869214 0.0135871535 0.027814357 0.03613215 -0.11791032 0.030639278 0.2137053
-0.01721774 -0.11134386 0.022346387 -0.09567458 -0.06404758 -0.089348316 -0.06692505 0.060656376
0.06378596 0.20600213 -0.10938729 -0.016454186 0.08971552 0.16302979 0.065073915 0.036236957
0.03515593 -0.11442795 0.057806645 0.06356095 -0.08609237 -0.14461817 -0.015301089 0.18157496
-0.04065929 0.07605119 0.040786996 -0.14480144 0.13409281 0.30508915 -0.036753472 0.028775824
-0.14245184 0.065913185 -0.0086470265 0.03353772 -0.08763152 -0.028221712 0.14351197 0.07249817
0.03690013 -0.035600703 0.051977668 0.01784027 0.012079781 0.015007396 -0.32282963 0.013324743
0.013135395 -0.04241283 -0.019317195 0.11005683 0.007399828 -0.015049031 0.10083332 0.050189026
-0.026911866 0.046271194 0.14219858 0.08664578 -0.06773438 0.093254015 0.038435735 0.01935273
-0.1462825 0.004484547 -0.081458084 -0.1840787 0.19065996 -0.034101076 -0.07610773 0.012240073
-0.1449586 -0.06319989 -0.104443945 0.0036741786 -0.03993091 -0.16670008 -0.022219874 0.05422469
-0.054668207 -0.093024544 -0.066744685 0.011973189 0.042065702 0.029834302 -0.18449143 -0.0042130696
-0.09715955 -0.0041933423 -0.026187498 -0.20202932 0.005948077 0.17017198 -0.038973954 0.03029762

actor.4.bias f4 [7]
00000000: eb34 9f3c b2c2 3e3e 2a89 2bbe b2ad 283e
00000010: 3d69 563e 10af a3be dee8 063e
0.019434413 0.18628958 -0.16751543 0.1647251 0.20938583 -0.319695 0.1317477

critic.0.weight f4 [64, 32]
00000000: 55f6 77be 713f 35be d18e 52be a399 a03e
00000010: 6d1c 0fbe c173 943d d896 95be c23d f33d
00000020: ec4c 0b3d df59 223d 5e14 773d 9114 3e3d
00000030: cd4b e43a 0c99 e7bc cf54 9fbb 4219 01bd
00000040: f47c c1bd 5e4d 9ebd 51de 673e 511e 8c3f
00000050: 689c 653f 5def 343d 5ac5 4fbe c9cf 20bf
00000060: 6184 fdbd 4fac 363b 61cd eebd abaf 25be
00000070: b798 37bd e742 a1bd 79cb 3c3c fa1b b9bc
00000080: 1561 08be c79d a23e aad0 88bd d8ab 5c3e
00000090: a0af 58bc 8de5 3cbe 0806 f53d a5fe 1c3b
000000a0: 4dac 0fbb 0123 6f3c 95b3 0b3e 1692 d73c
000000b0: ec93 81bc e239 ebbc fa92 a63c 4527 8abc
000000c0: 45bb 40bf 3117 11bf 9bea 8f3e 0ed5 93bf
000000d0: fcc4 aebf 0ba4 8d3d b659 a13e 0a6c 703c
000000e0: cab9 1cbc ba61 a4bd 5bf0 d5bd 22a8 19bd
000000f0: 0a77 473d 0421 113c b920 12be 4e75 48bb
00000100: e712 9f3c 97db 2f3e 807f 46bd ddea b3bd
00000110: 9155 423e 5ef2 c0bc e99e cabd 0f56 983a
00000120: c0d8 8c3d 09f7 9bbd efd3 86bc 4d62 b9bd
00000130: 9431 0ebc 38c3 6e3d 962c da3a 3d1b 373c
00000140: 1f9b 623e 9a38 5fbb fb71 27bf 6134 bcbe
00000150: 51ed cd3e e24b 603d 25ec 66bc fb37 68be
00000160: 35e9 b3bd e848 b23d 4201 b23d 3154 b83c
00000170: b753 6d3d d3aa cebd 0e5c 4d3d 6ec4 ab3b
00000180: 2983 36be c84b 383d bdc5 3dbe bd1a d5be
00000190: f374 a5bc 6814 403e 058e db3c 4cfc 823e
000001a0: 2729 cf3d 52ae 22be e56f 3bbd 851f 36be
000001b0: c206 0bbe e530 6dbc b6f5 3cbb e08a 95bd
000001c0: f886 9ebe f7c0 92bd b158 adbe 190b 0fbd
000001d0: 1c00 3abe b6c3 fdbd 2389 8dbf 9688 1f3e
000001e0: fc3f 253e 27df 47bc 73df 3b3d 72ec 39bd
000001f0: d150 03be 59c9 7ebd 8747 c93d c8f0 473d
00000200: 3bdd a0be a72f 35bd 0622 61be dec5 6e3e
00000210: 4fd3 c33e aa79 db3d 8f47 703e db3f 843d
00000220: ea1b b03a b2b4 acbc 1473 833c aeb2 23bc
00000230: bb22 38bd 0292 533c ab3c d2bc e7cc 0cbd
00000240: 855f 3ebe 0405 66be 2c2f d23e a9ab 2dbd
00000250: 7102 62be 1806 243d b355 22bf de41 a63e
00000260: 0f4c 11be 33cb 27bc ad6f 993d a679 c2bd
00000270: 7c69 15bc bdc6 bcbc 3fa4 d3bc 1a2d 803d
00000280: efc3 8cbd afde ddbd 60a1 37be 8000 cbbd
00000290: 2c51 993d 3b93 363e b0a2 21bd 6652 38bd
000002a0: 3291 003e db23 e13d 0bd5 4d3e 54e6 ed3d
000002b0: 2dc8 1dbe ca2a 9abc db54 ffba 1d92 09bd
000002c0: 5c24 6b3d 47ac 30be b01a eebe 127f 1dbf
000002d0: 5150 efbe 9fd1 1abe 7811 133f 4a95 fb3e
000002e0: 41b0 913d ffc3 c13c 4778 683d 43b9 933d
000002f0: f7c8 9a3c 41fc 503c 8fee 5d3d 9a76 aabd
00000300: a698 423e 3bab a83e 8d50 ce3d 6db1 bcbd
00000310: f4c0 17bd 089e 403d b417 ddbd 2fd0 13be
00000320: 2358 3a3d c5d1 3c3d e4d3 843c 9c78 153d
00000330: d841 29bd 168f b5bb 7bef 933b fda2 debb
00000340: 3e90 7f3d 58c0 13be 3e5d 873e 0041 42c0
00000350: b7d1 21be 8b01 113e 6968 53bf 480b 613e
00000360: 2394 1ebd 0c0f 3fbd ba8c 4c3d bc18 5c3d
00000370: 5bfa 41bb c39d e5bb f56c 2f3d dd74 fdb9
00000380: f12b 483d 6a7f 9d3d 95c2 03be 30a2 7dbe
00000390: ac16 74be 26cc 6fbe 2cd2 33be 4889 1a3e
000003a0: f994 c13d d06f 7a3c 74ca 783d be62 abbb
000003b0: 7cbf 1b39 3802 f1ba f112 e33b 5283 a93b
000003c0: 62fe 7f3d 7eca 1b3e 25ff 3b3d 6796 c83e
000003d0: 77b1 3abe 304d 023e fe3e 0bbf 3206 03be
000003e0: b1e7 073e ac83 8bbd 84ba cebc 2ab9 18be
000003f0: 0be3 15bb 9e6d 4dbd bc7c a6bc a29b 63bd
-0.24215062 -0.17699982 -0.20562293 0.31367216 -0.13975687 0.07248641 -0.29216647 0.11877014
0.034008905 0.03963649 0.060322158 0.046406332 0.001741761 -0.02827122 -0.004862405 -0.03151823
-0.09447661 -0.077296 0.226434 1.0946752 0.8969178 0.044173587 -0.20290127 -0.62817055
-0.12378765 0.00278737 -0.11660267 -0.16180293 -0.044823375 -0.07874089 0.011523121 -0.022596348
-0.13318284 0.31761 -0.066804245 0.21549928 -0.013225466 -0.18446942 0.11964041 0.002395549
-0.0021922768 0.014595748 0.13642724 0.026314776 -0.015817605 -0.028714124 0.020333756 -0.016864428
-0.7528575 -0.5667601 0.28108677 -1.1549394 -1.3653865 0.06916054 0.31513757 0.014674196
-0.00956578 -0.08026452 -0.10446235 -0.03751386 0.04869751 0.008857969 -0.14270295 -0.0030587497
0.019418193 0.1717361 -0.048461437 -0.08785031 0.18977953 -0.02355307 -0.09893591 0.0011622327
0.06877279 -0.076154776 -0.01645848 -0.090519525 -0.0086788125 0.058291644 0.0016645368 0.011175928
0.22129487 -0.0034060837 -0.65408295 -0.36758712 0.4022012 0.054759867 -0.014094387 -0.22677605
-0.08784715 0.08705312 0.08691646 0.022501083 0.057941165 -0.10091176 0.05013662 0.005241922
-0.17823471 0.044994146 -0.18532462 -0.41621962 -0.020197367 0.18757784 0.026801119 0.25583112
0.10115271 -0.1588681 -0.045761008 -0.17785461 -0.13576797 -0.014476989 -0.0028832979 -0.07301879
-0.30962348 -0.071657114 -0.3385673 -0.034922693 -0.18164104 -0.123908445 -1.1057476 0.15579447
0.1613769 -0.0121992 0.045867395 -0.045391507 -0.12823798 -0.06220374 0.09828096 0.04881361
-0.31418785 -0.044234898 -0.21985635 0.23317668 0.38247153 0.10716565 0.23464797 0.06457492
0.0013436053 -0.021082256 0.016046084 -0.009991331 -0.044954997 0.012913229 -0.025663694 -0.034375098
-0.18591125 -0.22462851 0.41051614 -0.042400036 -0.22071244 0.040044874 -0.63412017 0.32472128
-0.1418917 -0.010241318 0.074920036 -0.09495859 -0.009119388 -0.023043985 -0.025835155 0.062586024
-0.06873309 -0.10833489 -0.17932653 -0.09912205 0.074861854 0.17829601 -0.03946179 -0.045000456
0.12555388 0.10993167 0.201008 0.11616197 -0.15408392 -0.018819232 -0.0019480245 -0.03358661
0.057407722 -0.17253219 -0.46504736 -0.6152202 -0.46740964 -0.15119027 0.5744853 0.49137336
0.07113696 0.023653029 0.05675533 0.0721307 0.018894656 0.0127554545 0.054182585 -0.08323403
0.19003543 0.32943138 0.100739576 -0.09213529 -0.03704925 0.04702571 -0.10795537 -0.14434884
0.04549421 0.04609849 0.016214319 0.036491975 -0.04132256 -0.005540739 0.0045146323 -0.006794332
0.06239342 -0.14428842 0.26438326 -3.0352173 -0.15802656 0.14160745 -0.8258119 0.2197696
-0.038715493 -0.04664521 0.049938895 0.053734526 -0.0029598686 -0.007007332 0.04282852 -0.0004834299
0.04887003 0.07690318 -0.12867196 -0.24768901 -0.23836774 -0.2341772 -0.17560643 0.15091431
0.094522424 0.015285447 0.06073995 -0.005230277 0.00014853285 -0.0018387502 0.006929748 0.0051731253
0.062498458 0.15213963 0.04589762 0.39177248 -0.1823176 0.12724757 -0.54392993 -0.12795332
0.13271977 -0.06812224 -0.025235422 -0.14914384 -0.0022870924 -0.050153367 -0.02032315 -0.055568345

critic.0.bias f4 [64]
00000000: da57 f13d ca3f 58be bedf e23d 09c5 1fbe
00000010: a8f7 8dbb ef31 03be 855a 21bc 06a3 963d
00000020: 8631 8f3d 0790 be3e d46a d83e 7101 33be
00000030: ea81 33be 2073 2cbe aaaa a43e 1172 1d3e
00000040: 7a57 b6bc 7013 f4bd 9db2 d83d 9b9a 043f
00000050: d38a 1f3f d896 1ebe 8aec c93d 6da4 0a3d
00000060: 0681 5e3e 37e3 a6bd 505a 613d 33e8 9b3e
00000070: a9f2 273e 2acb efbd 31c6 a7bd 13d9 be3e
00000080: 34f6 d2bd 8740 42be 9a99 9bbd 31ec debd
00000090: da24 513e e306 f33e 581a e3bd fb35 363e
000000a0: 1dbd 7a3a 7bde 593d ec6e a03e abbe 8fbe
000000b0: 940f 9fbe d61e 9c3e 9a36 72be 9a6b 66be
000000c0: b8eb 823e 21b6 d0bc e158 98be 2b46 91be
000000d0: 007a 853e 8461 b7bd ac05 d1bd 3607 afbe
000000e0: a7af 7f3e 1f8b 13be 7059 6abe 31ad 3f3e
000000f0: 3730 c63d 8e60 983d cbb1 bf3d 3861 8cbc
0.117843345 -0.21118084 0.11077832 -0.15602507 -0.0043325014 -0.12812017 -0.009848242 0.07355313
0.06991868 0.3721926 0.42269003 -0.17481019 -0.17530027 -0.16840792 0.32161456 0.15375544
-0.022258509 -0.1191777 0.10580943 0.5179841 0.62321204 -0.1548723 0.09859569 0.033848215
0.21728906 -0.081488065 0.05501777 0.3045059 0.16401161 -0.11708672 -0.08192099 0.3727499
-0.10300866 -0.18969928 -0.075976565 -0.10884894 0.20424214 0.47466192 -0.11089009 0.1779403
0.0009564923 0.05319069 0.31334627 -0.28075156 -0.31066573 0.30492276 -0.23653641 -0.22501984
0.25570464 -0.02547747 -0.2975531 -0.28373846 0.2606964 -0.089541465 -0.1020616 -0.3418519
0.2496935 -0.14408539 -0.2288568 0.18718411 0.09677165 0.07440291 0.09360083 -0.017136201

critic.2.weight f4 [64, 64]
00000000: 0405 55bd d4f9 33bd aebc 5a3d 5c15 1fbd
00000010: dcf1 c6bc 6e8f d53d 84dd 073e 69f3 b3bd
00000020: 03fb 30be b34a 01bf c6f1 d0be e747 d93e
00000030: 04ce cd3d 1426 c93e adad 89be 76cf b43d
00000040: 7979 fbbd 9d3c 273f 2406 2abf 89d1 15bf
00000050: e717 87bf 15cc 243f 4a98 8fbd dd17 82be
00000060: 44f9 babd be4d 9c3e f5ac 2f3e 7a4d 8abe
00000070: 577f c9bd 6daa 7d3e c663 6b3e 6c58 98be
00000080: eff0 ebb9 f175 943d 0182 ec3d 8e57 c6bc
00000090: d499 9cbe c17e 23bf 7c24 70bc d32e 7dbe
000000a0: 3e88 333d 9404 6f3e 5d96 8fbd e9db 413e
000000b0: 1033 243e d12c a1be bfe0 843e a34f 163f
000000c0: 82a9 15bf 74d9 d8bc 8163 25bd a433 293f
000000d0: a949 5bbe 72a3 a3bd c4ae a5bd 9b9f 3e3e
000000e0: 8219 aebe 72ba cb3c 359c d43d f585 1fbc
000000f0: 6f36 45be 5e24 27be 5c59 b9bd db91 08be
00000100: 100d 7dbd da8d f9bc 90f5 493d 8d7f 573d
00000110: abdf 45bc 2786 9a3d 5475 93ba 1f74 72bd
00000120: 3569 39be 247f fcbb 9e7d e43d 542d 043e
00000130: 0ea7 023e a6c3 2abd a50c da3d 51bb 6e3c
00000140: c8fb e93d fd26 56bd 4513 1b3d 705c 7bbd
00000150: e1e8 ee3c 46a5 873d b82b 45bd f590 da3c
00000160: 1e7a dc3d 986a 023e 911f 753d 2c3d 2e3d
00000170: 586a 013e a4e7 02be 5b84 4c3d df97 fe3d
00000180: 08a4 713d 6b96 19be fd36 6b3d e1c7 0bbe
00000190: 4947 d6bd 906b 05bd d186 ac3d 296f 083e
000001a0: 82a5 aabb 95df ae3c 25cd 143c 097d 0a3e
000001b0: 24d2 8c3c 9b0f acbd 61e1 0bbd 884d b13c
000001c0: 563d 593d 1878 453c d8cc 933d acc8 383c
000001d0: 1b97 92bd 037d 13be 8b23 95bb a61f 6fbd
000001e0: 96b3 913d c55c 383c 8844 4b3d fa99 653d
000001f0: 8d92 443d 8036 743d 74cd ce3d a374 b83d
00000200: 1950 963d 555f 073d ccac cc3c b85b d6bd
00000210: ecea 813d eda4 4dbb ec17 a9bd a409 f23d
00000220: 7e37 14bc ca37 9c3c 2e14 9fbd bf05 36bc
00000230: 4b82 1ebe 4544 ca3b 8a81 c0bc 3ddc ae3d
00000240: 2447 5c3d daf5 383e b1bb 263d ecca 30bd
00000250: 6aaf bcbb d902 c7bd ea70 fdbb 46c4 b8bd
00000260: 351a 99bc 42eb 133e cced 9db9 b5e9 9fbd
00000270: 8086 16bd 2c88 f13d 2533 953d f158 8cbd
00000280: 0d85 4bbc 839b bbbd 66da bd3d b0de 19bd
00000290: d929 6a3d 296b 953d 96c7 263d 0533 843a
000002a0: 0194 2fbd ff90 48bd 4153 c53b 6c2e 04bd
000002b0: b0b6 b5bd f6d0 0abd 2a2a 07be e519 7dbd
000002c0: d549 36bd f96d e53d 9205 ed3d fa3c c8bd
000002d0: b7e0 9b3d 2c7e a63d 67ec 0e3e 5251 b53d
000002e0: 7f01 783d 7806 cd3c e429 a73c 962b 2f3c
000002f0: 0f57 fb3d 9c61 8b3d 0aa9 573d 554a 8dbb
00000300: f6bb 6cbc e97e 4e3d 60b9 55bd 81c5 81bc
00000310: 68f1 9bbc e399 e0bd 16fa 853d 20e1 8f3d
00000320: 705b a2bc 3eaa e13d b4b7 2dbd 9464 853d
00000330: bbec 4fbd 4fc9 afbd f6fa 993d 4627 823d
00000340: 996c 29bc a139 913b 8251 55bc 5b98 453e
00000350: dd85 04bd 9aad 2f3e 6202 7f3d 4936 8a3d
00000360: 66eb aabc d709 42be 304b 313b 6698 bbbd
00000370: 6148 97bd 9fcc 0dbb 4b80 94bd b380 053e
00000380: 111a 84bc 42ea 3ebd c182 9ebb 5b5f dd3c
00000390: 0105 213d 254e a8bd 6f51 96bb ce42 acbc
000003a0: ae0e 3c3e 9488 b5bc 8d85 6a3c 3db4 523d
000003b0: ee94 913c 8078 0cbd 059f 0ebd 9374 773d
000003c0: a6a0 b1bd f162 173e b5bf ad3d 2f59 be3a
000003d0: 36f5 febd 9c64 97bc ef23 97bc b823 82bd
000003e0: 91f2 c43d 93de a53b 59fd 973b 9c03 d73d
000003f0: 8899 133c fce6 2cbd ae0e f1bc 27fc a2bd
-0.052006736 -0.043939427 0.053402595 -0.03883873 -0.02428525 0.10427748 0.13268095 -0.08786661
-0.17283253 -0.50504607 -0.40809458 0.4243767 0.1004906 0.39286864 -0.26890317 0.088286325
-0.122790284 0.65326864 -0.6641562 -0.5852285 -1.055417 0.64373904 -0.07011469 -0.2540883
-0.09129575 0.30528063 0.17155822 -0.27012235 -0.09838741 0.24772044 0.2298728 -0.2975496
-0.00045002202 0.07249058 0.11548234 -0.024211671 -0.30586112 -0.63865286 -0.014657136 -0.24724893
0.043831103 0.2334159 -0.070111014 0.18931545 0.16035104 -0.31479505 0.25952718 0.58715266
-0.58461773 -0.026470877 -0.040378097 0.6609442 -0.21414818 -0.07990159 -0.080899745 0.18615572
-0.34003836 0.024869177 0.103813566 -0.009736528 -0.19259046 -0.16322467 -0.09050247 -0.1333689
-0.061780035 -0.030463148 0.049306452 0.052611876 -0.012077252 0.07545119 -0.0011250176 -0.059192773
-0.1810654 -0.007705586 0.11156772 0.12907916 0.12759039 -0.04169049 0.10646943 0.014571027
0.114249766 -0.052283276 0.037860174 -0.061367452 0.02916378 0.0662332 -0.048137397 0.026680449
0.107654795 0.12735975 0.059844557 0.042538807 0.12638223 -0.12783676 0.04993091 0.12431311
0.058994323 -0.14998786 0.057425488 -0.13650467 -0.10462815 -0.032573283 0.08424152 0.13323654
-0.0052077183 0.021346847 0.009082113 0.1352426 0.017190047 -0.08401414 -0.034150485 0.021643415
0.05303701 0.012052558 0.07216805 0.011278313 -0.07157727 -0.14403157 -0.004551356 -0.05837979
0.071143314 0.011252587 0.049625903 0.056055047 0.047991324 0.059622288 0.10097781 0.09006622
0.07339496 0.0330499 0.02498474 -0.10466713 0.06343636 -0.003137882 -0.08256516 0.11818245
-0.0090464335 0.019069571 -0.07767521 -0.011109768 -0.1547939 0.006172689 -0.023499269 0.08538101
0.053778782 0.18062535 0.04070634 -0.04316227 -0.0057582157 -0.0971734 -0.0077344077 -0.09021811
-0.018689254 0.14445212 -0.00030122546 -0.07808248 -0.036749363 0.11793551 0.07285146 -0.06852902
-0.0124218585 -0.09160521 0.09270172 -0.037565887 0.057168815 0.0729583 0.040717684 0.0010086006
-0.042865757 -0.048966404 0.0060218875 -0.032270834 -0.088727355 -0.033890687 -0.13199678 -0.061792273
-0.044504005 0.11202616 0.11573328 -0.09777255 0.0761122 0.08129534 0.13957368 0.08853401
0.0605483 0.025027499 0.020405717 0.010691544 0.122724645 0.06805727 0.052651443 -0.0043118396
-0.01444911 0.050414 -0.05217874 -0.015841248 -0.01903601 -0.109668516 0.06541841 0.07025361
-0.019818991 0.11018799 -0.04241152 0.065133244 -0.050762873 -0.085833184 0.0751857 0.06355147
-0.010340833 0.0044319187 -0.013019921 0.192964 -0.032354224 0.17156067 0.06225813 0.06748635
-0.0208642 -0.18949066 0.0027052872 -0.09159927 -0.07386852 -0.0021636856 -0.072510324 0.13037376
-0.01612571 -0.046610124 -0.0048373644 0.027023008 0.039311413 -0.0821803 -0.0045873444 -0.021027949
0.18364975 -0.022159852 0.014314068 0.05144142 0.01777121 -0.034294605 -0.03481962 0.06041391
-0.086732194 0.14783837 0.08483831 0.0014522428 -0.12449114 -0.018480591 -0.018449752 -0.06354469
0.09616578 0.0050619333 0.0046383557 0.10498735 0.009008773 -0.04221247 -0.029425945 -0.079582505

critic.2.bias f4 [64]
00000000: 7ede d43b 0752 b4bd b3d8 153c 0773 1abe
00000010: b518 633d 601e 24bc 0695 afbc 0362 003e
00000020: 4bc8 f83d ae2f a33d 1490 7d3d 0bfb 96be
00000030: dea7 a2bd c0a5 f43c 2036 c63c df5b 1a3e
00000040: 71ed e13d b8a8 1abe b989 c8bd 1150 3d3d
00000050: 374a a7bd f140 bfbd 4c71 963d 4fa5 ffbc
00000060: ada4 b5bd 3508 b33c 20e1 5fbe 4c81 3cbd
00000070: ba13 94bd b9c7 aebb f58e a03d 0e8a 1e3d
00000080: 7c51 c2bc 6b95 553e 077f eb3d 116e de3d
00000090: dbf0 93bc 2d18 f8bb 4971 2fbe 3254 c9bd
000000a0: f246 9abe dcc5 a0ba 3982 9f3d 5d8a 873e
000000b0: 3a2b ad3c 4595 d6bd 300e 7c3d 0ce3 5bbc
000000c0: fd86 1c3d a829 1ebd 6d70 303e 594a 8a3c
000000d0: d558 efbc 27b6 a0bd fe86 843d 16eb 9fbc
000000e0: 7ba7 abbd 48cf adbd 3791 29bd 4a3b 2c3d
000000f0: 9ce1 0abe d2b7 d7bd 0d35 20bd f787 6a3c
0.0064962497 -0.08804708 0.009145903 -0.15082942 0.055443484 -0.010017008 -0.021433365 0.12537389
0.12147578 0.079680786 0.06190498 -0.29488406 -0.079421744 0.029864192 0.02419573 0.15074109
0.110316165 -0.15103424 -0.097918935 0.046218935 -0.08168452 -0.093385585 0.073458284 -0.031206755
-0.088693 0.0218545 -0.21863222 -0.046021745 -0.07230325 -0.0053338674 0.07839767 0.038705878
-0.023720495 0.2085778 0.11498838 0.10860837 -0.018059185 -0.0075712414 -0.17133059 -0.09830512
-0.30132252 -0.0012265998 0.0778851 0.2647275 0.021138776 -0.1047769 0.061536968 -0.013420831
0.038214672 -0.038613945 0.17230387 0.016881155 -0.029217163 -0.07847243 0.0647106 -0.019521277
-0.08381554 -0.084868014 -0.041398253 0.04204873 -0.13562626 -0.10533108 -0.039113093 0.014314643

critic.4.weight f4 [1, 64]
00000000: da74 01be 3ea8 52ba 4a32 7ebb 7913 6d3a
00000010: c7f0 733a 5241 13bb 60f3 daba 41a0 29be
00000020: 27ac 0f3b 7781 983b bd3d b93a 4176 fa3d
00000030: a4f8 5a3a dfed 133c d704 14bb e130 97bd
00000040: 3a30 4fba 04b3 0e3e 501a 4cba 7247 1a3b
00000050: 1f34 8c3a 5412 8d3b b2e7 9a3d 730a 353a
00000060: 6192 393b 1373 753a cf0c ed3d 282c c6bc
00000070: 2381 ff38 b649 23ba 7439 0ebb 21bf b93a
00000080: 2978 8d3a 3718 b0bd 334e 7939 531e 153b
00000090: 5c07 b23a bd89 9b3a dcdd bbbd abfa 0e3a
000000a0: a8b2 7e3d 4f25 e7bd 0359 5dbb ae9e 21be
000000b0: d633 dbba 5a6f ed3d 3fcc f539 8eb7 0c3b
000000c0: 9361 e23a 4ddd 73ba c13d e1bd dd64 c0b9
000000d0: f994 ff3b 2418 bdba 2d94 7b3a 0a52 40bb
000000e0: 5167 0bbb ca4b 30bb d2dc 94ba 4c4a 34ba
000000f0: 3071 b93a 1761 7b3d 34bb 26b9 b582 42bb
-0.12642232 -0.00080359343 -0.0038787299 0.0009043734 0.0009305593 -0.0022469354 -0.0016704611 -0.16565038
0.002192268 0.0046541053 0.0014132779 0.122295864 0.00083530904 0.009028881 -0.0022585893 -0.0738237
-0.00079036097 0.13935477 -0.0007785903 0.002354112 0.0010696686 0.0043051634 0.075637236 0.0006906159
0.0028316008 0.00093631557 0.11574709 -0.024190977 0.00012183401 -0.00062289403 -0.0021701725 0.0014171341
0.0010793257 -0.085983686 0.00023775622 0.002275367 0.0013582516 0.0011866611 -0.09173176 0.00054542226
0.0621821 -0.11286413 -0.003377498 -0.15783188 -0.0016723822 0.11593504 0.00046882217 0.0021471712
0.0017271511 -0.0009302691 -0.10998107 -0.00036696243 0.0077997413 -0.001442675 0.000959697 -0.0029345774
-0.0021271298 -0.0026900643 -0.0011357313 -0.0006877526 0.0014148112 0.06137189 -0.00015900732 -0.0029679958

exp_avg f4 [7]
00000000: 937a 95bb b237 f13a 96b2 8c3b 1435 9c3a
00000010: 10b4 e8bb ea51 513b 43cb 493a
-0.004561731 0.0018403439 0.00429375 0.0011917674 -0.0071015432 0.0031939694 0.000769783

exp_avg_sq f4 [7]
00000000: 1bca d53a 2445 093b 4c72 033b 38cc c63a
00000010: 33fa e03a dfac b53a 6f0f 923a
0.0016310842 0.0020945752 0.002005714 0.0015167063 0.0017164409 0.0013860724 0.0011143516

exp_avg f4 [64, 32]
00000000: 8694 b538 4123 82b7 cf37 50b9 377f bab8
00000010: 6d09 bd38 0cae b735 378d 9fb9 8fac c136
00000020: c12a 82b6 88ee 7b3a 1161 2b39 5d1b 0cba
00000030: 1f7c 2f39 5da1 0339 e5af b039 ce03 6db9
00000040: 2474 7837 73e7 8037 3c93 6339 cc24 7fb8
00000050: d092 2b39 c29f 64ac 9e85 023a 1aef 9c38
00000060: fb9e bf2d 413a 7039 1679 8cb9 d675 30ba
00000070: 1d19 7938 92d4 303a 9eaa 99b8 7408 f7b9
00000080: 6d60 1bba 33ed a43a 2cf0 023a 8b24 083a
00000090: ad5a 45b9 e1d6 8fba efe8 5f39 d79c d3b8
000000a0: 6890 ebb8 1b69 d839 9de2 9fb9 7394 9ab9
000000b0: 8c47 a9b8 ef1b 9939 71a4 a1b9 6653 0b3a
000000c0: 544c 8a36 afa9 ff35 4754 983a 5854 72b6
000000d0: 7f15 213a f71e 74ae abb4 78b7 788c a63a
000000e0: 1d1a 35ab 238c d5ba abe0 ae3a b8fb 2b3a
000000f0: 0371 6e3b 6fd5 613a c783 6cbb b6f5 103a
00000100: 6fb7 21ba 609f 7c3a 7bf3 3339 c8ed 1e3a
00000110: 1b36 34b9 337c 73ba 0f3c e038 4c65 84b8
00000120: defd 65b8 21b5 803a a672 d4b8 2c34 3aba
00000130: 6095 0238 a43a 4f38 d4fb f439 0572 9d39
00000140: e834 ffb5 9e38 d9b7 a1be 0d3a fd57 bdb8
00000150: 26e5 b739 e543 9dad f841 aaba b8a9 d639
00000160: 318f 79ae 4f2c 27ba 8ae9 593a 947e 1739
00000170: bd5d 363b ec62 e2b9 2417 17bb 9fdf eab6
00000180: 12a7 d339 1956 0aba e1ea a6b9 07de 83b9
00000190: e4c9 fcb8 c493 e239 3975 d4b9 a551 d337
000001a0: 6be6 b037 65e0 b239 5b7e 0a3a 6727 a7b9
000001b0: c515 e6b8 1205 4cb9 f8ca e339 2a66 46b9
000001c0: 4f80 4a37 4ba6 31b7 123d bab9 53f1 e438
000001d0: c6f0 99b9 36e5 faac 7484 c23a be21 2b39
000001e0: f29f 8e2e e468 313a 0610 00ba cdbb c7ba
000001f0: 94c1 ffba 6bd9 dbb8 95ab 853a 9fa5 b2ba
00000200: 6dc1 473a 6a38 65ba eee1 97b9 ae62 efb9
00000210: 67cf 0b39 5b71 5b3a 66e8 93b9 a1a8 9838
00000220: 76b9 9838 e753 0fb7 5c0b a738 5af7 eeb8
00000230: f210 e3b9 670b af39 25b7 843a 551a 90b8
00000240: 42b2 0c38 1767 a2b7 5318 5bba b81b 93b6
00000250: d1cd 3dba ddd9 0f2e 6861 b83a 3619 44ba
00000260: d12c 872e 3382 c53a 90c4 8fba 21b0 0fba
00000270: fdd4 45bb 89cb 2139 dd85 4a3b 398f deba
00000280: cbc9 76ba f507 5539 aa5c d9b8 be1e 2a3a
00000290: 6d4b c239 c281 45ba eb71 fd39 3226 2cb8
000002a0: 7d1d 2f36 7951 28ba 2cdd 0e39 abab a439
000002b0: 07bf 9bb8 00a5 193a aed7 22bb acaf 4d3a
000002c0: 7dc4 d1b7 33b5 49b8 02fc 7438 592e 18b8
000002d0: 5e78 8c39 99ff ae2b e0a3 0cba 0d26 e8b7
000002e0: e75a cead 5b44 1ebb 8393 0739 2ea0 f2ba
000002f0: 5591 483b e119 fc3a 37ce 34bb 1252 623b
00000300: 3f2e 97b9 d367 8439 78b4 4bb8 70de 3b39
00000310: 47e0 acb7 bc86 d2b9 0809 1f38 3a86 f6b7
00000320: a81c acb7 7d1d 3c38 248f c938 4fc4 01b9
00000330: 670c 1939 b670 bab9 e2b7 0aba 29cc 1139
00000340: 4dff 2f37 2c82 52b7 b448 8139 fcc6 4c38
00000350: 6dbf 8b39 19df 86ad 7d95 b6b8 2330 b839
00000360: 2bc9 85ac 767f 6bba 3e85 b339 6c4d 86ba
00000370: ebf2 5b3a 325a 3b3a 9b1c 88ba 6e19 da39
00000380: e523 34ba d192 a63a d7c2 473a 8f4b 473a
00000390: 38da 47b9 76f9 c8ba f6e4 4d39 22ae c0b8
000003a0: adf9 ecb8 4473 8c3a 1cc5 5db9 d5fb 78ba
000003b0: 34e9 d739 112c ceb9 6529 f2b8 4623 c6b9
000003c0: 39d4 7a37 5f7a 9537 328e 943a f3f3 f7b7
000003d0: 235b 6b3a d9ae 2eae d28b 10bb 863f 6e3a
000003e0: 2efb d3ae 7be3 cdba d58d a93a b849 c93a
000003f0: 0e1e 8c3b 0c65 68b8 5846 87bb ebee 663a
8.658417e-05 -1.5513624e-05 -0.00019857216 -8.892867e-05 9.013978e-05 1.3685217e-06 -0.00030432057 5.7719367e-06
-3.879279e-06 0.0009610434 0.00016343991 -0.00053446536 0.00016735539 0.00012553246 0.00033700388 -0.00022603499
1.4808993e-05 1.5366566e-05 0.00021703256 -6.0831007e-05 0.00016362523 -3.2489432e-12 0.0004979017 7.483196e-05
2.1784788e-11 0.00022909885 -0.00026793097 -0.0006731426 5.9389615e-05 0.00067455426 -7.3273884e-05 -0.0004711781
-0.00059271493 0.0012582898 0.0004994895 0.00051934336 -0.00018821163 -0.0010974073 0.00021353712 -0.00010090478
-0.00011232571 0.0004127704 -0.00030495683 -0.00029483772 -8.0718746e-05 0.00029203246 -0.0003083083 0.00053148565
4.1216063e-06 1.9048365e-06 0.0011621796 -3.6109905e-06 0.0006144866 -5.550668e-11 -1.4824017e-05 0.0012706658
-6.4340357e-13 -0.0016292374 0.0013342103 0.00065606413 0.0036383278 0.0008614873 -0.0036089288 0.0005529778
-0.00061689963 0.0009636786 0.00017161474 0.0006062654 -0.00017186294 -0.00092882215 0.00010692339 -6.3131185e-05
-5.4834287e-05 0.0009819606 -0.00010130303 -0.0007103111 3.113353e-05 4.940726e-05 0.00046726933 0.00030030325
-1.9014378e-06 -2.589478e-05 0.0005407129 -9.0286114e-05 0.0003507521 -1.7878985e-11 -0.0012989631 0.0004094371
-5.6743225e-11 -0.0006377147 0.0008312693 0.00014447636 0.0027826868 -0.00043179782 -0.0023054564 -6.9997764e-06
0.00040369533 -0.0005277112 -0.00031836986 -0.0002515169 -0.000120539014 0.00043216173 -0.0004052313 2.5191179e-05
2.1088132e-05 0.00034117993 0.00052831107 -0.0003188208 -0.000109713095 -0.00019456845 0.00043448037 -0.0001892081
1.2070012e-05 -1.058874e-05 -0.00035522185 0.00010916837 -0.00029361824 -7.130875e-12 0.00148405 0.00016320401
6.4858244e-11 0.0006767644 -0.00048852 -0.0015238464 -0.0019512647 -0.00010483231 0.001019823 -0.0013629681
0.000762007 -0.0008744063 -0.00028969295 -0.00045659154 0.00013333336 0.00083710783 -0.00028211175 7.2793344e-05
7.2824696e-05 -8.542999e-06 7.9652964e-05 -0.00011394797 -0.0004330944 0.00033387096 0.0010125382 -6.87136e-05
3.3544617e-05 -1.935991e-05 -0.00083578116 -4.3841683e-06 -0.0007240447 3.2707937e-11 0.0014067115 -0.00074805634
6.14705e-11 0.001506871 -0.0010968614 -0.00054812623 -0.0030186765 0.00015429979 0.0030902543 -0.001697994
-0.0009414225 0.00020316227 -0.00010364626 0.00064895663 0.0003705876 -0.0007534289 0.00048340796 -4.1043568e-05
2.6094197e-06 -0.0006420832 0.00013624568 0.0003140842 -7.4265576e-05 0.0005861074 -0.0024847793 0.00078463065
-2.5006239e-05 -4.809089e-05 5.8408834e-05 -3.628279e-05 0.0002679256 1.2434386e-12 -0.00053649954 -2.7674274e-05
-2.3459857e-11 -0.002414963 0.00012929556 -0.0018510872 0.0030604203 0.0019233787 -0.0027588734 0.003453378
-0.0002883542 0.00025254357 -4.8567046e-05 0.00017916574 -2.0608435e-05 -0.00040154706 3.7916965e-05 -2.938799e-05
-2.0517342e-05 4.4850156e-05 9.611089e-05 -0.0001237553 0.00014595837 -0.0003556066 -0.0005291683 0.00013904333
1.0490255e-05 -1.2547283e-05 0.00024658965 4.882271e-05 0.0002665477 -1.5333112e-11 -8.706281e-05 0.0003513108
-3.8024215e-12 -0.0008983532 0.00034240814 -0.0010246462 0.00083903846 0.0007146924 -0.0010384502 0.00041599147
-0.0006871804 0.001270855 0.0007620281 0.00076025067 -0.00019059412 -0.0015333134 0.00019635618 -9.187708e-05
-0.00011299863 0.0010715504 -0.00021149631 -0.0009497975 0.00041181745 -0.00039324214 -0.000115471696 -0.00037791784
1.4950573e-05 1.7819168e-05 0.0011333881 -2.9558292e-05 0.0008978119 -3.9718315e-11 -0.0022055996 0.0009088445
-9.6397876e-11 -0.0015708053 0.0012935946 0.0015357053 0.0042760437 -5.5407218e-05 -0.0041282587 0.0008809405
