logs/rsl_rl/franka_reach/2025-06-16_20-11-58/model_999.pt (torch, 172795 bytes, 36 tensors)

std f4 [7]
00000000: 6614 b23d 2153 8f3d 689f b03d 8258 e73d
00000010: 43bb b83d 849f a73d d1db d93d
0.08695297 0.069982775 0.08624154 0.112961784 0.09020092 0.08184722 0.1063763

actor.0.weight f4 [64, 32]
00000000: eee2 bdbe f965 633e ea8e eabe 1e6d c83e
00000010: 1494 b43d b3ca 633e f325 203e d8f0 e23e
00000020: 146e 183f 93fd 863c 4b8d b63e da5e 8a3e
00000030: 0fe9 ad3e 9a25 5f3c a7a2 593c 2839 f3bd
00000040: 420e 29bf 7b6f b23d b152 42bf 69dc 8fbd
00000050: cd61 463f 4a95 b0bc 728f 33bf 3964 cb3d
00000060: 1a50 11be ff83 dbbd d854 88be 0849 87be
00000070: d258 c63d 069e acbe 1188 b3bb 699c 7abe
00000080: 6ee5 bc3c 7be8 033e 3e4d 85be b1e8 593f
00000090: de73 5c3f 59c4 813e 96eb d53d d337 30be
000000a0: 37a0 503e 08eb af3d be11 59be d80f 183f
000000b0: ea75 20be b30b 553d d90d 003e d587 223e
000000c0: 2e3f ae3e d955 9abf ce0b 81bf 43c8 01c0
000000d0: ae86 06bf 8c22 103e db68 923e ae1f b53e
000000e0: c8f1 663d 053e be3d 4f1a ef3d e4a2 edbd
000000f0: 6358 c03d 5e65 d5bd 44d2 d9ba 2151 4638
00000100: 88ff 2c3f 99e1 26be 7436 4b3f 3556 79be
00000110: a624 693e e10f 8f3c 3ece 693e 90c8 1d3f
00000120: 60a9 563f c65a 01be 745f 433d e428 01be
00000130: 5f2b d63d 470e fe3d fd4f 853e 00fe 003e
00000140: 350d 63bf 7bef 103f 0641 193d 33bf dfbf
00000150: 4a96 b93e c062 1ebd 498b 5fbe d665 b43c
00000160: c8b8 b9bd e547 e7bc 4f5f 1e3e 52d0 f0bc
00000170: b7a6 723d b5a0 953e 440e 01bf 4b1a 06bf
00000180: c28e 89bf 0160 c7bb a014 8fbc 2682 40bf
00000190: 5795 d7bd 67fb f1be 27b1 743e 58d8 3ebd
000001a0: 89c9 173e 6e66 33be 71c0 a1be ab7d fb3d
000001b0: ad3b 243e c1ed 79be c459 11be 4972 993d
000001c0: 311e f03e 17e7 773e dd5a debd 8873 8d3e
000001d0: eb49 063f 3dba 1ebe 5aa9 0fbf 0b11 37be
000001e0: 4949 02bb eea4 f3be 760b 74be 5f19 b1bd
000001f0: 99b6 a5be c304 e3be 1b85 f73d f921 b9be
00000200: 53ea 1dbd 6aa9 febd d8c8 9c3d 3edb 873e
00000210: d83d 0cbf 4bc8 753f 7aff a73d 838e 62be
00000220: 6ed9 62be 4c74 1b3d e6fc 3cbe 10e5 2ebe
00000230: a81a 143c bde2 f8bd bbf3 d1bd cd6a b5bd
00000240: 8dda 98be 03fd e4be ee9e d8be 2ff5 fc3f
00000250: eba8 6c3f 60ae 0ebe a93a 96be 4361 3dbf
00000260: 8b19 95bc 9702 19bf c932 e13c b62b d93d
00000270: 8144 1dbe fbd0 433d 83ff aebe a2a2 f6bc
00000280: 158a e53e 7134 1ebf 5720 d53e 7949 3bbe
00000290: 180a b23e b719 973f 971f 433d 818f c23e
000002a0: c313 133e a4f9 a7bd b151 2f3c 127f 8cbd
000002b0: dbeb 83bd e4e6 643b 182b 833c bca6 7dbd
000002c0: 2fe6 c43c a8b2 1bbf 93f3 b43d 54e0 a9bf
000002d0: 581b 48bf d94b a93d e0eb a23d f468 6f3f
000002e0: 9c5d b63d bb47 683e 33b6 4d3e 9912 a33d
000002f0: 6eab 513d 9cf5 9a3d 9e0f 983d 9fd3 2bbd
00000300: af3f cf3d 0896 7a3d b2b7 ce3a b267 11bf
00000310: 882f b5bd 8646 00bf 0673 b43d 7281 813e
00000320: 3f3d a83d a864 463e 8422 a13e 1552 86bb
00000330: 63c1 acbe 78ca 79ba b12a 683d 09cd 6dbe
00000340: f50a 943f 0771 153f bd51 3abe db1e 0fbd
00000350: 443c d7bb 6a47 dcbd bd88 e5be 0788 b73e
00000360: ccac cc3c 1b3c 5d3e b00a ed3e b807 01be
00000370: 6dda 41bd 399b ff3d 3aba b9bd d009 ebbd
00000380: c6db 783f ed7e 003b c113 953f ead6 93be
00000390: fd53 cbbe 6d08 d1be 4778 3dbf 7e13 803e
000003a0: 5224 e83d 1422 ab3d 392a 43bc 6063 653e
000003b0: 50de d33e 46da 453e 5446 623c 1de2 94be
000003c0: 2352 613f 4c51 943d 4c42 133d 1bd9 febf
000003d0: 6cb5 18bf 0f11 fabd fd3f 15bf 2b1f 1e3e
000003e0: cfe0 69bd 81cc 45be 163a d7bd 8034 08bf
000003f0: e3ab e03c 9a2b a0bd 671c 593c 3111 49bc
-0.37087196 0.22206868 -0.4581216 0.3914575 0.08817306 0.22245292 0.15639476 0.44324374
0.59542966 0.016478335 0.35654673 0.2702549 0.33966872 0.013619805 0.013283408 -0.11876136
-0.6603738 0.087126695 -0.7590743 -0.07024462 0.7749298 -0.021555562 -0.70140755 0.09931225
-0.14190713 -0.10718536 -0.2662723 -0.26422906 0.0968491 -0.33714312 -0.005478867 -0.24473728
0.02305862 0.12881653 -0.26035494 0.85120684 0.861143 0.25345114 0.10445325 -0.17208795
0.20373617 0.085897505 -0.21198174 0.59399176 -0.1566998 0.05201311 0.12505282 0.15872128
0.34032577 -1.2057449 -1.0081728 -2.027848 -0.52549255 0.14075679 0.28595623 0.35375732
0.056382924 0.09289173 0.1167494 -0.116033345 0.093918584 -0.10419725 -0.001661845 4.7282436e-05
0.6757741 -0.16296996 0.79379964 -0.24349292 0.22767887 0.017463626 0.22832581 0.6163416
0.83852196 -0.12632284 0.047698453 -0.12613255 0.10457491 0.12405067 0.2603759 0.12596893
-0.8869203 0.5661542 0.037415527 -1.7480224 0.36247474 -0.038668394 -0.21830477 0.022021215
-0.09068447 -0.028232524 0.15466045 -0.02939621 0.059241023 0.29224172 -0.5041239 -0.5238387
-1.0746691 -0.0060844426 -0.01746589 -0.7519859 -0.10526531 -0.47262117 0.23895703 -0.04659304
0.14822973 -0.17519543 -0.31592134 0.12279829 0.1603839 -0.24407102 -0.14194399 0.07492501
0.46898034 0.24209248 -0.108571745 0.27627206 0.5245654 -0.15500732 -0.56117785 -0.17877595
-0.0019880107 -0.4758677 -0.23832497 -0.08647417 -0.32365873 -0.4433957 0.12085935 -0.36158732
-0.038553547 -0.12434657 0.076554954 0.26534456 -0.54781866 0.9600875 0.08203025 -0.22124676
-0.22153255 0.037952706 -0.18455848 -0.17079568 0.0090395585 -0.12152622 -0.10251566 -0.08858261
-0.2985424 -0.44724283 -0.42308754 1.9762324 0.9244525 -0.13933706 -0.2934163 -0.73976535
-0.018200656 -0.59769577 0.027490037 0.1060404 -0.15358163 0.04780672 -0.34179315 -0.030106846
0.4483191 -0.6179877 0.41626236 -0.18289746 0.34773326 1.1804723 0.04763755 0.3800011
0.14363007 -0.08201912 0.010700629 -0.06860174 -0.0644147 0.003492766 0.01601176 -0.06192659
0.024035541 -0.6081948 0.088355206 -1.3271585 -0.78166723 0.0826642 0.07955146 0.9351952
0.08904573 0.22683613 0.20089035 0.079625316 0.05118888 0.075663775 0.07424854 -0.041949864
0.101195686 0.061178237 0.0015771298 -0.5679885 -0.088469565 -0.5010761 0.088110015 0.2529407
0.08214807 0.19374335 0.31471646 -0.0040991404 -0.33741292 -0.00095287664 0.05668134 -0.23222746
1.1565844 0.5837559 -0.18195243 -0.034941535 -0.0065684635 -0.10755809 -0.44830886 0.35845968
0.02498474 0.2160496 0.46297216 -0.126006 -0.047327448 0.12480778 -0.09068723 -0.11476481
0.9721035 0.0019606904 1.1646653 -0.28874904 -0.39712515 -0.4082674 -0.74011654 0.2501487
0.113350525 0.08356109 -0.011911922 0.2240119 0.41380548 0.19321546 0.013810713 -0.2907876
0.88015956 0.07242069 0.035951898 -1.9910005 -0.5965183 -0.12210285 -0.58300763 0.15441577
-0.05709916 -0.19316293 -0.10509126 -0.5320511 0.027425712 -0.07820816 0.013251401 -0.012272165

actor.0.bias f4 [64]
00000000: cf81 82be dcd7 00be 4f60 23bf 9434 adba
00000010: 58f0 1a3e df09 a7be 330c bebe 734b 07bd
00000020: dbba c73e 0001 8d3e acf0 ddbd 237e 9abc
00000030: b241 00be 20f8 7fbe ed68 29bf 3964 90be
00000040: e253 293f b21a 543e e209 8f3e 81ad 453e
00000050: 1cfb 153e dd63 753e 4956 b4be 8473 233e
00000060: 1367 2ebf e85c 353f d746 a1bd 30a4 e7be
00000070: 3bc8 cabd 0097 3b3e 0ea6 58be 3def e53e
00000080: 6866 37bf 36c6 48be 30fa b03e 93af 84bd
00000090: efcb 683d d540 233d 7f73 13bf 596e a2be
000000a0: 7549 093e 6374 92bd 23d4 0c3f 98e1 42be
000000b0: d96b 013e 6a93 bc3d bb9f 74be d28b 21bd
000000c0: 82c4 ff3e f4aa 05bf eda8 a63d 13b8 4dbe
000000d0: 4d5d 5a3b 3498 7bbe 85ad 12bf 7250 95be
000000e0: f6ce d0be 18e7 313d 3db7 083e 5a0b 9a3e
000000f0: 207b 82bd 6ecc 923e 181d 973e f605 a1bd
-0.2548966 -0.12582344 -0.6381883 -0.0013214522 0.15130746 -0.3262472 -0.37118682 -0.03303094
0.39009747 0.27539825 -0.1083692 -0.018858975 -0.12525061 -0.24996996 -0.6617573 -0.28201464
0.6614362 0.20713308 0.27937227 0.19304468 0.14646572 0.23963876 -0.3522208 0.15962034
-0.6812603 0.7084489 -0.0787484 -0.45242453 -0.09901472 0.1831932 -0.21157095 0.44909087
-0.71640635 -0.19606861 0.34565878 -0.064788006 0.05683511 0.03985675 -0.5759811 -0.31724814
0.13406928 -0.07151105 0.55011195 -0.1903137 0.12638797 0.092078045 -0.23889057 -0.039439984
0.4995461 -0.5221398 0.08137689 -0.2008975 0.0033319772 -0.2456978 -0.5729602 -0.29162937
-0.407829 0.04343328 0.1335115 0.30086786 -0.063711405 0.28671592 0.29514384 -0.07862465

actor.2.weight f4 [64, 64]
00000000: edc7 09be f09b 173e 633f fd3e f61e 673e
00000010: a0b3 eebd 38a9 863e 11a8 933e 0efd debd
00000020: d2ed 393e fc30 39be 58f7 eb3d b488 33bd
00000030: b9a4 df3c f95f 383e 4167 353e 1f45 6abd
00000040: 2b23 9f3c fb18 1b3e b5ae ac3c 2f47 8dbc
00000050: ae6e 15be b162 0c3e d3f1 a9bd ac5f f8bc
00000060: ec70 6d3d bbac 46bf 1042 8e3c ca0f aebe
00000070: f769 6ebe 3dc1 cfbc d64e 1fbe 15b3 9dbe
00000080: dda2 94be 60f2 c23e 8c4e 0f3e 4780 02bf
00000090: a79a 993d 845d 81bd a436 bb3e 2afd 8a3c
000000a0: aa54 e33d 4cea 153e a342 863e b656 56bc
000000b0: 7d89 85bc 5c98 913b b656 2cbe 18a0 433e
000000c0: ef99 5bbe 00bb 8abd 869d 59be c802 fabe
000000d0: 1c78 a23b 3ca2 dfbb 5677 cbbe f2cd 523e
000000e0: 3d39 e73c 3c47 19be c573 143e ff78 f1be
000000f0: 9a68 ca3b 70c9 c23d 16b3 073e f613 46be
00000100: f983 083e c35e b03e ced5 55bd 077f 0a3e
00000110: b176 6dbe 156d 8ebc a9e0 863d 5e73 bd3d
00000120: 1dc1 613c 9efc 103e 44e6 1a3d 54bf 5cbd
00000130: 9945 c0bd f29a 8c3e 64d8 fa3d dc9f d1bd
00000140: 6186 c9bd d600 08bd ffe1 f53d 15c6 5cbd
00000150: 4d66 b33d ed34 aa3d 6fca babc 078c 9e3d
00000160: 9d6d b23d b5b6 1ebd e580 8bbd 7c37 a7bc
00000170: 606f 46be 48ae bbbc b8cf 1bbe 8bab 2b3e
00000180: 84d8 613e 27d6 6f3d e5e2 89be 80e2 3ebe
00000190: b462 9cbc 21f6 9ebc 8a36 413d 3402 e33d
000001a0: a34a 89be e723 b7be 6f22 f3bc 8d86 19bd
000001b0: 1949 d73d 3a32 1a3d b526 b83d ae79 28be
000001c0: 5ec9 b3be 4737 943d c652 00be 6fb7 af3e
000001d0: 9064 3abc 3a84 053c 4ec7 1c3d 0aa1 1c3e
000001e0: 590f 0e3e e2cb a8be e533 3bbd 8c21 6d3e
000001f0: 3cdc 3f3e 77f2 35bc b865 cb3d 9006 a8be
00000200: a5f7 7f3e e179 d9bd 1ff2 cfbe 3191 bcbe
00000210: 1087 8a3e 50b3 acbe 0b85 95bd dd26 90bd
00000220: 7347 843c 5a49 24bd f92f eabd a6e9 c33d
00000230: b8c1 5c3c d0d0 d83d 1c05 753e eb23 503e
00000240: 391f 67be 8ac5 bbbd a023 afbc f8dd 7cbc
00000250: 38d5 1bbe 5924 223e 0cca 863e e945 efbd
00000260: c799 3f3e bdf3 82be 4e46 c5be e571 ff3a
00000270: acf4 ce3c 45f0 f0bb bb65 d23d 5e3a a0be
00000280: a849 763e d62e 7d3e 74ab bc3b be91 17be
00000290: c4ac a0be 39af a1be 21f3 04be f082 ebbd
000002a0: faf8 d9bd 6ded 2cbe 92b5 3ebe 8b07 a9bd
000002b0: 6206 643e cb4f 823b 97bc 293e 127b e1bd
000002c0: bd76 803e 13a5 173e 56f6 b33c 5d9a 723e
000002d0: 9b01 403e 19b0 72be 477e 1d3e 808b 0fbd
000002e0: 9ece 163e 3b37 89bc 3963 e8be 06e2 ccbd
000002f0: 492e 2b3d ffe5 a9bd 068a 59be 384f a53c
00000300: 3f2f d63c 556d 123d 33c8 8cbe 5f03 bfbe
00000310: d4b1 1f3e e721 853e efbf 4a3e 0d58 babd
00000320: ed74 8d3d baf7 803e b9fc d83a cc52 66bd
00000330: 8435 cb3c a44e 22bd 572b f6bd caf0 9cbd
00000340: 2e89 053b bddd a93c 11dd 273e 66bb 4e3e
00000350: 590e 133e 6b61 6e3d 8fe4 b2bd 6561 e73d
00000360: 14fe c2be e0e2 2c3e ce3f a1bd a5b9 27be
00000370: 9027 0bbd 3965 2f3e 6322 d83d 537f 01bd
00000380: 48a3 003e a82e 21be 3dcf dbbd 3d4a 3cbe
00000390: 91d2 d83e c40d d53d 8068 53bc 78bc a83b
000003a0: 0255 e13d 9d21 25bd 8464 5e3d 513c 1f3d
000003b0: a72f c6bd 3398 f53c 2860 81bd b8d7 463e
000003c0: f329 c4bc fbfb da3d fe81 16be 2a19 103e
000003d0: d02f 8abd 0441 e93c 5998 303e 3b41 96bc
000003e0: 1fe4 3b3e bdbf 0bbe d451 623c d60c 063e
000003f0: 725a 763d 0a45 2bbd f0fd 223e 443c 033e
-0.13455172 0.14805579 0.49462423 0.22570404 -0.116553545 0.2630098 0.28839162 -0.1088811
0.18157127 -0.18085092 0.115217865 -0.043831542 0.027300226 0.1800536 0.1771517 -0.057194825
0.01942595 0.15146248 0.0210794 -0.017245857 -0.14593002 0.13709523 -0.082980774 -0.030319057
0.05796902 -0.77607316 0.017365485 -0.3399642 -0.2328261 -0.025360698 -0.15557417 -0.3080069
-0.29030505 0.38075542 0.13994807 -0.50976986 0.07500201 -0.06316665 0.36565125 0.016966421
0.11100133 0.14640158 0.26222715 -0.013082197 -0.016300911 0.0044432115 -0.16829953 0.1910404
-0.2144544 -0.06773949 -0.21251497 -0.48830247 0.004958166 -0.0068247598 -0.39739484 0.20586374
0.028225536 -0.1496858 0.14497288 -0.47162625 0.0061770203 0.095110774 0.1325191 -0.19343552
0.13331594 0.34447297 -0.052205853 0.1352502 -0.23189808 -0.017385999 0.06585819 0.0925052
0.013778952 0.14158866 0.037817255 -0.053893402 -0.09388275 0.27461964 0.122483045 -0.10235569
-0.09840084 -0.033203922 0.12005996 -0.053899843 0.08759747 0.08310876 -0.022801606 0.07741552
0.08712313 -0.03874846 -0.06811694 -0.0204122 -0.19378424 -0.022910252 -0.15215957 0.16764657
0.2205525 0.05855384 -0.2693092 -0.1864109 -0.019090034 -0.019404473 0.047171153 0.110844046
-0.26814756 -0.3576958 -0.029679505 -0.037481833 0.10511989 0.037645556 0.08991758 -0.16452667
-0.35114568 0.07237106 -0.12531576 0.34319636 -0.011376515 0.008149201 0.03827601 0.15295807
0.13873042 -0.3296805 -0.045703787 0.23157328 0.18736356 -0.011105171 0.09931511 -0.32817507
0.24996813 -0.1061895 -0.4061441 -0.36829522 0.2705617 -0.33730555 -0.073007666 -0.070386626
0.01614735 -0.040109016 -0.11434931 0.09566049 0.0134739205 0.10586703 0.2392773 0.20326202
-0.22570504 -0.09168537 -0.021379292 -0.015433781 -0.15218055 0.15834178 0.26326025 -0.11683256
0.18711005 -0.25576583 -0.385302 0.0019488899 0.025263153 -0.007352861 0.1027331 -0.3129453
0.24051535 0.24724898 0.0057577435 -0.1480169 -0.3138181 -0.31578997 -0.12983371 -0.11499584
-0.10643192 -0.16887446 -0.18623951 -0.08253392 0.2226806 0.003976797 0.16575848 -0.11009802
0.2509059 0.14809065 0.021968048 0.23691697 0.18750612 -0.23699988 0.15380202 -0.035045147
0.14727256 -0.016749969 -0.453882 -0.10004048 0.041792188 -0.082958214 -0.21244058 0.020179376
0.026145576 0.0357488 -0.2749649 -0.3730726 0.1559518 0.26002428 0.1979978 -0.090988256
0.069070674 0.25189 0.0016554809 -0.056231305 0.024805792 -0.03962578 -0.12019985 -0.07663114
0.0020375955 0.020735616 0.16392924 0.20188674 0.14360942 0.058198374 -0.08735 0.112978734
-0.3808447 0.16883421 -0.07873498 -0.16379412 -0.033973277 0.17128457 0.10553434 -0.031615566
0.12562287 -0.15740454 -0.10732887 -0.18387695 0.4234815 0.10403016 -0.012903333 0.0051494204
0.11002542 -0.04031526 0.054295078 0.03887588 -0.09677058 0.0299798 -0.063171685 0.19418228
-0.023945784 0.10692593 -0.14698026 0.140721 -0.06747401 0.028473385 0.17245616 -0.018341651
0.1834874 -0.13647361 0.013813455 0.13090834 0.06014485 -0.041813888 0.15917182 0.12815958

actor.2.bias f4 [64]
00000000: 387c d7be c2e7 dcbc 6589 05be 9e09 073e
00000010: a4ab 70be 2871 abbe a52f f8bd 9675 c4be
00000020: 7597 bbbd 29ac 4abe d2ac babe 8bda 8cbe
00000030: 9988 91be ebea 91bc 5084 4abe 73ce b1bd
00000040: 24ec 91be fc33 16bf 4f85 53be c328 b0be
00000050: c145 fbbe 3392 87be bef0 92be a42a 85bd
00000060: f72e b6be 9301 13bf 463f cbbe 0155 66be
00000070: 95d1 85bd feba 8ebe fd69 413e 2349 cbbe
00000080: be54 07be 7981 40be e68c 08bf a277 f9be
00000090: dd4f 16bf dfaa e2be 7f68 1cbe 4f0f 46be
000000a0: a39f eabe 71cc aabe a060 18be b405 51bd
000000b0: 2d74 78be 8a2f 0abf 1793 0fbc 81db 08be
000000c0: e6e5 febb 33db a6be 3a28 79be eb7f fabe
000000d0: 3898 b0be 446c 81be 127e d0be 1663 bfbe
000000e0: 1a60 11be ae92 90be 1f62 8dbe 161e e4be
000000f0: 91ed abbe b4f3 6abe 60f1 7abe 5c50 373d
-0.4208696 -0.02696598 -0.13040693 0.13187262 -0.23502976 -0.3348477 -0.121184625 -0.3837096
-0.091597475 -0.19792236 -0.36459976 -0.27510485 -0.28424528 -0.017812213 -0.19777036 -0.08681955
-0.28500473 -0.5867307 -0.20656322 -0.344061 -0.49076656 -0.2647873 -0.28699297 -0.06502274
-0.35582706 -0.5742428 -0.3969671 -0.22493364 -0.06534115 -0.2787704 0.18888088 -0.39704236
-0.1321592 -0.1879939 -0.53339994 -0.48724085 -0.5871561 -0.4427099 -0.15274237 -0.19341777
-0.45824918 -0.333591 -0.1488061 -0.05103083 -0.24263068 -0.5397879 -0.008763096 -0.13364984
-0.007778871 -0.3258911 -0.24331751 -0.4892572 -0.34491134 -0.25277913 -0.40721184 -0.37380284
-0.14196816 -0.28236908 -0.27613923 -0.44554204 -0.33579686 -0.22944528 -0.2450614 0.04475437

actor.4.weight f4 [7, 64]
00000000: f3e6 a63d f5d2 c9bb 8757 8bbd c535 703c
00000010: 786e 963d 906c c0bc 53a1 62ba d301 6dbd
00000020: 761e 08bc 07ad 7f3c 7b0b 9e3d 534a ef3d
00000030: ecb7 62bb c86f 8d3c 9343 8c3c b5b8 80bd
00000040: f9e1 dc3d 6267 afbd 3ccc 24bc 64c7 a3bd
00000050: 2464 80bb 1360 8d3d 7826 aebb 5c69 083e
00000060: 1ef0 1bbd ee32 0c3e 0284 2e3d e169 c1bc
00000070: b334 01bd 960c 393d 36e7 c1bc 12ba 283e
00000080: cfe0 5a3e 94d5 bebd 0165 963b d6ad d33c
00000090: 2c5f a4bd 58a4 36bc d2e0 03be 01b0 df3d
000000a0: 3f54 c33d fc88 d43d a271 a2bd 7c86 3b3d
000000b0: 5cf2 edbd a534 113e 26f3 4d3d a324 20bc
000000c0: b33e a43d 5665 5bbd 8836 b83d 3a23 6bbd
000000d0: a308 363d f1cd 6ebd 23a8 493d 46de 553d
000000e0: 5201 59bd 1759 22bd bea3 a13d 6c2b 01bd
000000f0: 3d49 6d3e 9412 f83d 75fb 8b3d c746 82bd
00000100: 733f ebbc d887 80bb 62d0 103d 68ee f83c
00000110: 63dc 7f3d df74 0d3d 72da a93c b979 433d
00000120: eae6 013d 21a2 953d 010f 95bd 7d64 abbc
00000130: 2211 1bbd 7383 303c 4745 84bd aa6c e4bc
00000140: bf71 74bc 06a0 36be e30b c5bd 6705 763c
00000150: 98c5 eabd 73be e1bd 41f5 3e3b fac4 29bd
00000160: ed86 983c b88b ce39 7217 a4bd 4d29 d73c
00000170: f073 583d 73b6 05bd f530 1d3d b636 fb3c
00000180: 9ad9 413e a61a f2bc 32f7 54be afc3 b4bc
00000190: 6a7e 26bc 8964 41bd 9d92 e7bc 8cee e83c
000001a0: ec0f f1bc 3f29 04be 3ba8 a7bc 6a4a cf3d
000001b0: 3890 113c dff3 c7bd 9843 b33c be2b faba
000001c0: 6698 bf3c c40d 45bc 39d5 b43c d153 74bc
000001d0: 51cf 283d 1ec9 fcbd 018f 2e3d 5c48 f8bd
000001e0: 7b72 153d 0812 20bd 03dc 1fbd e303 363d
000001f0: 4f85 673c 8fb0 d5bc 45ea 2b3c b383 08bd
00000200: 925f 563e 379f f3bc 0d8f 243d d81f cebc
00000210: 614c 24bd ca44 4cbd a3a8 ad3c 6556 5dbb
00000220: 5d90 e0bc 387c e13c 3aae 84bd f15e 27bd
00000230: 92c5 99bd b5f0 5abc d38c 4bbe 6413 88bd
00000240: 2a08 3abe 8cb7 383c a2fa 933b 989f 513d
00000250: 2372 4d3d 7799 16be b71f afbd e2cd ff3c
00000260: 90da 7cbd 1a33 023e 82c5 3bbc a44b f03c
00000270: c78e d13c de88 f7bd 4e75 3d3d 8c8a 5c3e
00000280: 5622 44bd 6bd2 c1bd 5b48 fb3c c822 c3bd
00000290: aa15 80bd 6782 cfbd e7d9 a8bd 7e70 493d
000002a0: f59f 7a3d 73ac 373e 1a99 16be 4eca c3bc
000002b0: 99b4 a63d 5a3b 283e 192b 963d dc1a 203d
000002c0: b402 743d b091 f5bd 38c5 7f3d bb5f 8f3d
000002d0: c012 5cbd cda3 06be 4de7 cfbc adcc 413e
000002e0: 48e1 0abd 6187 b33d 0b5b 013d 5ec4 fabd
000002f0: 739b 0c3e 3dbc a03e abfd 96bd 2c82 2e3d
00000300: ef48 0fbe ab62 af3d cbda 9abc 6735 423c
00000310: aadc 9abd fe6a f2bc 2b9a 1c3e 287e b03d
00000320: 0a5b 763d 1e73 57bd 755d 5e3d 3756 53ba
00000330: 251f c43c 7491 51bc 130b 9dbe da82 ea3b
00000340: a8a8 833c 1445 24bd 792a 1bbd 107a e03d
00000350: 4c8e 3bbc f800 9bbb 4b27 c73d 7e66 8d3d
00000360: 79aa 79bc 55f4 323d bd77 263e 62de c23d
00000370: 4346 63bd 3249 843d 5c83 c63c 41b7 a93c
00000380: b653 16be 84ad 43bc a605 aabd 6953 3cbe
00000390: 1eea 633e cf72 2cbd 6948 83bd 18a0 1c3b
000003a0: 1869 1dbe 426c 1fbd ebdf bbbd b9fd 0cbd
000003b0: 78a1 20bd d060 28be 4153 e8bc 72ba 493d
000003c0: 8517 23bd 4d4b dbbd fbc8 84bd ab6c 98bc
000003d0: 1517 093d b645 233d 1ef3 30be c263 1fbb
000003e0: f438 c8bd 62f4 c8bc c0aa 0bbd 63c7 4dbe
000003f0: 25d1 e93b 1c4f 2d3e ff0a 4dbd fdb8 243d
0.08149519 -0.0061591812 -0.06803804 0.014661257 0.07345289 -0.023489267 -0.0008645255 -0.057863068
-0.008308044 0.015605218 0.077170335 0.11684098 -0.003459449 0.017265216 0.017122066 -0.0628523
0.10785288 -0.085646406 -0.010058459 -0.07997015 -0.0039181877 0.0690309 -0.0053146444 0.13321441
-0.03807079 0.13691303 0.04260636 -0.023610057 -0.0315444 0.04517802 -0.02366982 0.1647723
0.2137482 -0.093180805 0.0045896773 0.025839727 -0.08025965 -0.011147581 -0.12878731 0.10922242
0.09537553 0.1037769 -0.0793183 0.04578255 -0.11618492 0.14180239 0.050280713 -0.00977436
0.080197714 -0.05356344 0.08994776 -0.05740664 0.04444183 -0.05830187 0.049232613 0.05221393
-0.052979775 -0.039635744 0.078925595 -0.03153555 0.2317247 0.121129185 0.06835071 -0.06361156
-0.028716778 -0.003922444 0.03535498 0.030387118 0.062466037 0.034535285 0.020734046 0.047723506
0.031714357 0.07306314 -0.072782524 -0.02092194 -0.037858136 0.010773527 -0.06458526 -0.027883846
-0.014919697 -0.17834482 -0.09621408 0.015015936 -0.11463469 -0.110226534 0.0029137882 -0.041447617
0.018619025 0.0003939548 -0.08012284 0.026264811 0.05284494 -0.0326447 0.038376767 0.030665737
0.18930665 -0.029553723 -0.20797423 -0.022065965 -0.010161975 -0.04721502 -0.028268153 0.02843406
-0.029426537 -0.12906359 -0.02046596 0.10121615 0.008884482 -0.097633116 0.021882817 -0.0019086523
0.023388099 -0.012027208 0.022074329 -0.0149125615 0.041213337 -0.123430476 0.042616848 -0.121231765
0.03648613 -0.039079696 -0.03902818 0.0444373 0.014130904 -0.026085166 0.010492866 -0.033328723
0.20934895 -0.029739005 0.040175486 -0.025161669 -0.040111903 -0.04987029 0.021198576 -0.003377342
-0.027412588 0.027525052 -0.064785436 -0.040862028 -0.07508387 -0.013363053 -0.19877939 -0.066443235
-0.18167177 0.01127423 0.0045159617 0.05117759 0.050157677 -0.1470698 -0.08550971 0.031226102
-0.061731875 0.12714806 -0.011460664 0.029332943 0.025580777 -0.12086652 0.04625445 0.21537226
-0.047884308 -0.09463962 0.03067415 -0.09528118 -0.06254132 -0.10132294 -0.082446866 0.049179547
0.061187703 0.17936878 -0.14706841 -0.023900177 0.08139915 0.16428891 0.07332439 0.039088115
0.05957289 -0.11990678 0.06244394 0.07000681 -0.05372882 -0.13148423 -0.025378847 0.18925734
-0.03390625 0.08766056 0.031580966 -0.12244485 0.13731174 0.31393614 -0.07372602 0.04260461
-0.13992666 0.08563741 -0.018903157 0.011853552 -0.075616196 -0.029592033 0.15293185 0.086178124
0.060145415 -0.05260002 0.054288346 -0.0008061858 0.023940632 -0.012791026 -0.3067251 0.007156712
0.016071633 -0.04010494 -0.037882302 0.109607816 -0.0114475 -0.00473034 0.097242914 0.069043145
-0.015238398 0.043690044 0.16256614 0.095150724 -0.05548693 0.064592734 0.024232559 0.020717265
-0.1468037 -0.011943225 -0.083018586 -0.18391193 0.22257277 -0.042101678 -0.064102955 0.0023899134
-0.15372121 -0.038921602 -0.09173568 -0.034421656 -0.03921649 -0.16443181 -0.028360011 0.049250074
-0.03981735 -0.10707722 -0.064836465 -0.018606504 0.03346928 0.039861403 -0.17280242 -0.0024320935
-0.09776488 -0.024530593 -0.034098387 -0.20095591 0.0071355277 0.16924709 -0.050059315 0.04021548

actor.4.bias f4 [7]
00000000: 6f1e 823c 9e4d 3f3e 2260 23be 7c72 1f3e
00000010: 5555 5a3e 4f69 a3be 0032 0a3e
0.015883652 0.18681952 -0.1595464 0.15571016 0.21321614 -0.31916282 0.13495636

critic.0.weight f4 [64, 32]
00000000: 81e3 7bbe c4c5 0bbe 21af 5cbe ffff a53e
00000010: ea37 36be 899c b93d 4e65 93be 4204 053e
00000020: f09e 3c3d 4038 d83b 33be 9c3d 62b0 1a3c
00000030: 535b dcbc 28bd 2bbd 42e4 24bc 79be 0fbd
00000040: dbfe 0fbd 5179 24bc 584b 483e 7c62 933f
00000050: 7c41 743f 1fef 343d 6fba 4ebe ccd0 1fbf
00000060: 7784 fdbd 5460 3fbc 398e 9fbd e02d 22be
00000070: 2f63 62bd 9997 c9bd 3e6b 163d 1299 adbc
00000080: e207 37be da9a 243e d30e 5abd ac25 833e
00000090: cd26 933d 061b c2bd b7ee 0f3e dde9 3bbb
000000a0: 2809 a3bb 4e27 c4bb 47c1 d73d f8a2 54bc
000000b0: 773f e63c bc0b 35b9 9619 75bc 0442 8f3a
000000c0: 079a c3be e5a4 99be dbca b13e 3b35 98bf
000000d0: ddd6 d8bf e1a9 8d3d c927 9e3e 18eb 6dbe
000000e0: b6bb 1cbc ea13 3bbd e27c 88bd ad94 3abc
000000f0: 3cb6 213d c480 cebc 3c49 bdbd 38dc ffbb
00000100: 03c1 a43d 57ea 963e ed50 73bc 53cc 0bbe
00000110: 2e52 3e3e 0b68 e0bc 1ec0 a5bd d363 2fbc
00000120: 3fe2 773d 3609 bbbd 3fb8 e63c d684 f4bd
00000130: 61b9 8cbc f720 e73c c024 443d 03d6 c23b
00000140: a5e4 1c3e 66a9 08bd 7d34 42bf 12ff 97be
00000150: 64a7 013f 134a 603d 844b bdbd ae42 2cbe
00000160: 5dea b3bd cad8 bd3d 5a85 8c3d 6fdc 153e
00000170: a9a4 113d fa28 a6bd 39d0 4f3d 325f 0c3c
00000180: c62e 54be c940 903d 2244 15be 0f72 d1be
00000190: 9b1b 1dbd 4b64 363e f3cf bb3c cc42 833e
000001a0: b640 b53d d38b 91be 7847 02be 0cbb 81be
000001b0: c578 fcbd b19c d7bc 0a1c f1bb 4bda 01bc
000001c0: 7d53 c8bd 6c61 593d 2021 a7be 42f1 853e
000001d0: 2b2a 84be 89c3 fdbd 696f 97bf e640 233e
000001e0: b33f 253e a365 74bc 0709 a63d 01df 83bc
000001f0: ab0b eabd 5b79 abbd 5344 ef3d 6a0f 7e3d
00000200: c30a b4be 128c 8cbd 418c 7bbe c3d5 8a3e
00000210: ac1a c43e c0f5 103e 4601 743e 636c 8b3d
00000220: f26c 8abb a21c f6bc 8adf be3b 5dab 21bc
00000230: d131 d1bd b0c5 563c b6b1 80bc 74b0 a9bc
00000240: 8b8b 4bbe a30b 6ebe 061b d93e cfe4 2c3b
00000250: e7c7 85be 3708 243d afaf 20bf 3eb7 a03e
00000260: c84b 11be 8f9f 633b 3762 a73d 787d d6bd
00000270: 17b4 07bd 8a32 08bd 7d73 85bb a936 403d
00000280: 4270 5bbd ccb6 a2bd 6a77 2bbe 6855 d1bd
00000290: 9959 c13d 2830 3c3e d1e3 aebc 615e 7cbd
000002a0: ebd5 de3d be6e 243e 8097 223e c3e8 223e
000002b0: 08f5 25be 1917 f9bc 5898 bbbc b1d0 853b
000002c0: 289d 9c3d 7f46 aabd da14 efbe 3047 3dbf
000002d0: d372 fbbe 14d1 1abe dded 1c3f 4677 eb3e
000002e0: 80b1 913d f59d d03c 7acf b53d b121 af3d
000002f0: 17a6 643c a1cb 1c3d c6d7 853d 11e5 96bd
00000300: 36fc 413e 9bac 9e3e 8713 d73d c308 f7bd
00000310: 9d85 8fbc 0172 223d 365b c5bd 492a 07be
00000320: db69 383d 4e9b 6c3d 49fb a7bb 8c7d 3d3d
00000330: cf1d 83bd 0b9d ccbb f3f9 e93b 72b1 cdbb
00000340: 9c5f 873d 6685 e5bd 962e 7c3e c634 44c0
00000350: 68db 37be d000 113e f91d 58bf fd87 683e
00000360: 179a 1ebd f46d 1abd 38b2 2a3d 1270 843d
00000370: c8be fcbb 31af 56ba dd35 173d f277 c4bb
00000380: 30b0 903d 46ba 0d3c fede 21be 8a2b 93be
00000390: 87d9 66be f5ae 66be bcea 3dbe cfd7 123e
000003a0: 7b17 983d c996 833d c86a 073e 028e 8a3b
000003b0: 09fc 443c 8b4d 41bd 6532 80bb dc20 26bc
000003c0: a68e bf3c fed8 0b3e d810 4e3d f4a5 083f
000003d0: 986c 9bbe 024d 023e 2b3c 1abf dc65 0ebe
000003e0: 2ee7 073e 0a25 07bd af02 2dbd 3eef 24be
000003f0: 1930 8dbc 5a7b b4bd 0b08 2bbd 0258 9abd
-0.24598505 -0.1364966 -0.21551181 0.32421872 -0.17794767 0.0906306 -0.28788227 0.12989905
0.046050012 0.0065985024 0.07653465 0.009441467 -0.026899016 -0.04192844 -0.0100641865 -0.03509376
-0.03515516 -0.01003869 0.19559991 1.151443 0.9541242 0.044173356 -0.20188306 -0.62427974
-0.12378781 -0.011680681 -0.07790799 -0.15837812 -0.05527037 -0.09843368 0.036723368 -0.021191154
-0.17874101 0.16074696 -0.053236794 0.2561468 0.07185135 -0.094778106 0.14055906 -0.002867333
-0.0049754567 -0.005986131 0.105349116 -0.012978308 0.028106434 -0.00017265877 -0.014959713 0.0010929708
-0.3820345 -0.30008617 0.3472508 -1.1891245 -1.6940571 0.069171675 0.3088973 -0.23234212
-0.009566238 -0.04567329 -0.066644445 -0.011387986 0.039480433 -0.025207885 -0.09242484 -0.0078082345
0.080446266 0.29475662 -0.014850837 -0.13652162 0.18586037 -0.027393362 -0.08093284 -0.010704952
0.0605185 -0.09132616 0.028164027 -0.11939399 -0.01717824 0.028213961 0.04788661 0.0059459223
0.15321596 -0.033364676 -0.7586134 -0.2968679 0.5064604 0.054758143 -0.09242919 -0.16822311
-0.087849356 0.09269865 0.06861372 0.1463487 0.035557423 -0.081132844 0.050735686 0.008567618
-0.20720968 0.07043607 -0.14576772 -0.40907332 -0.038356405 0.17811696 0.022926306 0.256369
0.08850233 -0.2842699 -0.12722576 -0.25338018 -0.123277225 -0.026319833 -0.007358079 -0.00792558
-0.09781549 0.053071424 -0.3264246 0.26160628 -0.25813422 -0.12390811 -1.1830875 0.15942726
0.1613758 -0.01491681 0.081071906 -0.016097547 -0.11428007 -0.08372756 0.11682954 0.06202642
-0.3516446 -0.06862654 -0.24565221 0.27116212 0.383016 0.14156246 0.23828611 0.068077825
-0.004224413 -0.03004295 0.005824988 -0.009867516 -0.1021458 0.013108656 -0.01570974 -0.020714022
-0.1987745 -0.23246627 0.4240343 0.0026381498 -0.26129076 0.040046897 -0.6276807 0.31389803
-0.14189065 0.0034732556 0.0817303 -0.1047315 -0.03313073 -0.033251323 -0.004072605 0.046927128
-0.053573854 -0.07945022 -0.16744772 -0.10221368 0.094409175 0.18377745 -0.021348866 -0.061613444
0.10880645 0.1605787 0.15878105 0.15909104 -0.16206753 -0.030406522 -0.022899792 0.004083716
0.07647163 -0.08314227 -0.46695596 -0.7393675 -0.4911104 -0.1511882 0.6130045 0.45989436
0.071139336 0.025465945 0.08877464 0.08551348 0.0139556145 0.038280133 0.06535296 -0.0736791
0.18943867 0.30991063 0.105017714 -0.12062218 -0.017519766 0.039659504 -0.09636538 -0.13199724
0.045022827 0.057765298 -0.005126391 0.04626231 -0.0640217 -0.006244307 0.007140392 -0.0062772566
0.06610033 -0.11207084 0.24627146 -3.065721 -0.1795479 0.14160466 -0.84420735 0.22708125
-0.03872117 -0.037702516 0.04167387 0.06466688 -0.0077131726 -0.00081895577 0.036916602 -0.005995744
0.07064855 0.008650368 -0.15807721 -0.28744155 -0.22543918 -0.22527678 -0.18546575 0.14340137
0.074263535 0.06425244 0.13224328 0.0042283544 0.0120229805 -0.04719309 -0.0039122575 -0.01013967
0.02338345 0.13656995 0.050309032 0.53378224 -0.30356288 0.12724689 -0.6024806 -0.13906044
0.13271782 -0.032994308 -0.042238887 -0.16106889 -0.017234849 -0.0881259 -0.041755717 -0.075363174

critic.0.bias f4 [64]
00000000: 1a73 8e3d 3b67 8ebd 0875 8f3d b9e2 00be
00000010: 72e3 213c 8606 09be 3c9a 8ebc 1859 0d3e
00000020: 5ac6 c03d a4f0 d83e 6ed4 d93e 5ffb 82be
00000030: a804 4bbe 2957 77be 6076 903e 21bb 253e
00000040: 907a b5bc 5bf4 21be f517 073e 9adb 0b3f
00000050: b0f4 2a3f 28e6 54be 355c e33c a22a 2f3d
00000060: 7a8a ae3e 9a2f f2bd a2f2 ef3d 3626 da3e
00000070: a13a 253e 9432 2ebe 60a3 37bd 920b e03e
00000080: 7aaf d5bd c51c 80be 11be fcbd c4f3 a9bd
00000090: 48b9 873e 2b19 0f3f 6f46 95be c345 893e
000000a0: 6bd9 f8bc f534 1e3d ed94 8b3e 2a77 b2be
000000b0: 108d b7be 21bc b93e 4e81 2cbe 6edc 82be
000000c0: 818f 6e3e 93b6 8a3d aa92 6ebe 865d 9bbe
000000d0: a38c ab3e 806d 91bd ba1c e8bd 5cfd bbbe
000000e0: 9433 9a3e 7a5c 11be ec9c 57be e87f 713e
000000f0: b206 f03d af7f 9c3d 3987 c83d 55ce aabc
0.06955548 -0.069532834 0.07004744 -0.12586488 0.009880887 -0.13381395 -0.017407529 0.13803518
0.094128326 0.42371094 0.42544883 -0.25582406 -0.19825995 -0.24154343 0.28215313 0.16184665
-0.022153169 -0.1581587 0.13192733 0.5463196 0.66779613 -0.20790923 0.027753929 0.042765267
0.34090024 -0.118254855 0.117162004 0.42607278 0.16135646 -0.17011482 -0.04483354 0.43758827
-0.1043386 -0.2502195 -0.1234094 -0.08298448 0.26508546 0.5589778 -0.291553 0.26811036
-0.03037711 0.038624723 0.2726206 -0.3485654 -0.3584981 0.36276343 -0.16846201 -0.255588
0.2329693 0.067731045 -0.23298135 -0.3034479 0.33505735 -0.071009636 -0.11333604 -0.36716735
0.30117476 -0.14195433 -0.21055955 0.23583949 0.11720027 0.07641541 0.09791417 -0.02085034

critic.2.weight f4 [64, 64]
00000000: 3970 78bd eba2 5dbd 650c 8e3d d108 3bbd
00000010: b497 00bd d64b ec3d da41 053e 6301 01be
00000020: 1745 32be 25a9 fcbe 7fa2 d1be ab6f e43e
00000030: 838c e03d 3e2c d83e 72f5 72be 02f0 b13d
00000040: f873 f3bd 95ab 253f 7794 29bf 08b7 1bbf
00000050: 1075 89bf fc9b 223f 986e 9cbd b903 88be
00000060: e3d6 cfbd e5c6 943e 6ba5 263e 0930 91be
00000070: 11bf dfbd c249 813e 3dcc 6c3e f53f 97be
00000080: 2238 aabb b5df a93d 97ee d63d 3cf5 18bd
00000090: 28d2 abbe fe94 28bf fc66 d6bb f46a 79be
000000a0: a5fe c43c 0e65 673e 1d1a 89bd 3a17 583e
000000b0: d927 413e 8445 aabe 5ac9 4f3e ac9e 1a3f
000000c0: d98a 06bf 7d17 6bbd 2069 adbc 1b44 2d3f
000000d0: c584 6bbe d4be 9dbd 0480 a4bd 574b 683e
000000e0: 8761 adbe 3f58 a43c 3ed2 fd3d 7b41 16bd
000000f0: c530 48be 358f 35be fc9f c5bd 2825 14be
00000100: 9431 57bd 8861 8bbc 2643 0a3d 7d62 603d
00000110: b095 33bc 9917 953d 6348 05bc 467f 36bd
00000120: e39b 39be ace4 73bc 0f2e e23d 0a02 0a3e
00000130: 2018 063e 84db 38bd c878 c73d 9b84 013c
00000140: 11c7 013e 3abc 6cbd ec3a 113d 6df8 6bbd
00000150: 0374 153d 629c 963d bea0 59bd d173 0c3d
00000160: 9966 c13d f5c9 123e b0d1 773d 5b96 143d
00000170: 1c74 f33d 13e4 03be 353a 3b3d 782f f03d
00000180: 4674 703d 1cfa 14be 48ad 7a3d 96d1 0abe
00000190: 4146 a0bd 4905 eabc 3ba1 9c3d d27f 093e
000001a0: 38ee 8ebc 029a 453c 41ce 013c a010 003e
000001b0: 1569 a53c e561 a9bd 84b8 d8bc 17fd 273a
000001c0: 11b4 af3c 3518 843c e3c1 963d c933 753c
000001d0: 9c6b 75bd 1dab 15be 03e3 08bc 87fe 1dbd
000001e0: 1105 663d 2bb3 8d3c 0164 1b3d edf7 473d
000001f0: 814a 603d a5e9 7b3d 9ff4 d53d f5f3 b93d
00000200: 69f9 8b3d 00d8 8d3c f5eb 3f3d ebb9 ccbd
00000210: 675f 783d ce5f bfbb 5032 a0bd 5a1a d43d
00000220: 6b32 b13b 621f da3c 8f4d a8bd b3a7 d2bc
00000230: e7fb 23be ce51 cebb 2a63 f23b 6a11 7b3d
00000240: 2c01 933d 7d6e 343e 53a4 573d d2f3 12bd
00000250: f2a6 053b f021 cfbd 2369 69bc dc71 aebd
00000260: cf69 44bd 6327 0b3e b56f f63a 46ad 8abd
00000270: 0550 1abd 7f1e db3d 5334 923d 6bb7 69bd
00000280: 9c92 38bc bad6 b9bd 5756 943d 985a 0fbd
00000290: 33fc 513d 495a 943d 2c79 203d 7315 e33b
000002a0: dde4 25bd cea5 49bd d3d8 ac3c 91da 44bd
000002b0: 6d0a b8bd 3ec6 20bd 4238 08be 4483 85bd
000002c0: a2e1 2fbc ef6a a13d cd80 f43d 229f cebd
000002d0: 45cb 983d 373a a93d 2f4b 153e d37a a13d
000002e0: dbf3 813d cb43 6e3c b756 4abb 9d23 763c
000002f0: cf1c fb3d f9d1 8f3d 9746 633d af6a 4dbb
00000300: dd41 0ebd e933 4a3d c732 2bbd 9a94 6cbc
00000310: 396e cfbc 9faa c8bd 7943 8a3d 2b52 3b3d
00000320: 5e86 c6bc 2691 df3d 1e2d 42bd f53a 883d
00000330: 0455 4dbd 340b 9abd 073f 963d 1bdb 843d
00000340: 652a 8bbc 069a 973b 10d0 f1bc def8 4c3e
00000350: 82e2 42bd 8375 273e 5457 733d 9dcd 8c3d
00000360: 4b14 d6ba 1351 43be 7f65 75b9 6668 c3bd
00000370: 1985 a0bd 88d2 013c 4f57 8bbd f5ba ed3d
00000380: 38e8 92bc efbf 45bd 0544 b3bb f3dc c93c
00000390: e77b f73c db1b a0bd 73b2 2bbc 0280 e1bc
000003a0: 6b41 503e b631 9bbc 14c2 8f3c 7cb6 743d
000003b0: ea5f aa3b ea93 00bd 0ba5 cabc 744b 8d3d
000003c0: 70c5 afbd 7b51 093e 58dd 9d3d 0444 d13c
000003d0: 5661 00be e7d4 cebc e5ba 6dbc bef5 08bd
000003e0: defc c03d 9ebd 313c 735a 9e3c 52ba d23d
000003f0: 396a 1d3c c429 f6bc 49dc eabc fde8 a9bd
-0.0606539 -0.05411045 0.06935958 -0.045662705 -0.031394675 0.11537902 0.13013402 -0.12598185
-0.17409168 -0.49347797 -0.40944287 0.44616446 0.109643005 0.42221254 -0.23726442 0.08688356
-0.11887354 0.6471494 -0.66242164 -0.6082616 -1.073885 0.63519263 -0.076382816 -0.2656534
-0.10148408 0.29057994 0.1627404 -0.2835696 -0.10925115 0.25251585 0.23124786 -0.29540983
-0.00519468 0.08294622 0.10494726 -0.03734325 -0.33558774 -0.65852344 -0.0065430384 -0.24357206
0.024047205 0.22597143 -0.06694434 0.2110261 0.18862857 -0.3325616 0.20291653 0.60398364
-0.52555615 -0.057395447 -0.021168292 0.67682046 -0.22999866 -0.07702413 -0.080322295 0.2268499
-0.3386347 0.02006161 0.12393616 -0.03668354 -0.19549854 -0.1773041 -0.09649655 -0.14467299
-0.052537516 -0.01701428 0.033755444 0.054781426 -0.010960981 0.072798915 -0.008134934 -0.04455497
-0.18125872 -0.014886063 0.11043941 0.1347734 0.1309514 -0.04513122 0.09739834 0.007905151
0.12673594 -0.057796694 0.035456583 -0.057609964 0.03648759 0.073540464 -0.05313181 0.03429014
0.09443397 0.14334853 0.060502708 0.036276203 0.118873805 -0.12879972 0.045709807 0.11727804
0.058704637 -0.14548534 0.06120041 -0.13556513 -0.078259 -0.028566973 0.0764794 0.13427666
-0.017447576 0.012060644 0.00792271 0.12506342 0.020191709 -0.08270625 -0.026455171 0.0006408258
0.021448167 0.016124824 0.073612 0.01496596 -0.059917077 -0.14616056 -0.008354905 -0.038572814
0.056157175 0.017297348 0.037937168 0.048820425 0.054758552 0.061502118 0.104470484 0.09079734
0.068346806 0.01731491 0.046855886 -0.099963985 0.060637858 -0.005840278 -0.07822096 0.10356589
0.0054076216 0.026626293 -0.08217918 -0.02571473 -0.16014062 -0.006296373 0.007397075 0.061295904
0.07177958 0.17620273 0.052646946 -0.035877056 0.0020393697 -0.10113895 -0.014246258 -0.08517811
-0.04795247 0.13589244 0.0018801602 -0.067713305 -0.03767397 0.10699176 0.07138886 -0.057059687
-0.011265423 -0.09074159 0.072430305 -0.034998506 0.051265907 0.07243783 0.03917806 0.006930047
-0.040501464 -0.04923039 0.021099484 -0.048060004 -0.089863636 -0.03925156 -0.1330271 -0.065191776
-0.010734947 0.07881724 0.11938629 -0.10088946 0.074606456 0.08263057 0.14579462 0.07884755
0.0634534 0.01454253 -0.003087444 0.015023139 0.12261354 0.07022471 0.05548724 -0.0031344106
-0.03473078 0.04936591 -0.041796472 -0.014439726 -0.025321113 -0.097981684 0.06751151 0.04573266
-0.024233993 0.10916357 -0.04740631 0.0665187 -0.050129905 -0.07521668 0.0733624 0.064871036
-0.016987989 0.0046265153 -0.029518157 0.2001681 -0.047579296 0.16353421 0.059409454 0.06875155
-0.0016332952 -0.19073896 -0.00023402831 -0.09541397 -0.07837886 0.00792373 -0.06803762 0.11607925
-0.017932996 -0.048278745 -0.005470755 0.02464149 0.030210448 -0.07817813 -0.010479557 -0.02752686
0.20337455 -0.018944602 0.017548598 0.059744343 0.005199422 -0.03139106 -0.024736902 0.06899157
-0.0858258 0.13409989 0.077082336 0.025545128 -0.1253713 -0.025248004 -0.014509891 -0.033437483
0.094232306 0.010848431 0.019330239 0.10289444 0.009607845 -0.030049212 -0.028669493 -0.08296392

critic.2.bias f4 [64]
00000000: 4268 343b 1725 cdbd 84f0 8f3b d8c6 1cbe
00000010: 6ff8 593d 469d 6bbc 52b3 edbc 9950 203e
00000020: ce4f f83d 7906 b23d 7655 673d b3c2 94be
00000030: c569 8abd 4916 173d 25d3 bd3c 720c 253e
00000040: 1d76 cd3d bbbd 15be ef7d cdbd 531b 623d
00000050: 289a 93bd 8176 aebd 4178 be3d b729 06bd
00000060: b804 c3bd 60a9 9f3c b88b 85be b659 61bd
00000070: 9250 76bd 6abc adbb d486 a63d b28a 153d
00000080: e7e4 afbc 4450 543e 7bbd dc3d 53c6 e93d
00000090: 7202 80bb 482a 52bc b47f 32be e2dd bcbd
000000a0: 8d98 a1be b1c1 e9bc 2b44 a23d f8ba 843e
000000b0: 6737 983c f92c c7bd 5bab 813d d632 75bc
000000c0: 3576 0a3d 2726 29bd 0863 2b3e c3f3 8a3c
000000d0: 9e75 00bd c60e 98bd 128b 6d3d e459 f2bc
000000e0: 0d5d acbd eecc b2bd 130a 26bd 8a98 683d
000000f0: 513c 0cbe e7c4 e1bd ff1a 01bd 88c6 8d3b
0.0027527963 -0.1001684 0.0043926854 -0.15310228 0.05321544 -0.014380759 -0.02901617 0.15655746
0.121245965 0.08692641 0.056477986 -0.29054794 -0.06758455 0.036886487 0.02317197 0.16118029
0.10032294 -0.14623158 -0.100337856 0.05520184 -0.07207137 -0.085186966 0.0930028 -0.032754626
-0.095223844 0.019489944 -0.2608316 -0.055017196 -0.06013543 -0.0053020017 0.08131185 0.036509223
-0.021471454 0.20733744 0.10778328 0.114147805 -0.0039065415 -0.012827463 -0.17431527 -0.09222008
-0.315617 -0.028534742 0.07923158 0.25923896 0.018581105 -0.09725375 0.063315116 -0.0149657335
0.033804137 -0.04129615 0.16736996 0.016961938 -0.03136217 -0.07424693 0.057993956 -0.029583879
-0.084161855 -0.087304935 -0.04053695 0.056786098 -0.13694884 -0.11023884 -0.031519886 0.0043266453

critic.4.weight f4 [1, 64]
00000000: a630 06be 4401 e53b 7b96 b83b 02dc d0bb
00000010: ab8b 943b 3ee7 3bb9 64ba 233a 12eb 44be
00000020: c19e 15ba 68d2 4dba f6b9 cb3a 18ba fd3d
00000030: 39cf 043b c0d8 b5ba 8202 093b 966b 9abd
00000040: 07cf bd3b 45f2 103e 385c 72ba 8f51 35bb
00000050: 469c 9f3a 3a10 993a 65fa 9f3d ebd3 68ba
00000060: 9fa4 1fbb ae83 c7b9 ae06 313e f274 b4bc
00000070: 71fb de39 d57d bdba 73fc 32bc 310a 79bb
00000080: 7111 053b d29f aebd 43fa 523b 190e 813a
00000090: 2231 f6ba 3a3f bf3b a7fe dabd be5c 31bb
000000a0: af24 363d 9bed debd b52c f03a 2210 22be
000000b0: 67d2 4fba 829e e73d 6570 e13a d6bb f5ba
000000c0: f3dc 113b e851 803b 9f97 cbbd 5b84 38bb
000000d0: b40b 8a3b 12ec 86bb a636 2f3c f3a6 763b
000000e0: 9d8e fc3a 5cfa a739 eb3b 6abb 2a90 32bb
000000f0: cabe 06ba 738d 763d 3b6a 6cbb 6168 4dba
-0.13104495 0.0069886763 0.005633173 -0.006373883 0.0045332513 -0.00017919854 0.0006245731 -0.19230297
-0.0005707555 -0.00078514824 0.0015543092 0.1238901 0.0020265116 -0.0013873801 0.0020906036 -0.07540052
0.005792502 0.14154918 -0.0009245309 -0.002766702 0.001217731 0.001167781 0.07811431 -0.0008881676
-0.0024359596 -0.00038054347 0.17287704 -0.02202842 0.00042530478 -0.0014457057 -0.010924446 -0.003800046
0.0020304585 -0.08526577 0.0032192625 0.000984612 -0.0018782953 0.0058363946 -0.10693102 -0.0027063335
0.044468578 -0.108851634 0.0018323871 -0.15826467 -0.0007927776 0.1130953 0.0017199634 -0.0018747996
0.002225694 0.003916014 -0.09941029 -0.0028155062 0.004212821 -0.0041174972 0.010694182 0.003763613
0.0019268576 0.00032039254 -0.003574128 -0.0027246573 -0.0005140124 0.06019349 -0.003607406 -0.0007835683

exp_avg f4 [7]
00000000: eb2e 67bb 21cc 2d3b bac2 043b 8631 e1ba
00000010: 2ffa fdba 3500 13ba eb40 f439
-0.0035275768 0.0026519375 0.0020257668 -0.0017180897 -0.0019376929 -0.0005607636 0.00046587674

exp_avg_sq f4 [7]
00000000: f11e 0a3b 08bc 493b e1f0 f23a ec25 8c3a
00000010: 7e2a c73a 90ea ed3a ca67 903a
0.0021075571 0.0030782241 0.0018534922 0.0010692454 0.0015195159 0.001815157 0.001101726

exp_avg f4 [64, 32]
00000000: 6ffc 36b9 4c5e 8738 b421 8a39 1032 1438
00000010: 094c a437 98a3 4fb9 ee9a a539 8508 7bb7
00000020: 9f9c 61b7 8c78 9a39 09f0 2339 c535 1639
00000030: b0b0 7f39 9a9e 32ba cd1f d2b8 1be6 2cb9
00000040: 998e 1a37 69fa c036 b42e 9239 1564 db35
00000050: 977e 3239 4c80 47ac 0ffa e2b9 95f5 8638
00000060: f94d a6ad 7a6a dbb9 28a2 bf38 c123 1d3a
00000070: d266 5a3a 8dd2 d939 19be f5b9 311b 043a
00000080: 913b 4bba 633f bc39 40c1 07b9 9d91 4039
00000090: 01fb 573a bc34 44ba 01cb 543a c848 5fb8
000000a0: 473f 99b8 df02 e8b9 1818 24ba 620f 9239
000000b0: 34b7 68b8 da31 9eb9 8f2b 3538 e5c3 5e39
000000c0: 9d63 a536 5a88 e4b7 2d9d 603a b8a3 3e38
000000d0: 8df1 f439 b160 70ae 0a92 9fba 51f4 a33a
000000e0: df17 6aae 8a4d 2dbb cb3e 16b9 63e5 ceba
000000f0: c520 4f3a ea98 593b 3c4a 20bb 78b2 683b
00000100: f923 4aba b663 263a 2f9e e639 a6e5 253a
00000110: e2c0 be39 3189 5cba 9c90 8639 a9ba 67b8
00000120: 6d1f abb8 4a1f 38b9 2111 60b9 06d2 0db9
00000130: 62b7 9739 1b46 b3b9 397e 51ba d7dd 07ba
00000140: 089b 1337 0cf2 fb37 0499 493a c7bf 5537
00000150: e031 263a 8b71 a0ad 62ea 70ba 90d4 da39
00000160: 978b 30ae dffc d8ba 4975 bf39 fa9c 213a
00000170: 56c3 833b 942a a538 f9db 23bb 9b9f b53a
00000180: b947 b139 aeb6 d0b9 4073 af38 424b 1a37
00000190: 1fd9 58b8 f188 b939 1ac3 e3b7 7c75 7438
000001a0: 466f 1238 3e60 12b9 c3dc ebb8 adda 9439
000001b0: a242 dc37 49a3 9039 5f95 1539 e46e ca38
000001c0: 5251 4437 f981 a736 cf28 fbb9 56ac e0b7
000001d0: 3b00 a1b9 f3ef dd2d 9565 6939 7f80 17ba
000001e0: cf50 2b2d cdc4 8f3a cb79 fbb9 ec4f 663a
000001f0: 01d8 4cba f18d 34ba a9f8 853a 3aec 11ba
00000200: 2acf 5539 7a09 c0ba f2a2 89ba b2f4 23ba
00000210: 4977 b5b9 7bf6 a23a 986a 56b9 0e2e 0e39
00000220: 203b 0439 24a0 96b9 d0e7 d739 1ca2 9739
00000230: 9c10 f938 aca2 0339 5879 6a3a 62f7 4c3a
00000240: 9a62 2937 1e7d ac36 28d9 8bba 3d48 8fb9
00000250: 51dc 4bba 2d92 462e 7100 833a ca54 87ba
00000260: 0d43 402e f0a5 6a3a 153a 89ba 2e33 3fbb
00000270: 3e1e 87bb 823b 86ba 3535 823b 6f2f 02bb
00000280: 7dee 5938 08e2 f7b9 8570 00ba 2d90 a3b7
00000290: 1cb0 b138 8a54 d0b8 8b07 1139 1aca fa37
000002a0: 6b51 3637 35c5 c0b9 f124 f9b8 88a7 97b9
000002b0: 2258 85b9 2d1b 60b9 2534 5b38 f966 e6b9
000002c0: 949e 9bb5 ad1a 51b7 264f 27ba 33c1 33b6
000002d0: 9c48 9ab9 fe18 212e b41f d7b9 71af 5bba
000002e0: 61c4 9dad 04b0 1dba 45b1 d7b9 c3cc edba
000002f0: c87f a1ba 5ff1 4e3a d39a c3b8 65cb 0e3a
00000300: 455b b0b9 70dd 1eb8 a75e 8db9 ded9 d137
00000310: 822b ac39 b7c3 ae38 82d5 a939 30c1 7936
00000320: 1102 5635 a75e 0bba 7e8c 7eb8 e583 4c37
00000330: 8573 6738 cac8 b5b9 24f5 a739 0293 8638
00000340: aa5d b636 5c21 beb7 12db 35b8 af48 b2b7
00000350: d40a efb8 ee48 092d a186 17ba 3629 3bb9
00000360: 5a55 dead 7c69 abba 8d07 8839 c30b dcba
00000370: 3e82 f6b9 d7e5 9c3a fc2b 2e38 fac5 bc3a
00000380: 44f8 33ba c959 7b3a 66a2 3c3a 1088 d839
00000390: 4233 fa39 18ac 7aba e671 0b3a 3afa b2b8
000003a0: 0e7d a9b8 9d90 64ba e994 a9b8 9e09 113a
000003b0: 11b2 6a39 f66a 2eba e639 27b9 9ed2 00ba
000003c0: 6006 0eb8 a8d5 fdb7 0f9b 873a 53f3 1a38
000003d0: 6387 0d3a d526 5aae 89c3 e3ba 0faf 943a
000003e0: 18fb a6ae edc8 f1ba 9ec5 2d3a cd49 af3a
000003f0: a4dd 563b 1f00 5a3a ccd1 19bb 44a5 0c3b
-0.00017450911 6.454866e-05 0.00026346522 3.5332574e-05 1.958573e-05 -0.00019802002 0.00031586684 -1.4962749e-05
-1.3447511e-05 0.00029462983 0.00015634311 0.00014325145 0.00024384516 -0.00068137946 -0.00010019504 -0.00016488919
9.212316e-06 5.7511975e-06 0.00027882087 1.6345899e-06 0.00017022561 -2.835082e-12 -0.00043292387 6.435361e-05
-1.8906642e-11 -0.00041850266 9.137794e-05 0.00059944025 0.00083313615 0.00041546338 -0.00046871675 0.0005039452
-0.00077527115 0.0003590538 -0.00012946595 0.00018364792 0.00082390016 -0.00074846647 0.0008117408 -5.3235126e-05
-7.307395e-05 -0.00044252627 -0.0006259694 0.0002785875 -5.548373e-05 -0.0003017325 4.319433e-05 0.00021244546
4.9289797e-06 -2.7243212e-05 0.0008568343 4.5452005e-05 0.00046719276 -5.465556e-11 -0.001217426 0.0012508725
-5.3226642e-11 -0.0026443922 -0.00014328507 -0.0015784915 0.00079013064 0.0033202716 -0.002445831 0.0035506766
-0.0007711049 0.00063472555 0.00043986875 0.0006328471 0.00036383333 -0.0008412777 0.00025666214 -5.5248533e-05
-8.159769e-05 -0.00017559264 -0.00021368686 -0.00013525048 0.00028937595 -0.00034193773 -0.0007991526 -0.0005182898
8.797979e-06 3.0034244e-05 0.00076903426 1.2740441e-05 0.00063398294 -1.8240317e-11 -0.0009190199 0.00041738572
-4.0141748e-11 -0.0016554854 0.00036517743 0.0006165054 0.0040210886 7.875744e-05 -0.002500294 0.001385677
0.00033813508 -0.00039808959 8.366117e-05 9.196638e-06 -5.1700623e-05 0.0003538798 -2.715136e-05 5.828355e-05
3.4912744e-05 -0.00013959498 -0.00011246793 0.00028391686 2.6257072e-05 0.00027587477 0.00014265392 9.6527656e-05
1.1701444e-05 4.9921186e-06 -0.00047904855 -2.6783131e-05 -0.00030708485 2.523135e-11 0.00022258454 -0.000577934
9.738168e-12 0.0010968685 -0.00047965194 0.0008785713 -0.00078141695 -0.0006887606 0.0010221201 -0.00055665115
0.00020390438 -0.0014651262 -0.0010500832 -0.0006254419 -0.00034611885 0.0012433076 -0.0002044834 0.00013559332
0.00012610527 -0.00028729544 0.0004118071 0.00028921745 0.00011876339 0.00012553734 0.0008944473 0.00078188453
1.0096142e-05 5.140565e-06 -0.0010669576 -0.00027328907 -0.0007776665 4.5149818e-11 0.0009994638 -0.0010324952
4.37153e-11 0.0008951118 -0.001046958 -0.0029174793 -0.004123478 -0.0010241123 0.003973628 -0.0019864698
5.195894e-05 -0.00047279918 -0.0004899579 -1.9498251e-05 8.4728206e-05 -9.9339595e-05 0.00013831088 2.9896433e-05
1.0867002e-05 -0.00036768024 -0.00011880126 -0.00028925785 -0.000254334 -0.00021372428 5.2262232e-05 -0.0004394574
-1.1594552e-06 -1.2463582e-05 -0.00063823385 -2.6785535e-06 -0.00029427267 3.662936e-11 -0.00041031616 -0.000838033
-1.7936043e-11 -0.0006015303 -0.00041140072 -0.0018142689 -0.0012321407 0.00078942435 -9.327163e-05 0.0005447178
-0.00033637337 -3.7876365e-05 -0.00026964137 2.5016194e-05 0.00032838812 8.333421e-05 0.00032393268 3.7216341e-06
7.972422e-07 -0.00053165335 -6.0689163e-05 1.2190057e-05 5.5182278e-05 -0.0003467261 0.00032035366 6.417e-05
5.4349266e-06 -2.26653e-05 -4.3357788e-05 -2.12531e-05 -0.00011398425 7.803742e-12 -0.0005780254 -0.00017849062
-2.5276382e-11 -0.0013077701 0.00025945567 -0.0016788173 -0.00047017814 0.0011970353 4.1525796e-05 0.0014402263
-0.00068653026 0.0009588269 0.000719583 0.00041300105 0.00047721906 -0.0009562387 0.00053194014 -8.53431e-05
-8.081841e-05 -0.0008719059 -8.086285e-05 0.0005532744 0.00022382314 -0.00066535117 -0.0001594793 -0.0004914197
-3.3861375e-05 -3.0259442e-05 0.0010345894 3.6943075e-05 0.00053988973 -4.960195e-11 -0.0017377 0.0011343675
-7.593409e-11 -0.0018446721 0.00066288735 0.0013373435 0.0032785917 0.0008316058 -0.0023470996 0.002146081
