logs/rsl_rl/franka_reach/2025-06-16_20-11-58/model_50.pt (torch, 172737 bytes, 36 tensors)

std f4 [7]
0	0x3f4d8afc	0.802902
1	0x3f4b2f0e	0.79368675
2	0x3f4c7bd0	0.7987642
3	0x3f56e3e1	0.83941466
4	0x3f3f2dda	0.7467934
5	0x3f57c3c2	0.8428308
6	0x3f383572	0.7195655

actor.0.weight f4 [64, 32]
0	0xbf1200db	-0.57032555
1	0x3e8300e1	0.25586608
2	0xbf188180	-0.595726
3	0x3e225a62	0.15854791
4	0x3e598e04	0.21245581
5	0x3edfb033	0.43689117
6	0x3e577001	0.2103882
7	0x3eb5c463	0.35501394
8	0x3f18dafc	0.59709144
9	0x3d34c8fb	0.044136982
10	0x3e2e4b0c	0.17020816
11	0x3e0ccf0e	0.1375086
12	0x3daa6850	0.08320677
13	0x3db74fca	0.089507654
14	0xbcf6af02	-0.030112747
15	0xbdbbe174	-0.09173861
16	0xbe554354	-0.20826465
17	0xbe9f949e	-0.31168073
18	0xbec24cb0	-0.37949133
19	0xbf1ab1ed	-0.60427743
20	0x3f03006f	0.51172537
21	0xbca675e4	-0.020319887
22	0xbf1920bd	-0.5981558
23	0x3dba2084	0.09088233
24	0xbe102de1	-0.14080001
25	0xbdec8871	-0.11549462
26	0xbead66f8	-0.3386762
27	0xbe453aef	-0.19260763
28	0xbd9bad67	-0.07601433
29	0xbe61d404	-0.22053534
30	0x3e3ead7a	0.18620864
31	0xbddab346	-0.10678725
32	0xbe0e3963	-0.13889079
33	0x3dd17ea9	0.10229237
34	0xbeca0f54	-0.3946482
35	0x3f3517ca	0.70739424
36	0x3f39c552	0.7256671
37	0x3eb72f99	0.35778502
38	0xbd832005	-0.064025916
39	0x3e5d1711	0.2159083
40	0x3eb47b64	0.3525039
41	0x3e114da0	0.14189768
42	0xba2e1cd2	-0.0006641868
43	0x3e89b8c4	0.26898777
44	0x3e12afdb	0.14324896
45	0xbe310c55	-0.1728986
46	0x3cf058bc	0.029339187
47	0x3de5efc8	0.11227375
48	0x3e490f2f	0.19634698
49	0x3d16a5a1	0.03677905
50	0xbee76187	-0.45191595
51	0xbfc82afb	-1.5638117
52	0xbec9b4f8	-0.3939588
53	0x3e14d24b	0.14533345
54	0x3ead773a	0.33880025
55	0x3d291c03	0.04128648
56	0x3d685745	0.05672385
57	0x39ed97ad	0.0004531717
58	0x3da7acd9	0.08187265
59	0xbdf7dfda	-0.12103243
60	0x3de0a345	0.10968641
61	0xbdeb6cde	-0.11495374
62	0xbca0a0e1	-0.019607963
63	0xbdfd061f	-0.12354683
64	0x3ee49a90	0.44649172
65	0xbe44c071	-0.19214036
66	0x3f2d8db4	0.67794347
67	0xbed759ab	-0.420606
68	0x3dec6688	0.11542994
69	0x3e94c4de	0.29056448
70	0x3e7c6335	0.2464722
71	0x3ee25c56	0.44211072
72	0x3f322a2c	0.695956
73	0xbd39e818	-0.045387357
74	0x3d6d64e2	0.057957537
75	0xbe976a9a	-0.29573518
76	0x3d358040	0.04431176
77	0x3e43e54e	0.19130442
78	0xb9a3b9d4	-0.00031228235
79	0x3d88768c	0.06663236
80	0x3e00112d	0.12506552
81	0xbe9418d6	-0.28925198
82	0x3c4e0ee7	0.012576795
83	0xbfb0b7ab	-1.3806051
84	0x3e35e7e3	0.17764239
85	0xbd3011e4	-0.04298581
86	0xbe434664	-0.1906982
87	0x3e5a39b0	0.21311069
88	0xbdb92a9c	-0.0904133
89	0xbd826f68	-0.06368905
90	0x3e1decb2	0.15422323
91	0xbcca0621	-0.024661126
92	0x3c8ca672	0.017169211
93	0x3ec10f95	0.377072
94	0xbeb2e64d	-0.3494133
95	0xbec40fc6	-0.38293284
96	0xbf50df69	-0.81590897
97	0xbc88a50b	-0.016680261
98	0xbdb71e76	-0.08941357
99	0xbea60713	-0.32427272
100	0xbe6d3f12	-0.2316859
101	0x3db3283a	0.08747907
102	0x3ea65bd1	0.32491925
103	0xbe09056d	-0.13380976
104	0x3e255c2a	0.16148439
105	0xbe26cbf4	-0.1628874
106	0xbe80468d	-0.25053826
107	0x3cecbf2d	0.028899753
108	0xbe07eb1d	-0.13273282
109	0xbe65576e	-0.22396633
110	0x3e2d98cc	0.16952819
111	0x3e3b0109	0.18262114
112	0x3f9da91f	1.2317237
113	0x3efe61f5	0.4968411
114	0xbe969572	-0.29410893
115	0x3db2699f	0.08711552
116	0x3f082980	0.53188324
117	0xbe1f1175	-0.15534003
118	0xbecc80ff	-0.39942166
119	0xbe20c9de	-0.15702006
120	0xba154dd2	-0.0005695495
121	0xbeaa39fd	-0.33247367
122	0xbe67ca37	-0.22635733
123	0xbe58b57f	-0.21162985
124	0xbebe8868	-0.37213445
125	0xbed1f9f3	-0.4101101
126	0x3b801847	0.003909144
127	0xbe8256dd	-0.25456896
128	0xbe1d468b	-0.15358941
129	0xbe10b844	-0.14132792
130	0xbe19798d	-0.14987774
131	0x3e9e3f7b	0.30907807
132	0xbee5244b	-0.44754252
133	0x3f5142d6	0.8174261
134	0x3e1804d4	0.14845592
135	0xbe21cedb	-0.15801565
136	0xbdd2e6e3	-0.102979444
137	0xbe5b68bc	-0.21426672
138	0xbdcd64ad	-0.10028968
139	0x3c723094	0.01478209
140	0x3e4a2460	0.19740438
141	0xbda9b3fc	-0.082862824
142	0x3e70ce25	0.23516138
143	0xbeb7d90a	-0.35907775
144	0xbed97023	-0.42468366
145	0xbe283b6f	-0.16428922
146	0xbe54512e	-0.20734093
147	0x3f68442c	0.9072902
148	0x3f40ef23	0.75364894
149	0xbe0d2c55	-0.13786443
150	0xbeb3af85	-0.35094848
151	0xbf3d1bc0	-0.7387047
152	0xbca0a2b8	-0.01960884
153	0xbf21ba28	-0.63174677
154	0x3e0c407e	0.13696477
155	0x3d4d2cdb	0.050091606
156	0x3c242278	0.010017984
157	0x3e2eb399	0.17060699
158	0xbe33aaad	-0.17545576
159	0xbab9c94e	-0.0014174373
160	0x3eaed9b6	0.34150475
161	0xbf01e827	-0.5074486
162	0x3eb3c893	0.35113963
163	0xbcea7083	-0.028618103
164	0x3e99055c	0.298869
165	0x3f7feb75	0.99968654
166	0x3d2ba67b	0.041906815
167	0x3efca09b	0.49341282
168	0x3e619f1f	0.22033356
169	0xbe8931ac	-0.2679571
170	0x3d8a3ed4	0.06750265
171	0xbb611326	-0.0034343689
172	0xbd98e097	-0.07464712
173	0xbc0e7bba	-0.008696491
174	0x3db0c20a	0.0863076
175	0xbd46d300	-0.04854107
176	0xbea80392	-0.32815224
177	0x3ed9d3d0	0.42544413
178	0x3d115488	0.035481006
179	0xbfa08323	-1.254002
180	0xbf4efc7b	-0.80854005
181	0x3db58faf	0.08865296
182	0x3e492810	0.19644189
183	0x3f36e567	0.7144379
184	0x3dbc227c	0.09186265
185	0x3da8989d	0.08232234
186	0x3e840630	0.2578597
187	0xbcfe9668	-0.031077579
188	0xbd4aeb3e	-0.04954075
189	0x3d820b6b	0.06349834
190	0x3e4c133e	0.19929215
191	0xbd210b5b	-0.03931747
192	0x3e833ae7	0.25630876
193	0xbdb9b0c9	-0.09066922
194	0x3eb5af2b	0.35485205
195	0xbde657b6	-0.11247198
196	0xbd673235	-0.056444366
197	0xbe1f881c	-0.15579265
198	0x3d3d3ea7	0.046202328
199	0x3ea03f56	0.3129832
200	0x3e2e3f2d	0.17016287
201	0x3dbb67f9	0.091506906
202	0x3e3ed76a	0.18636861
203	0x3daf8107	0.08569532
204	0xbce00feb	-0.02735134
205	0xbdbdead5	-0.09273306
206	0xbcff1131	-0.031136127
207	0xbd4e3483	-0.050343048
208	0xbdf5bdc1	-0.11999083
209	0x3f113a25	0.56729347
210	0xbd84fb93	-0.064932965
211	0xbecf75fb	-0.405197
212	0xbd26382e	-0.04058092
213	0xbdd9c5f5	-0.106334604
214	0xbed7db6f	-0.42159602
215	0x3e458bf2	0.19291666
216	0x3cc89f87	0.024490131
217	0x3df5c96f	0.12001311
218	0x3e59fbbd	0.21287437
219	0x3dd294dc	0.10282299
220	0xbe5c1809	-0.21493544
221	0x3e0e9755	0.13924916
222	0xbe4e1edc	-0.2012896
223	0xbdc965ad	-0.09833846
224	0x3f742a5f	0.95377153
225	0x3d5480ae	0.05188053
226	0x3f21b922	0.63173115
227	0xbd9b4a8c	-0.07582578
228	0xbf091049	-0.53540474
229	0xbef4c8a1	-0.47809318
230	0xbf586b84	-0.84539056
231	0x3e99e93a	0.3006075
232	0x3e16531e	0.14680144
233	0x3dc4ed8d	0.09615622
234	0x3de9bad0	0.11412585
235	0x3e101016	0.14068636
236	0x3e855ffd	0.26049796
237	0xbe235826	-0.15951595
238	0xbdf86690	-0.12128937
239	0xbd3863bc	-0.04501699
240	0x3edd67b2	0.43243176
241	0x3e88f9a0	0.2675295
242	0xbd04d641	-0.03243089
243	0xbf653359	-0.89531475
244	0xbeda7fec	-0.42675722
245	0xbdffcced	-0.12490258
246	0xbeb92a5d	-0.36165133
247	0x3e439a06	0.19101724
248	0xbd5ab1ab	-0.053392094
249	0x39a387a1	0.00031190834
250	0xbd482d3c	-0.048871264
251	0xbf06e9d8	-0.5270057
252	0x3d26e33b	0.040744048
253	0xbe4d31e1	-0.20038559
254	0xbdbe3fb9	-0.09289498
255	0xbe29c136	-0.1657761

actor.0.bias f4 [64]
0	0xbe43d2a5	-0.19123323
1	0xbe746eb2	-0.23870352
2	0xbee5d053	-0.448855
3	0x3cfd0ebc	0.030890815
4	0x3d39aab8	0.045328826
5	0xbecaa254	-0.39576972
6	0xbeb59ad0	-0.35469675
7	0xbd10b465	-0.035328288
8	0x3e960744	0.29302418
9	0x3e20b057	0.15692268
10	0xbcbd1cf0	-0.023085088
11	0x3dead54f	0.11466467
12	0x3d32f9d0	0.04369527
13	0xbe86f7be	-0.26360887
14	0xbee4c103	-0.44678506
15	0xbea1a8a7	-0.31573984
16	0x3f182122	0.59425557
17	0x3e00ede8	0.12590754
18	0x3e1bb6c3	0.15206437
19	0x3d64f11d	0.055894006
20	0x3e3d26fe	0.18471906
21	0x3e554038	0.20825279
22	0xbe6d8c7d	-0.23198123
23	0x3da7de52	0.08196701
24	0xbf096034	-0.5366242
25	0x3f3756c9	0.716168
26	0xbd40f523	-0.04710878
27	0xbe88b070	-0.2669711
28	0xbd2815a2	-0.041036256
29	0x3e3551f0	0.17707038
30	0xbdf074e9	-0.11741049
31	0x3ebd94ee	0.37027687
32	0xbf050eb5	-0.51975566
33	0xbe03643d	-0.12831207
34	0x3e965c79	0.29367426
35	0xbd1f02b2	-0.03882093
36	0xbd746e5a	-0.059675552
37	0x3dc34f7a	0.09536643
38	0xbedd5ba8	-0.4323399
39	0xbe82a974	-0.25519907
40	0x3e1d548b	0.15364282
41	0xbe438918	-0.19095266
42	0x3f00a617	0.50253433
43	0xbd776c17	-0.060405817
44	0x3cb684bb	0.022280088
45	0x3e373d2f	0.17894433
46	0xbe5cb9c9	-0.21555246
47	0xbd01e306	-0.031710647
48	0x3ed29d61	0.41135696
49	0xbecbca89	-0.3980296
50	0xbd3a9822	-0.04555524
51	0xbe764ee4	-0.24053532
52	0x3c7d63ef	0.015465721
53	0xbe24de09	-0.16100325
54	0xbef3ba1c	-0.47602928
55	0xbe81ddfd	-0.25364676
56	0xbe9a85b5	-0.30180135
57	0x3d64bf00	0.055846214
58	0x3e6a40d8	0.22876298
59	0x3eb6a544	0.35672963
60	0xbe03298d	-0.12808819
61	0x3e18495e	0.14871737
62	0x3ea01f2b	0.3127378
63	0xbdea368b	-0.114361845

actor.2.weight f4 [64, 64]
0	0x3d848211	0.06470121
1	0x3a1c4603	0.00059613603
2	0x3e28e4c1	0.16493513
3	0xbc7080b4	-0.014679123
4	0xbd2028a0	-0.039101243
5	0x3dc03d02	0.09386636
6	0x3e836bb7	0.25668117
7	0xbe17c5c0	-0.1482153
8	0xbbf55b3b	-0.007487682
9	0xbbd8db9e	-0.0066179773
10	0x3e8cfcc8	0.27536607
11	0x3d5133f7	0.05107495
12	0xbcd1d352	-0.02561346
13	0x3dd690fd	0.10476873
14	0x3e2dfeca	0.16991726
15	0xbe05612c	-0.1302535
16	0x3e031cb8	0.12803924
17	0x3e020930	0.12698817
18	0x3d9f1062	0.07766797
19	0xbdfd4966	-0.12367515
20	0xbdc6d3ed	-0.097083904
21	0x3d8f20ba	0.06988664
22	0xbe41c8ec	-0.18924302
23	0x3dc9dc80	0.0985651
24	0x3d46797d	0.048455704
25	0xbea14450	-0.3149743
26	0xbd6641e6	-0.05621519
27	0xbe1f77b1	-0.15573002
28	0x3c707c98	0.014678143
29	0xbdd4957b	-0.10380074
30	0x3d4960fa	0.04916475
31	0xbd8a1783	-0.06742766
32	0xbd09ba34	-0.033624843
33	0x3e752cfa	0.23942938
34	0x3d2f57af	0.04280823
35	0xbd9acc57	-0.07558506
36	0x3e3523cf	0.17689441
37	0xbdcda597	-0.100413494
38	0x3cedeb7b	0.02904295
39	0xbe711e48	-0.23546708
40	0x3d63da1d	0.05562793
41	0xbd927ad5	-0.071523346
42	0x3dfb9e0d	0.12286005
43	0x3dea29ea	0.11433776
44	0x3d8baead	0.06820426
45	0x3d5f370d	0.05449586
46	0x3ba7909b	0.005113674
47	0x3d943980	0.0723753
48	0xbe46990f	-0.19394325
49	0x3d0c7a0e	0.034296088
50	0x3d4861f5	0.048921544
51	0xbd9b0db5	-0.07570974
52	0x3e2b27d7	0.16714416
53	0xbd6c366f	-0.0576691
54	0xbe5b86c9	-0.21438135
55	0x3e215c2c	0.15757817
56	0x3e180d48	0.14848816
57	0xbdb26cf3	-0.08712187
58	0x3e01facc	0.12693328
59	0xbdacfe56	-0.08446948
60	0xbdd25761	-0.102705725
61	0x3d84a408	0.06476599
62	0xbcf152a6	-0.029458355
63	0xbc88f4a3	-0.016718214
64	0x3ddf9112	0.10916342
65	0x3e32a40d	0.17445393
66	0x3c7b0cff	0.015322923
67	0x3e13cf7d	0.14434619
68	0x3cd769cc	0.026295565
69	0xbd0c4d90	-0.034253657
70	0x3bf162a9	0.0073664975
71	0xbc233972	-0.0099624265
72	0x3d88df1d	0.066831805
73	0x3e62c178	0.22144115
74	0xbd781336	-0.060565196
75	0x3d54196a	0.05178205
76	0xbda32017	-0.07965105
77	0x3db26e59	0.087124534
78	0xbcfecbad	-0.03110298
79	0xbccbf700	-0.024898052
80	0xbd1b720d	-0.037950564
81	0xbe326840	-0.1742258
82	0x3d92497f	0.071429245
83	0xbd00f787	-0.03148606
84	0x3dbae701	0.09126092
85	0x3d15b491	0.036549155
86	0x3dd23cc6	0.10265498
87	0x3df5cbcb	0.12001761
88	0x3d287cae	0.04113453
89	0xbd80c61a	-0.06287785
90	0xbd5c55a9	-0.05379263
91	0xbdb10c49	-0.08644921
92	0xbd8a3b18	-0.067495525
93	0x3dbe2ec5	0.09286264
94	0xbe0a8f42	-0.13531211
95	0x3dcbaeca	0.09945448
96	0x3da3d9f7	0.08000558
97	0xbd34043d	-0.043949354
98	0xbe123ce0	-0.14281034
99	0xbde5f0dd	-0.11227582
100	0xbd20df5a	-0.039275505
101	0xbda4a013	-0.08038344
102	0xbba65423	-0.005075948
103	0x3e0c6199	0.13709106
104	0xbe104980	-0.14090538
105	0xbaaf037b	-0.0013352478
106	0x3becc7dc	0.0072259735
107	0xbd1e2ba0	-0.038615823
108	0x3e26eba8	0.16300833
109	0x3d0cde56	0.034391724
110	0xbe449b82	-0.19199947
111	0xbdc17594	-0.094462544
112	0xbd9014b0	-0.07035196
113	0xbcb00f2c	-0.02149161
114	0xbd49717f	-0.049180504
115	0x3dfc04aa	0.12305577
116	0xbd19da1f	-0.037561532
117	0xbdf7f019	-0.12106342
118	0x3c88f4d5	0.016718308
119	0x3ced9622	0.029002253
120	0xbd4e30b5	-0.05033942
121	0xbe61aeb1	-0.22039296
122	0x3caaea90	0.020863801
123	0x3d4084ae	0.047001533
124	0x3e21c6c6	0.15798482
125	0x3e35758e	0.17720625
126	0x3ae0eee0	0.0017161034
127	0xbe5b1f7e	-0.21398732
128	0x3da1463b	0.078747235
129	0xbd896c70	-0.06710136
130	0xbddfb2cd	-0.109227754
131	0xbe007684	-0.1254521
132	0x3cd4edcf	0.025992302
133	0xbe28fe64	-0.16503292
134	0xbd3f0efe	-0.046645157
135	0xbdf446c9	-0.11927564
136	0x3db527bd	0.0884547
137	0xb89e30d9	-7.543126e-05
138	0xbe265769	-0.16244282
139	0x3d1fdb0b	0.039027255
140	0xbc9fdce6	-0.019514512
141	0xbd8a9016	-0.067657635
142	0xbc97f0df	-0.018547473
143	0xbd0dd5ee	-0.034627847
144	0xbdfbb64f	-0.12290632
145	0xbdac2e18	-0.08407229
146	0xbd4405f6	-0.047857247
147	0xbd390156	-0.04516729
148	0xbdaca4f0	-0.08429897
149	0x3d1e89a5	0.038705487
150	0x3dc686cf	0.096936814
151	0xbdb1d135	-0.08682481
152	0x3d09dcca	0.033657826
153	0x3c2d7810	0.010587707
154	0xbccf79ab	-0.02532657
155	0xbd812356	-0.06305568
156	0x3e1238e6	0.14279518
157	0x3d5855c9	0.052816186
158	0x3ba506e2	0.005036221
159	0xbc223efe	-0.009902714
160	0x3da422ba	0.08014436
161	0x3dca53d5	0.09879271
162	0xbdc47a6d	-0.09593663
163	0xbe044747	-0.12917815
164	0xbe4d2d30	-0.20036769
165	0xbdf65918	-0.12028712
166	0xbcb43f09	-0.022002714
167	0xbe11c276	-0.14234337
168	0xbdb21b90	-0.086966634
169	0xbdf6e616	-0.12055604
170	0xbdb38d49	-0.087671824
171	0xbc98a37b	-0.018632641
172	0x3dcdd96e	0.10051237
173	0x3d0c0b78	0.034190625
174	0x3e0af25d	0.13569017
175	0xbd21f953	-0.039544415
176	0xbabb64d4	-0.0014297017
177	0x3d15230a	0.03641037
178	0x3d9f5c63	0.07781293
179	0xbdfdf2de	-0.12399839
180	0xbd9b7f94	-0.07592693
181	0xbcee8421	-0.029115738
182	0xbd137852	-0.03600342
183	0x3d440e62	0.04786528
184	0x3d94468e	0.0724002
185	0xbcdb5e52	-0.026778374
186	0xbd04c5a4	-0.032415047
187	0xbce4accd	-0.02791443
188	0xbdb7aad8	-0.08968133
189	0xbd4d9d61	-0.050198916
190	0xbe205d75	-0.15660651
191	0xbd1287e1	-0.035774115
192	0x3a0e8c9d	0.0005437823
193	0xbcda6e76	-0.026664
194	0xbe349bc0	-0.17637539
195	0xbe49d842	-0.19711402
196	0x3e1266aa	0.14296976
197	0x3e33e0f5	0.17566283
198	0x3a636e3c	0.0008675789
199	0xbd659331	-0.056048576
200	0x3da268dd	0.07930157
201	0x3e248cf8	0.160694
202	0xbdd7c205	-0.10535053
203	0xbde9ec2c	-0.11421999
204	0xbc6fff93	-0.014648336
205	0xbdd7efea	-0.10543807
206	0xbc1ea4be	-0.009682832
207	0xbaa29914	-0.001240524
208	0x3be6311b	0.007024897
209	0x3dd084c1	0.10181571
210	0x3dd9b447	0.10630088
211	0x3e51af1f	0.2047696
212	0x3dde928d	0.10867796
213	0x3e2e8ada	0.17045155
214	0xbd177957	-0.036980953
215	0x3de1e13e	0.1102929
216	0xbe746fc1	-0.23870756
217	0x3d59ee30	0.05320567
218	0x3d0d1821	0.03444684
219	0xbdcdab66	-0.10042457
220	0xbdc11977	-0.09428685
221	0xbb2b8aec	-0.0026175333
222	0x3e29bd7d	0.1657619
223	0xbd567d3e	-0.052365534
224	0x3d350acc	0.04419975
225	0xbd6956b8	-0.056967467
226	0x3db183b8	0.086677015
227	0xbd2e3834	-0.04253407
228	0x3e7f176f	0.24911283
229	0x3c31e7bd	0.010858473
230	0xbc940f5d	-0.018073732
231	0x3bf0c88d	0.0073481263
232	0x3c6ac4ff	0.014329194
233	0x3ca206f6	0.01977871
234	0x3d5d4415	0.054020006
235	0x3c8f6c74	0.01750777
236	0xbd6cfc98	-0.05785808
237	0x3c276507	0.010216958
238	0xbcabbbe3	-0.020963615
239	0x3df6155a	0.12015791
240	0x3c3fc323	0.011704239
241	0x3e0b5f35	0.13610537
242	0x3dd1f9d4	0.10252729
243	0x3d88d61e	0.066814646
244	0x3d3c0aa0	0.04590857
245	0x3cb7c28f	0.02243164
246	0x3d9588b4	0.07301465
247	0x3d347824	0.044059888
248	0x3c405beb	0.011740665
249	0xbdeb0846	-0.114761874
250	0x3e2040fb	0.15649788
251	0x3c713da9	0.014724174
252	0x3dcc09a0	0.09962773
253	0x3e12308e	0.14276335
254	0x3dd274f8	0.10276216
255	0x3e034232	0.1281822

actor.2.bias f4 [64]
0	0xbe866ac4	-0.2625333
1	0xbd26acb0	-0.04069203
2	0xbdbbdcec	-0.09172997
3	0x3db575a7	0.08860331
4	0xbe06c079	-0.1315936
5	0xbd687821	-0.05675519
6	0xbdedb540	-0.11606836
7	0xbe5bd690	-0.21468568
8	0xbc28e4d5	-0.010308464
9	0xbe1caaf7	-0.15299593
10	0xbea049a5	-0.31306186
11	0xbe841fe6	-0.25805587
12	0xbe282f36	-0.1642426
13	0x3daf83ff	0.08570098
14	0xbda77da9	-0.08178265
15	0x3c462d40	0.012095749
16	0xbd9c2139	-0.07623524
17	0xbeb30faa	-0.34972888
18	0xbe1d7813	-0.15377836
19	0xbdecd9db	-0.1156499
20	0xbe94e274	-0.2907902
21	0xbe36b76c	-0.17843407
22	0xbd4b6d3d	-0.049664725
23	0xbd9ce042	-0.07659961
24	0xbe8099ee	-0.2511744
25	0xbebabf25	-0.36473957
26	0xbea95588	-0.33073068
27	0xbe043bee	-0.12913486
28	0xbccefef5	-0.025268057
29	0xbe762668	-0.24038088
30	0x3e498849	0.19680895
31	0xbede5ee8	-0.43431783
32	0x3c867498	0.016413018
33	0xbc4f2c50	-0.012644842
34	0xbe91babc	-0.2846278
35	0xbe653796	-0.22384486
36	0xbed31256	-0.41224927
37	0xbe0ef0b6	-0.13959011
38	0xbe3c0acb	-0.18363492
39	0xbd7b9acc	-0.061426923
40	0xbe861859	-0.2619045
41	0xbe8259f6	-0.2545926
42	0xbe00814c	-0.12549323
43	0x3c83871e	0.01605564
44	0xbe0a5333	-0.135083
45	0xbe9d89f4	-0.30769312
46	0x3cc6b36b	0.024255475
47	0xbdd6bb8e	-0.10484992
48	0x3d0d8170	0.03454727
49	0xbe24c989	-0.16092505
50	0xbdf643e2	-0.12024666
51	0xbe43ea56	-0.19132361
52	0xbe002e7c	-0.12517732
53	0xbe7107db	-0.23538153
54	0xbe3dcd58	-0.18535364
55	0xbe923fcd	-0.285643
56	0xbdc35ca6	-0.09539156
57	0xbe08ad2e	-0.13347313
58	0xbdd532be	-0.10410069
59	0xbec62b1b	-0.38704762
60	0xbeb4feda	-0.35350686
61	0xbe92528a	-0.28578597
62	0xbdcd0278	-0.100102365
63	0x3ce38886	0.02777506

actor.4.weight f4 [7, 64]
0	0xbcacb799	-0.02108364
1	0x3ca6b6e6	0.020350885
2	0xbb953e77	-0.0045545655
3	0xbd0b0d26	-0.033948086
4	0x3cc49e69	0.024001317
5	0xbcbf9378	-0.023385748
6	0x3daf8d51	0.08571876
7	0xbd8d57f1	-0.06901539
8	0x3c8bb42e	0.01705369
9	0x3d4c78b9	0.049919818
10	0xbcea653e	-0.02861273
11	0x3e40d98d	0.18832989
12	0x3d8dcaad	0.06923423
13	0x3bb689a1	0.005570606
14	0x3d83c37f	0.06433772
15	0x3cc6a4ff	0.024248598
16	0x3d9fa637	0.07795375
17	0xbdc9a52a	-0.09845956
18	0x3cd0ad31	0.02547321
19	0x3bb5f235	0.005552555
20	0x3b0612fa	0.0020458088
21	0xbc7a5125	-0.015278135
22	0xbd23266e	-0.03983157
23	0x3e4662d8	0.19373643
24	0xbcf7cd97	-0.0302494
25	0x3dfbd6b2	0.12296809
26	0x3de7c5fd	0.1131706
27	0x3c871d58	0.016493484
28	0xbbaa720e	-0.0052015847
29	0x3db716d3	0.089399
30	0x3d02bbbd	0.031917322
31	0x3e40bce6	0.18822059
32	0x3ce55cb8	0.027998313
33	0xbaace0b0	-0.0013189521
34	0x3cdd0aee	0.02698275
35	0x3daae555	0.08344523
36	0xbe25e88e	-0.16201994
37	0x3d1fc549	0.039006505
38	0xbdff8ef6	-0.124784395
39	0x3e21cd9b	0.15801089
40	0x3ddcf3cf	0.1078869
41	0x3d4dd63c	0.050253138
42	0xbdfd66a7	-0.12373095
43	0x3b43a195	0.002985095
44	0xbdf54159	-0.11975355
45	0xbcba5384	-0.022744901
46	0x3cd2c2aa	0.025727589
47	0x3be6a782	0.0070390115
48	0x3d2af76e	0.041739874
49	0x3bd747d7	0.0065698433
50	0x3da3ac3f	0.07991838
51	0x3d987e44	0.07445958
52	0xbda7dd88	-0.081965506
53	0xbd8daef5	-0.06918136
54	0x3d47b0dd	0.048752654
55	0xbc967449	-0.018365996
56	0xbe21e3e1	-0.15809585
57	0xbe349608	-0.17635357
58	0xbc7b5db4	-0.015342165
59	0xbdfcffa2	-0.123534456
60	0x3e7bc042	0.2458506
61	0x3e656644	0.22402292
62	0x3ddb06c7	0.10694652
63	0x3abab975	0.0014245944
64	0xbce579d9	-0.028012203
65	0x3ce52a10	0.027974159
66	0xbc92f4b6	-0.017938953
67	0x3c36e11f	0.0111620715
68	0x3ad5f707	0.001632423
69	0x3c8ae55a	0.016955066
70	0x3d73d91f	0.059533235
71	0x3ce2701f	0.027641354
72	0xbd0c8e04	-0.034315124
73	0xbc54f9b2	-0.012998985
74	0xbde11885	-0.10991005
75	0xbdca063e	-0.09864472
76	0xbc8eb829	-0.017421799
77	0x3be23f32	0.006904506
78	0xbcb17b99	-0.021665381
79	0xb7b91102	-2.2061638e-05
80	0xbd987824	-0.0744479
81	0xbe164a04	-0.14676672
82	0xbb5c4b3e	-0.0033614184
83	0xbcee1e81	-0.02906728
84	0xbe056e5c	-0.1303038
85	0xbcd52cc8	-0.02602233
86	0xbadc78dd	-0.0016820688
87	0xbc89b4a5	-0.01680977
88	0xbd135991	-0.03597409
89	0xbd05eb1b	-0.032694917
90	0xbdf13865	-0.117783345
91	0x3b72b6dd	0.0037035265
92	0x3b26241f	0.002535112
93	0x3bf4bd15	0.0074688294
94	0x3dabab81	0.08382321
95	0x3d518351	0.051150624
96	0x3e0116e5	0.1260639
97	0xbae7633f	-0.0017653479
98	0xbe60b866	-0.21945342
99	0xbdf44e28	-0.119289696
100	0xbe17f045	-0.1483775
101	0xbe126305	-0.14295585
102	0x3b9967cb	0.0046815625
103	0xbccc54f0	-0.024942845
104	0xbe06cea8	-0.1316477
105	0xbe0bc9cd	-0.136512
106	0xbcd30a2f	-0.025761692
107	0xbc708930	-0.014681146
108	0x3cf281fa	0.029602993
109	0xbd696011	-0.05697638
110	0x3d0feed9	0.035139892
111	0x3d34a205	0.044099826
112	0x3d139f6d	0.036040712
113	0xbb5d123c	-0.0033732792
114	0x3d3af04a	0.045639314
115	0x3c75bb25	0.014998232
116	0x3df4c306	0.1195126
117	0xbd8368d0	-0.06416476
118	0x3d9cbdb6	0.07653372
119	0xbdafe25e	-0.08588098
120	0x3c908b9c	0.017644696
121	0xbd4d2e22	-0.050092824
122	0xbd4c255a	-0.04984031
123	0xbda12f35	-0.07870332
124	0x3b9b9eb0	0.0047491416
125	0xbcf64c42	-0.03006566
126	0x3e2b6e49	0.16741289
127	0x3d0598bd	0.032616366
128	0x3d61c56f	0.055119928
129	0xbd41bbbd	-0.04729818
130	0x39ec9a20	0.0004512826
131	0xbc926fc2	-0.017875556
132	0xbd545040	-0.051834345
133	0x3c8f8f92	0.017524514
134	0xbceafe41	-0.02868569
135	0xbda4ed36	-0.08053057
136	0xbca0442c	-0.019563757
137	0x3d4b46b7	0.049627986
138	0xbde511a5	-0.11185006
139	0xbe004d64	-0.12529522
140	0x3c66436a	0.014054159
141	0xbadfe262	-0.0017081017
142	0xbe099a50	-0.13437772
143	0x3c6036b9	0.013684922
144	0xbd8edc1e	-0.06975578
145	0xbd7d5e59	-0.061857555
146	0x3c093e04	0.008376602
147	0x3d127ea9	0.035765324
148	0xbe0b24a7	-0.135882
149	0x3d65d869	0.056114588
150	0x3cc47156	0.023979824
151	0x3db9928b	0.09061154
152	0x3d56dfd4	0.052459553
153	0x3e20b08b	0.15692346
154	0xbb492929	-0.00306947
155	0xbd06301c	-0.032760724
156	0x3c4ff0ac	0.012691658
157	0xbd3df23f	-0.046373602
158	0xbd3dbf3e	-0.04632496
159	0x3ea28800	0.31744385
160	0x3ccfbfcc	0.02536001
161	0x3c97af9f	0.01851636
162	0x3c51b22f	0.01279883
163	0xbd6af7f3	-0.05736537
164	0x3d6e63fb	0.058200818
165	0xbd910adb	-0.07082149
166	0xbda86f43	-0.082243465
167	0xbdd958ac	-0.10612616
168	0x3dfa55b6	0.12223379
169	0x3da89c69	0.08232958
170	0xbd92f689	-0.07175929
171	0xbc811370	-0.015756339
172	0xbd099bc6	-0.033595823
173	0xbc7c925c	-0.015415754
174	0xbc3c59b2	-0.011495994
175	0xbdaada22	-0.08342387
176	0xbd15e03a	-0.036590792
177	0xbd763f57	-0.060119
178	0x3e0db19d	0.13837285
179	0xbd149191	-0.036271635
180	0xbcb1aa5f	-0.021687685
181	0xbd2272a0	-0.039660096
182	0xbc10a504	-0.008828405
183	0x3c9c39ee	0.019070592
184	0x3ade6f48	0.001697042
185	0xbcedd80d	-0.029033685
186	0x3ba9a3bf	0.0051769908
187	0xbe6c40da	-0.23071614
188	0x3e416548	0.18886292
189	0x3ea134d1	0.31485608
190	0xbde1903d	-0.110138394
191	0xbc7620fd	-0.015022513
192	0x3d9be3fb	0.07611843
193	0x3c9f2eee	0.019431558
194	0x3b11f210	0.0022269525
195	0xbce4f92d	-0.027950848
196	0x3c7e4484	0.015519265
197	0x3b765e60	0.0037592873
198	0x3e20f18b	0.15717141
199	0x3d34f14c	0.04417543
200	0x3a853987	0.0010164239
201	0x3d599d3d	0.05312847
202	0x3e23fc26	0.16014156
203	0x3d04c2ee	0.032412462
204	0xbc41a9f5	-0.011820306
205	0x3c5fd693	0.013661998
206	0xbe8bb5b1	-0.27287057
207	0xbcc40d76	-0.0239322
208	0x3d2e3976	0.042535268
209	0x3d878917	0.06617945
210	0x3ce67905	0.028133878
211	0x3d2c2ac7	0.042032983
212	0xbd5a0414	-0.053226545
213	0xbcf82cd8	-0.03029482
214	0xbb5bbb9f	-0.003352858
215	0x3ce6a361	0.028154077
216	0xbca0d62c	-0.019633375
217	0xbcea6b63	-0.02861566
218	0x3e297b11	0.16550852
219	0xbb99952b	-0.0046869717
220	0xbd097687	-0.033560302
221	0x3dff2c8b	0.12459668
222	0x3b3becfb	0.0028675187
223	0x3af7c0a9	0.0018902022
224	0xbdfae47b	-0.122506104
225	0x3d4d0a33	0.050058555
226	0xbd6192e5	-0.05507173
227	0xbd19da63	-0.037561785
228	0x3e15bd3b	0.14622967
229	0x3dbed47f	0.09317874
230	0xbd5d95c6	-0.054097913
231	0xbd9bb864	-0.07603529
232	0xbe128db6	-0.14311871
233	0x3cbc5e65	0.02299423
234	0xbe84aadc	-0.25911605
235	0x3c34c634	0.011033583
236	0x3dbaa8bd	0.091142155
237	0xbdab3fe2	-0.08361794
238	0xbcfa9516	-0.030588668
239	0x3db2bc78	0.08727354
240	0xbda00f47	-0.07815414
241	0xbe0dcc15	-0.13847382
242	0xbd3a3edb	-0.0454701
243	0xbd7f0751	-0.062262837
244	0x3d99e65f	0.07514643
245	0xbd7e38df	-0.062065955
246	0xbdb4fbb4	-0.08837071
247	0x3b9848b1	0.0046473374
248	0xbe0e1d82	-0.13878444
249	0x3b6c69d9	0.0036073832
250	0xbc4d4bb2	-0.012530254
251	0xbe22ca13	-0.15897398
252	0xbd3142b5	-0.043276507
253	0x3de9c125	0.114137925
254	0xbc3a35d4	-0.011365373
255	0xbc4b5d62	-0.012412401

actor.4.bias f4 [7]
0	0x3d34c823	0.044136178
1	0x3e27c10a	0.16382232
2	0xbdf40b56	-0.11916225
3	0x3d98aae5	0.074544705
4	0x3dfd9ab5	0.12383024
5	0xbe01f69c	-0.1269173
6	0x3d92ffc7	0.07177692

critic.0.weight f4 [64, 32]
0	0xbe5506ce	-0.20803377
1	0xbcdeeadb	-0.027211597
2	0x3c17057a	0.009217614
3	0x3e2f2d74	0.17107183
4	0xbd876d1d	-0.066126086
5	0xbb201493	-0.0024426326
6	0xbe3b4227	-0.18286954
7	0x3df442ab	0.119267784
8	0xbd85b78d	-0.0652915
9	0x3d5a2f6b	0.053267878
10	0xbcd38752	-0.025821362
11	0x3ded3228	0.11581832
12	0xbd9b3af0	-0.07579601
13	0x3d2295b4	0.03969355
14	0x3b44c9d2	0.003002752
15	0xbd42cac7	-0.047556665
16	0x3dfaced7	0.12246483
17	0x3db28a81	0.08717824
18	0xbe275f85	-0.16345032
19	0x3e8c2bc9	0.27377155
20	0x3e351065	0.17682035
21	0x3d34d51c	0.04414855
22	0xbddfc643	-0.10926487
23	0xbe8cf7b8	-0.27532744
24	0xbdfd8b37	-0.12380069
25	0x3cd24679	0.02566837
26	0xb9c59b64	-0.00037690543
27	0xbdcb8b32	-0.09938659
28	0x3d4008df	0.04688346
29	0xbd9e24b4	-0.07721844
30	0xbdd73a83	-0.10509207
31	0x3d9864b0	0.074410796
32	0xbd989b45	-0.0745149
33	0x3cfd0064	0.030883975
34	0x3c091f00	0.008369207
35	0xbd03174b	-0.032004636
36	0x3e30f061	0.17279197
37	0x3e1cfa2f	0.15329812
38	0x3e3f2bed	0.186691
39	0xbcce7794	-0.025203504
40	0x3c72b9fb	0.014814849
41	0xb9f90962	-0.00047499972
42	0xbcf3bff3	-0.029754614
43	0xbdaf76c1	-0.085675724
44	0x39d8a305	0.0004132019
45	0xbd57b3f9	-0.05266187
46	0xbdf07f46	-0.117430255
47	0x3d7668a2	0.06015838
48	0x3c2ed0e8	0.010669924
49	0x3e7d6a42	0.24747565
50	0x3dbf7cbb	0.09349962
51	0xbea84af8	-0.32869697
52	0x3d224f4e	0.039626412
53	0x3d8d9db0	0.06914842
54	0x3e71a0bd	0.23596473
55	0x3e299f93	0.16564779
56	0xbc1cbbc0	-0.009566247
57	0xbd1ab0c9	-0.03776625
58	0x3d86353a	0.06553121
59	0xbcb6aaf1	-0.022298308
60	0xbc025ba5	-0.00795642
61	0x3d88d3cf	0.06681024
62	0x3da911d2	0.08255352
63	0xbda1394a	-0.07872255
64	0x3cb85085	0.022499332
65	0x3d15e5fc	0.036596283
66	0xbdab1cf9	-0.083551355
67	0xbdc3f30f	-0.09567844
68	0x3d9dbdb8	0.077022016
69	0x3bc8547c	0.006113587
70	0xbdef2e6d	-0.11678777
71	0xbc4605b5	-0.012086322
72	0x3dc736fd	0.09727285
73	0xbdf4da90	-0.1195575
74	0x3d2c9a2b	0.042139214
75	0xbd42bd07	-0.04754355
76	0xbbc826e9	-0.006108154
77	0x3d6cc7ae	0.057807617
78	0xbd9c5353	-0.0763308
79	0x3d2bfba8	0.041988045
80	0x3e604777	0.21902262
81	0x3d9cb23c	0.07651183
82	0xbe8185df	-0.25297448
83	0xbe3148cb	-0.17312925
84	0x3d07653e	0.033055536
85	0x3d60458b	0.05475382
86	0x3c2f80f0	0.010711893
87	0xbdadab69	-0.084799595
88	0xbdb3eb13	-0.08785071
89	0x3d4cf29f	0.05003607
90	0x3c43ef84	0.01195896
91	0xbd7ce95a	-0.06174598
92	0x3d844162	0.06457783
93	0xbd52d9b9	-0.051477168
94	0xbca18753	-0.019717848
95	0xbd4b8ef2	-0.04969687
96	0xbe0bc3ba	-0.13648883
97	0x3dafad0b	0.08577927
98	0x3d4329d9	0.04764733
99	0xbe44f86f	-0.19235395
100	0x3d72085b	0.05909
101	0x3d9c126e	0.07620703
102	0x3dc751c6	0.09732394
103	0x3e4d614f	0.20056652
104	0x3d495070	0.049148977
105	0xbcff71a0	-0.03118211
106	0x3b1722ed	0.002306159
107	0xbd522b52	-0.051310845
108	0x3cbaeb6a	0.022817332
109	0x3c2fb5b4	0.010724474
110	0x3c1e1c1f	0.009650259
111	0xbd0b452f	-0.034001525
112	0x3c4576e7	0.012052274
113	0x3e52afe9	0.20574917
114	0xbe463994	-0.19357902
115	0xbed8d95b	-0.4235333
116	0xbcfdae92	-0.03096703
117	0xbdfdc436	-0.1239094
118	0xbf7ccda3	-0.98751277
119	0x3e4ebf00	0.20190048
120	0x3e254698	0.1614021
121	0x3c63097a	0.01385724
122	0x3ac95e21	0.0015363136
123	0x3d8923ca	0.06696279
124	0xbd3ca5d4	-0.046056584
125	0xbd408927	-0.0470058
126	0x3d4ce33d	0.0500214
127	0x3d814640	0.06312227
128	0xbe815128	-0.2525723
129	0xbdd84b5f	-0.10561251
130	0xbbcec319	-0.0063098785
131	0x3b71da68	0.0036903862
132	0x3ede1cc7	0.4338133
133	0x3d2e8a83	0.042612564
134	0x3e83d86f	0.25751063
135	0x3d9d8677	0.07691663
136	0x3c851f4a	0.016250271
137	0xbcd599a5	-0.02607424
138	0x3c295d01	0.010337115
139	0xbc1ed1d6	-0.0096935835
140	0xbc90b78a	-0.017665643
141	0xbbbdb9e7	-0.0057899836
142	0x3baab740	0.0052098334
143	0xbce111eb	-0.027474364
144	0xbdc54648	-0.09632546
145	0xbbc2ac3a	-0.005940941
146	0x3eb4507a	0.3521765
147	0xbe708ea3	-0.23491912
148	0xbd27fc5b	-0.04101215
149	0x3d241e7a	0.040068127
150	0xbf1caf6c	-0.6120517
151	0x3e8e8dea	0.27842647
152	0xbe114730	-0.14187312
153	0xbbf87f7e	-0.0075835576
154	0xbc9e6695	-0.019336024
155	0xbd261d52	-0.040555306
156	0xbb56de4c	-0.0032786308
157	0x3d103bda	0.03521333
158	0xbccfbd23	-0.025358742
159	0x3df23653	0.11826768
160	0xbdc8191c	-0.09770414
161	0xbdd1838f	-0.10230171
162	0xbde5d5fc	-0.11222455
163	0xbd1b254c	-0.037877366
164	0x3dab9a4c	0.08379039
165	0x3e2b1ea1	0.16710903
166	0xbd607403	-0.054798137
167	0xbd123cdc	-0.03570257
168	0x3e0b14dd	0.13582177
169	0x3d856e97	0.06515234
170	0xbd6637a0	-0.056205392
171	0x3c948f3c	0.018134706
172	0x3bcfc9e9	0.0063412082
173	0xbc1906f1	-0.009340034
174	0xba54b138	-0.0008113566
175	0x3ca85151	0.020546587
176	0x3d7063f6	0.05868908
177	0xbdbe6c74	-0.092980295
178	0xbed2a312	-0.41140038
179	0xbdc3aea0	-0.095547915
180	0xbe974123	-0.29541883
181	0xbe1acb64	-0.1511665
182	0x3f032628	0.51230097
183	0x3ed4813b	0.41504845
184	0x3d918ec1	0.07107306
185	0xbdcddc14	-0.10051742
186	0x3da70252	0.081547394
187	0x3c21e0dd	0.009880272
188	0x3a7964a3	0.0009513592
189	0x3d5cd9a5	0.0539185
190	0x3ce89c65	0.028394887
191	0xbd7515ec	-0.05983536
192	0x3e45159c	0.19246525
193	0x3dd98e3c	0.10622832
194	0xbd068766	-0.03284397
195	0x3d147e94	0.036253527
196	0x3cffe6f6	0.03123806
197	0x3dcdf537	0.10056537
198	0xbe06e075	-0.13171561
199	0xbe05e1c9	-0.13074411
200	0x3d98ac4f	0.0745474
201	0x3d836363	0.06415441
202	0xbcb7c7b4	-0.022434093
203	0x3d183cfe	0.03716754
204	0x3c442939	0.011972719
205	0x3c4dba08	0.01255656
206	0x3ba6cf75	0.005090649
207	0x3c0c36ea	0.008558014
208	0x3dce0d94	0.100611836
209	0xbdada2bc	-0.08478305
210	0x3e800e0f	0.25010726
211	0xbfceb82a	-1.6149952
212	0x3da1910f	0.07888996
213	0x3e112e64	0.14177853
214	0xbf4cb3ad	-0.79961663
215	0x3c393835	0.011304905
216	0xbd1e76fc	-0.03868769
217	0xbd993f25	-0.07482747
218	0x3cd67d7e	0.026182886
219	0x3c58a586	0.013223058
220	0xbce47484	-0.02788759
221	0xbc03f803	-0.008054736
222	0x3c9c1b21	0.019055905
223	0xbd2b29fe	-0.041788094
224	0x3d5bdacb	0.053675454
225	0x3dd95657	0.10612171
226	0xbd1be2a5	-0.038057942
227	0xbe150899	-0.14554061
228	0xbe14ec77	-0.14543329
229	0xbe3d1c70	-0.1846788
230	0xbe080c19	-0.13285865
231	0x3e10967d	0.14119907
232	0x3da92bff	0.08260345
233	0xbb1ad028	-0.0023622606
234	0x3cc00c23	0.023443287
235	0x3c98330f	0.018579034
236	0x3c8c9f31	0.017165752
237	0x3d4dc2a2	0.050234444
238	0x3c83ef92	0.016105447
239	0x3d7b8227	0.06140342
240	0xbe40ad8b	-0.18816201
241	0xbdeee8b5	-0.11665479
242	0x3da9d75c	0.0829303
243	0x3dd5b513	0.10434928
244	0xbda21548	-0.07914215
245	0x3e0245a7	0.12721883
246	0xbf0bc8b0	-0.546031
247	0xbc4d30a3	-0.012523803
248	0x3e07e74f	0.13271831
249	0xbd3956f4	-0.04524894
250	0xbd62b847	-0.05535152
251	0x3cacf1e6	0.02111144
252	0xbcc13278	-0.023583636
253	0xbd6c16b0	-0.057638824
254	0x3c777ded	0.015105707
255	0xbcd085a1	-0.025454344

critic.0.bias f4 [64]
0	0x3e443100	0.19159317
1	0xbe27e85a	-0.16397229
2	0xbde8124a	-0.11331613
3	0xbe12f116	-0.1434978
4	0x3cbd2d1d	0.0230928
5	0xbe334c59	-0.17509593
6	0xbcaa68e0	-0.020801961
7	0x3d4adca9	0.049526844
8	0xbd84b886	-0.064805076
9	0xbe00eefb	-0.12591164
10	0x3c882fba	0.01662432
11	0x3dc6a69c	0.09699747
12	0xbd2362c4	-0.039889112
13	0xbda1c497	-0.07898825
14	0x3da8fc23	0.08251216
15	0xbd32fb2c	-0.043696567
16	0xbda9133b	-0.08255621
17	0x3e3948c6	0.18094167
18	0xbd35d515	-0.044392664
19	0x3da30795	0.079604305
20	0x3d3a12e5	0.045428175
21	0x3d334d01	0.04377461
22	0x3e195317	0.14973103
23	0xbd7c400d	-0.06158452
24	0x3c1a7417	0.009427092
25	0x3c65c932	0.0140250195
26	0x3d0bc818	0.03412637
27	0xbd436f3f	-0.047713514
28	0xbd05dbf9	-0.032680485
29	0x3e613ee3	0.21996646
30	0xbde9e77f	-0.114211075
31	0x3d75bd85	0.059995193
32	0xbd679998	-0.056542963
33	0xbdd2d927	-0.10295325
34	0x3dae899d	0.085223414
35	0xbdd4c0d1	-0.10388339
36	0xbcc44a01	-0.023961069
37	0x3df8cb9b	0.1214821
38	0xbd61c578	-0.05511996
39	0xbd409066	-0.04701271
40	0x3d93ac9c	0.07210657
41	0x3e31ab11	0.17350413
42	0x3c2250db	0.009906973
43	0xbe1ad20f	-0.15119193
44	0xbe067d3f	-0.13133715
45	0x3d4157b7	0.047202792
46	0xbdade929	-0.084917374
47	0xbd15886d	-0.03650706
48	0xbdb368bc	-0.08760211
49	0x3cc291db	0.02375119
50	0xbdeb8d48	-0.11501557
51	0xbcd200e3	-0.025635188
52	0x3d400526	0.04687991
53	0xbdc29936	-0.09501879
54	0xbdecedf1	-0.11568821
55	0xbd7d3931	-0.06182212
56	0x3d8de6a6	0.06928758
57	0xbcdaeb7d	-0.026723618
58	0xbda5dbb3	-0.08098545
59	0xbd9c6f04	-0.07638362
60	0xbd071744	-0.032981172
61	0x3da84d75	0.08217899
62	0x3d8abb22	0.06773974
63	0xbd2c55e1	-0.042074088

critic.2.weight f4 [64, 64]
0	0x3d2527e1	0.040321235
1	0xbd2a59b7	-0.041589465
2	0x3e32937c	0.17439073
3	0x3d9716f0	0.07377422
4	0x3d1efe97	0.038817015
5	0xbd0cd25b	-0.034380298
6	0x3d99a4a7	0.07502108
7	0x3bbbbeec	0.005729547
8	0xbdb25cb2	-0.087090865
9	0xbe3a1594	-0.18172294
10	0xbd9147b0	-0.070937514
11	0x3e370361	0.17872383
12	0xbdbb1324	-0.0913451
13	0x3ddac531	0.106821425
14	0xbdb65537	-0.08902972
15	0x3d18f8da	0.0373467
16	0xbe4ad5fd	-0.19808193
17	0x3e65441f	0.22389267
18	0xbeb525dd	-0.3538045
19	0xbda5d667	-0.080975346
20	0xbe9b0d68	-0.30283666
21	0x3e5d41c4	0.21607119
22	0xbd0a7848	-0.033806115
23	0xbd8fde3b	-0.07024809
24	0x3b898dcc	0.0041978117
25	0x3ca36b51	0.019948633
26	0x3e1c904e	0.15289423
27	0xbe323b1b	-0.1740536
28	0x3c987c2b	0.018613895
29	0x3e1cd9e4	0.15317494
30	0x3da31a2b	0.079639755
31	0xbd8f82ee	-0.07007395
32	0x3d6b8d8a	0.05750803
33	0x3da10574	0.07862368
34	0x3cbf71ff	0.023369787
35	0x3d9a74a3	0.07541778
36	0xbe9971b9	-0.29969576
37	0xbdeab9c9	-0.11461217
38	0xbe156662	-0.14589837
39	0xbca79ce1	-0.020460548
40	0x3dc63eeb	0.096799694
41	0x3dd6ed56	0.10494487
42	0xbd0b3dbb	-0.033994418
43	0xbc962d78	-0.018332228
44	0xbdb98748	-0.09059006
45	0x3d9c6061	0.0763557
46	0x3d39f7c8	0.04540232
47	0x3e0e6520	0.13905764
48	0xbe8baa40	-0.27278328
49	0xbd6fad5d	-0.05851494
50	0xbdcd5279	-0.10025496
51	0x3db29fa3	0.087218545
52	0xbcd3fbb4	-0.025876857
53	0xbc42838c	-0.0118721835
54	0xbdb749ed	-0.08949647
55	0x3e1f836b	0.15577476
56	0x3ce241df	0.0276193
57	0xbb83c167	-0.004020858
58	0x3dd6ffe6	0.104980275
59	0x3d1c6738	0.038184375
60	0xbdef2f03	-0.11678889
61	0x3c0d93ee	0.008641226
62	0x3d0ccd67	0.034375574
63	0xbd92a3bf	-0.07160138
64	0xbdcb761e	-0.099346384
65	0xbdc8cd00	-0.09804726
66	0xbbf8f5dd	-0.0075976686
67	0x3d61cfb5	0.055129725
68	0xbc31aea6	-0.010844862
69	0x3d9e95dd	0.07743428
70	0xbc7cf524	-0.015439305
71	0xbd597884	-0.05309345
72	0xbddfece0	-0.10933852
73	0xbc396e42	-0.011317791
74	0x3df3a5b4	0.1189684
75	0x3dc67855	0.0969092
76	0x3e17953d	0.14803024
77	0x3c478a38	0.01217895
78	0x3dd4ddb1	0.10393847
79	0xbc3e575a	-0.011617506
80	0x3e28c476	0.16481194
81	0xbda711fb	-0.081577264
82	0x3a335c61	0.00068420736
83	0xbe121004	-0.14263922
84	0x3bd8bd88	0.0066143908
85	0x3cbecb4b	0.023290297
86	0xbd75f24e	-0.060045533
87	0x3d1817bf	0.03713202
88	0x3e2eb076	0.17059502
89	0x3d5d4283	0.05401851
90	0x3db504b2	0.08838786
91	0x3da8f8af	0.08250558
92	0x3d0de6f7	0.034644093
93	0xbe0f5f36	-0.14001164
94	0x3d7ad843	0.0612414
95	0x3c86f2e3	0.01647324
96	0x3d45c9a6	0.04828801
97	0xbe164a0f	-0.14676689
98	0xbc36c758	-0.011155926
99	0xbe13a25a	-0.14417401
100	0xbdb3e998	-0.08784789
101	0xbd2f5855	-0.04280885
102	0x3bf84672	0.007576757
103	0x3e0e7f34	0.13915712
104	0x3d26af5f	0.04069459
105	0xbd0143cd	-0.0315588
106	0x3dbeae75	0.09310619
107	0x3dcaaabd	0.09895847
108	0x3c8b2500	0.016985416
109	0xbd93de35	-0.07220117
110	0xbd3f0457	-0.046635
111	0x3cd46233	0.025925731
112	0x37b2250c	2.1236505e-05
113	0xbccb7d18	-0.024839923
114	0x3c9d8382	0.019227747
115	0xbd89c71e	-0.06727432
116	0xbd3e8c16	-0.046520315
117	0xbe139634	-0.14412767
118	0xbc3a7331	-0.011380003
119	0x3c0b3cb2	0.008498358
120	0x3da807fd	0.08204649
121	0x3c172f9c	0.00922766
122	0x3cdedf3d	0.027206058
123	0x3d5c320f	0.053758677
124	0x3dc8da42	0.098072544
125	0x3da18c37	0.07888072
126	0x3db8eedc	0.09029934
127	0x3dab1a2a	0.083546
128	0x3d7f04ea	0.062260546
129	0x3d6a9fa6	0.05728116
130	0xbba179ae	-0.0049278354
131	0xbdc0bea7	-0.09411364
132	0x3d865ec0	0.06561041
133	0x3cc2eb9c	0.023793988
134	0xbdc0c21b	-0.09412023
135	0x3dd5e6a8	0.10444385
136	0xbd42718b	-0.047471564
137	0x3d55e568	0.052220732
138	0xbd4cb553	-0.04997761
139	0xbd57b376	-0.05266138
140	0xbdebaa0f	-0.115070455
141	0x3db4bcbc	0.08825061
142	0x3c70c363	0.014695021
143	0x3de82f5f	0.1133716
144	0x3d6f1771	0.058371965
145	0x3de1f7a1	0.110335596
146	0x3d3c57b7	0.04598209
147	0x3cc9705c	0.02458971
148	0x3d02c0b7	0.03192207
149	0xbd7867ca	-0.060645856
150	0xbd0c80c8	-0.034302503
151	0xbd9415c8	-0.07230717
152	0xbc69c383	-0.014267805
153	0x3dc6625f	0.096867315
154	0x3ce6bb4e	0.028165486
155	0xbd679eb5	-0.05654784
156	0xbd4804a9	-0.04883257
157	0x3da69bbc	0.08135173
158	0x3d8c763a	0.068584874
159	0xbb478c1e	-0.0030448507
160	0xbc6a5c44	-0.014304224
161	0xbd3aeca6	-0.04563584
162	0x3d4950a2	0.049149163
163	0xbcd4508b	-0.025917312
164	0x3d764057	0.060119953
165	0x3da4b809	0.080429144
166	0x3ce60d6c	0.028082572
167	0x3d047f28	0.03234783
168	0xbd627db6	-0.05529567
169	0xbdf39755	-0.11894099
170	0xbcb24d8d	-0.021765495
171	0xbd9915f3	-0.074748896
172	0xbdfa3aa8	-0.12218219
173	0xbce81a89	-0.028332965
174	0xbc1a2460	-0.009408087
175	0xbdd1cccc	-0.1024414
176	0xbc105885	-0.008810167
177	0x3d83598a	0.064135626
178	0x3d66a300	0.056307793
179	0xbdcb998c	-0.09941396
180	0x3db9474b	0.09046801
181	0x3dd347e6	0.10316448
182	0x3e042e6d	0.12908335
183	0x3d310eb9	0.04322693
184	0x3da19a64	0.07890776
185	0xbaee6f6b	-0.0018191164
186	0x3dd2f02d	0.10299716
187	0xbd8b5d89	-0.0680495
188	0x3db3c80b	0.087783895
189	0x3da7986f	0.08183371
190	0x3d857a9f	0.06517529
191	0x3a5d1475	0.00084335293
192	0xbd4f56bb	-0.050619822
193	0xbd1a1314	-0.03761585
194	0x3d499e60	0.049223304
195	0xbc8f5454	-0.017496265
196	0xbcd9c8c6	-0.026584994
197	0xbdbaa141	-0.09112788
198	0x3ce55ec8	0.027999297
199	0x3d8d8ab7	0.069112234
200	0x3c454fb3	0.012042928
201	0x3d812d51	0.063074715
202	0xbd028884	-0.031868473
203	0x3da96e89	0.08273036
204	0xbc9b8158	-0.018982574
205	0xbdf866a1	-0.1212895
206	0x3dc8ee2f	0.09811055
207	0x3d4b8e30	0.049696147
208	0x3c3509c9	0.011049696
209	0xb9912c5c	-0.00027689605
210	0x3d4fbbfc	0.050716385
211	0x3e0b9d5a	0.13634244
212	0xbce51534	-0.027964212
213	0x3e102f78	0.14080608
214	0x3d433571	0.047658388
215	0x3dc7300e	0.097259626
216	0xbd1be472	-0.03805966
217	0xbdaf3727	-0.08555441
218	0x3cc7094d	0.024296427
219	0xbdd06ef2	-0.10177411
220	0xbde1a57c	-0.11017892
221	0x3d3c8ef7	0.04603478
222	0xbd5c327b	-0.05375908
223	0x3d701afc	0.058619484
224	0xbcc5322b	-0.024071774
225	0xbd61d274	-0.055132344
226	0xbb968133	-0.0045930385
227	0x3ce6dcaa	0.028181393
228	0x3df9c4e2	0.121957555
229	0xbde31ddd	-0.1108968
230	0xbd7c8810	-0.061653197
231	0xbcca0607	-0.024661077
232	0x3dcb992d	0.09941325
233	0xbd80ca7a	-0.06288619
234	0x3c22894d	0.00992043
235	0x3c8c357b	0.017115345
236	0x3cacf5fd	0.02111339
237	0x3a5556d5	0.0008138244
238	0x3c43c4e5	0.011948799
239	0x3d113e42	0.035459764
240	0xbdd7a33e	-0.10529183
241	0x3e0ca406	0.13734445
242	0x3dcdda7c	0.10051438
243	0xbb633da0	-0.0034674183
244	0xbddcb00a	-0.10775764
245	0xbc246af9	-0.01003527
246	0xbd6142e1	-0.05499542
247	0x3d2ff292	0.042955942
248	0x3ddb5d99	0.10711212
249	0xbc907fac	-0.017639004
250	0xbdbf656c	-0.093455166
251	0x3debe49f	0.115182154
252	0x3cfc425a	0.030793358
253	0xbd0b4f1f	-0.034011003
254	0xbcbb5cf5	-0.022871474
255	0xbda05cdf	-0.07830214

critic.2.bias f4 [64]
0	0x3db69207	0.08914571
1	0xbdba54bb	-0.09098192
2	0xbd64ec4e	-0.05588942
3	0xbe029e3e	-0.12755677
4	0x3d836cab	0.06417211
5	0xbd319859	-0.04335818
6	0xbd9b483b	-0.07582136
7	0x3e251f55	0.16125233
8	0x3e5450d7	0.20733963
9	0x3d56bd3c	0.05242656
10	0x3cf08e6c	0.029364787
11	0xbe82151e	-0.25406736
12	0xbdf14940	-0.117815495
13	0x3caa2245	0.020768294
14	0x3bb6b582	0.0055758366
15	0x3df94efb	0.121732675
16	0x3d89cdb1	0.06728686
17	0xbe1a9247	-0.15094863
18	0xbdd154bd	-0.10221241
19	0x3d88ee8e	0.06686126
20	0xbdcfe605	-0.101512946
21	0xbdabe46f	-0.083931796
22	0xbbe028c5	-0.0068407976
23	0x3b8407dc	0.004029257
24	0xbda3f370	-0.080054164
25	0x3d023131	0.031785194
26	0xbe4e1c99	-0.20128097
27	0xbc8b10fd	-0.016975874
28	0xbd9f833c	-0.07788703
29	0x3ccacc34	0.024755575
30	0x3db7bf5d	0.089720465
31	0x3d16110d	0.036637355
32	0x3c34048f	0.010987415
33	0x3e22731c	0.15864223
34	0x3e043256	0.12909827
35	0x3deabe3e	0.11462067
36	0x3b13106e	0.0022440213
37	0x3d109155	0.03529485
38	0xbded0f63	-0.115752004
39	0xbe04133e	-0.12897965
40	0xbe8e12a8	-0.2774861
41	0xbd60062f	-0.054693397
42	0x3da927f9	0.08259577
43	0x3e77a38d	0.24183483
44	0x3d6ec46a	0.058292784
45	0xbdd10400	-0.10205841
46	0x3ddd3e70	0.10802925
47	0x3b33780c	0.0027384786
48	0x3e333c0b	0.17503373
49	0xbdab0839	-0.08351178
50	0x3e245f1f	0.16051911
51	0x3d649473	0.055805635
52	0xbc595573	-0.013265002
53	0xbd912434	-0.07086983
54	0x3d0af696	0.03392657
55	0xbd5136e8	-0.051077753
56	0xbe073b29	-0.13206162
57	0xbdd97e0f	-0.10619747
58	0xbd15e0c1	-0.036591295
59	0x3c8ce7c1	0.017200353
60	0xbde6eb33	-0.112753294
61	0xbd703b4f	-0.05865031
62	0xbda1304d	-0.07870541
63	0x3ccad4f0	0.02475974

critic.4.weight f4 [1, 64]
0	0xbc8e5d7a	-0.017378557
1	0x37d71116	2.5637954e-05
2	0x3af82a6c	0.0018933541
3	0x3b76a71d	0.0037636228
4	0x3b405d53	0.00293525
5	0x3b01f105	0.0019827497
6	0xbb27b93f	-0.0025592593
7	0xbb45f63e	-0.0030206586
8	0xbd8132a1	-0.06308485
9	0x3b6b428c	0.003589782
10	0x3a6b8ebd	0.0008985808
11	0x3e0d5dd5	0.13805325
12	0xbb95091b	-0.0045482046
13	0xbb158779	-0.0022816344
14	0x3bd2316a	0.006414582
15	0xbd94828a	-0.07251461
16	0x3be4cd4b	0.0069824806
17	0x3e086c8a	0.13322654
18	0x3b62f5e1	0.0034631419
19	0xbaf23c9c	-0.0018481198
20	0x3b4faf96	0.003169035
21	0x3a98aad1	0.0011647587
22	0x3ce9b502	0.028528694
23	0x3acc7bff	0.0015600919
24	0xbb7be5a1	-0.003843643
25	0xba6778c6	-0.00088299473
26	0x3d3002e5	0.04297151
27	0xbb6dc5d0	-0.0036281236
28	0x3b24c8b7	0.002514405
29	0xba9c4fcf	-0.001192564
30	0x3bb8da54	0.005641261
31	0x3b76cbe5	0.0037658152
32	0xb9a6aca5	-0.00031790618
33	0xbd8d243c	-0.06891677
34	0xbb057e8d	-0.002036962
35	0xbb3948d3	-0.0028272166
36	0xb9df15ba	-0.00042550062
37	0xbbf6a6c2	-0.0075272033
38	0xbc34924d	-0.011021209
39	0xbb313c1a	-0.002704388
40	0x3da50176	0.08056919
41	0x3c37f0c7	0.011226839
42	0xbb5fa0a4	-0.003412285
43	0xbe1afdea	-0.15135923
44	0xbb9995d6	-0.0046870513
45	0x3e0526af	0.13003038
46	0xbbee7a97	-0.0072777974
47	0xbba2e1cb	-0.0049707643
48	0xbd681e06	-0.056669258
49	0x3bc07264	0.0058730114
50	0xbb6df77f	-0.003631085
51	0x3af60938	0.0018771058
52	0xbb99298b	-0.0046741418
53	0xba5bd2c4	-0.00083855935
54	0xbbb5d85f	-0.005549475
55	0x3c0904b7	0.0083629405
56	0x3bc87ddd	0.0061185197
57	0x3b826992	0.00397987
58	0x390156b0	0.00012334692
59	0x3ae9228f	0.0017786789
60	0x3a9cd4fd	0.0011965331
61	0x3dec7ab6	0.11546843
62	0x3b47bd08	0.0030477662
63	0x3a77ef71	0.0009457982

exp_avg f4 [7]
0	0xbab43c64	-0.0013750908
1	0xba950cd9	-0.0011371627
2	0xbaa69a93	-0.0012710862
3	0x39944928	0.00028283265
4	0x39943f90	0.00028276118
5	0xba82b51e	-0.000997219
6	0x3a267f1d	0.0006351339

exp_avg_sq f4 [7]
0	0x3876910c	5.8786056e-05
1	0x388f81dc	6.8429596e-05
2	0x389cce08	7.477036e-05
3	0x388d89df	6.7490844e-05
4	0x38a8d965	8.051357e-05
5	0x38946640	7.0762355e-05
6	0x38a32d37	7.7808676e-05
