logs/rsl_rl/franka_reach/2025-06-16_20-11-58/model_900.pt (torch, 172795 bytes, 36 tensors)

std f4 [7]
0.08974403 0.08169713 0.09085783 0.12340194 0.09997423 0.10388121 0.11997585
00000000: b8cb b73d d350 a73d ac13 ba3d 28ba fc3d
00000010: 4abf cc3d acbf d43d e6b5 f53d

actor.0.weight f4 [64, 32]
-0.3780266 0.21874906 -0.4617771 0.38430166 0.09455391 0.22132307 0.16202302 0.45067438
0.61687464 -0.010466937 0.32228455 0.25870383 0.29924065 0.032322448 -0.0036345264 -0.11228857
-0.61806095 0.10223241 -0.7687516 -0.09853203 0.75784534 -0.021397546 -0.6973199 0.09156579
-0.14181031 -0.1091622 -0.2689393 -0.25059488 0.09461996 -0.3289445 -0.0043821377 -0.23704673
0.024569362 0.12021827 -0.27689996 0.8595682 0.86845607 0.25272796 0.108825356 -0.1650199
0.20605978 0.110145636 -0.18066971 0.56610966 -0.120706335 0.06687635 0.1480851 0.17337404
0.3559888 -1.2747306 -0.99040806 -2.0329587 -0.5107431 0.14108141 0.2753063 0.34301713
0.056037504 0.09016973 0.115856834 -0.11226688 0.10077502 -0.09023503 0.004339098 0.0154848015
0.67847604 -0.17654656 0.78068113 -0.26135725 0.22086379 0.024437036 0.23649457 0.6355646
0.84442484 -0.14465596 -0.02328449 -0.11320765 0.091012105 0.09643468 0.2511799 0.13958938
-0.80088586 0.6557604 0.025305757 -1.7461344 0.341073 -0.038825084 -0.23043862 0.027112544
-0.09104699 -0.0331569 0.13121721 -0.04001918 0.045684498 0.2951641 -0.48235327 -0.5168207
-1.082568 -0.010176517 -0.00552802 -0.7503021 -0.09532651 -0.45220515 0.25653479 -0.04219823
0.15468855 -0.18691641 -0.33824834 0.10450227 0.23201318 -0.28686124 -0.13615096 0.041381992
0.48061168 0.28605172 -0.11728982 0.32566193 0.5136377 -0.15507528 -0.55080765 -0.1752679
-0.0017784382 -0.48120695 -0.2552349 -0.0829114 -0.32759002 -0.4372913 0.13820033 -0.3473198
-0.042451948 -0.13074577 0.08247396 0.27879962 -0.54214853 0.9692078 0.081899025 -0.21289012
-0.20790505 0.036029432 -0.20722371 -0.15224865 0.033974987 -0.117462166 -0.09432325 -0.1057234
-0.2928839 -0.36985028 -0.42576277 1.9761328 0.9180314 -0.13899156 -0.2858337 -0.75122714
-0.017915254 -0.5959561 0.028929938 0.113749266 -0.1533395 0.040817812 -0.3335487 -0.030621618
0.45351475 -0.6014595 0.407393 -0.1897481 0.34123003 1.172196 0.043498784 0.3737142
0.13157782 -0.06835639 0.002639782 -0.096157774 -0.053981826 0.003934909 -0.00080223667 -0.056628097
0.07577064 -0.7158858 0.09275774 -1.3351196 -0.7844069 0.08244464 0.08161228 0.9393571
0.08910811 0.22932927 0.20935722 0.07688245 0.06380426 0.07720906 0.07217066 -0.040810905
0.097308315 0.054153413 -0.006536826 -0.56103194 -0.09456588 -0.49468958 0.09228667 0.26486334
0.09179361 0.120806254 0.27070597 0.028800298 -0.32401848 -0.031941064 0.085453205 -0.24206221
1.2306734 0.47808978 -0.18534061 -0.07131932 -0.011286083 -0.10744361 -0.45175037 0.3541704
0.024931608 0.2189195 0.42755556 -0.12408068 -0.055963755 0.11972512 -0.08133773 -0.1176925
0.9740985 -0.0010506264 1.1551784 -0.29863912 -0.3946142 -0.4111478 -0.74113655 0.2473112
0.11309705 0.08099003 0.007263633 0.23208313 0.39255357 0.18715039 0.044300098 -0.26071405
0.95405954 -0.09827584 0.037400305 -2.001597 -0.59221435 -0.12178746 -0.5814041 0.14453635
-0.05704008 -0.19608854 -0.11233676 -0.5341808 0.023660315 -0.0687525 0.022464689 -0.008617089
00000000: b48c c1be c1ff 5f3e 0c6e ecbe 30c3 c43e
00000010: 7ba5 c13d 84a2 623e 5de9 253e cbbe e63e
00000020: 7feb 1d3f 847d 2bbc 7b02 a53e d474 843e
00000030: 1236 993e 8b64 043d 3c31 6ebb 8df7 e5bd
00000040: 3e39 1ebf 3a5f d13d e8cc 44bf 29cb c9bd
00000050: 2702 423f e849 afbc 8f83 32bf d886 bb3d
00000060: b936 11be 6e90 dfbd 69b2 89be f94d 80be
00000070: 1cc8 c13d 6a6b a8be 0998 8fbb 61bc 72be
00000080: b045 c93c ff34 f63d d5c5 8dbe a90c 5c3f
00000090: 2353 5e3f 8f65 813e d4df de3d fafa 28be
000000a0: 5601 533e 0994 e13d 7b01 39be 90ec 103f
000000b0: e234 f7bd 78f6 883d 9fa3 173e f788 313e
000000c0: 2a44 b63e 5f2a a3bf 628b 7dbf ff1b 02c0
000000d0: 0fc0 02bf a577 103e f3f4 8c3e f19f af3e
000000e0: 9587 653d e8aa b83d 5946 ed3d 2eec e5bd
000000f0: 2263 ce3d 25cd b8bd fe2e 8e3b f7b3 7d3c
00000100: 9bb0 2d3f 9fc8 34be b8da 473f 9ed0 85be
00000110: 1e2a 623e 2e30 c83c a22b 723e 5db4 223f
00000120: 3a2c 583f b120 14be 1dbf bebc 6ad9 e7bd
00000130: 8e64 ba3d 8c7f c53d a79a 803e 85f0 0e3e
00000140: db06 4dbf eadf 273f 054e cf3c 5581 dfbf
00000150: 1fa1 ae3e 0d07 1fbd 1af8 6bbe 201b de3c
00000160: d876 babd 88cf 07bd ce5d 063e 27eb 23bd
00000170: ab1f 3b3d c01f 973e 02f7 f6be 5d4e 04bf
00000180: 9791 8abf 68bb 26bc 6524 b5bb cc13 40bf
00000190: 8c3a c3bd 6f87 e7be 8758 833e 0dd8 2cbd
000001a0: ad66 1e3e 0467 3fbe e32e adbe 4905 d63d
000001b0: dd94 6d3e 7adf 92be 286b 0bbe 2a80 293d
000001c0: bc12 f63e 5f75 923e a535 f0bd 29bd a63e
000001d0: c37d 033f 0ecc 1ebe bb01 0dbf 6e79 33be
000001e0: 7c1a e9ba c260 f6be 26ae 82be 74cd a9bd
000001f0: e1b9 a7be a5e4 dfbe 6384 0d3e e7d3 b1be
00000200: 18e2 2dbd 38e2 05be 1ce8 a83d d3be 8e3e
00000210: 3fca 0abf 011e 783f adba a73d deff 59be
00000220: 10e5 54be 9993 133d 7432 54be 12e7 1bbe
00000230: 5b29 0b3d 0190 f0bd 8c2c c1bd 8385 d8bd
00000240: e1f4 95be 045d bdbe 94fd d9be ebf1 fc3f
00000250: 1b04 6b3f ce53 0ebe cb58 92be 6c50 40bf
00000260: 03c3 92bc 9490 18bf 7afe ec3c 60f5 e83d
00000270: 0805 1dbe 9430 273d e5c6 aabe 30da fabc
00000280: 1633 e83e 40f9 19bf d195 d03e 534d 42be
00000290: b4b5 ae3e 850a 963f c82b 323d 7857 bf3e
000002a0: 56bc 063e 6ffe 8bbd 3100 2d3b 5eee c4bd
000002b0: 0c1c 5dbd 69f0 803b 314d 52ba ddf2 67bd
000002c0: a32d 9b3d 4b44 37bf c5f7 bd3d 33e5 aabf
000002d0: e4ce 48bf bcd8 a83d 5724 a73d b579 703f
000002e0: 507e b63d 4bd5 6a3e bd61 563e 8c74 9d3d
000002f0: cfab 823d c91f 9e3d 36ce 933d 5629 27bd
00000300: 9549 c73d f8cf 5d3d df32 d6bb ca9f 0fbf
00000310: c2ab c1bd f447 fdbe cb00 bd3d 2b9c 873e
00000320: 4afe bb3d 4569 f73d f999 8a3e 9aee eb3c
00000330: c0e5 a5be a2d4 02bd 1702 af3d 28df 77be
00000340: b586 9d3f 2fc8 f43e eec9 3dbe dd0f 92bd
00000350: 43e9 38bc 650b dcbd d34b e7be d355 b53e
00000360: 5f3d cc3c 6f2c 603e 90e8 da3e 031e febd
00000370: 403a 65bd 7232 f53d 6594 a6bd c408 f1bd
00000380: 855e 793f 2cb5 89ba e3dc 933f 3ae7 98be
00000390: df0a cabe f781 d2be 20bb 3dbf 263f 7d3e
000003a0: 6d9f e73d 1ade a53d c503 ee3b 33a7 6d3e
000003b0: c8fc c83e 5aa4 3f3e 0574 353d 507c 85be
000003c0: 3f3d 743f d844 c9bd 1031 193d 2a1a 00c0
000003d0: 5c9b 17bf b46b f9bd e6d6 14bf 5601 143e
000003e0: dca2 69bd 6fcb 48be d110 e6bd 13c0 08bf
000003f0: 47d3 c13c 1cce 8cbd de07 b83c b12e 0dbc

actor.0.bias f4 [64]
-0.26527798 -0.12799896 -0.64986604 -0.008267591 0.14043717 -0.32113183 -0.3758392 -0.031458028
0.3830875 0.27053788 -0.10218848 -0.023281973 -0.12376512 -0.25351682 -0.66893804 -0.27998734
0.66324794 0.20698307 0.27619752 0.18826947 0.14211982 0.23256987 -0.35129946 0.15834881
-0.67359406 0.70770484 -0.07291985 -0.4351747 -0.10373126 0.18587738 -0.21293902 0.45197615
-0.7137354 -0.20409057 0.34671184 -0.070045665 0.052628648 0.044184584 -0.5681115 -0.30502787
0.13568272 -0.07223246 0.54700094 -0.19242056 0.11330254 0.094111286 -0.25771913 -0.027323881
0.49802548 -0.5249707 0.07778692 -0.20318893 -0.0041363197 -0.24057332 -0.5755934 -0.29503816
-0.40790245 0.023569549 0.1399845 0.2966406 -0.054342516 0.29041195 0.28632608 -0.08997607
00000000: 84d2 87be 2912 03be 9f5d 26bf ca74 07bc
00000010: c3ce 0f3e 646b a4be ff6d c0be 22da 00bd
00000020: 0b24 c43e f183 8a3e 3248 d1bd d6b9 bebc
00000030: 9178 fdbd f5cc 81be 863f 2bbf 805a 8fbe
00000040: 9eca 293f 5ff3 533e c369 8d3e b6c9 403e
00000050: dc87 113e cc26 6e3e 86dd b3be 3126 223e
00000060: a970 2cbf 252c 353f 0157 95bd 38cf debe
00000070: 0e71 d4bd a456 3e3e b00c 5abe 6b69 e73e
00000080: 5db7 36bf 1efd 50be 3784 b13e 1a74 8fbd
00000090: 2391 573d e5fa 343d c16f 11bf 9d2c 9cbe
000000a0: 69f0 0a3e 9dee 93bd 4108 0c3f e509 45be
000000b0: 290b e83d 6bbd c03d c3f3 83be 55d6 dfbc
000000c0: 32fd fe3e 7b64 06bf c04e 9f3d c210 50be
000000d0: f789 87bb da58 76be 175a 13bf 3e0f 97be
000000e0: 97d8 d0be ed14 c13c 1958 0f3e 47e1 973e
000000f0: 4296 5ebd e0b0 943e 5599 923e 6045 b8bd

actor.2.weight f4 [64, 64]
-0.13368408 0.14251482 0.48492396 0.23093526 -0.11844731 0.26570323 0.2774502 -0.10368584
0.18088242 -0.17268445 0.12478618 -0.05236367 0.025082266 0.20679577 0.18196861 -0.053162485
0.006739959 0.15375653 0.058173653 -0.027240615 -0.15714428 0.13632806 -0.08431393 -0.03135392
0.06662282 -0.7745441 0.024958743 -0.33466285 -0.23874816 -0.014710755 -0.13532029 -0.24879141
-0.28607813 0.35228017 0.14960545 -0.5088512 0.08419223 -0.06320662 0.37166026 0.032018717
0.08973595 0.15731314 0.25685295 -0.019682616 -0.022396622 0.0050158002 -0.1861453 0.20818843
-0.21751282 -0.070573814 -0.2151337 -0.49348566 -0.002588021 -0.0024025035 -0.39201564 0.18041144
0.020941665 -0.16297632 0.14492077 -0.47077972 -0.012682857 0.09864499 0.1328927 -0.18274769
0.13500312 0.35383528 -0.047349747 0.14483763 -0.21081027 -0.02609205 0.058436718 0.10430897
0.017105592 0.17044094 0.03745296 -0.050735485 -0.09609753 0.26814914 0.11800033 -0.108577035
-0.09234137 -0.016052207 0.11063423 -0.05211992 0.089715704 0.09936524 -0.012255406 0.072617
0.06814084 -0.02336201 -0.06735981 -0.018424608 -0.16814081 -0.031654846 -0.15976219 0.1693891
0.22978657 0.06067902 -0.25893945 -0.18201888 -0.018682709 -0.018186944 0.046486136 0.11195526
-0.26032466 -0.35408857 -0.034503 -0.037129425 0.09060458 0.038943283 0.09086454 -0.1618427
-0.34512046 0.06786089 -0.1449303 0.35704577 -0.020676037 -0.0031831164 0.034857623 0.15689209
0.11046619 -0.32174933 -0.02865276 0.25949103 0.18767507 -0.021697331 0.11037642 -0.3245086
0.2684606 -0.07235405 -0.41989002 -0.35201037 0.25333127 -0.34321183 -0.058765955 -0.045177195
0.014993537 -0.039632067 -0.097904846 0.10324651 -0.001746701 0.10539824 0.2358184 0.19611222
-0.2343461 -0.12485095 -0.013555065 -0.0012858284 -0.13403118 0.18345508 0.2693633 -0.10450496
0.18014212 -0.25773954 -0.37717378 -0.0071939747 0.040048093 0.026238084 0.10467602 -0.29185578
0.22287472 0.2673807 0.0068999957 -0.13928752 -0.30452228 -0.3254361 -0.14255121 -0.116677016
-0.09165392 -0.15289539 -0.21331732 -0.06630195 0.21971832 0.017424174 0.1627103 -0.111137986
0.245102 0.14528373 0.033035003 0.21303116 0.17875758 -0.22673358 0.14848274 -0.049518295
0.1410967 -0.023646927 -0.44378567 -0.11027921 0.040229093 -0.08605147 -0.20678364 0.0098792985
0.022046646 0.04579361 -0.2721464 -0.37956673 0.15668716 0.2567584 0.16865467 -0.096364506
0.04880793 0.25787458 -0.018845133 -0.06539547 0.020555783 -0.05667937 -0.120027415 -0.07789535
0.0014957887 0.043904323 0.15979774 0.17285147 0.14884305 0.033144455 -0.093498304 0.12047234
-0.37917292 0.17635725 -0.08056585 -0.160408 -0.024590896 0.17136292 0.10355202 -0.033131234
0.13308255 -0.16559796 -0.100617215 -0.18475431 0.42835128 0.08805365 -0.021543993 -0.003232061
0.112548016 -0.04749206 0.043016113 0.047981933 -0.12239191 0.033474717 -0.05673288 0.18769674
-0.015711254 0.09951222 -0.1607886 0.13356 -0.06292573 0.039856467 0.16169484 -0.016215116
0.1998942 -0.12308449 0.020708308 0.15308054 0.06313201 -0.049417976 0.15626302 0.12719633
00000000: 7be4 08be 68ef 113e f447 f83e 4b7a 6c3e
00000010: 8194 f2bd 410a 883e f40d 8e3e 3e59 d4bd
00000020: 3e39 393e 31d4 30be e68f ff3d 4a7b 56bd
00000030: 5379 cd3c 45c2 533e fb55 3a3e e8c0 59bd
00000040: e0da dc3b 5a72 1d3e 7f47 6e3d b627 dfbc
00000050: 6eea 20be 9599 0b3e c8ac acbd f86c 00bd
00000060: 8c71 883d 8648 46bf 4776 cc3c ee58 abbe
00000070: 667a 74be 6105 71bc 6791 0abe 2dc3 7ebe
00000080: d578 92be 115e b43e 2c32 193e 1244 02bf
00000090: fa6c ac3d 7972 81bd 414a be3e 0f26 033d
000000a0: 7bc7 b73d b216 213e 3b82 833e 703d a1bc
000000b0: 1f79 b7bc 955b a43b e09c 3ebe 592f 553e
000000c0: aebb 5ebe 0189 90bd 024c 5cbe 27aa fcbe
000000d0: ca9b 29bb 5273 1dbb 46b6 c8be c7bd 383e
000000e0: db8d ab3c 44e3 26be 1c66 143e 0a0a f1be
000000f0: c2cb 4fbc 6206 ca3d 0615 083e 3622 3bbe
00000100: 423e 0a3e e629 b53e cff1 41bd 5150 143e
00000110: a6de 57be ffbe d5bc 575b 6f3d f19f d53d
00000120: 0721 8c3c 1288 2e3e 4668 193d 03d0 4fbd
00000130: c8ce c4bd d84a 893e 28aa f13d a35d debd
00000140: 791d bdbd eb7f 83bc 3394 e23d b27b 55bd
00000150: debc b73d 0180 cb3d e6ca 48bc 39b8 943d
00000160: 6d8d 8b3d b061 bfbc f1f3 89bd 34ef 96bc
00000170: 1b2d 2cbe 83a8 01bd b398 23be 5674 2d3e
00000180: 2c4d 6b3e 908a 783d b693 84be 2863 3abe
00000190: 7b0c 99bc c9fc 94bc 3f68 3e3d cd48 e53d
000001a0: 4649 85be 194b b5be 0553 0dbd 0615 18bd
000001b0: e58e b93d fe82 1f3d 3017 ba3d 18ba 25be
000001c0: a1b3 b0be a6fa 8a3d 9c68 14be b4ce b63e
000001d0: cb60 a9bc d59b 50bb dec6 0e3d 52a8 203e
000001e0: 193c e23d 54bc a4be 31b9 eabc 02dc 843e
000001f0: e52d 403e 9abe b1bc 080d e23d fe25 a6be
00000200: ab73 893e 5c2e 94bd d3fb d6be b43a b4be
00000210: a3b4 813e 76b9 afbe 92b4 70bd b90b 39bd
00000220: 74a7 753c 3c55 22bd 5682 c8bd e872 d33d
00000230: 8ff1 e4ba 08db d73d 617a 713e a4d1 483e
00000240: 6df8 6fbe dbb1 ffbd 1016 5ebc 3e89 a8ba
00000250: 783f 09be a6db 3b3e fde9 893e b206 d6bd
00000260: 2d77 383e 70f6 83be ec1c c1be 6fbb ebbb
00000270: 7809 243d 40f1 d63c 6260 d63d 1f6e 95be
00000280: 4539 643e 20e6 883e 5c19 e23b 63a1 0ebe
00000290: 58ea 9bbe 8f9f a6be f2f8 11be 5cf4 eebd
000002a0: 0db5 bbbd 9c90 1cbe db6f 5abe 51c9 87bd
000002b0: d7fd 603e 24bd 8e3c 879d 263e 509c e3bd
000002c0: 05fc 7a3e 42c5 143e b64f 073d d724 5a3e
000002d0: 3a0c 373e d92c 68be dc0b 183e b2d3 4abd
000002e0: a77b 103e 33b7 c1bc e037 e3be 11da e1bd
000002f0: 43c7 243d c13b b0bd 17bf 53be c8dc 213c
00000300: 2b9b b43c 1592 3b3d c656 8bbe 9256 c2be
00000310: 9972 203e d675 833e cfb3 2c3e c15a c5bd
00000320: d3ea 473d 2308 843e 1c61 9abc 0fee 85bd
00000330: 9a64 a83c a128 68bd efd0 f5bd 9987 9fbd
00000340: 570e c43a 05d5 333d 05a2 233e faff 303e
00000350: 506a 183e 7bc2 073d 0a7c bfbd 34ba f63d
00000360: f422 c2be ff96 343e b5ff a4bd ff41 24be
00000370: d972 c9bc c379 2f3e 1513 d43d 9eb4 07bd
00000380: cb46 083e 8392 29be 6610 cebd 3c30 3dbe
00000390: dc50 db3e 7955 b43d 077d b0bc fcd0 53bb
000003a0: 937f e63d 0987 42bd aa31 303d b488 443d
000003b0: 9ca8 fabd c91c 093d bd60 68bd 9333 403e
000003c0: e3b4 80bc 10cd cb3d c4a5 24be f4c3 083e
000003d0: 35df 80bd 8940 233d 5593 253e 90d5 84bc
000003e0: 11b1 4c3e b913 fcbd 78a4 a93c 25c1 1c3e
000003f0: 5b4b 813d 816a 4abd 6a03 203e c13f 023e

actor.2.bias f4 [64]
-0.4246281 -0.030064248 -0.13123223 0.13837127 -0.2439894 -0.33559188 -0.119444445 -0.37786362
-0.09372892 -0.20062394 -0.37272966 -0.2707496 -0.27164352 -0.023896426 -0.19270171 -0.08407119
-0.28797933 -0.59079945 -0.20710313 -0.33779734 -0.4915775 -0.25732747 -0.28857276 -0.055440936
-0.35772648 -0.5788508 -0.403245 -0.21793512 -0.06447081 -0.28511447 0.19960193 -0.39856583
-0.13304217 -0.18534082 -0.53682226 -0.4833351 -0.5865055 -0.4344642 -0.1465757 -0.19891478
-0.4642875 -0.33747047 -0.14601777 -0.049488965 -0.24552204 -0.5344787 -0.010200125 -0.120470256
-0.0176833 -0.32371885 -0.23910508 -0.47880962 -0.34417522 -0.2641914 -0.41883904 -0.369442
-0.14088419 -0.2871738 -0.26427135 -0.44963542 -0.3350024 -0.23177427 -0.24324931 0.041093033
00000000: db68 d9be 4c49 f6bc be61 06be 33b1 0d3e
00000010: 5bd8 79be b3d2 abbe 4a9f f4bd 5777 c1be
00000020: f3f4 bfbd 5d70 4dbe 6cd6 bebe b19f 8abe
00000030: dc14 8bbe 70c2 c3bc 9953 45be 842d acbd
00000040: 0772 93be a23e 17bf d812 54be c6f3 acbe
00000050: 0cb0 fbbe 6dc0 83be cfbf 93be 0916 63bd
00000060: ed27 b7be 912f 14bf 2176 cebe 622a 5fbe
00000070: 4609 84bd 86fa 91be 7364 4c3e d210 ccbe
00000080: 353c 08be fcc9 3dbe 2f6d 09bf b377 f7be
00000090: 3925 16bf 1772 debe f117 16be 51b0 4bbe
000000a0: 17b7 edbe eec8 acbe af85 15be f1b4 4abd
000000b0: 216a 7bbe 99d3 08bf 6d1e 27bc 1cb9 f6bd
000000c0: 91dc 90bc 7abe a5be f6d7 74be 8926 f5be
000000d0: bc37 b0be 1844 87be 1272 d6be 8027 bdbe
000000e0: f243 10be 7208 93be 934e 87be 9d36 e6be
000000f0: 6f85 abbe 3c56 6dbe 5916 79be 2b51 283d

actor.4.weight f4 [7, 64]
0.074927054 0.0062733786 -0.0702798 0.033017587 0.07937316 -0.016750194 -0.00024057062 -0.047256403
0.0058668316 -0.0020759662 0.079864174 0.11444027 -0.009246419 0.0109581575 0.014437058 -0.055792112
0.09254532 -0.0857055 -0.025852071 -0.08519459 -0.0063824807 0.06440611 -0.008942724 0.13411042
-0.0363459 0.12857732 0.038371645 -0.020442164 -0.040610228 0.046880137 -0.025733046 0.16767149
0.21836714 -0.09018448 0.0033816628 0.02225136 -0.07727419 -0.02388618 -0.13563266 0.11528879
0.098227285 0.10541654 -0.096103646 0.060015548 -0.12419028 0.13866577 0.055108126 0.00014579154
0.070232995 -0.053740714 0.086537644 -0.05276346 0.050477117 -0.06883037 0.049507793 0.05834498
-0.051028874 -0.05328746 0.068746515 -0.023257554 0.23094907 0.12630421 0.066096894 -0.07542266
-0.033200786 -0.0012670202 0.02451927 0.030993255 0.058779184 0.04948194 0.01672838 0.039714847
0.022816788 0.08237725 -0.07429861 -0.024068225 -0.028492939 0.008589766 -0.056805592 -0.027312504
-0.022934709 -0.17958559 -0.08568027 0.022291277 -0.11405744 -0.10511005 0.0036022172 -0.043244973
0.006375387 0.003983791 -0.07781068 0.02524457 0.03168637 -0.02229157 0.047470413 0.031036614
0.17414634 -0.040093396 -0.21603091 -0.02267558 -0.005542056 -0.038708456 -0.023117892 0.050588686
-0.036969487 -0.13413101 -0.011376935 0.08503767 -0.010387953 -0.09730699 0.016324198 4.603247e-05
0.034663253 -0.010903112 0.025508288 0.002755702 0.044796064 -0.13254909 0.04027521 -0.10592429
0.04317057 -0.044058453 -0.027495425 0.04488244 0.014734086 -0.027684268 0.016932126 -0.016495898
0.2120936 -0.032529254 0.03974779 -0.0365239 -0.045428533 -0.04666064 0.02997536 -0.002684688
-0.033956558 0.040131684 -0.076428376 -0.04478139 -0.073458634 -0.0038042911 -0.19546439 -0.05238804
-0.1852281 0.012813518 0.022677384 0.049868837 0.039475217 -0.121426865 -0.07469303 0.052350078
-0.0546639 0.12593551 -0.003983666 0.022579355 0.029847208 -0.11022835 0.035986394 0.2152435
-0.03443785 -0.103028625 0.029152011 -0.09349999 -0.061232615 -0.090497985 -0.07559372 0.05963971
0.06397332 0.19153543 -0.124064185 -0.023730453 0.0789836 0.16294467 0.06450396 0.03481865
0.050117303 -0.11747502 0.06070746 0.07177589 -0.068376355 -0.13901962 -0.019517139 0.18915743
-0.02812896 0.08911625 0.034833614 -0.13806182 0.1388273 0.30908912 -0.062437527 0.035066187
-0.14119366 0.07091315 -0.007572974 0.009972793 -0.0856161 -0.03985866 0.14829738 0.07711215
0.052021302 -0.049736146 0.066659205 0.00702639 0.01685607 0.0073637892 -0.31513768 -0.004617318
0.017594187 -0.036363795 -0.047608078 0.10867422 -0.009017851 0.006190789 0.101190045 0.06945754
-0.011658427 0.05730273 0.16138081 0.10421681 -0.054459665 0.07477113 0.030379903 0.01708317
-0.14932002 0.005535998 -0.07348122 -0.18163556 0.19665202 -0.034346443 -0.06784664 0.014172434
-0.15806644 -0.045042634 -0.08736089 -0.0040848427 -0.036930963 -0.16164857 -0.021199849 0.059522793
-0.0482521 -0.101462305 -0.06757232 -0.0063835606 0.034486182 0.04772278 -0.17178214 -0.0066111484
-0.104439706 -0.017712079 -0.038200434 -0.19866127 0.0055866283 0.16857876 -0.0461883 0.030100241
00000000: 5b73 993d ea90 cd3b dbee 8fbd 733d 073d
00000010: 658e a23d b437 89bc af41 7cb9 ee8f 41bd
00000020: 8d3e c03b ef0c 08bb d48f a33d a95f ea3d
00000030: 4b7e 17bc d889 333c 6989 6c3c 4586 64bd
00000040: 6788 bd3d 5d86 afbd b9c7 d3bc 807a aebd
00000050: 2124 d1bb 5ae7 833d 8184 12bc 3e54 093e
00000060: 70df 14bd c6a9 033e 962b 1d3d 5376 a7bc
00000070: e956 26bd 6305 403d 1cce d2bc 13b2 2b3e
00000080: a39b 5f3e a4b2 b8bd e39e 5d3b 7c48 b63c
00000090: ee41 9ebd f3ac c3bc 4ae3 0abe 871c ec3d
000000a0: 632b c93d a0e4 d73d fdd1 c4bd ddd2 753d
000000b0: 7957 febd 66fe 0d3e 0fb9 613d 9edf 1839
000000c0: 51d6 8f3d 391f 5cbd a63a b13d 7f1e 58bd
000000d0: 18c1 4e3d f0f6 8cbd afc8 4a3d 25fb 6e3d
000000e0: a703 51bd f443 5abd f9ca 8c3d a086 bebc
000000f0: ea7d 6c3e e455 013e cf5d 873d 3277 9abd
00000100: 8cfd 07bd 2512 a6ba a3dc c83c 91e5 fd3c
00000110: 71c2 703d 93ad 4a3d f509 893c 09ac 223d
00000120: 46ea ba3c 67b5 a83d df29 98bd ba2a c5bc
00000130: 066a e9bc 17bc 0c3c fbac 68bd 79be dfbc
00000140: 92e1 bbbc 49e5 37be 2379 afbd 329c b63c
00000150: f296 e9bd f043 d7bd 2d13 6c3b a421 31bd
00000160: 9fe8 d03b 768a 823b 355b 9fbd b3cd ce3c
00000170: 91c9 013d d09c b6bc 5670 423d 7f40 fe3c
00000180: 6b53 323e f938 24bd 3537 5dbe 23c2 b9bc
00000190: 239a b5bb c28c 1ebd bc61 bdbc 1536 4f3d
000001a0: 516d 17bd a459 09be 5366 3abc 3b28 ae3d
000001b0: 3c32 2abc e348 c7bd 53ba 853c fd12 4138
000001c0: 0efb 0d3d f7a2 32bc c2f6 d03c 0299 343b
000001d0: 147c 373d f3ba 07be 9ef7 243d d6ee d8bd
000001e0: a0d3 303d a376 34bd 163e e1bc a6d6 373d
000001f0: 3c67 713c 1eca e2bc 3eb5 8a3c 6822 87bc
00000200: 112f 593e 653d 05bd 94ce 223d 169a 15bd
00000210: 4513 3abd 3a1f 3fbd e38e f53c 97f1 2fbb
00000220: 0816 0bbd 1f61 243d 7b86 9cbd b16c 37bd
00000230: 7b71 96bd 6a51 79bb d127 48be d794 56bd
00000240: 6fac 3dbe caef 513c ecc5 b93c 4443 4c3d
00000250: c4b0 213d a6ae f8bd a9f8 98bd 096d 563d
00000260: 41e7 5fbd 3df5 003e 6a89 82bb 57f8 b83c
00000270: 2282 f43c 67bf e1bd 7866 133d cb68 5c3e
00000280: b40e 0dbd ac00 d3bd 33d0 ee3c ec7c bfbd
00000290: 0dcf 7abd 0257 b9bd e1d0 9abd c548 743d
000002a0: 7204 833d dd21 443e 5d15 febd 5e66 c2bc
000002b0: 27c2 a13d f8da 263e a71a 843d 009e 0e3d
000002c0: cd47 4d3d be96 f0bd 63a8 783d 3dff 923d
000002d0: e708 8cbd 295b 0ebe 68e2 9fbc 7cb2 413e
000002e0: b46e e6bc 9582 b63d b1ad 0e3d 1460 0dbe
000002f0: be28 0e3e ee40 9e3e 7ebe 7fbd 90a1 0f3d
00000300: 1295 10be ea3a 913d b626 f8bb ed64 233c
00000310: 7e57 afbd d642 23bd 45db 173e faec 9d3d
00000320: 4a14 553d 21b8 4bbd 9f84 883d a23d e63b
00000330: be15 8a3c f14b f13b ba59 a1be df4c 97bb
00000340: af21 903c 34f2 14bd b000 43bd 9790 de3d
00000350: 9cbf 13bc 1adc ca3b ba3c cf3d c13f 8e3d
00000360: fd02 3fbc 44b6 6a3d 0341 253e 9f6f d53d
00000370: 1911 5fbd 9b21 993d 46df f83c 01f2 8b3c
00000380: 59e7 18be 5167 b53b 527d 96bd acfe 39be
00000390: 265f 493e dbae 0cbd 2ef3 8abd 7f33 683c
000003a0: 2bdc 21be a07e 38bd 44ea b2bd 25da 85bb
000003b0: ec44 17bd 3487 25be 4eab adbc 2cce 733d
000003c0: fea3 45bd 78cb cfbd 5b63 8abd 302d d1bb
000003d0: 6241 0d3d f678 433d a8e7 2fbe 55a2 d8bb
000003e0: 7ce4 d5bd ec18 91bc 0f78 1cbd dc6d 4bbe
000003f0: 0910 b73b e99f 2c3e f12f 3dbd c894 f63c

actor.4.bias f4 [7]
0.018373234 0.18653904 -0.16313645 0.15778628 0.21496788 -0.3186599 0.13069937
00000000: 7783 963c 1704 3f3e 3e0d 27be ba92 213e
00000010: 8a20 5c3e 6427 a3be 0ed6 053e

critic.0.weight f4 [64, 32]
-0.2371262 -0.15005986 -0.21576348 0.3186208 -0.1569676 0.08452308 -0.27987635 0.13786577
0.047702007 0.018199898 0.058780003 0.0112877255 -0.00068981585 -0.048317567 -0.020180222 -0.041894294
-0.084021166 -0.045660425 0.19678095 1.1444924 0.9509093 0.044174053 -0.2085492 -0.63140976
-0.123788774 -0.005159883 -0.10433612 -0.1600577 -0.048099395 -0.09268422 0.019847466 -0.020430911
-0.16549829 0.17195363 -0.10928708 0.22830325 0.041222382 -0.12792854 0.102706134 -0.010192334
-0.0045589213 -0.009518879 0.11806314 -0.015244748 0.045610793 -0.0026655677 -0.0010592255 0.010801612
-0.49342242 -0.33736238 0.3418839 -1.2220199 -1.6600933 0.06916946 0.3016076 -0.18496627
-0.009566569 -0.03620145 -0.08685559 -0.030560382 0.028825542 -0.02583788 -0.10530673 -0.031531222
0.047064442 0.27205715 -0.02578056 -0.11680274 0.18562563 -0.029580597 -0.037105337 -0.018024702
0.050519686 -0.09200609 0.017850017 -0.101273715 -0.013065953 0.05101838 0.024746653 -0.006264123
0.18343419 -0.034184508 -0.71312785 -0.31886038 0.53210783 0.05475872 -0.070408106 -0.18808402
-0.08784873 0.08889809 0.076059684 0.115652055 0.054368578 -0.103701435 0.04809968 0.008831034
-0.18449447 0.06531326 -0.14988598 -0.41887873 -0.040226337 0.19409628 0.010535484 0.26232857
0.09090434 -0.23827286 -0.10880341 -0.22982503 -0.14479266 -0.030634282 -0.0031642644 -0.035193518
-0.12584914 0.04930116 -0.33383912 0.19626205 -0.23446327 -0.12390787 -1.1652176 0.15012869
0.16137587 -0.0063668997 0.073096275 -0.014442408 -0.12212727 -0.08478983 0.11060342 0.05417302
-0.34133828 -0.061572798 -0.23142295 0.26495016 0.39071503 0.1309401 0.2385725 0.072871774
0.0015993591 -0.0065061157 0.019475471 0.0057775043 -0.082852684 0.015914897 -0.025011599 -0.025054086
-0.18605597 -0.21367143 0.4169911 0.0008430128 -0.2531309 0.040046196 -0.62672925 0.31834665
-0.1418901 -0.0045415517 0.07361944 -0.095563985 -0.026749898 -0.025338272 -0.016243732 0.057733346
-0.057668407 -0.098917395 -0.16221409 -0.103084825 0.08919007 0.19180278 -0.033438854 -0.058518525
0.117487535 0.12668332 0.18000287 0.15841225 -0.1710885 -0.03581936 -0.02135034 -0.016949773
0.09191828 -0.07370079 -0.45990932 -0.6967613 -0.48110008 -0.15118885 0.5904153 0.46544498
0.07113791 0.030154988 0.079010375 0.08203333 0.022120796 0.018687598 0.06756624 -0.07818733
0.19064721 0.31861946 0.10545423 -0.11132136 -0.025116697 0.04957814 -0.09891671 -0.13037081
0.047099445 0.047808573 -0.0018069887 0.045455743 -0.062541746 -0.0055573303 0.0126539245 0.0006111132
0.088922895 -0.098272756 0.24967116 -3.0590403 -0.17332222 0.14160582 -0.83375984 0.22332083
-0.038718197 -0.045639154 0.04550297 0.061049152 -0.0061153686 -0.0019219915 0.038676646 -0.0017575625
0.062984504 0.045162328 -0.15509173 -0.27951112 -0.24351117 -0.22329903 -0.20480174 0.14237052
0.07608232 0.048186436 0.17252596 0.012965109 0.019210847 -0.030014686 -0.008016008 -0.014429853
0.080924526 0.17172532 0.059845835 0.47558257 -0.26866573 0.12724704 -0.5572459 -0.12957983
0.13271916 -0.044113964 -0.02132475 -0.15909924 -0.022382228 -0.06374319 -0.026754707 -0.07176513
00000000: 36d1 72be 4ba9 19be 1af1 5cbe 4422 a33e
00000010: 1dbc 20be 701a ad3d f44b 8fbe af2c 0d3e
00000020: 2e63 433d f417 953c 4dc3 703d 27f0 383c
00000030: c2d4 34ba a4e8 45bd fe50 a5bc 5a99 2bbd
00000040: 4a13 acbd 6d06 3bbd f280 493e ba7e 923f
00000050: cb6e 733f daef 343d ec8d 55be 12a4 21bf
00000060: f884 fdbd 3c14 a9bb 2dae d5bd 2ae6 23be
00000070: df03 45bd 39d1 bdbd 2797 a23c ba5e a7bc
00000080: 6278 29be 9d14 303e e8d1 dfbd 54c8 693e
00000090: cdd8 283d b3ff 02be 9857 d23d bffd 26bc
000000a0: 0163 95bb 12f5 1bbc 16cb f13d 1cc5 79bc
000000b0: 62d2 3a3d ceb0 2ebb b6d5 8aba 3ff9 303c
000000c0: dda1 fcbe c3ba acbe 680b af3e 266b 9cbf
000000d0: f07d d4bf b8a8 8d3d 506c 9a3e cc67 3dbe
000000e0: 19bd 1cbc f947 14bd 58e1 b1bd c459 fabc
000000f0: 8b23 ec3c f6a9 d3bc 0eab d7bd e226 01bd
00000100: a5c6 403d 134b 8b3e c131 d3bc 4636 efbd
00000110: a514 3e3e 0253 f2bc c4fb 17bd 8aa8 93bc
00000120: bbed 4e3d b06d bcbd 333a 923c 9868 cfbd
00000130: 9412 56bc a6f8 503d 7eb9 ca3c 4643 cdbb
00000140: 2cd6 3b3e 0e05 0cbd 8c8f 36bf ab41 a3be
00000150: 3838 083f ae4a 603d 2032 90bd 1999 40be
00000160: 09ea b3bd 3410 b63d 2ec5 9b3d fcda ec3d
00000170: 96b1 5e3d 6b61 d4bd 2c04 453d 0bb0 103c
00000180: 1eec 3cbe f5c2 853d b67b 19be 4677 d6be
00000190: 5fc4 24bd 2dc1 463e 069d 2c3c ee4f 863e
000001a0: 0e2c ba3d cdfd 73be 52d4 debd 4157 6bbe
000001b0: 8744 14be bff4 fabc 8c5f 4fbb 1427 10bd
000001c0: 99de 00be 03f0 493d f6ec aabe ebf8 483e
000001d0: 2417 70be 69c3 fdbd da25 95bf 56bb 193e
000001e0: b73f 253e 6da1 d0bb 80b3 953d da9f 6cbc
000001f0: dd1d fabd 4aa6 adbd 0c84 e23d 87e4 5d3d
00000200: e4c3 aebe c233 7cbd 23fa 6cbe 8ca7 873e
00000210: cd0b c83e 2915 063e 594c 743e cc3d 953d
00000220: 96a1 d13a 4131 d5bb 068b 9f3c 3851 bd3b
00000230: abae a9bd f55f 823c 20e5 ccbc 3a3e cdbc
00000240: 7585 3ebe afcc 5abe dc7f d53e a2fd 5c3a
00000250: 609a 81be 7b07 243d 5471 20bf 55fe a23e
00000260: a34b 11be 4cd1 94bb cac5 963d 0db7 c3bd
00000270: 9a22 dbbc 3592 cfbc 9311 85bc cd79 6c3d
00000280: b535 6cbd 3495 cabd 731b 26be 231e d3bd
00000290: 49a9 b63d f367 443e 2ef7 08bd 1fb1 6fbd
000002a0: 4e9d f03d 46b9 013e ac52 383e d236 223e
000002b0: d331 2fbe 52b7 12bd e9e6 aebc 40da 8abc
000002c0: a73f bc3d 71f0 96bd 3c79 ebbe f35e 32bf
000002d0: c052 f6be 40d1 1abe 7525 173f ce4e ee3e
000002e0: c1b0 913d 9807 f73c 31d0 a13d 1701 a83d
000002f0: ac36 b53c bc16 993c 2b60 8a3d ae20 a0bd
00000300: 0639 433e 1722 a33e 63f8 d73d 74fc e3bd
00000310: 88c1 cdbc 7312 4b3d d894 cabd ed7f 05be
00000320: 59eb 403d ecd2 433d 7bd8 ecba cd2f 3a3d
00000330: e315 80bd 441a b6bb 6852 4f3c 1d33 203a
00000340: 351d b63d 3a43 c9bd cca9 7f3e 51c7 43c0
00000350: 617b 31be 1e01 113e 4971 55bf 37ae 643e
00000360: f996 1ebd 1ff0 3abd 5361 3a3d ad0e 7a3d
00000370: 6e63 c8bb 55eb fbba 676b 1e3d 035e e6ba
00000380: 05fe 803d 22fc 383d 5ed0 1ebe 151c 8fbe
00000390: fe5a 79be 80a8 64be 8cb7 51be 94c9 113e
000003a0: 0cd1 9b3d 245f 453d a5aa 303e 9c6b 543c
000003b0: 1160 9d3c 5ce1 f5bc 9355 03bc 316b 6cbc
000003c0: c2bb a53d c3d8 2f3e e820 753d 8f7f f33e
000003d0: 8e8e 89be 0c4d 023e aba7 0ebf 93b0 04be
000003e0: 88e7 073e d8b0 34bd 3eb1 aebc e9ea 22be
000003f0: ef5a b7bc ca8b 82bd b02c dbbc 99f9 92bd

critic.0.bias f4 [64]
0.079644844 -0.10193964 0.08686448 -0.13786241 0.005606514 -0.13058604 -0.014409273 0.11921176
0.08562083 0.39889178 0.41724327 -0.22779804 -0.19142476 -0.21073239 0.28443807 0.15098612
-0.018352535 -0.14597036 0.11808256 0.53007364 0.64602125 -0.18575951 0.04842828 0.03589258
0.30795908 -0.09712888 0.09293398 0.37331918 0.16108294 -0.1525015 -0.060161907 0.3985199
-0.107228786 -0.23092419 -0.108221106 -0.09432318 0.24889088 0.52663726 -0.22783236 0.23025283
-0.020237595 0.043090776 0.27846307 -0.32142514 -0.33700696 0.34420612 -0.1803455 -0.24234729
0.2288555 0.04667725 -0.2524754 -0.28853562 0.31086823 -0.07540622 -0.10849355 -0.34290916
0.28638196 -0.12899476 -0.19576716 0.1982053 0.11401081 0.076150686 0.09325341 -0.018465066
00000000: d61c a33d bbc5 d0bd 01e6 b13d ce2b 0dbe
00000010: d9b6 b73b 59b8 05be df14 6cbc 4c25 f43d
00000020: f959 af3d 8b3b cc3e e9a0 d53e e443 69be
00000030: da04 44be 3bca 57be dea1 913e 1b9c 1a3e
00000040: 0e58 96bc 4179 15be 45d5 f13d e8b2 073f
00000050: a661 253f be37 3ebe bb5c 463d 1904 133d
00000060: d0ac 9d3e 82eb c6bd 2c54 be3d b123 bf3e
00000070: edf2 243e 5a29 1cbe 556c 76bd cd0a cc3e
00000080: c49a dbbd 6477 6cbe 07a3 ddbd 832c c1bd
00000090: 40dd 7e3e b3d1 063f e34c 69be 66c7 6b3e
000000a0: 50c9 a5bc f47f 303d b692 8e3e d691 a4be
000000b0: 2d8c acbe c93b b03e 7eac 38be e329 78be
000000c0: 1959 6a3e a530 3f3d 7544 81be f1ba 93be
000000d0: 1f2a 9f3e 946e 9abd de31 debd ca91 afbe
000000e0: a8a0 923e 3417 04be 3077 48be 55f6 4a3e
000000f0: 807e e93d e4f4 9b3d a5fb be3d 0d44 97bc

critic.2.weight f4 [64, 64]
-0.053956352 -0.060349446 0.07165383 -0.0426821 -0.026433505 0.10988764 0.1324847 -0.11016779
-0.17398687 -0.4978513 -0.40867278 0.43966043 0.11029878 0.41726053 -0.23360628 0.08652286
-0.12136025 0.6502613 -0.65733564 -0.5943219 -1.0739503 0.6410262 -0.07148318 -0.26027712
-0.098719016 0.3030248 0.16589223 -0.28098193 -0.10183203 0.2558181 0.23060831 -0.28937465
-0.0013248438 0.07816295 0.10678799 -0.031170897 -0.32950658 -0.6535935 -0.009739928 -0.24700382
0.033359215 0.22895889 -0.0323509 0.20342435 0.17881957 -0.32599384 0.22220819 0.6003315
-0.53442156 -0.05548564 -0.037383743 0.6753542 -0.22258829 -0.07990528 -0.08170573 0.21053907
-0.3451524 0.01576964 0.11900484 -0.021314178 -0.19624576 -0.1700573 -0.09095707 -0.13801605
-0.056492586 -0.017525733 0.03291532 0.050198313 -0.012511493 0.07463155 -0.0062799654 -0.053805914
-0.18378967 -0.014482462 0.108047925 0.13195567 0.1312656 -0.045669846 0.09345113 0.014966708
0.12408016 -0.057534914 0.034205247 -0.056053758 0.03147867 0.07300983 -0.051400855 0.029118879
0.10628765 0.1440574 0.06168839 0.037335176 0.12126672 -0.12918141 0.04897299 0.11885903
0.057996057 -0.1499088 0.058154307 -0.13699552 -0.086592376 -0.03197782 0.07960407 0.1339727
-0.010523839 0.014756268 -0.0035557493 0.1305528 0.014678022 -0.08743885 -0.029601526 0.0068847137
0.04107874 0.02192882 0.07775764 0.009838358 -0.06331539 -0.14228906 -0.0023267032 -0.041259483
0.062092043 0.019361073 0.03571143 0.044584095 0.052206557 0.056038745 0.1009293 0.08942042
0.06677252 0.017448373 0.03413671 -0.1024574 0.06140504 -0.005192569 -0.07798377 0.11702861
-0.0011178782 0.022290565 -0.081996836 -0.022752859 -0.15853642 -0.004942264 -0.0155306365 0.07548607
0.062540166 0.17520575 0.048372317 -0.036923196 -0.0026114504 -0.10147968 -0.009184096 -0.08810444
-0.03850624 0.15180168 0.00013115034 -0.07269061 -0.040706 0.10419625 0.072341874 -0.060025413
-0.010589154 -0.09096899 0.08047346 -0.03617061 0.050440636 0.072314344 0.040170528 0.002911154
-0.03027427 -0.049226005 0.004130324 -0.04123992 -0.09089013 -0.03643209 -0.13342533 -0.062402595
-0.017803857 0.097540095 0.114944436 -0.09983043 0.07751562 0.08088517 0.1477019 0.08088743
0.059776194 0.022932116 0.007549805 0.0151166525 0.1209885 0.06725667 0.05345367 -0.0028580218
-0.026458843 0.04345707 -0.041332994 -0.018837558 -0.023337375 -0.1055886 0.06821987 0.057446126
-0.021792818 0.103822485 -0.04651237 0.067541376 -0.046221364 -0.082978554 0.07592114 0.05990063
-0.017918525 0.008584843 -0.01791607 0.20002437 -0.0410073 0.16866586 0.060056992 0.06841394
-0.012084218 -0.19322087 -0.0032325261 -0.10002744 -0.0749744 0.0031904264 -0.070863895 0.13139535
-0.018583186 -0.047943342 -0.0043748855 0.023614848 0.022683464 -0.077839166 -0.006023999 -0.023862762
0.19555412 -0.0139812175 0.0151366545 0.048274737 0.0076096677 -0.03226407 -0.033722233 0.07340046
-0.09281347 0.14682473 0.08152152 0.017165828 -0.12744255 -0.017222077 -0.015614887 -0.041964155
0.0986118 0.0067694667 0.008582277 0.10884969 0.008479727 -0.035812482 -0.03226295 -0.08176798
00000000: 5601 5dbd fb30 77bd 3ebf 923d 6dd3 2ebd
00000010: 148b d8bc c50c e13d 12aa 073e a69f e1bd
00000020: 9d29 32be 5ee6 febe 8f3d d1be 2c1b e13e
00000030: 54e4 e13d 2ca3 d53e 7c36 6fbe e632 b13d
00000040: b98b f8bd 8677 263f 2647 28bf 7b25 18bf
00000050: 3477 89bf 4b1a 243f c665 92bd 0b43 85be
00000060: 322d cabd 1126 9b3e a7df 293e dddc 8fbe
00000070: 508d d0bd 97fa 823e 9624 6c3e ea28 94be
00000080: 62a6 adba e613 a03d a9b3 da3d 1c5a ffbc
00000090: 16b5 a8be e751 27bf 3894 1fbc 92ee 7cbe
000000a0: aca3 083d 3374 6a3e 6182 04bd 794e 503e
000000b0: 7a1c 373e aae8 a6be 8b8a 633e 53af 193f
000000c0: dacf 08bf e944 63bd b21f 19bd 03e4 2c3f
000000d0: 2fee 63be 61a5 a3bd 5555 a7bd 8e97 573e
000000e0: d1b7 b0be 552f 813c cfb8 f33d 129b aebc
000000f0: a6f4 48be 8023 2ebe b347 babd 1454 0dbe
00000100: c564 67bd 2092 8fbc 37d2 063d bf9c 4d3d
00000110: 01fd 4cbc 6dd8 983d 2bc8 cdbb 9763 5cbd
00000120: 5c33 3cbe d947 6dbc 3b48 dd3d 631f 073e
00000130: 7d6a 063e 4e10 3bbd 4e63 bf3d ec36 753c
00000140: bd1d fe3d bba9 6bbd cd1a 0c3d a098 65bd
00000150: c7ef 003d 2e86 953d b489 52bd b78a ee3c
00000160: 57ad d93d c883 133e f7ac 7c3d c5ec 183d
00000170: b05a f83d 2248 04be e797 483d 5d6c f33d
00000180: 468d 6d3d b181 19be 3633 6e3d 8e48 0cbe
00000190: 5857 b1bd 2dfb 02bd 7507 a33d 2430 093e
000001a0: 2e6c 2cbc 46c4 713c 9307 69bb a2af 053e
000001b0: 167c 703c 2413 b3bd e67e f2bc 2a99 e13b
000001c0: 2e42 283d 12a4 b33c 663f 9f3d 1031 213c
000001d0: 80ab 81bd 39b4 11be 9a7b 18bb b4ff 28bd
000001e0: 3a54 7e3d 1d9b 9e3c 2646 123d d09d 363d
000001f0: 8bd6 553d e288 653d 05b4 ce3d 0e22 b73d
00000200: 08c0 883d e4ef 8e3c efd2 0b3d 2fd5 d1bd
00000210: da83 7b3d 6d26 aabb f4b5 9fbd b2ac ef3d
00000220: c585 92ba b49a b63c f5ed a7bd 3464 babc
00000230: 5f57 22be b7f2 a1bb 3674 7ebc 7198 9a3d
00000240: 0f15 803d 2369 333e 0d22 463d c73c 17bd
00000250: de24 2bbb 94d4 cfbd e478 16bc 1a70 b4bd
00000260: b8b8 1dbd e671 1b3e 6785 0939 d1de 94bd
00000270: 56bb 26bd d864 d53d fa27 943d 35dd 75bd
00000280: 227e 2dbc f34d babd 45cf a43d a227 14bd
00000290: d79a 4e3d 8b19 943d da89 243d 0fc9 3e3b
000002a0: bf01 f8bc 35a1 49bd ab57 873b 31eb 28bd
000002b0: 9b24 babd d139 15bd a6a0 08be dd99 7fbd
000002c0: 65d9 91bc 1ac3 c73d fd67 eb3d e573 ccbd
000002d0: 82c0 9e3d 20a7 a53d 2b3f 173e 4fa8 a53d
000002e0: e2d7 743d 22dc bb3c 5b64 f73b d6ab 773c
000002f0: d2c8 f73d ddbd 893d 3cf2 5a3d a64d 3bbb
00000300: 37c0 d8bc 0a00 323d c94c 29bd 3951 9abc
00000310: 062e bfbc d63e d8bd dcb6 8b3d a14c 6b3d
00000320: da86 b2bc e2a0 d43d c183 3ebd 2253 8a3d
00000330: 9d52 3dbd a9f0 a9bd 8b7c 9b3d 5d5a 753d
00000340: dfc9 92bc 71a7 0c3c b9c4 92bc 30d3 4c3e
00000350: 45f7 27bd beb6 2c3e 52fe 753d 9c1c 8c3d
00000360: e2fc 45bc b1db 45be cad8 53bb 30db ccbd
00000370: 2e8c 99bd 7916 513b 1721 91bd 818c 063e
00000380: c43b 98bc 3d60 44bd 335b 8fbb ed73 c13c
00000390: acd2 b93c 246a 9fbd f764 c5bb d77b c3bc
000003a0: 573f 483e 7a11 65bc bbff 773c bbbb 453d
000003b0: 855a f93b 5427 04bd 5320 0abd fb52 963d
000003c0: fd14 bebd 3959 163e c1f4 a63d 5a9f 8c3c
000003d0: 4d80 02be 5015 8dbc 95d5 7fbc 9be2 2bbd
000003e0: fcf4 c93d 67d2 dd3b ae9c 0c3c 96ec de3d
000003f0: 8eee 0a3c 1cb0 12bd 2826 04bd f875 a7bd

critic.2.bias f4 [64]
0.006248517 -0.09698989 0.0067954822 -0.14686862 0.05480602 -0.011197744 -0.029168779 0.14657755
0.12005935 0.08214534 0.0522377 -0.2907234 -0.075147614 0.031429496 0.025918894 0.16450165
0.101664424 -0.14725997 -0.101146564 0.051806524 -0.07678447 -0.08766353 0.090074524 -0.03340987
-0.09447183 0.021681087 -0.24655716 -0.052785005 -0.06310916 -0.0064531397 0.083983585 0.04053728
-0.019781297 0.20868087 0.11008033 0.11172029 -0.010515881 -0.009356513 -0.1736476 -0.09645479
-0.31194258 -0.018969346 0.078541815 0.26021254 0.020674966 -0.09874014 0.067031264 -0.013142301
0.030052725 -0.039929964 0.1673213 0.01958449 -0.03273471 -0.075654685 0.055535343 -0.028337482
-0.08598688 -0.08603963 -0.042449027 0.053766657 -0.13436487 -0.10877785 -0.036303762 0.0068279114
00000000: 5cc0 cc3b a3a2 c6bd a3ac de3b ba64 16be
00000010: 477c 603d be76 37bc 5df3 eebc 6d18 163e
00000020: ade1 f53d d13b a83d 33f7 553d b3d9 94be
00000030: fee6 99bd 37bc 003d dc53 d43c 1f73 283e
00000040: 7035 d03d 51cb 16be ee25 cfbd 1433 543d
00000050: 2d41 9dbd f088 b3bd fe78 b83d cad8 08bd
00000060: 727a c1bd 899c b13c 7b79 7cbe 1735 58bd
00000070: 603f 81bd dc74 d3bb 96ff ab3d 6b0a 263d
00000080: 630c a2bc 70b0 553e cc71 e13d 9bcd e43d
00000090: cd4a 2cbc 0f4c 19bc add0 31be 178a c5bd
000000a0: f0b6 9fbe 9a65 9bbc 88da a03d 943a 853e
000000b0: 8c5e a93c 4538 cabd b047 893d ce52 57bc
000000c0: 2231 f63c 9a8d 23bd 4656 2b3e a76f a03c
000000d0: d514 06bd d8f0 9abd 0779 633d 0224 e8bc
000000e0: e419 b0bd 8c35 b0bd 08df 2dbd 6d3a 5c3d
000000f0: f296 09be ecc6 debd 41b3 14bd acbc df3b

critic.4.weight f4 [1, 64]
-0.13012472 0.0027945123 -0.003938468 -0.00040559735 -0.00092020014 -0.0039093425 -0.00383275 -0.1986898
-0.0013087601 0.0041549266 0.0005538745 0.12286574 0.003105087 0.0030834698 0.0047588972 -0.07214079
-0.00066667714 0.1396298 -0.0032065383 -0.0009554932 -0.00017658598 0.009748383 0.08038121 -0.00020586445
-0.0047434317 -0.0030119673 0.1523923 -0.030991172 0.0012246413 -0.005506336 -0.004918401 0.00028301112
0.0033520258 -0.08701598 0.0011136361 0.0038654304 0.0006348103 0.0045296107 -0.1020406 -0.00018059899
0.054491527 -0.10570824 -0.004158905 -0.15725473 -0.0015925565 0.11316583 -0.0026139752 0.0008715857
0.0028949394 0.0002645271 -0.10720653 -0.00031809995 0.006153101 -0.005421683 0.00798308 -0.0035612718
-0.0058618602 -0.006400217 -0.0031864706 -0.003921805 0.005427972 0.057566237 -0.00600637 -0.004829388
00000000: 6a3f 05be 2324 373b 440e 81bb 5ba6 d4b9
00000010: 9639 71ba f119 80bb e02e 7bbb 5775 4bbe
00000020: b48a abba 0d26 883b e331 113a 08a1 fb3d
00000030: b77e 4b3b 0a14 4a3b 86f0 9b3b 8dbe 93bd
00000040: f2c3 2eba 1dfb 0e3e c924 52bb 107a 7aba
00000050: f029 39b9 afb7 1f3c e79e a43d 51dd 57b9
00000060: ca6e 9bbb 6d64 45bb ba0c 1c3e 33e1 fdbc
00000070: 2584 a03a 7f6e b4bb 8a2a a1bb 1c61 9439
00000080: a9ad 5b3b 6f35 b2bd 6df7 913a 2953 7d3b
00000090: 6669 263a 216d 943b a9fa d0bd 2c5f 3db9
000000a0: 8232 5f3d 907d d8bd 6c47 88bb 6207 21be
000000b0: 54bd d0ba 7dc3 e73d 3a4f 2bbb 207b 643a
000000c0: 06b9 3d3b 3ab0 8a39 198f dbbd a7c6 a6b9
000000d0: f49f c93b 60a8 b1bb 77cb 023c 3a64 69bb
000000e0: d914 c0bb e9b8 d1bb 1bd4 50bb 7c82 80bb
000000f0: 21dd b13b 93ca 6b3d 15d1 c4bb d83f 9ebb

exp_avg f4 [7]
-0.004848596 0.0048561646 -0.00392612 0.002006629 0.0004765788 -0.0044014375 0.002412796
00000000: f9e0 9ebb 7620 9f3b afa6 80bb a681 033b
00000010: 53dd f939 ef39 90bb 0020 1e3b

exp_avg_sq f4 [7]
0.0019187953 0.0024799067 0.0020663813 0.001019671 0.0016716348 0.001565932 0.0010235403
00000000: 1680 fb3a ee85 223b 206c 073b 7ba6 853a
00000010: c21a db3a f53f cd3a 5028 863a

exp_avg f4 [64, 32]
-0.00032187713 0.00017260453 -0.00010773258 0.00014912845 0.00012423321 -0.00045631648 0.0003611482 -1.779357e-05
1.0258628e-06 0.0005120475 0.00019826007 3.507782e-05 0.00024112427 0.00056596356 -0.00037900038 0.0001440293
2.0236997e-05 -1.7070053e-05 0.000108112996 0.000120945486 0.00013179933 -4.508655e-12 -0.00022713425 0.00010343651
-9.927143e-12 -0.0008007562 0.00030341063 -0.0009227084 0.0016300774 0.00083080225 -0.0010626372 0.00127187
-0.0005232084 3.4299712e-05 7.5908756e-05 -8.544007e-05 0.0005408505 0.00026540735 0.0008315255 -1.0323218e-05
-2.9091507e-06 -0.00031081765 0.00033384375 0.00028862304 -2.7336195e-05 -0.0002644459 -0.000118047436 0.00041891218
-1.950043e-05 -4.0150993e-05 0.00019642907 1.7310327e-05 -7.2816554e-05 -1.0604712e-11 -0.0008853721 0.00024210481
-3.8715992e-11 -0.0010806181 0.00016502311 -0.00014259851 -0.00023629237 0.0022317725 0.00086215447 0.0025079371
0.00020182725 0.000101604346 0.00041731508 -0.0001670862 -0.00021463973 0.0001117399 -0.00012855128 -2.0681713e-05
-6.74365e-05 0.00021682926 -0.00026576224 -0.0006254945 -0.00016420825 0.00050336437 0.00015234543 -0.00025441713
1.4544579e-05 2.2024208e-06 0.0002650837 -9.542081e-05 7.843703e-05 -2.4833935e-11 0.00018069216 0.0005685326
7.886842e-12 0.0008266859 -0.0001700109 0.0018073505 -0.0007951292 -3.6867385e-07 0.0006247788 -0.0012917604
-2.237793e-05 -1.1569119e-05 4.8842532e-05 0.0001929935 7.010181e-06 -0.00010487035 0.00015464948 1.5386386e-05
3.3486893e-05 -0.00010415948 0.00018287433 0.00031158893 0.0001950383 -7.971271e-08 -0.00029158464 -0.000102151345
-4.324169e-06 1.8351613e-05 -0.00012140044 8.488793e-05 -0.00029224306 2.270833e-11 0.00019693162 -0.0005196693
8.624072e-12 0.00012899729 0.00016671202 0.0004396805 0.0008271629 -0.0005689622 -0.0001190249 5.4549797e-05
-0.00019050382 -0.00036952566 -0.00021765166 -0.0003410624 0.0006074603 0.0003305315 0.0006076356 2.5312314e-05
5.701758e-05 -9.871776e-05 0.0002996251 0.00034650395 0.00029389278 0.00012899384 0.00045730686 -0.00044658632
9.433978e-06 -9.42665e-06 -0.0003294309 5.123449e-06 -0.00037494712 3.3087647e-11 -0.0008215479 -0.0007570533
-3.5890787e-11 -0.00037235193 -0.00010346371 -0.00068077934 -0.00171969 0.0009321274 0.00088212284 0.0014620533
0.0012762822 0.000917596 0.0013057481 -0.0003224617 -0.0017047606 -0.00030546557 -0.0015312101 -0.00014877862
-0.00011765184 0.0002112213 -6.393085e-05 0.00011270728 0.00025990192 -0.00033018025 0.0002320205 -0.00016794338
2.5335297e-05 2.0678037e-05 0.0014733901 8.381756e-05 0.0007213063 -9.5086175e-11 0.0012467696 0.0021756275
5.449012e-11 0.0038593384 0.0014525575 0.0055356296 0.00027655734 -0.005429352 -0.0012505632 -0.0067613353
0.00013119442 0.00083890033 0.00057647825 -0.00011669711 -0.00044420233 -0.00017605949 -0.00033884158 -8.476805e-05
-7.88063e-05 0.0002180439 -0.00019754148 -0.00013465753 -4.7375503e-05 0.0001973736 0.00034916916 0.0003724151
4.3383517e-07 -4.668237e-06 0.00097489776 -8.7478824e-05 0.00041545185 -6.9883654e-11 0.00016086023 0.0015988322
7.0274576e-12 0.0010292083 0.0010325031 0.002346469 -2.1872109e-05 -0.0012251707 -0.00028530968 -0.0020242953
-0.00044357876 -0.00037935923 0.00012477125 -0.00022414491 0.0008040235 0.00020156763 0.0012669376 2.130824e-05
-4.8865436e-06 0.00020191158 2.7346536e-05 -0.00023360013 5.134165e-05 0.00045337464 -0.00020639614 0.0005522056
-1.7367076e-05 5.927882e-06 -0.00042057366 5.2217296e-05 -0.00019646503 9.38923e-12 -0.00080218015 -0.00021524927
-3.508012e-11 -0.0014593224 -0.0003110471 -0.00047462725 -0.0013126013 0.0028234439 0.0010411835 0.004356315
00000000: 9ec1 a8b9 2dfd 3439 7dee e1b8 5d5f 1c39
00000010: 9944 0239 c33d efb9 7e58 bd39 6743 95b7
00000020: 61b0 8935 ed3a 063a 08e4 4f39 8620 1338
00000030: 4ed6 7c39 2c5d 143a 92b4 c6b9 9206 1739
00000040: 9fc2 a937 a931 8fb7 b9ba e238 1da4 fd38
00000050: 9d33 0a39 5ba2 9eac e32a 6eb9 0eec d838
00000060: e1a3 2ead d7e9 51ba 1613 9f39 eae1 71ba
00000070: 52a8 d53a 32ca 593a 3048 8bba e0b4 a63a
00000080: ec27 09ba 09dd 0f38 3431 9f38 4a2e b3b8
00000090: ddc7 0d3a 5f26 8b39 bbfa 593a e231 2db7
000000a0: d43a 43b6 3df5 a2b9 c007 af39 5452 9739
000000b0: 0850 e5b7 54a5 8ab9 3c90 f7b8 71a1 db39
000000c0: db94 a3b7 cd67 28b8 87f8 4d39 a535 9137
000000d0: 17b5 98b8 618f 3aad 5118 68ba 84dd 7d39
000000e0: 5546 2aae 87a3 8dba 0e0a 2d39 7f86 15b9
000000f0: 40c5 77b9 ee42 123b 3502 623a 345c 243b
00000100: 97a1 5339 6b14 d538 15cb da39 dc33 2fb9
00000110: ea10 61b9 e755 ea38 b9cb 06b9 a47d adb7
00000120: b26c 8db8 a95c 6339 0156 8bb9 3af8 23ba
00000130: 512f 2cb9 36f4 033a eabe 1f39 4a63 85b9
00000140: 7e04 7437 4dcd 1336 effa 8a39 a81c c8b8
00000150: 8f7e a438 0d71 daad 2f78 3d39 9409 153a
00000160: 2ebf 0a2d f4b5 583a f444 32b9 9fe4 ec3a
00000170: 3870 50ba 26ee c5b4 32c8 233a 4950 a9ba
00000180: 3db8 bbb7 fd18 42b7 45dc 4c38 4c5e 4a39
00000190: ff38 eb36 d7ed dbb8 6729 2239 0312 8137
000001a0: 4774 0c38 3270 dab8 f4c1 3f39 c25c a339
000001b0: 3283 4c39 872e abb3 d4df 98b9 163a d6b8
000001c0: 5418 91b6 caf1 9937 5d98 feb8 dc05 b238
000001d0: 3338 99b9 9dbe c72d 6e7f 4e39 6b3a 08ba
000001e0: 5eb7 172d 7243 0739 6bcf 2e39 eb84 e639
000001f0: f6d5 583a 6826 15ba 029d f9b8 66cc 6438
00000200: fbc1 47b9 e5bc c1b9 6c39 64b9 9fd0 b2b9
00000210: f83d 1f3a 304b ad39 bc49 1f3a c855 d437
00000220: 2926 6f38 b206 cfb8 0017 9d39 f9aa b539
00000230: 9f15 9a39 8542 0739 b0c2 ef39 cd23 eab9
00000240: a146 1e37 2727 1eb7 78b7 acb9 17ea ab36
00000250: 8d94 c4b9 6185 112e 255d 57ba fd74 46ba
00000260: 6fd9 1dae 3b38 c3b9 a8fa d8b8 5476 32ba
00000270: 3967 e1ba 035a 743a 433e 673a 5ea2 bf3a
00000280: ed48 a73a d38a 703a a325 ab3a 1410 a9b9
00000290: 4672 dfba e526 a0b9 e3b2 c8ba 7501 1cb9
000002a0: dabb f6b8 497b 5d39 9d12 86b8 435d ec38
000002b0: 7243 8839 0b1c adb9 874a 7339 f519 30b9
000002c0: 2387 d437 bf75 ad37 c51e c13a 36c7 af38
000002d0: 0c16 3d3a c218 d1ae a56a a33a f994 0e3b
000002e0: 6ca6 6f2e f4ec 7c3b be63 be3a 3a64 b53b
000002f0: e6fe 9039 b5e8 b1bb f0e9 a3ba 318e ddbb
00000300: 3c91 0939 a6e9 5b3a cd1e 173a 49bb f4b8
00000310: d4e3 e8b9 9c9c 38b9 8ca6 b1b9 80c5 b1b8
00000320: cf44 a5b8 b7a2 6439 2323 4fb9 db32 0db9
00000330: 0fb5 46b8 13f6 4e39 b110 b739 b540 c339
00000340: dae9 e834 daa3 9cb6 4890 7f3a d674 b7b8
00000350: 01d1 d939 00ad 99ae 97ac 2839 e88f d13a
00000360: b641 f72c 80e6 863a 0e55 873a 38c7 193b
00000370: ff79 b7b7 e895 a0ba 9e95 95b9 0aaa 04bb
00000380: 2290 e8b9 bce4 c6b9 07d5 0239 7108 6bb9
00000390: 1bc5 523a e65b 5339 5f0f a63a 19bf b237
000003a0: 17f7 a3b6 3ab8 5339 3d66 e537 8ff2 74b9
000003b0: ad57 5738 eab2 ed39 0b6c 58b9 e4c1 103a
000003c0: 83af 91b7 1ee8 c636 7180 dcb9 e503 5b38
000003d0: 2e02 4eb9 552d 252d 6649 52ba 89b4 61b9
000003e0: b448 1aae bc46 bfba 0914 a3b9 64d7 f8b9
000003f0: 970b acba 8709 393b 5278 883a 6bbf 8e3b
