logs/rsl_rl/franka_reach/2025-06-16_20-11-58/model_200.pt (torch, 172795 bytes, 36 tensors)

std f4 [7]
000000 27 e8 e9 3e 31 75 e2 3e 85 c0 ec 3e 88 64 ce 3e
       0.4568493 0.44230035 0.4624063 0.40311074
000010 87 9c d1 3e 5e ab 14 3f 0c 89 d0 3e
       0.40939733 0.58073986 0.40729558

actor.0.weight f4 [64, 32]
000000 f1 ae 99 be cd 0a 3e 3e 62 ea e1 be f8 65 ca 3e
       -0.30016282 0.18558808 -0.44124132 0.3953092
000010 da cc ee 3d 0d 5a 68 3e f2 8f 11 3e 6f 28 d1 3e
       0.11660166 0.22690602 0.14215067 0.4085116
000020 ba 8d 29 3f 8d 71 6d 3d 9f 9d 8b 3e a2 17 95 bc
       0.6623188 0.05796962 0.27268693 -0.018199746
000030 58 3d a1 3e 01 a2 aa 3d eb 0d 61 be c0 3e 90 bd
       0.31492114 0.08331681 -0.21977966 -0.070432186
000040 08 ff e1 be 1f d2 8a 3d 72 4b 2a bf a0 6a 12 3c
       -0.44139886 0.06778359 -0.6652137 0.008936554
000050 c6 23 39 3f ef 2e 9f bc 5d 5d 2f bf 27 06 e9 bb
       0.7232021 -0.01943156 -0.68501836 -0.007111329
000060 0d f6 10 be 3c 7f 1f bd de 99 c4 be ec c5 75 be
       -0.14156361 -0.0389397 -0.3839864 -0.24001282
000070 a3 b0 09 3d d1 72 80 be 55 6c 6b 3c ca f0 05 be
       0.03361572 -0.25087598 0.01436909 -0.13080135
000080 1f 3d 42 3d 72 29 55 3d 9f 59 a6 be 40 62 53 3f
       0.04742157 0.05204148 -0.3249025 0.8257179
000090 b1 a1 5b 3f bb c6 cb 3e 88 bd 49 3d 3b 67 c4 bd
       0.85793597 0.39800057 0.049253017 -0.09590002
0000a0 89 05 97 3e 36 8d a4 3c 33 84 71 be 1e 3e d2 3e
       0.2949641 0.020086866 -0.23585586 0.41063017
0000b0 81 8e 0e 3e 40 c1 49 be 60 11 38 3e d6 7f 17 3e
       0.13921548 -0.19702625 0.17975378 0.1479486
0000c0 3a 6f 5f 3f de 57 d1 be c1 5f 52 bf 52 76 ed bf
       0.87279093 -0.4088735 -0.8217736 -1.8551733
0000d0 9a b1 e7 be ff 36 14 3e 30 7f 87 3e dd d7 17 3e
       -0.45252687 0.14474104 0.26464224 0.14828439
0000e0 a2 0f 66 3d ff f9 84 3d 4c 5f 23 3d e8 db 2a be
       0.056167252 0.064929955 0.039885804 -0.1668545
0000f0 96 e7 b3 3d f0 49 ad bd 84 18 05 3e 37 87 75 bd
       0.08784406 -0.08461368 0.12997633 -0.059943404
000100 2d 5d 2a 3f 19 40 e2 bd 27 95 5a 3f d6 4f 3b be
       0.66548425 -0.11047382 0.8538384 -0.18292174
000110 fb ce 4e 3e de 55 15 b9 67 48 a2 3e ce b3 16 3f
       0.20196144 -0.00014241735 0.31695864 0.5886811
000120 5a 02 5e 3f 0e 61 00 be c2 30 2f 3c 6c 0c 4f be
       0.8672234 -0.12537023 0.010692777 -0.20219582
000130 1f 91 a4 3d b0 eb ac 3d 75 83 9d 3d db 48 09 3e
       0.08035492 0.08443391 0.07691089 0.13406698
000140 26 a8 ef bd 8a 92 d0 3e 2a 02 b1 3d 7e 33 d3 bf
       -0.11701994 0.407368 0.08642991 -1.6500089
000150 ae f5 93 3e 58 51 2c bd 4f 9a 5c be f7 7a 1b 3e
       0.28898376 -0.042069763 -0.21543239 0.15183626
000160 c2 a5 b9 bd 5a 52 83 bb 42 89 3b 3e a2 e4 18 3d
       -0.09064819 -0.00400762 0.18314078 0.037327416
000170 07 e6 67 3d e2 f7 9c 3e dc 44 f6 be 62 ef dc be
       0.056615856 0.3065787 -0.4809941 -0.43151385
000180 c2 c6 84 bf d5 20 a5 bd 49 29 c5 bd 65 a3 73 bf
       -1.0373156 -0.08062903 -0.09627015 -0.95171195
000190 d1 35 cf bc 0c c1 7f be f4 ab a8 3e 48 bb ef bd
       -0.025294216 -0.24975985 0.3294369 -0.11705643
0001a0 f3 95 2d 3e 5d 62 15 be d3 6a ed be 6f d1 a6 3d
       0.16951732 -0.14588304 -0.46370563 0.08145415
0001b0 21 5a 09 3e c6 23 9e be a7 e6 fa 3d 1e ed 24 3a
       0.13413288 -0.30886668 0.12251025 0.0006291437
0001c0 b1 bd cd 3f 6a 34 60 3f f4 01 92 be 99 d1 be 3e
       1.6073514 0.8757998 -0.28517115 0.37269285
0001d0 47 7a 01 3f 6d e5 1e be b1 5c 02 bf 0d f3 35 be
       0.50577205 -0.15517206 -0.50922686 -0.17768498
0001e0 5f 9b b2 ba 5c 5a f8 be 4a 6a 04 bf 0c 38 1f be
       -0.0013626626 -0.4850644 -0.51724684 -0.15548724
0001f0 34 90 11 bf b9 9e b9 be 87 cb 6f 3e e4 97 84 be
       -0.5686066 -0.36253908 0.23417483 -0.25897133
000200 f2 a4 65 bd 32 54 21 be f1 36 77 3d dd cc a2 3e
       -0.056065507 -0.15754774 0.06035513 0.31796923
000210 67 22 0f bf d2 7f 6f 3f 61 fb 7e 3d 71 ce 3d be
       -0.5591187 0.93554413 0.062251452 -0.18535782
000220 3e 92 42 be cc 5a 70 be cd 44 4c be ab 74 85 3d
       -0.190011 -0.23472136 -0.1994812 0.06516393
000230 73 b5 6d 3c 58 b2 2d be 51 46 1d 3d f7 0d f2 bd
       0.014508593 -0.16962564 0.038397137 -0.1181907
000240 40 84 92 3c a2 6a fa be 05 d9 d7 be c7 83 e4 3f
       0.017885327 -0.4890948 -0.4215776 1.7852715
000250 ec 75 56 3f 2b e9 0b be 04 56 94 be ee 87 54 bf
       0.83773685 -0.13663165 -0.28971875 -0.8301991
000260 d1 17 95 bc d9 4f 24 bf 63 3e 46 3d 4b ca f8 3d
       -0.018199833 -0.6418434 0.04839934 0.12147959
000270 58 e6 2c be 14 d8 d8 3d 8a 12 8a be 75 20 01 3d
       -0.16884744 0.10588089 -0.2696727 0.031525094
000280 52 13 f5 3e ab 56 0f bf a4 60 d2 3e 11 fe 2e be
       0.47866303 -0.5599162 0.41089356 -0.17089106
000290 8a d2 99 3e d0 ce a7 3f 9c 72 a8 bb 5d f3 c5 3e
       0.3004344 1.3109989 -0.0051406156 0.38662234
0002a0 a6 c3 f8 3d 13 25 45 be ac ef 48 3d b5 4c 5f bd
       0.12146692 -0.19252424 0.049056694 -0.054516513
0002b0 44 0a d1 bd 6a f8 4b 3d 13 8d 04 3e ec 6d 77 bd
       -0.10207036 0.049797453 0.1294444 -0.060407564
0002c0 62 77 c0 bd 88 91 3c bf a8 3b a8 3c 47 cd 93 bf
       -0.093977705 -0.73659563 0.020536259 -1.1547021
0002d0 f0 b7 4f bf c7 f5 ac 3d af e1 e4 3d 2f e6 66 3f
       -0.8114004 0.08445316 0.11175858 0.9019498
0002e0 1d fc b8 3d 3a 12 29 3e 84 f2 85 3e 15 83 9e 3d
       0.09032462 0.16510859 0.26161587 0.07739846
0002f0 1f cb 50 3d 40 88 2d 3d 2f d0 61 3d d0 e0 7a bd
       0.05097496 0.042366266 0.05513018 -0.061249554
000300 b8 ed 86 3d 02 b4 0a bc 59 dc df 3d d5 a2 09 bf
       0.0658831 -0.008465769 0.109307 -0.53764087
000310 a2 81 aa bd 9b 1f c5 be ef 1f dc 3d 3e 05 a9 3e
       -0.08325507 -0.38500676 0.10748278 0.33011812
000320 7e 01 42 3e 9c b7 ce 3d 33 c4 ac 3d 49 c5 f4 3d
       0.18945882 0.100936145 0.084358595 0.11951692
000330 5a 3e 99 be be 9f 16 be c7 ba c1 3d 47 08 40 bd
       -0.29930383 -0.14709374 0.09459453 -0.046882894
000340 d0 11 3f 3f 66 26 14 bd 03 e6 3a be 0e af af be
       0.74636555 -0.036169432 -0.18251805 -0.34313244
000350 d7 75 4a bd e9 6d db bd ba 2d 04 bf 33 ac a7 3e
       -0.049428787 -0.10714323 -0.51632273 0.32748565
000360 4b 29 c5 3c 6c 19 3d 3e 4f 3d c7 3e 44 db 48 bd
       0.024067542 0.18466729 0.38913962 -0.049037233
000370 67 dd 5f be 47 80 d0 3d a5 cd 04 be d5 ab cd bd
       -0.21861802 0.10180717 -0.12969072 -0.1004254
000380 09 5a 83 3f 12 92 02 3d 73 03 8b 3f 34 31 64 be
       1.0261852 0.031877585 1.0860428 -0.22284395
000390 4e 02 08 bf 21 7e de be 97 48 50 bf b5 28 2d 3e
       -0.53128517 -0.43455604 -0.81360763 0.1691006
0003a0 de 75 84 3d 58 69 62 3d 15 2b 92 3c 99 9b 89 3e
       0.06467794 0.055276245 0.017842809 0.26876524
0003b0 7d 97 c3 3e 37 3c e3 3d e3 97 86 3b 9d ba 0d be
       0.38201514 0.110954694 0.004107462 -0.13840719
0003c0 24 36 20 3f d3 cf 1a 3f e7 d7 77 3d f3 c1 c7 bf
       0.6258261 0.60473365 0.060508635 -1.5606064
0003d0 ce 29 03 bf 38 0b 00 be b5 b4 03 bf 8c 35 81 3e
       -0.51235664 -0.1250428 -0.5144761 0.25236166
0003e0 7e 37 5f bd 54 d5 3f be ac 80 6c bd 87 f8 0c bf
       -0.05449628 -0.18733722 -0.0577399 -0.5506672
0003f0 99 c5 e5 3d ca e7 3e be 2e cc 24 bd 91 fb 6d bd
       0.112193294 -0.18643108 -0.040233783 -0.05810124

actor.0.bias f4 [64]
000000 32 b4 76 be f8 e7 54 be 41 95 1b bf 1b 7b 9f bc
       -0.24092177 -0.20791614 -0.6077462 -0.019467881
000010 4c 7c d8 3d ad 65 b0 be 3f 54 d7 be ed 5b 97 3a
       0.10570583 -0.34452572 -0.42056462 0.0011547782
000020 fc 13 9c 3e 27 e6 5a 3e 80 ae f0 bd 91 26 9f 3c
       0.30483997 0.21376859 -0.11752033 0.01942757
000030 0a 5d e0 bd a3 6f 65 be 9c 75 17 bf 81 29 9b be
       -0.10955246 -0.22405867 -0.5916383 -0.30305102
000040 c8 92 28 3f 62 95 62 3e 99 76 80 3e 41 11 cb 3d
       0.6584897 0.22127298 0.25090483 0.099154
000050 a6 ca 1b 3e de 67 64 3e 04 b3 91 be 8e 4e 04 3e
       0.15214023 0.22305247 -0.2845689 0.12920591
000060 83 c1 20 bf 1c 09 39 3f 3e c7 8a bd 20 25 c9 be
       -0.62795275 0.72279525 -0.06776284 -0.39286137
000070 8e fc e7 bd e0 57 28 3e 1a ad 1f be 1a cc de 3e
       -0.11327468 0.16439772 -0.15593377 0.43515092
000080 42 9c 36 bf b4 fb 39 be b7 90 95 3e b7 32 18 bd
       -0.7133218 -0.18162423 0.2921197 -0.03715774
000090 44 f0 9a bb ae 63 60 3d 1c 82 08 bf af 54 81 be
       -0.004728349 0.054782562 -0.5332353 -0.2525992
0000a0 da c5 cb 3d 35 d8 09 bd 97 76 0e 3f 6b ab e6 bd
       0.099498466 -0.033653457 0.55649704 -0.11263164
0000b0 ab f1 2e 3d f9 ed de 3d a1 00 71 be ce dc f0 bb
       0.04271094 0.108852334 -0.23535396 -0.0073505407
0000c0 4b a3 f0 3e 2d d9 06 bf 3e 1f 20 3d d4 ff 5f be
       0.46999583 -0.52675134 0.039092295 -0.21874934
0000d0 5e 57 fd 3c 64 17 50 be 11 32 0d bf 26 71 96 be
       0.030925449 -0.20321423 -0.5515452 -0.293832
0000e0 5d c6 d9 be 99 b1 28 3c 60 2d 44 3e a3 cb 9e 3e
       -0.42534152 0.010296249 0.19157934 0.31014737
0000f0 64 71 b6 bd c7 23 8e 3e 88 6a 92 3e 38 59 e1 bd
       -0.08908346 0.2776167 0.28596902 -0.11003345

actor.2.weight f4 [64, 64]
000000 ee 2a f9 bd 5f 7e 99 3d fd f6 86 3e e6 34 30 3e
       -0.12166391 0.074948065 0.26360312 0.17207679
000010 be c2 a0 bd b0 98 6b 3e 46 69 a0 3e 1b ae 28 bd
       -0.07849644 0.23007464 0.31330317 -0.041181665
000020 ba c9 de 3d b9 52 e4 bd da b4 72 3e 10 5e 60 bd
       0.1087832 -0.111485906 0.23701802 -0.054777205
000030 54 c7 25 bc 42 e7 7a 3e e3 9d 3e 3e 42 9c dc bd
       -0.010118324 0.2450228 0.18614917 -0.10771991
000040 d6 25 88 3c b7 1e 66 3e 10 27 7b 3e 36 82 22 bd
       0.016619604 0.22472654 0.2452662 -0.03967496
000050 10 bb 37 be fe 8a 88 3e e6 fa dd bd aa 2e 6c bc
       -0.17942452 0.26668543 -0.10838871 -0.014415422
000060 b4 bc d9 3b d7 b0 1c bf c5 f3 71 ba e4 7f 8f be
       0.0066448096 -0.61207336 -0.0009229745 -0.2802726
000070 a3 b7 7c be 97 36 32 bd 6f ef 0d bd 33 97 dd 3d
       -0.24679427 -0.043509092 -0.03465217 0.108198546
000080 74 8f 94 be 04 cd 91 3e 1f 01 88 3d 9e 3f c5 be
       -0.29015696 0.28476727 0.06640839 -0.385251
000090 83 29 1f 3e 1b d4 0c 3d 6f 9c b5 3e fd cb 24 3c
       0.15543179 0.034381967 0.35470912 0.0100584
0000a0 8d c0 04 3d 74 26 28 bc 85 84 84 3e 0a d0 19 bc
       0.032410193 -0.010263074 0.25882354 -0.009387979
0000b0 b6 df 06 3d 83 4e a4 bb 29 9b eb bd df 28 63 3e
       0.03292819 -0.005014242 -0.11504204 0.2218356
0000c0 c1 e0 4e be 1b 99 fd 3d 68 f5 81 bc 8c 2c e0 be
       -0.20202924 0.12382718 -0.01586409 -0.43783987
0000d0 f0 6f b2 3c d8 72 8f bc e4 e1 c5 be e4 5a 0b 3e
       0.021781892 -0.017510816 -0.38648903 0.13608891
0000e0 3e 61 1c 3e 47 e1 51 be 31 f7 d6 3d ee 23 cd be
       0.1527147 -0.20496093 0.10496367 -0.40066475
0000f0 d4 6d ec bd b3 38 47 3e 0d 67 05 3e c0 06 69 3c
       -0.115443856 0.19455223 0.13027592 0.014222801
000100 1d ed 4f 3d ac c6 3b 3e 42 ce 22 bd 0e 14 b8 3d
       0.05076324 0.18337506 -0.039747484 0.089882
000110 d9 a9 3d be 97 46 8f 3d 8f 36 5f 3c 39 cc 2f 3d
       -0.18521823 0.06995886 0.013623848 0.04291937
000120 13 1d aa 3d 89 6f 77 3e b6 80 75 3d 06 71 b5 3c
       0.08306327 0.24163641 0.0599372 0.02214862
000130 de 92 99 bd 18 72 37 3e 6f 28 c9 3d 78 e8 03 be
       -0.07498716 0.17914617 0.09822165 -0.12881649
000140 79 ef ea bd d6 e2 88 bb 5f d5 61 3d ce 46 cd 3a
       -0.11471457 -0.0041774316 0.055135127 0.001566136
000150 90 e7 c1 3d 69 65 b6 ba dd cc 3a 3d bd 80 c8 3d
       0.09467995 -0.0013915721 0.04560553 0.0979018
000160 8a a8 91 3d aa a0 73 bd 5d b6 1e bd d4 43 12 bd
       0.071122244 -0.059479393 -0.038748134 -0.035709217
000170 19 70 f7 bd be db 44 3d eb ec 0e be 73 f6 7f 3e
       -0.12081928 0.048061125 -0.13957565 0.24996357
000180 86 9f de 3d 04 b8 4d 3d 20 db 60 be 2f 57 5a be
       0.108702704 0.05022432 -0.2195859 -0.2132232
000190 13 36 b9 3c bf c6 ed bd 4e 62 84 3d 85 48 06 3e
       0.022608792 -0.116101734 0.06464063 0.13113602
0001a0 71 80 60 be 5c 29 27 be 9c 07 25 3d b1 a1 c2 bc
       -0.21923997 -0.16324371 0.04029046 -0.023758741
0001b0 24 f4 49 3d 1b 32 b9 3d f5 86 f3 bb b4 6a 1a be
       0.049305096 0.0904276 -0.0074318596 -0.15079767
0001c0 a1 57 88 be 27 42 81 bc 31 9b 97 ba 7e e9 23 3e
       -0.26629356 -0.015778614 -0.0011566636 0.16007039
0001d0 29 5f d2 bd c6 a3 c4 3c e5 fb c6 3c 46 9b 24 3e
       -0.102720566 0.024003875 0.024290035 0.16074857
0001e0 65 de 26 bd 8f 9c 87 be c0 b2 43 3d 26 b1 a7 3d
       -0.040739436 -0.26486632 0.04777789 0.08188085
0001f0 94 da 3d 3e 38 63 2e 3e a1 91 38 3d cc 49 84 be
       0.18540412 0.17030036 0.045060758 -0.25837553
000200 5f e8 b0 3e 0d 41 1a be f0 2c 92 be c7 b8 af be
       0.34552285 -0.15063877 -0.2854991 -0.3432066
000210 16 60 34 3e e1 97 9e be ee 6c ca bc 72 79 18 be
       0.17614779 -0.3097525 -0.024710145 -0.14890078
000220 33 c0 f2 bc 1d e7 d2 bd e0 f6 78 be 6e 0b 4d 3d
       -0.029632663 -0.102979876 -0.24312925 0.05005973
000230 d8 13 5f bd 16 4b 88 3d a7 65 4b 3e 45 07 43 3d
       -0.054462284 0.066549465 0.19862996 0.047614355
000240 f4 54 a8 be 29 46 b3 bd 3e 67 89 bd 80 1d 5b bd
       -0.32877314 -0.08753616 -0.06709145 -0.05349493
000250 08 2c ee bd e8 8c de 3d 17 a9 59 3e db 77 d0 bd
       -0.11629492 0.108667195 0.21255909 -0.101791106
000260 b9 ae 14 3e fa 17 3d be 41 17 06 bd 74 b2 1f 3d
       0.14519776 -0.18466178 -0.03273702 0.038988546
000270 5b 40 90 3e 96 60 fb 3d 1d b2 19 3d 13 d1 4f be
       0.281741 0.12274282 0.037523378 -0.20294599
000280 8a 75 99 3e ad a7 19 3e 8c 0f e8 bd 62 31 63 be
       0.29972488 0.1500537 -0.1133109 -0.22186807
000290 f4 f6 82 be 8f c7 32 be 34 bb 3e be 8b 21 5c bd
       -0.25579035 -0.17458938 -0.186261 -0.053742927
0002a0 40 91 50 bd 3f ce 0a be 7f ca 2a be bd b6 8d bd
       -0.05091977 -0.13555239 -0.16678809 -0.0691962
0002b0 9a 81 b1 3e 7c ec 00 3d 11 ca 29 3e 36 b9 df bd
       0.3466919 0.03147553 0.16580988 -0.10923998
0002c0 08 24 ac 3d e7 1a a9 3b dd c2 d0 bc 2c 56 e2 3d
       0.0840531 0.0051606777 -0.025483543 0.11051592
0002d0 ee 62 26 bd 46 88 88 be ad 1e 01 3e db 97 98 3c
       -0.04062169 -0.26666468 0.12609358 0.018627098
0002e0 45 45 88 3e 36 20 9d bb bc 3e 94 be cd 0c a1 3c
       0.26615348 -0.0047950996 -0.28954113 0.019659424
0002f0 76 b3 6b 3d 19 d2 da 3c b4 14 fd bd 3c 63 b8 3b
       0.057544194 0.02671151 -0.123574644 0.005627064
000300 e3 58 9e 3d 0f 88 2f 3c 2a e2 8f bd 61 89 b3 be
       0.077317975 0.010713591 -0.07025559 -0.3506575
000310 3d 04 39 3e 35 41 83 3e b7 e3 f7 3d 47 4a 5c bd
       0.18068023 0.25635687 0.1210398 -0.053781774
000320 9e 20 b8 3d b0 e0 ae 3e 93 8e c6 bd 6f 87 a9 bd
       0.08990596 0.34155798 -0.096951626 -0.08277785
000330 c8 e2 cf 3c f6 60 01 be 8e c4 e3 bd 0d ff f8 bc
       0.025376692 -0.12634644 -0.11121474 -0.030395055
000340 2a 3a 5a 3c f8 74 8c 3d 09 31 00 3e 6f 94 81 3e
       0.013319531 0.068582475 0.12518705 0.25308558
000350 4a a8 17 3e 70 43 fc 3d f7 03 d5 bd 59 75 d4 3d
       0.14810291 0.1231755 -0.10401147 0.10373945
000360 53 c2 a7 be e0 86 f4 3d 22 47 67 bd b3 f9 50 be
       -0.32765445 0.11939788 -0.056464322 -0.20407753
000370 05 6a bb 3b 47 3d c8 3d 1b b4 14 3e 6c 25 58 3d
       0.0057194256 0.09777313 0.1452183 0.052770063
000380 84 d5 6a 3d 27 ba a0 bd 7c 59 09 bd d8 b7 7a bd
       0.05733253 -0.07848006 -0.033532605 -0.061210483
000390 65 00 98 3e 30 59 1b bd 6a 88 5a 3a c6 a2 9d 3c
       0.296878 -0.037926853 0.00083363673 0.019242655
0003a0 9f 9b e2 3d 6f e5 27 bd 0e 3f 6c 3c b3 72 10 3d
       0.110648386 -0.04099029 0.01441933 0.035265636
0003b0 22 f2 60 bd eb b6 d0 3b b3 ce f0 bd c3 13 23 3e
       -0.054918416 0.006369462 -0.11758175 0.15925507
0003c0 bc d7 84 bc 51 7a df 3c 7b b5 89 bd 51 a1 80 3d
       -0.016216151 0.027280005 -0.06724068 0.06280769
0003d0 67 f6 2b 3b 7e c2 f0 3a e8 6e 72 3e 74 9d f8 3c
       0.0026239397 0.001836851 0.2367512 0.030348517
0003e0 da 36 c2 3d f3 60 76 bd c7 b4 98 3d b8 2e 0b 3e
       0.09483118 -0.06015105 0.074563555 0.1359204
0003f0 8b 86 a1 3c 40 89 76 3d 47 ac 0e 3e 1d 97 58 3e
       0.019717475 0.060189486 0.13932906 0.21151395

actor.2.bias f4 [64]
000000 85 37 bd be be eb 74 bd b1 0a 3c be 9c 70 eb 3d
       -0.3695642 -0.059795134 -0.18363453 0.11496088
000010 fe 6b 5f be 98 74 a3 be 5e f9 a6 bd 62 38 b9 be
       -0.2181854 -0.3192489 -0.08153032 -0.3617583
000020 e0 a7 87 bd af af 3c be d1 57 c4 be fc fd 4c be
       -0.066238165 -0.18426393 -0.3834825 -0.20018762
000030 82 6b 67 be f3 7b 68 3b ee bf 02 be ad 28 a2 bd
       -0.22599605 0.003547427 -0.12768528 -0.079179145
000040 7d 14 87 be 2c e9 01 bf 2b 1d 77 be bb 0e bd be
       -0.2638282 -0.5074642 -0.2413222 -0.369253
000050 1f fc ef be 8c e6 8a be 59 2c 6e be 6e 43 aa bd
       -0.4687204 -0.27129018 -0.23259105 -0.083136424
000060 b8 bc b0 be bf 3c 03 bf eb 27 c0 be ab 05 65 be
       -0.3451898 -0.51264566 -0.37530455 -0.22365443
000070 74 9b b9 bd 38 36 88 be dd b2 71 3e 74 af d8 be
       -0.090628535 -0.26603866 0.23603387 -0.4232136
000080 47 95 b5 bd d8 b3 33 be a7 90 10 bf f5 45 cb be
       -0.08866363 -0.17549074 -0.5647072 -0.3970181
000090 a5 32 06 bf 83 eb 9d be 79 66 54 be c7 56 3d be
       -0.5242103 -0.30843744 -0.20742215 -0.18490134
0000a0 96 19 d0 be 22 26 8f be ee b5 d2 bd 68 ea 80 bc
       -0.4064452 -0.2795878 -0.102886066 -0.015736774
0000b0 6e ee 92 be 97 d1 eb be b3 9a 0f bd ef f8 10 be
       -0.28697532 -0.46058342 -0.035059642 -0.1415746
0000c0 f8 1e 96 bc b2 03 7a be ed 96 6b be 36 29 d0 be
       -0.018325314 -0.24415472 -0.23006792 -0.4065644
0000d0 40 02 8b be 58 db 75 be 77 81 90 be d8 db b2 be
       -0.27150154 -0.24009454 -0.28223774 -0.34933352
0000e0 6b 95 0b be 6b bf 83 be 37 04 53 be 7a 05 e5 be
       -0.13631217 -0.25731978 -0.20607077 -0.4473074
0000f0 db 7b a9 be 14 29 8a be 77 46 2e be 54 82 34 3d
       -0.33102307 -0.26984465 -0.17019068 0.044069603

actor.4.weight f4 [7, 64]
000000 ff da a3 3c c6 15 e5 bc 17 9f 15 3c 2b 4c 15 bc
       0.020001886 -0.027964484 0.009132168 -0.009112398
000010 40 06 ea 3d 66 e5 93 bc a2 5a dd 3d 7c 4f 70 bc
       0.11426973 -0.018053722 0.108083025 -0.014667388
000020 cb 30 95 bc e7 eb 81 3c a9 7a 1f 3c 5e 93 0b 3e
       -0.018211743 0.015859557 0.009733834 0.13630435
000030 be b8 47 3d 81 83 86 bc dd ef b9 bb 1c cc 9d 3c
       0.04876017 -0.016420128 -0.005674346 0.019262366
000040 e9 92 a6 3d b7 89 fb bd dd 8a 69 3c 82 30 92 bc
       0.0813349 -0.122821264 0.014254299 -0.017845396
000050 50 a2 68 bb d8 ca fe bc 28 a5 20 bd 8c d5 61 3e
       -0.0035497136 -0.031102583 -0.039220005 0.22054118
000060 14 e3 4b 3d d0 bf 32 3e 59 79 54 3d e6 57 8f bc
       0.049777105 0.17455983 0.05187354 -0.017497968
000070 45 5c e4 bc cb 0a ec 3d 21 d1 ce 3c 1d 17 4d 3e
       -0.027876029 0.11525496 0.025246205 0.20028348
000080 c4 16 13 3e d4 2c a2 bd f7 0b 01 3d d9 01 f8 bb
       0.14364153 -0.079187065 0.03150555 -0.0075685796
000090 79 79 02 be 54 81 83 bc f4 56 5f bd f3 4e 5e 3d
       -0.1274165 -0.01605288 -0.054526284 0.05427451
0000a0 3c 70 a9 3d 6c ea 2a 3e 05 02 f7 bd 69 1b af bc
       0.0827336 0.16690987 -0.12060932 -0.021375375
0000b0 a5 de 28 be a5 6d f0 3d 2e 33 5c 3d 37 44 8c 3a
       -0.16491182 0.11739663 0.053759746 0.0010701482
0000c0 eb 29 b6 3d cf 0d e8 3c 07 03 1a 3e 00 71 b0 bc
       0.08894714 0.028326897 0.15040217 -0.021538258
0000d0 f6 22 00 bd 83 93 d2 bb cc 25 8f 3d 68 89 a6 37
       -0.03128334 -0.006426276 0.06989631 1.9852727e-05
0000e0 2d b9 7a bd d3 37 0d be 96 7e 96 3c ab 57 00 be
       -0.061211754 -0.13790826 0.018370908 -0.12533443
0000f0 b5 42 95 3e 44 3c 40 3e 4e 27 eb 3d 3d cb 2e bd
       0.29152456 0.1877299 0.11482106 -0.042674292
000100 f5 17 54 3b b5 fc c0 bb a9 b3 a9 3c 3b ef 2c bd
       0.0032362912 -0.0058895 0.020715551 -0.042220335
000110 57 b5 b3 bd 99 65 e5 3d 7b 4e 3d bb 1a 35 87 3c
       -0.08774822 0.11201019 -0.002888589 0.016504813
000120 4e 74 bf 3b c4 bc f3 3b 80 4b b7 bd 48 be 1d be
       0.005842722 0.007438274 -0.08949947 -0.15404618
000130 52 5f 75 3c d3 36 01 bd 4e 46 c2 bd 85 5b 48 3c
       0.014976339 -0.031546425 -0.09486066 0.012228851
000140 1e 91 b7 bd 8d d3 62 be 46 ea 10 bd e5 0f 93 3d
       -0.08963226 -0.22151013 -0.03537967 0.07180766
000150 31 af 57 be 63 4e 0d bd 0f 98 d4 bc 11 32 d6 bd
       -0.21062924 -0.034498584 -0.025951413 -0.10458768
000160 d5 f6 83 3c a6 16 e5 bc e7 e1 45 bd 9d a6 f7 bb
       0.01610891 -0.027964901 -0.04831114 -0.0075577036
000170 67 d6 67 3d df be 43 3d fa 42 20 3e c6 45 41 3d
       0.056600954 0.04778945 0.1565055 0.04718568
000180 74 78 6d 3e 72 31 58 3d 62 9e 91 be 40 55 8c bd
       0.2319048 0.05278153 -0.2844115 -0.06852198
000190 50 91 39 be a1 c1 5f bd c2 74 89 bc 6b a9 de 3c
       -0.18121839 -0.05462802 -0.016779307 0.027180394
0001a0 e8 ba af bd 55 d7 97 be e0 1e 0f 3d 2b 29 a1 3c
       -0.085805714 -0.29656473 0.034941554 0.01967295
0001b0 96 7d 96 bc 87 70 9f bd 5a 6f 99 3d 60 e4 23 3c
       -0.01837043 -0.07785135 0.07491942 0.010003179
0001c0 88 6d 81 bd c3 cf aa bd ef a6 b7 3d d3 d1 49 3c
       -0.063197196 -0.08340409 0.08967387 0.012318092
0001d0 0a 6b c9 3d 79 17 4d be e1 66 e9 3b e1 79 d1 bd
       0.09834869 -0.20028485 0.00712286 -0.10228325
0001e0 ee ea 7b 3d cb 77 09 bd 27 7e 24 be 4a 23 d1 bd
       0.061503343 -0.03356151 -0.16063748 -0.10211809
0001f0 f2 e2 5c 3c 76 69 52 bd bd 80 b1 3d 5a 60 d6 3c
       0.013481842 -0.051370107 0.08667133 0.02616899
000200 61 26 43 3e 97 3e 16 3c 86 54 7a 3c 6b 8f d1 3b
       0.19057609 0.009170196 0.015278941 0.0063952706
000210 b0 1d cb bc 31 01 ec bc 6f 09 45 bb b1 ac 32 bd
       -0.02479443 -0.028809162 -0.0030065437 -0.043621723
000220 d1 72 93 3c 99 4a 9a 3d 2e 6e 1f be 34 50 ae bd
       0.017999085 0.075337596 -0.15569374 -0.08511391
000230 c3 07 9d bc 9a b2 fc 3c 39 d4 11 be a3 7f 7e bd
       -0.01916874 0.030846883 -0.14241113 -0.062133443
000240 d3 65 69 be fb e4 18 3c 36 00 89 bc b6 31 92 3d
       -0.22792749 0.009331937 -0.016723733 0.07138388
000250 8a 33 be 3d 3a fa 5b bd 3d 0f 0f be 88 50 07 3e
       0.09287174 -0.05370543 -0.13970657 0.13214314
000260 27 70 8a bd f6 64 2e 3e 0d 00 c4 3d 96 1c cc 3b
       -0.067596726 0.17030701 0.09570322 0.0062289936
000270 6b c0 21 bc ae 8f e5 bd 24 92 46 bd 9c 0c 94 3e
       -0.009872536 -0.11209045 -0.048479214 0.2891587
000280 88 0a 9b 3d fa d2 f3 bd a2 03 1f 3c 52 3e a2 bd
       0.07570368 -0.11905475 0.009705456 -0.07922043
000290 61 64 0c 3b b9 b6 0f 3d 09 22 c6 bd 5b 01 ba bd
       0.0021422135 0.035086367 -0.096744604 -0.0908229
0002a0 71 71 e4 3d 75 05 70 3e af e4 c9 bd 0d e7 1d 3d
       0.1115445 0.23439582 -0.09858071 0.038550425
0002b0 21 e5 2a 3e 52 64 9a 3d 36 fe dc 3b da 1e 3f bc
       0.16688968 0.07538666 0.0067441715 -0.01166507
0002c0 d5 4e 67 bc 4a e0 9a bd 26 26 19 3e b0 02 18 3d
       -0.014117916 -0.07562311 0.14955959 0.037111938
0002d0 e9 1b 99 bd f7 fc 33 be 7c 0d e0 3c 2c e4 47 3e
       -0.074760266 -0.17576967 0.02735018 0.19520634
0002e0 f1 75 60 bd 5d fa b4 3d 07 24 9e bc 69 96 85 be
       -0.054799978 0.088368155 -0.019304289 -0.26091316
0002f0 d4 93 42 3e 4b 2a c4 3e d8 69 bc bb 69 1e ca bc
       0.19001704 0.38313517 -0.0057499222 -0.024672704
000300 96 73 c2 bd cc d2 2e bc a8 a9 9d bd 05 79 3d bd
       -0.094947025 -0.010670375 -0.07698375 -0.04625799
000310 f8 17 db 3a d4 d2 ce bc 56 7c 4c 3e 1e 32 ce 3d
       0.0016715517 -0.025247015 0.19969305 0.10068153
000320 ed a5 b8 bc c8 55 74 bc 71 38 b7 3d 83 47 2c 3b
       -0.022540057 -0.01491303 0.08946312 0.0026287741
000330 94 52 3f bd 30 c5 00 bd 14 67 8f be 55 91 14 bd
       -0.046709612 -0.031438053 -0.2800833 -0.036271412
000340 7c d0 c4 3c f5 3a 3b bd 47 b6 54 3b 75 24 0c 3c
       0.024025194 -0.045710523 0.0032457279 0.008553614
000350 15 61 8a 3c fa 00 bd 39 6e 82 60 3d dd 58 bb bc
       0.016891995 0.00036049617 0.054811887 -0.022869522
000360 eb 47 fc bb f6 92 cc 3d ce 0c 22 3e 69 c3 ad 3c
       -0.007699003 0.09988968 0.15825197 0.021211343
000370 58 74 98 bd 54 bb 02 3e 04 d1 82 bb 6d 96 ab 3c
       -0.07444066 0.12766773 -0.0039922018 0.020945752
000380 b8 58 32 be 75 f9 ee 3c 88 74 4f bd 10 0a 71 be
       -0.17416656 0.029171685 -0.050648242 -0.23538995
000390 69 2e dd 3d 6d d4 3c 3b d7 d7 f7 bd 44 a5 73 3d
       0.10799868 0.002881314 -0.12101715 0.05948378
0003a0 71 94 05 be 0e 0a 2a bd bf aa 17 be 5d 87 7e 3c
       -0.13044907 -0.041513495 -0.14811228 0.015535203
0003b0 17 6e 7f bc 31 e0 00 be ec 55 59 3c 5f 04 a7 3d
       -0.015590212 -0.12585522 0.013265114 0.081551306
0003c0 67 a3 bf bd 96 ca 3d be 25 a5 c2 bd 9f 1d e7 3b
       -0.093573384 -0.18534312 -0.09504155 0.0070530917
0003d0 08 83 aa 3d c4 00 dd 3b 9b 78 42 be 5a 6f fe bc
       0.083257735 0.006744476 -0.1899132 -0.031058956
0003e0 01 69 cf bd 87 86 8c bd 1a 1d 0b 3d 11 d5 84 be
       -0.1012745 -0.068615966 0.0339633 -0.25943807
0003f0 56 fe 63 3c 97 78 50 3e b3 7f 87 bc 2e 9e e6 3c
       0.013915619 0.20358501 -0.016540384 0.028151598

actor.4.bias f4 [7]
000000 47 c4 68 3d 9e b2 42 3e 59 87 36 be 83 2e 13 3e
       0.05682781 0.1901345 -0.17825069 0.14373212
000010 75 52 47 3e 4c d9 8a be 9f 29 de 3d
       0.19465049 -0.2711891 0.10847782

critic.0.weight f4 [64, 32]
000000 84 eb 5c be 63 fb aa bd 31 7c 82 be 3d bd 71 3e
       -0.21574217 -0.083487295 -0.25485376 0.23607345
000010 c3 bb fc bd 7d 7b 4e 3d ee 88 95 be 80 65 0a 3e
       -0.123405 0.050410736 -0.29206032 0.13515282
000020 96 a7 dd bc 9b bf a1 bc b0 aa d0 3c bf f7 0d 3d
       -0.02705745 -0.019744685 0.025472015 0.034660097
000030 bb c8 7d bb 18 0d d8 3c 8f e2 75 3b 23 e3 34 bc
       -0.003872438 0.026373431 0.0037519073 -0.011040482
000040 f7 20 f1 3d dc 68 6d 3d d4 d7 bb bb fe 7f 84 3f
       0.11773866 0.05796133 -0.005732516 1.035156
000050 08 d9 f9 3e 3c e7 34 3d d0 58 23 be 37 6f e1 be
       0.48798394 0.044165835 -0.15951848 -0.44030163
000060 fb 8c fd bd 63 57 56 3d d3 b1 bc bc d3 5d d2 bd
       -0.123804055 0.052329432 -0.023034012 -0.10271802
000070 03 84 45 bd ec 59 b8 bd 91 1f de bc 43 4e 70 3c
       -0.0482216 -0.09001526 -0.027114661 0.014667097
000080 85 87 54 bd fc 8e aa 3d f8 45 08 3e bd 44 f4 bc
       -0.051887054 0.08328053 0.13307941 -0.029817933
000090 fc 77 2c 3e 4e 87 93 3d e5 4e 62 3e 22 a6 36 bd
       0.16842645 0.07203542 0.22100408 -0.04459203
0000a0 31 3c 65 bc ba 59 e4 ba 73 e5 b9 bc 5e 5f 60 bd
       -0.0139914015 -0.001742176 -0.022692418 -0.05477845
0000b0 be 77 f5 37 b4 34 6a bd 34 21 a5 bd b6 ea c4 3c
       2.9262035e-05 -0.057179168 -0.080629736 0.0240377
0000c0 95 27 8a 3b b6 d2 79 3e 75 f3 a5 3d c7 08 78 bf
       0.0042161443 0.24396786 0.08103076 -0.96888393
0000d0 65 14 51 3b 39 a1 8d 3d 20 f6 4c 3e cd 21 1e 3e
       0.0031903025 0.069155164 0.20015764 0.15442581
0000e0 75 ca 1c bc 76 28 38 bd 67 d7 90 3d a1 87 21 3d
       -0.009569754 -0.04496046 0.07072335 0.039435986
0000f0 40 7c 78 3c 26 fb 25 3d 61 21 5a 3d 4a 89 41 bd
       0.015166342 0.040522717 0.05325449 -0.04725007
000100 0d ac 74 bd 2c 11 1c 3e 36 35 0d be c0 14 9d bd
       -0.059734393 0.15240926 -0.1378983 -0.076699734
000110 d4 81 da 3d fe 16 d1 bd ea 70 ed bd e8 66 3b bd
       0.10669294 -0.102094635 -0.11593802 -0.045752436
000120 cd f9 81 3d 34 93 c4 bd ba 09 ee 3c 3c 78 5a bd
       0.06346474 -0.09598389 0.029057372 -0.05333732
000130 8b 2a d3 bc 5f 29 79 3d 51 aa 25 bd e0 76 a6 3d
       -0.025777122 0.06083047 -0.04044563 0.08128142
000140 5b f0 29 3e e9 22 66 3c d1 bc 5a be 13 c7 0f bf
       0.16595595 0.014046409 -0.2136109 -0.5616314
000150 24 9d 40 3d 0c 46 60 3d 0c 48 42 3c 4b 36 82 bd
       0.04702486 0.054754302 0.011857998 -0.06358012
000160 d6 e8 b3 bd 7e 57 27 3d 0f 3c 47 3d bc b5 30 bd
       -0.08784644 0.040854923 0.04864126 -0.043142065
000170 0e ac c3 3d 36 df 61 bc 0f a8 cd 3c 29 8f 60 bc
       0.09554301 -0.013786128 0.02510455 -0.013706007
000180 38 1f 5f be 64 4a 70 3d 2d 4a fe bd 7c 2d a1 be
       -0.21789253 0.058664694 -0.12416492 -0.31480014
000190 15 13 8a 3d dd 09 bc 3d 34 b8 c8 3d b5 a3 50 3e
       0.06741921 0.09181569 0.09800759 0.2037495
0001a0 37 bd 4e 3d 1c e8 30 bd 4b 4d b7 3c 41 5c 52 bd
       0.050473418 -0.043190107 0.022375723 -0.05135751
0001b0 ab 9e 6b bb e3 f0 9e 3c 3a 79 24 bc 73 a1 d6 bc
       -0.0035952728 0.019401973 -0.010038668 -0.026200032
0001c0 f2 84 33 bd a0 96 02 3e 97 f7 92 be b0 0f 75 bf
       -0.04382796 0.12752771 -0.2870452 -0.9572706
0001d0 9d 84 d2 bd 26 c8 fd bd f4 a5 83 bf db 88 5f 3e
       -0.102792 -0.12391691 -1.028502 0.2182955
0001e0 fa 42 25 3e 86 df bd bc 71 dd a0 bc dc 4a a2 3c
       0.16138831 -0.023177873 -0.019636841 0.019811086
0001f0 14 c3 88 bd 9b ec 3c bd 0b 50 3b 3d f3 58 7e 3d
       -0.06677833 -0.046124082 0.04573063 0.062096547
000200 4c b8 93 be 0c b2 b0 bd ef 66 a6 bd ac b2 4e 3e
       -0.28851545 -0.0862771 -0.08125102 0.20185345
000210 ff 51 d5 3e de e9 3a 3d a8 8c 77 3e ce 4f b2 3d
       0.4166412 0.04563319 0.2417475 0.08706628
000220 2c 62 7c 3c 1b 5d a9 bc 03 42 e2 bc 08 a2 1e bc
       0.015404265 -0.020674279 -0.027619367 -0.009682186
000230 2d 61 8e bc e3 03 ca ba 6f c6 11 3c 6d 9f cd bc
       -0.017380321 -0.0015412535 0.008897408 -0.025100434
000240 a8 14 f1 bc c4 0d d1 3d b7 a5 cc 3e 34 35 3a bd
       -0.029428795 0.10207704 0.3997018 -0.045460895
000250 1f 80 6a bd 70 1d 24 3d 3d d5 1b bf 1b 94 94 3e
       -0.057251092 0.040067136 -0.6087225 0.29019246
000260 89 47 11 be 2d 97 09 39 51 e0 bf 3c 7e 5f 39 bd
       -0.14187445 0.00013121656 0.023422392 -0.045257084
000270 60 ce 0d 3d 31 7d 73 bb 20 c5 0a bd 76 2f 8c 3d
       0.034620643 -0.0037153477 -0.0338794 0.0684499
000280 3f 25 4a bd e6 5c a1 bd 9a 33 c2 bd 80 b0 ad bd
       -0.049351927 -0.07879047 -0.094824985 -0.0848093
000290 57 63 8d 3d f7 54 0d 3e 5e a6 9b bd 37 88 97 bd
       0.06903713 0.13801943 -0.076000914 -0.07399028
0002a0 b6 55 d0 3d 3b 07 42 3d 0d ae f7 bc 52 33 cb 3c
       0.10172598 0.047370177 -0.030234361 0.024804745
0002b0 eb 20 55 bc 95 26 fe bb 4c 55 c2 bb c3 75 c2 3c
       -0.013008337 -0.007756064 -0.0059305783 0.023737794
0002c0 a2 7f 09 3e 0b a8 19 bd f3 e5 ec be 49 39 5f be
       0.13427594 -0.037513774 -0.46269187 -0.21799196
0002d0 2c 68 ac be 3a c9 1a be 7a 06 0f 3f b2 87 d0 3e
       -0.33673227 -0.15115824 0.5586926 0.40728527
0002e0 48 ab 91 3d 19 e2 11 bd 54 5a 9a 3d cc a1 26 3d
       0.071127474 -0.035616014 0.0753676 0.040681645
0002f0 9d 29 cc 3b 85 84 64 3c eb 6a d1 3c a6 3d a9 bd
       0.0062305466 0.013947611 0.025563678 -0.08263712
000300 e7 df 2a 3e 86 21 64 3e ae 54 8f 3d db 18 0b be
       0.16686974 0.22278413 0.06998573 -0.135837
000310 91 b6 07 bd b7 71 0f 3d 21 04 3b be 4e c8 2a be
       -0.033133093 0.035020556 -0.18263294 -0.16677973
000320 6a bf e9 3c 06 e8 56 3d a0 48 13 bc a8 76 ec 3c
       0.028533656 0.05246737 -0.008989483 0.028865173
000330 66 c8 c9 bc 77 c2 b2 3b 40 ce 06 bc 7d 84 3b 3c
       -0.02463169 0.005455311 -0.008227885 0.011445162
000340 29 7a 53 3d be 61 90 bd ec f4 88 3e f5 87 23 c0
       0.051630173 -0.07049893 0.2674936 -2.5551732
000350 25 a4 5e 3d e7 11 11 3e 63 b8 42 bf 51 ce 16 3e
       0.05435576 0.14166985 -0.760626 0.14727141
000360 b3 5c 1e bd 4d f7 1f bd 9a bb 3e 3d 6d 1b 57 3d
       -0.038662624 -0.039054204 0.04656563 0.05251639
000370 fd 12 90 3b 26 e0 28 bc 68 bb 9f 3c 1f 9e 3f bd
       0.004396795 -0.010307347 0.019498542 -0.046781655
000380 ce 32 26 3d fc cc e0 3d 90 35 54 bd a8 59 47 be
       0.040575795 0.10976598 -0.051808894 -0.19467795
000390 35 67 29 be ae 45 80 be 09 6f 1e be 06 35 14 3e
       -0.16543277 -0.2505316 -0.15472044 0.14473352
0003a0 7d 79 af 3d bd e8 39 bd 42 f2 03 3d 88 c9 d6 ba
       0.08568094 -0.045387972 0.032213457 -0.0016386965
0003b0 4b 97 53 3c 37 64 92 3c 73 78 ca 3b f4 c7 d8 3b
       0.012914489 0.017870052 0.0061789094 0.006615633
0003c0 1d f4 16 be 88 37 a4 bd 11 65 3d 3d d1 9b 49 3e
       -0.1474156 -0.08018404 0.046238963 0.19688345
0003d0 c6 08 d0 bd a4 47 02 3e 8f 14 09 bf d8 8c ed bc
       -0.101579234 0.12722641 -0.53546995 -0.028997824
0003e0 d7 e7 07 3e c5 f7 97 bd 57 8e 80 bd c9 8c 11 bd
       0.13272034 -0.07420305 -0.06277149 -0.035534654
0003f0 ed 9c 47 3b 0f 4a 1a bd c8 45 ce bc 18 d1 8c bc
       0.0030458525 -0.037668284 -0.025179759 -0.017189547

critic.0.bias f4 [64]
000000 d1 fb 58 3e 82 17 35 be b8 40 86 bd 99 59 07 be
       0.2118981 -0.17684749 -0.06555313 -0.13217773
000010 ad 17 84 bc f7 fa 0c be aa cb b5 39 f1 1b 5c 3d
       -0.01612457 -0.1376761 0.00034674752 0.053737585
000020 0d f4 2d bd 3f 5b cf bc 0d e9 d7 3d 48 c0 2c 3d
       -0.042469073 -0.025312064 0.10542498 0.04217556
000030 f1 7e 77 bd 17 8c 4a bd 61 63 cb 3d 56 74 2d 3d
       -0.060423795 -0.049450006 0.099310644 0.042347275
000040 bc 92 c4 bd 3a ea 52 3d e3 ba e0 3c a1 fa 0c 3e
       -0.095983 0.051492907 0.027432865 0.13767482
000050 91 23 81 3e f1 29 eb bd 41 85 07 3e e7 52 72 bb
       0.25222448 -0.11482609 0.13234426 -0.0036975683
000060 f3 a9 f3 3c 70 3e 0d bd c0 4f 16 3d 07 d2 b9 3b
       0.029744124 -0.034483373 0.03669715 0.005670789
000070 60 ef 34 3d df c7 1c 3e eb ca d5 bd b8 f5 97 3d
       0.0441736 0.1531062 -0.10439094 0.07419914
000080 a6 36 f0 bd e5 da 96 bd 5b fa 24 3d 1f 70 00 be
       -0.11729173 -0.073659696 0.04027782 -0.12542771
000090 17 e0 07 bd 3f 18 87 3e 87 81 d2 bd ad c2 aa 3c
       -0.033172693 0.26385686 -0.10278612 0.020844782
0000a0 02 32 8a 3d 44 a5 a9 3d dd c8 98 3d b7 08 5a be
       0.067478195 0.08283475 0.07460187 -0.21292387
0000b0 4c b8 56 be 2f 58 12 3e 27 13 c3 bd a3 02 32 be
       -0.20968741 0.14291452 -0.095251374 -0.17383818
0000c0 3b 88 ce 3c 1b 55 0a bd 99 9f 21 be de 06 1b be
       0.025211444 -0.03377257 -0.15783538 -0.15139338
0000d0 16 27 0f 3e 66 5a cc bd 56 2f fa bd a0 cf b2 bd
       0.13979754 -0.0997818 -0.1221606 -0.087310076
0000e0 60 14 23 3e c2 78 61 bd 6a 42 cf bd bf 86 99 bc
       0.15925741 -0.055046804 -0.10120089 -0.01874101
0000f0 d4 b9 11 bd 13 cf a6 3d 2c 6f dd 3d 17 22 8f bd
       -0.03557761 0.08144965 0.1081222 -0.06988924

critic.2.weight f4 [64, 64]
000000 1e 46 65 bd 35 a9 7f 3c ec a8 93 3d 70 d8 18 3a
       -0.055975072 0.015604307 0.07209954 0.00058305915
000010 ff 48 d3 bc 3a 46 3f 3d fe 34 f2 3d 44 b9 d5 bd
       -0.025791643 0.046697833 0.11826514 -0.10435727
000020 ef 8c 14 be 36 da af be 2c 56 63 be 44 fd a2 3e
       -0.14506887 -0.3434617 -0.2220084 0.3183385
000030 0d e3 51 bd 85 d2 14 3e 9a 85 5d be dd 43 82 3d
       -0.051241923 0.14533432 -0.21632996 0.063606
000040 d0 13 3f be 54 64 12 3f c3 ca 0f bf 57 73 9b be
       -0.18659902 0.5718434 -0.56168765 -0.30361435
000050 4d 64 2b bf 9f 83 07 3f d2 ff 88 bd f9 d9 49 be
       -0.6694992 0.5293521 -0.06689419 -0.19712056
000060 9b 7a ae bd 6a 43 85 3e ff d4 2d 3e ec 2c 1a be
       -0.08519479 0.26027995 0.16975783 -0.15056199
000070 af c8 2b 3d 5f 0b 8c 3e 7b 90 3e 3e 12 a0 47 be
       0.041939434 0.27352425 0.18609802 -0.19494656
000080 5b 24 93 3c c0 5e e2 3d ab ff ba 3d f1 a0 9f 3c
       0.017961672 0.110532284 0.09130796 0.019485923
000090 78 d0 87 be 2d 3f ad be 53 67 b4 bc dd d8 02 be
       -0.26526237 -0.33837262 -0.022021925 -0.1277804
0000a0 55 21 95 3d e0 fa 68 3e 85 d7 19 be 20 83 0a 3e
       0.07281748 0.22751951 -0.1502362 0.13526583
0000b0 bc e8 64 3d 3c fc c6 bd 7c cd 15 3e fb 15 d8 3e
       0.055886015 -0.09716079 0.14629167 0.4220427
0000c0 cb a0 d9 be b8 f2 59 3c 36 22 17 bd 54 01 04 3f
       -0.42505488 0.013302498 -0.03689786 0.51564527
0000d0 a8 fa 3b be 90 cc 4d 3c d3 76 cb bd 6a ab 1c 3c
       -0.18357337 0.0125609785 -0.09934773 0.009562353
0000e0 bc 52 91 be 1e ee 52 bd d0 a2 bd 3b 92 86 e2 3a
       -0.28383434 -0.051496617 0.005787231 0.0017282537
0000f0 14 f1 6a be bd 86 95 bd 15 b5 f4 bc 85 6b f4 bd
       -0.22943527 -0.0730109 -0.029871503 -0.1193457
000100 35 01 9d bd ab 29 bd bd bc 05 e1 3c 2e 12 45 3d
       -0.07666246 -0.09236463 0.027468555 0.04811304
000110 e9 a1 40 bc 24 44 8f 3d 20 6b 07 3c b9 12 3e bd
       -0.011757352 0.06995419 0.008265287 -0.046404574
000120 c5 40 cd bd c6 d7 4d bc 4e cc 0c 3e 7f c2 dc 3d
       -0.100221194 -0.012563651 0.13749811 0.10779285
000130 06 d3 fe 3d f4 63 fb ba 02 a6 b2 3d 1e b1 74 3b
       0.12442593 -0.0019179569 0.0872307 0.0037337015
000140 59 ff 16 3e ff d4 54 bd ab c2 14 3c 2f 09 09 be
       0.14745845 -0.05196094 0.009079616 -0.1338241
000150 df 36 e0 3b 1f 29 a1 3d bd 52 42 bd 54 f5 cb 3c
       0.0068424786 0.07869171 -0.047442187 0.024897255
000160 4d 2c f8 3d 7c 91 aa 3d ad 30 87 3d f9 86 81 3d
       0.12117825 0.0832853 0.06601081 0.06324572
000170 c2 1f d4 3d 74 0a aa bd 48 fa 77 3d 8b e1 34 3d
       0.1035762 -0.08302775 0.06054142 0.044160407
000180 3d 04 42 3d dd d4 1d be d1 72 3e 3d 6e bf 11 be
       0.047367323 -0.15413232 0.046496216 -0.14233181
000190 12 2d bb bd 35 21 23 bd 5e 0b 5f 3d 0b b9 05 3e
       -0.09139456 -0.03982659 0.0544542 0.1305887
0001a0 a9 43 2d 3d ca 21 eb 3c 67 4a db 3c 2f 3b 0e 3e
       0.042300854 0.028702635 0.026768876 0.13889764
0001b0 15 d3 86 3d b2 94 82 bd dd 00 1b 3c 2b e3 14 3d
       0.065832295 -0.06376018 0.009460655 0.036349457
0001c0 37 0f 9f bc ac fc 33 3c 2a 88 35 3d c1 73 f5 bc
       -0.019416435 0.010985535 0.04431931 -0.029962422
0001d0 7a c0 7b bd 7c 20 1e be 71 44 9f bb db 45 d4 bc
       -0.061462857 -0.1544208 -0.004860454 -0.025912216
0001e0 3a 72 71 3d 34 06 78 3c e2 eb 2e bc db 3b cd 3d
       0.058946826 0.015138198 -0.010676356 0.10021182
0001f0 10 e1 ae 3d 51 54 84 3d db ea ba 3d 5e 75 b3 3d
       0.08539021 0.064613946 0.091268264 0.087626204
000200 17 1a 8d 3d ea f4 91 3d 13 e8 00 bc fb 61 cb bd
       0.06889742 0.07126792 -0.007867831 -0.09930798
000210 6f b9 8f 3d 03 b2 36 3b 2f 00 8f bd c0 28 e5 3d
       0.070177905 0.00278771 -0.06982457 0.11189413
000220 5a 9c a6 bc 48 ca 34 3d 9c c0 4d bd b8 24 79 bd
       -0.020338226 0.044138223 -0.050232515 -0.060826033
000230 9a 92 b3 bd e8 8d 7d 3d 3e 71 45 bc 15 86 d4 3d
       -0.087681964 0.06190291 -0.012050925 0.103771366
000240 11 3e 86 3d 9c 42 0a 3e 57 ca 37 3d e6 03 32 3d
       0.06554807 0.13501972 0.0448707 0.04346075
000250 3f 54 27 3d 41 d0 b1 bd c6 b5 63 bc 23 e4 98 bd
       0.040851828 -0.086822994 -0.013898319 -0.074653886
000260 d1 61 10 bd fe 51 d7 3d 00 01 e2 b8 6b 60 8e bd
       -0.035249535 0.10513686 -0.00010776706 -0.06951984
000270 58 bd af bc 14 9c ee 3d 58 09 8e 3d dc a8 c5 3c
       -0.02145259 0.11650863 0.06935376 0.02412837
000280 9b d3 1c bc e9 81 83 bd 15 0d 96 3d fd 02 f7 bc
       -0.009571935 -0.06421263 0.07326714 -0.030152792
000290 ed a0 b7 3d 9d be aa 3d 85 41 54 3d a7 70 61 3c
       0.08966241 0.08337138 0.051820297 0.013759769
0002a0 10 48 13 bd 29 33 83 bd 84 65 33 bb 8e 3e 43 bd
       -0.035957396 -0.064062424 -0.002737374 -0.04766708
0002b0 2e 94 cc bd 70 c7 65 bc 6a 8e 52 bd 37 99 e7 bd
       -0.099892005 -0.0140246 -0.051405348 -0.1130852
0002c0 2f c5 0f bd ce a5 e4 3d 4c f3 a8 3d df 3f a9 bd
       -0.03510016 0.11164437 0.0824953 -0.082641356
0002d0 74 10 c9 3d a5 a3 89 3d d2 d1 07 3e e5 8a 53 3c
       0.09817591 0.06720666 0.13263634 0.012911533
0002e0 ce 47 11 3d 6f 86 85 3c 82 4f 4e 3d 42 cb af bc
       0.03546887 0.016299454 0.050368793 -0.021459226
0002f0 bb 73 cb 3d 6c fe 9a 3d 47 05 78 3d 96 7a 9a 3b
       0.09934183 0.07568058 0.060551908 0.0047143204
000300 9b 73 88 bc 29 a5 cc bc bf 81 82 3c fe 93 83 bc
       -0.016656687 -0.024981098 0.015931008 -0.01606178
000310 2a 52 e0 bc 4e 50 b0 bd 64 e2 1f 3d 21 a8 98 3d
       -0.027382929 -0.08609067 0.039034262 0.07453943
000320 e1 6e f2 3c 0a 0b cb 3d f8 f6 16 bd ad 9c 93 3d
       0.029593887 0.09914215 -0.03685662 0.07207618
000330 bc c8 80 bd 8d 8a d9 bd a0 51 06 3e ee 88 81 3d
       -0.06288287 -0.106221296 0.13117075 0.063249454
000340 3f 0c 45 3c b7 dd 72 bc c9 be 90 3c e8 3c f1 3d
       0.0120268455 -0.014823369 0.017669098 0.11779195
000350 9f 57 a5 bb 67 c4 23 3e b4 44 3d 3d 8c ca 8e 3d
       -0.0050458456 0.1599289 0.0462081 0.069722265
000360 8b 63 a2 38 bf 71 9d bd a4 21 cd 3c 9d 8e a7 bd
       7.743303e-05 -0.07687711 0.025040455 -0.08181498
000370 41 2f c5 bd df 6f 1f bc 39 44 31 bd f8 f1 8d 3d
       -0.096281536 -0.009731262 -0.043277953 0.069309175
000380 6e 7f a5 bc e4 30 54 bd 31 1b 9b bc 3b 4b f5 3c
       -0.020202365 -0.05180444 -0.018933864 0.0299431
000390 74 90 e5 3d 75 73 cc bd 7c 52 bb bc bf d1 3e bc
       0.11209193 -0.09982959 -0.02286648 -0.011646687
0003a0 f1 8a e8 3d 1e 3c 2b bd 6d fb ac bb a3 43 00 3d
       0.11354626 -0.04180538 -0.0052789957 0.031314503
0003b0 aa a0 7a 3c 69 9f 9d bc 19 25 17 3c 02 ae 58 3d
       0.015297094 -0.019241052 0.009225153 0.05290032
0003c0 b6 da bd bd ee 34 17 3e ab d7 a9 3d 62 96 d9 3c
       -0.092702314 0.14766285 0.082930885 0.026560966
0003d0 5e 20 de bd 16 92 4d 3a 4b ff 31 bd ac 51 bf bc
       -0.10846017 0.0007841898 -0.043456357 -0.023354374
0003e0 8b ae e3 3d 7d 98 00 bb 68 2d a7 bd 15 40 fb 3d
       0.11117276 -0.001962214 -0.081629574 0.12268082
0003f0 5a bc 92 3c c7 1b 3e bd 62 2e f2 bc fd 90 9d bd
       0.017912079 -0.04641321 -0.029563133 -0.0769367

critic.2.bias f4 [64]
000000 60 57 45 3c 81 64 8f bd d3 e8 d3 bb 5d c9 01 be
       0.012044758 -0.070015915 -0.006466964 -0.1267447
000010 35 a3 a2 3d 5c 74 07 bd 28 fa 1b bd fd 53 0c 3e
       0.079412855 -0.033069953 -0.038080364 0.13703914
000020 06 25 3b 3e 6e 30 89 3d b4 03 d8 3c af d3 7d be
       0.18275842 0.0669869 0.026368953 -0.24787782
000030 c6 94 d5 bd 14 15 f6 3c 49 07 a3 3c b9 a1 04 3e
       -0.10428767 0.030039348 0.019900935 0.12952317
000040 39 c5 c0 3d 84 47 05 be a5 56 ac bd dd c3 73 3d
       0.09412617 -0.13015562 -0.08414964 0.05951296
000050 98 c2 cd bd 58 18 a4 bd 9f 99 6a 3c c0 d1 0a bc
       -0.100468814 -0.08012456 0.014318853 -0.00847286
000060 26 7b ac bd c9 57 8f 3c 47 24 3c be f3 09 9a bc
       -0.08421926 0.017497914 -0.18373214 -0.018803572
000070 3e 2b af bd 84 a5 72 ba e7 75 a9 3d 28 f2 35 3d
       -0.0855317 -0.0009256231 0.08274441 0.04442039
000080 81 85 43 bc 57 3d 38 3e bf 2a d3 3d 73 36 e0 3d
       -0.011933685 0.1799215 0.103108875 0.10947885
000090 f9 dd 92 bc 47 59 5b bc 05 47 47 be d6 15 d5 bd
       -0.01792811 -0.013387985 -0.19460686 -0.104045555
0000a0 2d 3e 60 be 0f e9 f7 3b 7a b2 a5 3d 12 47 5d 3e
       -0.21898718 0.0075656245 0.08090682 0.21609142
0000b0 d2 0d 4a 3d 96 0f a7 bd 9b 0e 98 3d 1f 6c 2a 3b
       0.049329586 -0.0815727 0.07424661 0.0026004387
0000c0 30 ed 02 3e fd a7 86 bd 92 21 f9 3d c6 c6 05 3d
       0.12785792 -0.0657501 0.12164606 0.03266027
0000d0 68 79 96 bc 56 f0 96 bd 38 07 ef 3c 3f 60 f8 bc
       -0.018368438 -0.07370059 0.029178247 -0.030319331
0000e0 90 e2 cf bd 3b 5f b4 bd 1b 3c 00 bd f8 13 9c 3c
       -0.10150635 -0.08807226 -0.03130732 0.01905249
0000f0 bd a9 e0 bd a9 9c 3f bd d2 05 77 bd 39 54 86 3c
       -0.10969875 -0.046780262 -0.060308285 0.016397582

critic.4.weight f4 [1, 64]
000000 dd 97 a5 bd 02 c1 46 ba d6 8d e9 38 88 78 8c 39
       -0.08085606 -0.0007581861 0.00011136725 0.00026792684
000010 5b 94 c7 b9 52 8a 47 ba 71 de e6 b9 8f ca 53 39
       -0.0003806677 -0.0007611859 -0.0004403475 0.00020197987
000020 be 25 f2 bc 05 04 0c 38 ed 85 0f ba b0 d0 05 3e
       -0.029559013 3.3382345e-05 -0.00054749736 0.13067889
000030 cd f6 c8 ba 16 35 15 b9 10 b3 a9 3a cd e2 a3 bd
       -0.0015332341 -0.00014229523 0.0012947042 -0.08002243
000040 87 0e b4 b9 cd 2c 09 3e e2 c8 39 ba 4d fb 04 ba
       -0.000343431 0.13395996 -0.0007087124 -0.0005072847
000050 fe 08 b8 b8 18 ea e5 3a b8 5d 25 3d 2f a7 66 b9
       -8.775479e-05 0.0017541079 0.04037258 -0.0002199679
000060 28 e6 28 bb 5e d0 fc 3a 79 8e c3 3c 0b 88 d7 38
       -0.002577195 0.0019288172 0.023871647 0.00010277339
000070 d5 4f b6 3a ee 08 7b 3a 27 47 ce ba 05 36 32 3a
       0.001390929 0.0009576221 -0.0015737758 0.00067982107
000080 d8 d6 c8 3a a2 52 be bd ca 27 8e ba da 0f 2a 3a
       0.0015322817 -0.09293105 -0.0010845598 0.00064873474
000090 cb c2 0d b6 73 97 c8 3a 1c 76 47 bd 38 81 d7 b9
       -2.1124022e-06 0.0015303924 -0.048696622 -0.0004110427
0000a0 2a 38 88 3d d7 01 97 3b c0 43 36 b9 ac 77 18 be
       0.066513374 0.0046083736 -0.00017382111 -0.14889401
0000b0 50 fc 61 ba 63 44 f9 3d 5e a5 99 ba 9a e2 a9 ba
       -0.00086206663 0.12171247 -0.0011722257 -0.0012961209
0000c0 53 d8 04 bd 01 82 a1 ba c8 43 02 ba f8 5d 12 3b
       -0.032432865 -0.0012322069 -0.00049692066 0.0022333842
0000d0 fd bb 0b bb 4c b5 b5 ba 85 70 ec ba 27 1e ca ba
       -0.0021321767 -0.0013863235 -0.0018038905 -0.0015420363
0000e0 2c 82 2c ba b8 36 5f ba b1 98 08 bb 6b f5 f5 b9
       -0.00065806764 -0.00085149286 -0.0020842964 -0.00046912892
0000f0 df f5 5d b9 89 14 c3 3d ab a1 94 39 d2 12 a6 ba
       -0.00021167797 0.09525401 0.00028349212 -0.0012670404

exp_avg f4 [7]
000000 2c 5a ea 3a 8e 40 48 ba f1 5a c1 bb 92 15 45 39
       0.0017879657 -0.0007639014 -0.0059007336 0.0001879542
000010 ef 3c 99 3a ab b6 85 3a 77 85 1e 3a
       0.0011691133 0.0010201534 0.00060471095

exp_avg_sq f4 [7]
000000 9a 3c 85 39 e1 85 86 39 64 21 5d 39 db 8f a0 39
       0.00025412888 0.0002565822 0.00021088641 0.0003062476
000010 c7 10 91 39 78 3f 06 39 e1 6f 8c 39
       0.00027669055 0.0001280288 0.00026786237
