logs/rsl_rl/franka_reach/2025-06-16_20-11-58/model_300.pt (torch, 172795 bytes, 36 tensors)

std f4 [7]
00000000: 6379 943e c016 803e 18fd 883e 1ae6 813e
00000010: 2870 843e 543e ae3e 749b 853e
0.2899886 0.25017357 0.26755595 0.25370866 0.25866818 0.34031928 0.26095164

actor.0.weight f4 [64, 32]
00000000: 7343 88be 9aae 7d3e 1f19 fcbe 1693 ce3e
00000010: ab9d 573d e34a 4e3e 4e18 cc3d 3fdc d13e
00000020: e850 2a3f 2cfa 0f3d 561a a13e c466 643d
00000030: 9c29 293e 8fe7 843d eb2e f2bd d84a cbbd
00000040: 0a4a 10bf 2ea5 953d 8888 30bf 7c7f 23bd
00000050: 8f20 3f3f 4d78 a1bc a489 26bf a091 be3b
00000060: 594e 10be f371 3dbd 13e2 92be 3f81 91be
00000070: 64dc 943d de2a a1be 4b51 993c 6564 65be
00000080: 6a13 673d 62e9 4a3d 721f 8abe f323 463f
00000090: b95d 533f 7d94 bf3e a3aa 893d ef3c 08be
000000a0: 2a0d 8e3e 1a6c 313d 019d 25be 0bb0 ef3e
000000b0: 8675 02bc e85b 19be 058d 873d 25a7 6c3e
000000c0: 95f2 cf3e ac5b 05bf 445d 5dbf d528 ecbf
000000d0: bcbc f6be 2ba2 133e 7055 8d3e 5ded 3f3e
000000e0: 39e8 663d 64bb 763d 0567 443d 7be8 20be
000000f0: c68a ae3d 9654 0dbe 4182 023e f559 e1bc
00000100: 54c1 423f e0d7 0abe e7ef 693f 608f 51be
00000110: bd92 823e f3d0 9dbc 07ef b73e 75ed 143f
00000120: d632 5f3f 6087 e4bd 2006 3d3c 8bcf 3abe
00000130: 93c1 623d 9a76 cf3d 33e1 963d 65d4 1b3e
00000140: 5e22 5b3d 1d23 393f 1734 353d 1a6d d5bf
00000150: 57f2 a43e 3a59 2bbd bc48 82be 3c8c 083e
00000160: 49ea bbbd 0434 42bd 76e7 ef3d a1f5 cd3c
00000170: 031c 5c3d 8de3 b53e f8d1 f1be fa8c d9be
00000180: 2c35 87bf d58c 273d 3e90 14bd 09f1 4cbf
00000190: 2e38 ccbb 0028 b1be fafd aa3e bc36 b5bd
000001a0: ff7d 223e 5073 2abe bffb bdbe f6bc 9b3b
000001b0: b347 973d 199d a9be 7b5b 3abd f663 8cbd
000001c0: 79c8 833f 0ad2 e03e 1311 8bbe 7f83 d53e
000001d0: b873 db3e b7d7 1ebe e415 04bf ef98 36be
000001e0: e947 b1ba 1ad7 efbe 7ad2 adbe 221c 01be
000001f0: 0528 e7be 5838 bbbe 2547 583e 84c4 85be
00000200: bbdc 15bd 6369 2fbe f185 263d db28 a33e
00000210: a4c9 1bbf 17d8 7b3f 19b4 943d e2f2 0fbe
00000220: fe59 39be 4b81 25be ef61 aebd 14c8 3db9
00000230: d554 b83d 2d8c 42be b0f7 d5bc 0f6e 99bd
00000240: 547e 4abe 6f1a 5cbf 7da4 d5be 4e85 ed3f
00000250: f021 5b3f 00fa 0bbe c472 a0be df2a 54bf
00000260: ff7a 9bbc 5b6c 1cbf 8c67 303d c5fc b23d
00000270: b25d 38be 8a3e c53d 6ef7 93be 5a27 c73b
00000280: 2bf8 ed3e 7dae 0dbf 7514 d33e f02f 39be
00000290: 594e a63e f3de 9e3f a31f 853b b13f be3e
000002a0: a6b7 063e bf57 f0bd d51e c33d 3c8c 7fbd
000002b0: cc78 c6bd c1d4 b03d 3f8f ba3d 0afe 27be
000002c0: 755e c2bd 2cd5 0dbf a275 2f3d 7f84 9abf
000002d0: 3965 4ebf 9112 ac3d 81fa e63d 8ba9 693f
000002e0: 7bd4 b83d 17c6 513e 19a6 823e e306 973d
000002f0: 736f a83d 33ce d23c d970 943d 70fc 84bd
00000300: cf7c e13d 126c 7a3c d663 b23d 91e7 05bf
00000310: 6be3 b2bd 74aa efbe 7301 f03d 8497 833e
00000320: bff9 353e 5b25 9e3c c957 de3b 08b7 f23d
00000330: b1bd 50be d8f6 72be ca1f bc3d c035 3cbd
00000340: 1523 263f 37bb d03e 3f48 2cbe be9f 61be
00000350: f4a8 b6bc 4baf dcbd de1b f9be ba68 bc3e
00000360: aff1 c73c 68f1 673e 92b4 d23e eda3 d0bd
00000370: ef60 e9bd 88e5 c73d dfc6 86bd 6e9c ccbd
00000380: 8908 803f 0f73 5e3c 509c 923f 7918 90be
00000390: 4795 eabe 9b81 d5be 686a 47bf ae65 2f3e
000003a0: f075 b03d c6c8 803d 17e4 1d3d a93d 993e
000003b0: af7e cb3e 25a3 183e e875 013d 31f7 14be
000003c0: 5170 9e3e 1809 f13e 1dab 513d 9fbb dfbf
000003d0: 9b6e 0cbf 95f5 fdbd 2d37 0dbf 9659 5c3e
000003e0: f148 64bd 9909 55be 9941 24bd 01e5 05bf
000003f0: 2966 953d 4261 27be e6ed b6bc 17da edbc
-0.2661396 0.24773636 -0.49237916 0.40346593 0.0526406 0.20145755 0.09965573 0.40988347
0.66529703 0.035150692 0.31465405 0.055762067 0.16519779 0.06489479 -0.11825355 -0.09926385
-0.56362975 0.07306896 -0.6895833 -0.0399165 0.74659055 -0.019710684 -0.6505377 0.0058156997
-0.14092387 -0.04625125 -0.28688106 -0.2841892 0.07268599 -0.31478018 0.018715521 -0.22401579
0.056415 0.049538977 -0.26977116 0.77398604 0.82564884 0.37417975 0.067219995 -0.13304494
0.27744418 0.043315984 -0.16173173 0.46813998 -0.00796259 -0.14976466 0.06618694 0.23110636
0.40614763 -0.52093005 -0.8647044 -1.8449961 -0.48190868 0.14417331 0.27604246 0.1874289
0.05637381 0.060237303 0.04794981 -0.15713684 0.08522563 -0.13801798 0.12745 -0.027508715
0.76076245 -0.13558912 0.91381687 -0.2046485 0.25502577 -0.019264674 0.3592455 0.5817483
0.87186944 -0.11158633 0.011537105 -0.18243234 0.055360388 0.10130043 0.07367172 0.15217741
0.053499572 0.72319204 0.04423913 -1.667392 0.3221614 -0.04183314 -0.25446117 0.13334745
-0.09175546 -0.047412887 0.117140695 0.025141539 0.05373765 0.3552517 -0.47230506 -0.4249037
-1.0563102 0.040905792 -0.036270373 -0.8005529 -0.006232283 -0.3460083 0.33396894 -0.088483304
0.15868376 -0.1664555 -0.3710613 0.0047527505 0.073867224 -0.33127668 -0.0454974 -0.068550035
1.0295554 0.43910247 -0.27161464 0.41701886 0.42861724 -0.15511976 -0.515959 -0.17831777
-0.0013525459 -0.46843797 -0.33949643 -0.12608388 -0.4514772 -0.36566424 0.2112089 -0.26126492
-0.036587458 -0.17130046 0.04065508 0.31867108 -0.60854554 0.983766 0.072609134 -0.14057496
-0.18100736 -0.16162603 -0.08514773 -0.0001809898 0.090005554 -0.18998785 -0.026119083 -0.07491695
-0.19774753 -0.85977834 -0.41727057 1.8556306 0.8559866 -0.13669586 -0.3133756 -0.82877916
-0.018979548 -0.6110284 0.0430675 0.08739618 -0.18004492 0.09631069 -0.2889971 0.006077689
0.464784 -0.55344373 0.41226545 -0.18084693 0.3248165 1.2411789 0.0040626093 0.37157968
0.13155994 -0.11735486 0.09527365 -0.062389597 -0.09691009 0.086343296 0.09109353 -0.16405502
-0.094906725 -0.554034 0.042836793 -1.2071685 -0.80623204 0.08401979 0.112782486 0.9127433
0.090249024 0.20485722 0.25517347 0.073743604 0.08224382 0.02573309 0.072480865 -0.06493461
0.110101335 0.015284555 0.087104484 -0.5230647 -0.08734783 -0.46809733 0.117190264 0.25701535
0.17771052 0.019304922 0.006785367 0.11851317 -0.20384862 -0.23726976 0.09185751 -0.045949697
0.6489728 0.40767834 -0.16824435 -0.22033593 -0.02229736 -0.10775622 -0.48654073 0.3679865
0.024407236 0.22650683 0.4115339 -0.10187516 -0.11395442 0.097605765 -0.065809004 -0.09990774
1.0002605 0.013577237 1.1453953 -0.2814367 -0.45817015 -0.41700444 -0.7789674 0.17128631
0.08616245 0.062882945 0.0385476 0.29929855 0.3974509 0.14905985 0.031606585 -0.14547421
0.30945066 0.4707725 0.051188577 -1.7479132 -0.5485627 -0.12400357 -0.55162317 0.2151855
-0.055733625 -0.20804442 -0.04010162 -0.5230256 0.07294876 -0.16345695 -0.022330236 -0.029034657

actor.0.bias f4 [64]
00000000: 008e 73be 3821 4fbe 7d56 1dbf d6e5 a5bc
00000010: 028b b63d fc17 acbe 2eb5 d2be 35f2 60bc
00000020: 7c93 b33e 4919 713e 2cd5 d1bd 4e84 97bc
00000030: 36f9 f0bd 255a 8abe 7a54 19bf 2556 9bbe
00000040: 401d 2c3f e689 663e 5545 793e 99f5 ee3d
00000050: 2209 103e 865a 6b3e 1cb1 a2be a446 093e
00000060: 5ad5 24bf 0669 343f e8fe 9abd c932 cbbe
00000070: bee4 c4bd e644 293e 9ffe 1cbe 7f9e de3e
00000080: 7a9f 39bf ed6c 4bbe 224e a83e e558 3bbd
00000090: 8760 a03b 79b6 533d c43a 0cbf 21df 8cbe
000000a0: f632 613d 05d8 7cbd c007 0f3f 659a 26be
000000b0: a68c 573d dd0d d33d 969d 62be c887 0dbd
000000c0: 44d3 f13e 418b 04bf 0b82 d73c 7c72 54be
000000d0: cb12 d13b e671 6ebe ce85 10bf 73ef 95be
000000e0: 85cc d6be dcc5 3b3c 96b8 193e 0553 853e
000000f0: c2a9 9abd f22f 853e 209f 933e 2b51 ddbd
-0.23784637 -0.20227516 -0.61460096 -0.020251196 0.089132324 -0.3361205 -0.41153854 -0.013729622
0.3507346 0.23544802 -0.102457374 -0.018495705 -0.11766283 -0.270219 -0.59894526 -0.3033916
0.6723213 0.22513542 0.24342854 0.11667938 0.14065984 0.2298375 -0.3177575 0.13405854
-0.6438805 0.70472753 -0.07568151 -0.39687183 -0.096139416 0.16530189 -0.15331505 0.43480298
-0.72508967 -0.1986577 0.3287211 -0.045739073 0.0048943195 0.05168769 -0.5477717 -0.27513984
0.05498024 -0.06172945 0.558712 -0.16269834 0.052624367 0.103053786 -0.22130427 -0.03455332
0.47231495 -0.51774985 0.026307127 -0.20746797 0.006380414 -0.23285636 -0.5645417 -0.29284248
-0.4195291 0.011460748 0.1501182 0.260399 -0.0755191 0.26013142 0.2883234 -0.10806497

actor.2.weight f4 [64, 64]
00000000: 12a3 e9bd 2b88 be3d 4332 d63e 72dc 333e
00000010: a80d c3bd 8b03 823e 447c 903e 31c3 abbc
00000020: 5816 3d3e fecb cdbd cd72 523e bde7 85bd
00000030: c74d 1c3d bb12 983e cc88 273e 7b05 67bd
00000040: d28a 18bd c862 233e 0b98 043e 9c37 4dbc
00000050: ecde 19be eba3 9b3e 08c9 acbd 6ca5 97bb
00000060: f5d0 983c a1e6 39bf 35a4 11bc fd85 82be
00000070: 634b 8ebe 994f 35bd 59b1 02be f40e 32be
00000080: 684a 9cbe 41a5 7f3e 8c6b 253e 0b3b 07bf
00000090: 9f91 003e 264c 553c 9058 be3e 3da3 9e3d
000000a0: 3429 033d aba3 ee3d 0e0d 733e 288c 1f3c
000000b0: b217 0f3c 55bb 933c 93ea 0cbe 3889 5f3e
000000c0: 3183 fcbd a8a3 5d3d 1a26 51be 00aa eebe
000000d0: deea 213d 58a1 1ebb 4442 c8be b8af 413d
000000e0: b335 a73d 30f3 3fbe 3dea 703d af95 d2be
000000f0: 9e04 dfbd 3764 a83d e574 1e3e c0e7 11be
00000100: d61f 953d b458 393e df00 af3c 2e46 1e3e
00000110: 7021 29be 18b3 c5bb cfc2 8dbd ee1b 023d
00000120: 4ca0 d63d 9e41 a03e 97dc b63d 9f58 bdbc
00000130: 2191 75bd 0f1a 903e 66ab e93d 4d4f c3bd
00000140: d7da 99bd ce62 79bd d708 8f3d 52c2 babb
00000150: 6dcf c03d 557e a03d 4c4b 563c c0f9 b23d
00000160: 5d0b 2d3d 03f0 8abc 8149 0abe dedf 5cbd
00000170: 8b58 20be 1c87 383d f0cd 25be 38c4 3b3e
00000180: 4208 093e b232 3c3d ff5d 2ebe 0260 52be
00000190: ebb0 f2bc 5d7f d7bd dbd4 673d 8ca5 153e
000001a0: afa4 86be 7323 3ebe d39f 0e3d 51a1 08bd
000001b0: 6357 b83d a028 b33d 1b75 723c 75d3 23be
000001c0: 7016 65be 53bf e4bc b5af e7bd 3240 883e
000001d0: b1ea a3bd 2916 f4bb a38a 3e3d c6fc 323e
000001e0: 0c4e e9bd c86c 9dbe dda2 6b3d 6781 253e
000001f0: f8c5 223e cb8d f0bb c980 4e3d 8db7 9cbe
00000200: 5441 d03e e53b 45be e72f 94be 21f8 99be
00000210: a5ea bf3e 52b1 b2be 63c8 d9bd 780d 58bd
00000220: eb35 05bd dcc0 1ebe 0570 3abe 4889 aa3d
00000230: 755c 6dbc fe94 9c3d e9f0 453e 640e 9c3d
00000240: 6c38 acbe 034a 2dbd 26b9 c8bd d2a3 debd
00000250: 499e c5bd a5ff 463e 6118 833e a03a b2bd
00000260: 935d 2d3e d958 55be 8f32 d6bd bdae ab3d
00000270: e645 5b3e e774 213d 3c7b 853d fcf2 38be
00000280: 1356 853e e2b1 813e 454e 52bd 21f1 51be
00000290: 874f a1be e21d 57be bea5 0dbe 0b17 dcbd
000002a0: 9860 a0bd 7119 2dbe ecf5 38be 4e2d 24bd
000002b0: e420 623e 2ac2 f03c dba9 0f3e 10c4 e2bd
000002c0: 601d fe3d df9e e83d a16a 01bd 2d83 313e
000002d0: 55b6 1e3e 4d3b 57be dd1a d43d 2a01 e639
000002e0: 5cef 5e3e 82bd b5bc 5024 9cbe e86f 073d
000002f0: ac96 313d 83c8 ebbc b458 36be e9ad 94ba
00000300: 2d33 9f3d a9ce b0b9 8568 b9bd 3edd b2be
00000310: e34d 173e a767 6f3e 0150 1f3e 2fba 85bd
00000320: d09b 013e 2976 b23e 3afe 06be 9466 94bd
00000330: fcbb 8c3a ebc5 42be f02e dbbd c80a 67bc
00000340: f58b 333d 475d 993d 4d32 053e f0ca 683e
00000350: c037 393e 3fec 083d 4bac f6bd d6f8 ee3d
00000360: d871 abbe 907b 063e 3186 28be eb4e 55be
00000370: e991 1bbb cf53 0b3e 8c30 083e 4325 b73c
00000380: dfcd ba3d ac9e b5bd 7f36 00be d868 aabd
00000390: 239e 9d3e ba45 14bd 305c 26bb 3e36 d23c
000003a0: a8e9 fe3d 3d0d 7ebd 7a90 a13c d7d2 693d
000003b0: 1551 78bd 6bd6 513d b4a2 57bd eba9 173e
000003c0: 76aa 76bd 7742 473c 847f e4bd 70f2 0f3e
000003d0: a0cb a33c 4768 083d 8921 4f3e 2896 873c
000003e0: c37d 163e 65b5 65bd 3414 aa3d 2a25 253e
000003f0: 7c7a 3d3d 1788 28bd b783 f43d c868 393e
-0.11408056 0.09303316 0.41835222 0.17564562 -0.09524089 0.25393328 0.28219807 -0.020967098
0.18465555 -0.10048674 0.20551606 -0.06538341 0.03816011 0.2970179 0.16360778 -0.05640171
-0.037241764 0.15955651 0.12948625 -0.012525465 -0.15026444 0.30398497 -0.08436781 -0.004627874
0.018654326 -0.72617537 -0.008889248 -0.2549285 -0.2779189 -0.044265363 -0.12762965 -0.17388517
-0.30525517 0.24965383 0.16154307 -0.5282447 0.1255555 0.0130186435 0.37176943 0.07745979
0.032021716 0.11652311 0.23735449 0.009738006 0.008733677 0.018033663 -0.13761358 0.21829689
-0.1232971 0.054111153 -0.20424691 -0.46614075 0.039530627 -0.0024205055 -0.39113057 0.04728672
0.08164539 -0.18745112 0.058817137 -0.41129825 -0.108895525 0.082222395 0.15474279 -0.14248562
0.07281463 0.18100244 0.02136272 0.15456459 -0.16516662 -0.0060333125 -0.069219224 0.031764917
0.10479793 0.31300062 0.08928793 -0.023113547 -0.05995286 0.2814488 0.11409645 -0.0953661
-0.075124435 -0.060885243 0.06984108 -0.0056994343 0.09414563 0.07836596 0.013079476 0.08739042
0.042247165 -0.01696015 -0.13504602 -0.053924434 -0.15658776 0.045050725 -0.1619184 0.1833657
0.13382056 0.045946784 -0.17028044 -0.20544437 -0.029625377 -0.105223395 0.05659948 0.14613932
-0.2629752 -0.1856821 0.03482039 -0.03335697 0.09001043 0.08747983 0.014798428 -0.15998633
-0.2237184 -0.027923262 -0.1131281 0.26611477 -0.08003748 -0.0074489308 0.046518933 0.17479238
-0.113918394 -0.30747056 0.057528365 0.16162644 0.15895832 -0.007341122 0.050415788 -0.30608788
0.4067484 -0.19261129 -0.28942797 -0.3007212 0.37483707 -0.3490091 -0.10633924 -0.05274722
-0.032522123 -0.15503258 -0.18206795 0.083269656 -0.0144873755 0.076456055 0.19330181 0.07619932
-0.33636796 -0.04230691 -0.09800939 -0.1087109 -0.09649331 0.19433458 0.25604537 -0.08702588
0.16930227 -0.20834674 -0.10458862 0.08382938 0.21413383 0.039418127 0.06517646 -0.18061441
0.26042232 0.25331026 -0.051344175 -0.2050214 -0.31505987 -0.21007493 -0.13832757 -0.107465826
-0.07830924 -0.16904236 -0.18062562 -0.04008227 0.2208286 0.02938946 0.14029638 -0.11072552
0.124079466 0.11358427 -0.03159583 0.17335196 0.15499242 -0.21018715 0.10356686 0.00043869886
0.21770996 -0.02218509 -0.30496454 0.033065706 0.043356583 -0.028782135 -0.17807275 -0.0011343333
0.07773433 -0.0003372331 -0.09053139 -0.3493442 0.14775805 0.23379384 0.15557863 -0.06529652
0.12657094 0.34855774 -0.13182917 -0.07246128 0.0010737176 -0.19020812 -0.10702312 -0.014101692
0.043834645 0.07488494 0.1300747 0.22733665 0.18087673 0.033428427 -0.12044581 0.116685554
-0.33485293 0.13133073 -0.1645744 -0.20830886 -0.0023738092 0.13606189 0.13299769 0.022356635
0.09121298 -0.08868155 -0.12520789 -0.083207786 0.3078471 -0.03619931 -0.0025384538 0.02566063
0.1244691 -0.062024344 0.019722212 0.05708584 -0.0606242 0.051229876 -0.0526454 0.14810912
-0.060221158 0.012161843 -0.11157134 0.14057326 0.019994557 0.03330257 0.20227636 0.016551092
0.14696412 -0.056081194 0.08304635 0.16127458 0.04625939 -0.04114541 0.11939185 0.18106377

actor.2.bias f4 [64]
00000000: 4ade c8be 54c8 31bd 6d4f 1fbe 333a 093e
00000010: d3ef 7fbe 4745 95be 4b5b dcbd 7404 babe
00000020: df25 93bd b665 72be ed85 b3be 8c65 81be
00000030: ef59 61be 106f 86bb cf4f 11be c42a aebd
00000040: 03cf 86be b162 0bbf cacc 6fbe be72 a6be
00000050: 67c8 f0be 4895 8ebe 7edf 7ebe b557 8abd
00000060: f666 b2be 4eee 0dbf 55c4 babe a168 51be
00000070: d8a2 abbd 5543 9ebe 6e34 4c3e cdcf d4be
00000080: be00 dbbd 5e6f 42be 0e6f 0dbf e523 e6be
00000090: fd68 0bbf be96 abbe fe1c 48be da9a 46be
000000a0: b5cc efbe c647 9dbe 3afb 02be 2b96 95bc
000000b0: f258 84be 6eb0 f8be 64ba b03b f4b9 22be
000000c0: b7d6 11bd f8ce 8abe 74a2 66be 59f3 d2be
000000d0: 23d7 a6be b099 73be f60d a5be d4e0 b8be
000000e0: 188b 0dbe 9b6c 95be 4ba4 6abe aa85 dbbe
000000f0: e610 a6be c6f0 86be b54f 5dbe b651 4e3d
-0.39232093 -0.04340394 -0.15557642 0.13401107 -0.2499383 -0.29154417 -0.107596 -0.36331522
-0.07184958 -0.23671612 -0.35063115 -0.25272787 -0.22006963 -0.004102595 -0.14190601 -0.08504251
-0.26329812 -0.54447466 -0.23417965 -0.32509416 -0.47027895 -0.27848268 -0.24889943 -0.0675501
-0.34844178 -0.5544175 -0.36477914 -0.20450069 -0.08380669 -0.30910745 0.19941875 -0.4156479
-0.10693501 -0.18987796 -0.5524758 -0.4494926 -0.54457074 -0.33513445 -0.1954231 -0.19395009
-0.46835867 -0.3071882 -0.12791148 -0.018260082 -0.2584911 -0.48572105 0.0053933132 -0.15891248
-0.03560516 -0.2711103 -0.22522908 -0.41201285 -0.3258601 -0.23789096 -0.32237214 -0.3610903
-0.13822591 -0.29184422 -0.22914235 -0.42875415 -0.32434767 -0.2635557 -0.21612437 0.050370894

actor.4.weight f4 [7, 64]
00000000: 0fba 733d cd7c 57bd 94a0 d2bc ebec 2a3d
00000010: 4325 a93d cb89 a2bc f5b9 6e3d e3f5 b2bc
00000020: de36 a1bc e4a2 d93c 0f43 cf3c be84 cc3d
00000030: 79b2 8d3d f4c1 eb3c a194 3a3c 25eb f6bc
00000040: 9526 a03d 1386 19be 7efb fabb 3d7e 2abd
00000050: eb7b 13bd cb0f 0c3d 4aa3 a13c 769c 033e
00000060: 6c5e fc3c c448 093e df55 b33c 5c93 13bd
00000070: c7e8 61bd 26d6 da3d cb7a e53c 644e 3a3e
00000080: b6f9 2b3e ce56 bcbd 712a b73c de74 97bc
00000090: 7d05 d7bd 4473 0fbd 5091 d2bd 1e24 f23d
000000a0: 43c0 8a3d 9a90 323e 7fa3 cbbd ba35 3ebc
000000b0: e60d e8bd 4715 fe3d 62a2 8a3d 88cc 963b
000000c0: d816 6a3d 92fb 54ba 637e 023e 43cf 99bd
000000d0: 4bf3 ed3b 42e3 e4bc e5d8 4e3d a65a 613d
000000e0: cd0b 4bbd cca7 d0bd 47bd 8e3c b7cc eabd
000000f0: 31fe 8c3e 6fbc 313e 8964 233e 50d4 6bbd
00000100: d245 00bc 06b9 463b a90f f8bc ec36 13bb
00000110: 56e2 5a3c fb23 b33d 5b8e c23c c203 b63c
00000120: 37b2 4d3d 68a0 113d 6109 90bd 9d76 b3bd
00000130: d034 a53c 6f8d 12bd 63e0 8dbd 5b9d 6c3c
00000140: 7e93 bdbd 41a0 42be a94d 88bc 4e81 273d
00000150: eeba 05be 820b a6bc b57d c2ba 50fc babd
00000160: a7e5 ee3c 9d44 19bd e55f d3bc 06d8 adbb
00000170: dc3d bf3c ca94 56bc 67e1 ea3d b05c 253d
00000180: ccac 5e3e 20f5 253d 9902 77be 0a2a 93bd
00000190: 9b37 15be b071 53bd 19b2 27bd 8316 ef3b
000001a0: 32c0 67bd f3de 83be 8fea 913d 07d4 49bc
000001b0: a1e9 4a3c 3423 c1bd 4c93 373d da37 d13c
000001c0: 638f 323d 3c20 6bbd bf81 1e3d 335f 463c
000001d0: 7d1e 673d 3668 3bbe bb1f 3d3c 74eb b9bd
000001e0: 912b 833d 32cd 79bd aba5 66bd cfb9 80bd
000001f0: 73ef 533c bca2 01bd ca12 573d 5bb6 aa3c
00000200: 25c1 513e fa97 8a3c ef71 2c3d 24dd 5ebc
00000210: 1e1a 32bd 99ac 01bd cc6c 45bb 3f28 89bb
00000220: f5d0 423c eef4 013a c04b e7bd 3b76 2ebd
00000230: 4de3 4cbd b29e 163d 7d0f 20be c9b0 52bd
00000240: b5d3 53be 0c4a a43c b2b0 eb3a bf6f 633d
00000250: d6b9 f73c b3d7 83bd bc77 c9bd c759 d03d
00000260: ab16 8fbd 34b0 de3d d7c3 5e3d 3aa6 083d
00000270: d150 6b3b 559a cbbd e8ff 91bb 2413 853e
00000280: fb39 143d 3b56 ddbd 8d24 d6ba f32a c6bd
00000290: ce4b fabb 4bad 3cba 65bc 8cbd fa68 dfbc
000002a0: 6949 a93d bf78 613e c1dc b5bd 9b6d 963c
000002b0: 87c0 273e 06e4 113e 9e71 ae3d 10a4 c13b
000002c0: 4d50 3c3d 07f4 03be cb73 1d3e 852d b83d
000002d0: 94da 99bd 26d5 39be 85f1 cc3c 1778 513e
000002e0: fb31 b5bc d0b5 c73d d13f 0d3d c0dd 75be
000002f0: ca9b 253e 227f ac3e 6f84 76bc a97c d93c
00000300: f84b eabd 0585 5d3c 7e24 5dbc ef76 3b3d
00000310: 2fce 48bd c817 48bd 8361 3c3e 6f5c a93d
00000320: aff6 e0bb 02c5 bdbd f918 d13d de90 fd3c
00000330: 423f 44bc 5741 63bd 47fd a1be 4a6c 9e3c
00000340: c9ce 873d 9f10 02bd 49ca 8d3b 0e61 503d
00000350: 6567 b63c 6a54 1dbc 900d 7f3d 2bb3 913c
00000360: d271 e0bc 295c e63d 937d 273e 1cfa f43c
00000370: 7da1 8cbd 5465 a03d 66ad 34bd 6db6 8c3c
00000380: bca6 0dbe 1556 a63c cf06 d9bd 847a 5abe
00000390: 4ea7 113e a8c4 e1bb b6c9 8abd 6328 16bc
000003a0: 8a9d 0ebe e8b3 35bd b196 b9bd 1c91 933c
000003b0: 1e89 72bc 106a 19be 6332 ddb7 9b8a b43d
000003c0: dba4 4ebd 0823 17be cd57 8ebd 75bf d83c
000003d0: 777d 8d3d 9e29 463d 7dff 40be 21c2 b3bc
000003e0: ff97 d4bd 29bd 0abd b7b8 68bc 0c74 5dbe
000003f0: c44d 223c 7041 4b3e 249a 98bc 4096 db3c
0.05950361 -0.052609254 -0.025711335 0.04172985 0.0825906 -0.019841095 0.05828281 -0.021845764
-0.019679483 0.02656693 0.02530053 0.09986256 0.069188066 0.028779007 0.011387975 -0.030141423
0.07819859 -0.14992552 -0.0076593747 -0.041624296 -0.03600685 0.03419475 0.019731183 0.12852654
0.030806743 0.13406664 0.021891532 -0.036029205 -0.055153634 0.10685377 0.028012654 0.18193966
0.16794476 -0.09196244 0.022359105 -0.018488344 -0.10499094 -0.035022035 -0.102816224 0.11823295
0.06774952 0.17437974 -0.09943294 -0.011609489 -0.11330776 0.12406402 0.06769253 0.0046020187
0.05715069 -0.0008124645 0.12743525 -0.07510235 0.007261669 -0.027940396 0.050499815 0.05501809
-0.0495718 -0.10188255 0.017424239 -0.114648275 0.27537683 0.17357038 0.1595632 -0.057575524
-0.007829146 0.0030322685 -0.030280905 -0.0022463156 0.013359627 0.08747097 0.023749521 0.022218589
0.050218787 0.035553366 -0.07033039 -0.08762858 0.020166785 -0.035779413 -0.06927564 0.014441813
-0.092566475 -0.19006445 -0.016638594 0.0408948 -0.1305959 -0.02026916 -0.0014838489 -0.09130156
0.029162241 -0.03741895 -0.025802562 -0.005305293 0.023344927 -0.0130969975 0.11468773 0.040371597
0.21745604 0.040516973 -0.24122085 -0.07185753 -0.14571993 -0.051622093 -0.04094133 0.007296385
-0.056579776 -0.25756034 0.071248166 -0.012318618 0.012384803 -0.094305426 0.044818208 0.025539327
0.043593775 -0.057403788 0.038697954 0.012107658 0.05642556 -0.18301472 0.01154321 -0.09078112
0.06404794 -0.060986705 -0.056310337 -0.0628544 0.012935507 -0.031649336 0.052508153 0.020838907
0.20483835 0.016918171 0.042100843 -0.013602529 -0.04348194 -0.031658743 -0.0030124662 -0.004185706
0.01189064 0.0004957457 -0.11293745 -0.042593222 -0.05002146 0.036772437 -0.15630908 -0.051438127
-0.20686229 0.02005484 0.0017981736 0.05552649 0.03023998 -0.06437626 -0.09837291 0.10173374
-0.069867454 0.10873452 0.054385986 0.03336165 0.0035906325 -0.09941546 -0.004455555 0.25991166
0.036188107 -0.10807463 -0.0016337797 -0.09676161 -0.007638431 -0.00071974535 -0.06871871 -0.027271736
0.08265955 0.22018717 -0.08879996 0.01836281 0.16382037 0.1424714 0.085177645 0.0059094504
0.04597502 -0.12886058 0.15376203 0.08993057 -0.075123936 -0.18147716 0.02501751 0.20455967
-0.02211856 0.09751475 0.03448469 -0.24010372 0.1617271 0.33690745 -0.015046223 0.0265487
-0.11440271 0.013520484 -0.01349747 0.04576772 -0.049024757 -0.048850805 0.18396573 0.082695834
-0.0068653445 -0.09266092 0.10209841 0.030952867 -0.011977972 -0.055482235 -0.31638548 0.019338746
0.06631238 -0.031754132 0.004327093 0.05087381 0.0222661 -0.009602645 0.062268794 0.01778563
-0.027398024 0.11248047 0.16356497 0.029904418 -0.06866739 0.07831827 -0.044110678 0.017176831
-0.13833135 0.020304719 -0.10597002 -0.21335799 0.14223978 -0.0068898983 -0.067767546 -0.009164902
-0.13927284 -0.044361025 -0.09061945 0.01801353 -0.014803199 -0.14981866 -2.6368716e-05 0.088154994
-0.050450187 -0.14759457 -0.069503404 0.026458481 0.06908696 0.048379533 -0.18847461 -0.021943154
-0.103805535 -0.033871803 -0.014204196 -0.216263 0.009906236 0.19849181 -0.018628187 0.026805043

actor.4.bias f4 [7]
00000000: 0c0e 583d 1ca1 4d3e 145f 37be 0bec 273e
00000010: 8852 523e b63c 91be d15e e03d
0.05274777 0.2008099 -0.17907363 0.16398637 0.20539296 -0.2836663 0.10955585

critic.0.weight f4 [64, 32]
00000000: 0723 71be 76f7 b9bc 6db1 86be dc25 6a3e
00000010: d7bb 6abe 0608 b33d 4701 82be c8dd 243e
00000020: 4228 2e3d dc19 88bc 61b5 ab3d 646d 6cbc
00000030: dc45 d0bc a323 2b3c ea70 32ba 56e4 85bd
00000040: 8905 a7bc 01b0 d4bd 365f 863e 7422 743f
00000050: e059 0a3f 14ed 343d 5584 abbe 4b13 11bf
00000060: 1693 fdbd 1ad2 aa3d e1a6 aabd f6aa 04be
00000070: 0ddc 96bd 55b5 dcbd 222a c3bb ed6f 4ebc
00000080: 6f13 5bbd 6626 013e 7eed 2d3e 178f 12bd
00000090: e64c 683e a294 b93c ccab 2b3e 4865 54bd
000000a0: 2886 c3bc 4d58 233d d89a 0a3d 2087 623c
000000b0: 5baa a9bc cad1 4cbd 59bc 9fbd a60d 5abc
000000c0: 8843 39bc cd63 823e 6ce6 4b3d 4baf 63bf
000000d0: d3f8 24bd 7fa0 8d3d 7d21 8e3e 53b3 3a3e
000000e0: 03be 1cbc 7bc7 20bd 6b3e 8f3d 2d80 5c3d
000000f0: b93a ca3b c8af 133d f45f 443d 23c9 edbc
00000100: cbbc 1cbd 513e fd3d ae60 9bbd a993 a1bd
00000110: d941 fc3d 2074 46bd b3c1 0ebe 695f 00bd
00000120: 3df2 733d 6e6a eabd 29bd acbd 45bf a1bd
00000130: 4031 e3bc 2d50 223d f852 c63a 31d0 553d
00000140: 692c 523e e0f4 403d cc7d a0be 9fa1 ebbe
00000150: b0b0 913d db47 603d 13f4 c53c dc98 00be
00000160: 7ce8 b3bd 4c5a 953d 0133 4b3d 3321 e93c
00000170: 6287 d83d 0ca4 ffbc 2d2e 1e3d bf45 84bc
00000180: fc97 4bbe 603e 673d 18c3 0ebe 5ae9 b5be
00000190: 67a6 653d 0ebf 113e 3cea af3d 2c25 573e
000001a0: 9111 6b3d fb26 81bd 7f4d 55bc 54de 97bd
000001b0: d638 f9bc 5ab9 ec3c 0ed0 82bc 7fd4 bfbc
000001c0: 647b e7bd ebc4 063c 575d a1be 54c2 12bf
000001d0: d8a3 bcbd 8bc7 fdbd 44e4 87bf 45b1 5a3e
000001e0: 3b41 253e 1872 6bbc dba6 c8bb 771c 613c
000001f0: c808 d6bd 8b4b 30bd dab1 853d 3a07 883d
00000200: 5066 92be f7b5 86bd 2621 dbbd 9e0d 663e
00000210: 5549 c63e c202 533d d7c4 6f3e 1b89 953d
00000220: 089e 8a3a 7cf3 22bd 5ab1 c7bc 2b1e 93bc
00000230: aee3 883c 4815 263c 41ce 8b3a c02e abba
00000240: 93e9 18bc 1727 f43d 8539 d73e 5a46 e7bb
00000250: 5432 d5bd 8f14 243d f2b0 21bf 2a67 9c3e
00000260: 144b 11be 86f9 bb3b b374 493d 1d21 4bbd
00000270: 68d3 c23c 0413 c5bc fe9d dabc d763 383d
00000280: 51fc 59bd 4a98 6abd b13c b3bd 7167 a5bd
00000290: 1977 8b3d ef60 093e d73e b9bd cc60 99bd
000002a0: fb87 d13d d0c8 373d 9108 63bb 8ceb 253d
000002b0: 6fe6 8dbc 5d99 c3bc 673a 84bc 0ef7 3ebc
000002c0: 8488 a53d dd69 bdbd bff4 eebe 064c 5abe
000002d0: a270 9ebe 5dcc 1abe a6fc 153f 6217 e03e
000002e0: 17b2 913d 665d f2bc 2215 a23d 934e 263d
000002f0: 18bb 6a3c a517 0c3c 44ac fc3c 1222 b2bd
00000300: 779a 463e 64ad 8b3e 8bfc f53d 6700 e1bd
00000310: e3a8 5cbd f5c4 833d a02c 34be 195b 2bbe
00000320: 6701 a73c 8ff9 263d f596 a5bc c33c ba3c
00000330: dcfa f6bc 242d 133c 8c92 09bc 2b58 80ba
00000340: 15d1 0d3e 26c2 cc3c 866f 983e 5e69 25c0
00000350: fbd5 6cbc 2a0c 113e 9c91 4bbf 370e 393e
00000360: b772 1ebd c7f0 25bd 9e70 993d 9f55 ac3d
00000370: 2c11 fb3b c02b 94bc 9244 573d 6a6b 28bd
00000380: 83a9 1f3d e7b3 b53d e7ac 98bd 0944 59be
00000390: ef83 32be 6354 81be 74be 1abe 1126 143e
000003a0: dcd8 af3d bf9f 22bd f7d2 2d3c 594a c73a
000003b0: ceac 18bc fda9 f63a b42d 57ba 3e82 9ebb
000003c0: c95f acbd 358a 45bd 4dd6 773c a4ba b13e
000003d0: 50ff bebd 8849 023e 19b3 0dbf 4a9c 72bd
000003e0: b5e6 073e 8572 b6bd 5d29 90bd 9a0f 84bd
000003f0: 5930 723a 41f2 debc dc4a 0ebd c650 6bbc
-0.23548518 -0.022701006 -0.2630724 0.22866005 -0.22923218 0.08741765 -0.253916 0.16100228
0.04251886 -0.016613893 0.08384205 -0.014430378 -0.025423937 0.010445508 -0.00068069866 -0.06537692
-0.020388382 -0.103851326 0.26244515 0.9536507 0.5404339 0.044171408 -0.334994 -0.56670064
-0.1238157 0.08340855 -0.08332611 -0.12955841 -0.0736619 -0.10776774 -0.0059559504 -0.012599927
-0.05348533 0.12612304 0.16985127 -0.035780992 0.22685584 0.022653881 0.16764754 -0.0518544
-0.023867682 0.039879132 0.033839077 0.013826162 -0.020711115 -0.050004758 -0.07799596 -0.013308918
-0.011307605 0.25466767 0.049780294 -0.8893935 -0.04027636 0.06915378 0.27759925 0.1823247
-0.009566787 -0.03925274 0.06994327 0.053833175 0.006171551 0.03605631 0.04794307 -0.029026574
-0.038265985 0.123654015 -0.075867996 -0.07889492 0.12317247 -0.04845059 -0.13941078 -0.03134099
0.05955719 -0.11446081 -0.08434517 -0.0789781 -0.027733445 0.039627243 0.0015130928 0.0522005
0.20524754 0.04710853 -0.31345975 -0.46021745 0.071137786 0.054756027 0.024164235 -0.12558311
-0.08784577 0.072926134 0.049609188 0.028458213 0.10572697 -0.031206153 0.038618255 -0.016146539
-0.19882196 0.05645597 -0.1394161 -0.35529596 0.056066897 0.14233038 0.085895985 0.21010274
0.0573898 -0.06306263 -0.013018965 -0.074154526 -0.03042261 0.028896976 -0.015968349 -0.023416756
-0.11302832 0.00822566 -0.31516525 -0.5732777 -0.09210938 -0.123915754 -1.0616536 0.21356685
0.16138165 -0.014370464 -0.0061234063 0.013739697 -0.10450894 -0.043040793 0.06528063 0.06642003
-0.28593683 -0.06577676 -0.10699682 0.22466132 0.38727823 0.051516302 0.23414932 0.073015414
0.0010575661 -0.039782986 -0.02437656 -0.017958721 0.016710129 0.01013691 0.0010666327 -0.0013060197
-0.009333032 0.11921518 0.4203607 -0.007057947 -0.1040999 0.04005867 -0.6316062 0.30547458
-0.14188796 0.0057365326 0.04918356 -0.049592126 0.023782447 -0.024056919 -0.026686665 0.04501709
-0.053219143 -0.05727414 -0.0875181 -0.080763705 0.068098255 0.13415883 -0.09045189 -0.07489166
0.10231014 0.044869244 -0.0034642557 0.040507838 -0.017321793 -0.02387684 -0.01614113 -0.011655582
0.08082679 -0.092487074 -0.466711 -0.21318063 -0.30945307 -0.15117021 0.58588636 0.4376784
0.07114046 -0.029585551 0.07914187 0.040602278 0.014326833 0.008550559 0.030843861 -0.08697905
0.19394861 0.27280724 0.120110594 -0.10986405 -0.053872 0.06434051 -0.17595148 -0.1673397
0.02038641 0.04076534 -0.020213583 0.022734052 -0.030148916 0.00898293 -0.008396756 -0.0009791901
0.1384929 0.024994921 0.29772586 -2.584556 -0.014455314 0.14164796 -0.7951906 0.18071829
-0.03868362 -0.040512826 0.07492183 0.084147684 0.007661959 -0.018087268 0.052555628 -0.041118063
0.03898002 0.08872204 -0.074548535 -0.2121736 -0.17433141 -0.25259694 -0.15111715 0.14467646
0.085862845 -0.039703127 0.01060938 0.0015204652 -0.009318544 0.0018818971 -0.00082084094 -0.0048373034
-0.08416707 -0.048227508 0.015126777 0.34712708 -0.09326041 0.12723362 -0.55351406 -0.05923108
0.13271601 -0.089085616 -0.070391394 -0.06448288 0.0009238772 -0.027215125 -0.03473936 -0.01436252

critic.0.bias f4 [64]
00000000: 75ef 153e 8bb0 3cbe dd7a 14bd 0ded ffbd
00000010: f847 79bc 113c 04be b7ee ebbb a9a9 663d
00000020: 1c6c e73c 0ff9 103e 45e2 6e3e d0c1 45bd
00000030: dbeb c1bd 0e09 c2bd 5c0b 1d3e a338 b33d
00000040: ca44 24bd 05c9 debc 31c7 593d bf1a 973e
00000050: 415d da3e 54e0 14be 2524 f03d 59b4 6e3c
00000060: e8e3 b33d 601b 5dbd 4a07 ad3c ea02 223e
00000070: 60d8 563d 1fc4 803d a1de dbbd 8afe 313e
00000080: 6530 e2bd cb63 c2bd dc39 573a 2658 e5bd
00000090: 906a 8b3d 175b a23e 509b dfbd 8e10 933d
000000a0: adc3 753d 6760 7a3d 544b 323e bd3c 74be
000000b0: a36d 77be 6c15 3d3e f8cd 37be dfb2 56be
000000c0: 746c 323e 74fe 4bbd 9400 39be 23d6 46be
000000d0: 4355 393e 4ef2 ddbd e701 d9bd fb73 53be
000000e0: 2c58 383e d7af 79bd 3374 2ebe 6b37 cdbc
000000f0: 0d4a 793d d89e b63d 0d1b de3d bb48 38bd
0.14642127 -0.18426721 -0.036249984 -0.12496386 -0.015214913 -0.12913539 -0.007200088 0.056314144
0.028249793 0.14157508 0.23328502 -0.048280537 -0.09468814 -0.09474383 0.15336365 0.08751037
-0.040104665 -0.027195463 0.05316848 0.29512593 0.42649272 -0.145387 0.11725644 0.014569365
0.08783704 -0.053981185 0.02112164 0.15821424 0.052452445 0.06287407 -0.107358225 0.17382255
-0.11044387 -0.0949169 0.0008210221 -0.111984536 0.068074346 0.3171012 -0.109182954 0.07180892
0.060001064 0.061127093 0.17411548 -0.23851295 -0.24162917 0.18465203 -0.17949665 -0.20966671
0.17424184 -0.049803212 -0.18066627 -0.19417624 0.18098931 -0.108372316 -0.10596066 -0.20649712
0.18002385 -0.06095871 -0.17036514 -0.02505084 0.060861636 0.08917016 0.10845003 -0.044991236

critic.2.weight f4 [64, 64]
00000000: 1516 3bbe dd9a ed3d e300 3f3b fd14 28bd
00000010: 1a8b 7bbc d8cf 923d 4d0b 123e 7afa f2bd
00000020: 139d 03be d0dc d0be 7279 d7be 16b8 d93e
00000030: 0f30 563d 17ab 523e a07a 93be 0c1e 8a3d
00000040: aeb1 22be afdd 283f 1139 23bf 57d1 e9be
00000050: 6577 54bf bbc3 193f 47b3 82bd 4abb 7dbe
00000060: 703a a7bd 4b1c 693e bb78 283e d09c 0ebe
00000070: 7679 82bd 0c63 6a3e be36 563e ab9b a0be
00000080: 6e4d a5bb 28ef 7d3d ee94 f53d e3fe 23bc
00000090: d203 83be ea91 03bf 2de0 1c3c c76a 41be
000000a0: b27f 4f3d 4fa0 733e e018 a4be f121 423e
000000b0: bb69 103e 8670 9ebe c09f 2c3e 72d6 023f
000000c0: 12a0 ebbe 3658 f63c bb11 293d 8f2f 083f
000000d0: 39cf 6abe 5b13 af3c 8a41 a8bd 0242 8d3d
000000e0: 1ada 89be 8817 4cbc 4773 f83c e90c 87bd
000000f0: 613f 62be 0208 18be 2af0 bebd cdb7 07be
00000100: 076f 93bd 7a1c aebd 24a0 003d c765 583d
00000110: f2fb eabb e3d0 8e3d 887c 363c 08b5 1fbd
00000120: f6ca f7bd da85 ab3b a4c9 fb3d 457f 0f3e
00000130: 55d6 bf3d c77b 1dbc e92a 6d3d 803b 0a3d
00000140: 5bb2 fd3d 9929 29bd 7659 aa3c 0988 e8bd
00000150: e064 913c 6464 963d afdc 38bd 2b85 ac3c
00000160: 3443 fb3d 5928 cb3d 5266 8c3d f217 203d
00000170: ea76 f43d 4be9 e8bd c6af 703d b6e5 9b3d
00000180: 7538 4f3d abb5 1dbe 6340 723d 6918 0abe
00000190: a152 c0bd e34a 17bd bb59 8f3d 2bce de3d
000001a0: e8bd 133d 44e8 d83c 1506 283c c3a9 113e
000001b0: 63d9 3b3d da8e 95bd 21c5 0d3d 18f3 213d
000001c0: 5fe1 3538 e503 3b3c 8431 3b3d 4a63 cbbc
000001d0: d77e 80bd 93bc 1fbe 7902 4839 e457 1fbd
000001e0: d9e3 8c3d 9ef9 a03b 2949 a23c fed7 8c3d
000001f0: daa7 8f3d c181 7d3d 403a c73d 09f9 ba3d
00000200: 22c7 723d 260a 5b3d 534c af3c e948 bdbd
00000210: 80bb 903d b2fa d43b 0b85 8bbd 528f d93d
00000220: ae1e 573b 0013 ef3c e45d a5bd 98cc 1cbd
00000230: f6e4 80bd a9a9 673d 5480 70bc d10c bc3d
00000240: 173e 923d a2b2 143e af42 483d 050a cd3b
00000250: e049 123d 841a b6bd 1555 79bc 178b 8fbd
00000260: 015c 0bbd 9db8 063e be5e e6ba c6ef 83bd
00000270: e5b0 3dbd 9256 de3d 58a7 9b3d 8df5 cbbc
00000280: 7217 d2bb 1210 92bd f835 953d a2b5 eabc
00000290: eee9 d83d c1f1 6e3d 847f 303d c082 b23a
000002a0: 5278 35bd 1669 9bbd 2161 193c fe5a 0fbd
000002b0: d59b aebd 5dd6 99bc 7246 96bd f9c7 cfbd
000002c0: d803 3ebd 9890 db3d 3ea8 db3d b6a3 adbd
000002d0: 88ca c43d db1e a53d 4393 0a3e d702 383d
000002e0: eac8 7d3d 5a4f 513c 580b bb3c 3bd6 37bc
000002f0: a2ed f43d 1740 a13d 1aed 7f3d 7cf3 a93b
00000300: b60b 6c3c 5326 da3c fa46 ccbc cabb 88bc
00000310: 2fc7 b7bc 772a bfbd b76d 4a3d 5f28 b23d
00000320: e3ec 1dbc 763b cf3d b6d0 26bd ae33 853d
00000330: 5370 e9bc fffb b0bd 6430 c63d e1d6 8e3d
00000340: 431e bd3b 399f 5c3a 9c04 6438 6da7 1a3e
00000350: fa07 2dbc 53da 2d3e 8057 643d 3684 8a3d
00000360: 83a7 62bc 0ae8 f8bd ecd5 a53c 2ea4 a4bd
00000370: 24be aebd 124f 61bc facb 55bd 7468 c03d
00000380: 0211 95bc 6fe7 53bd 198c 87ba c871 e73c
00000390: f0e2 ba3d 8d62 adbd 0c76 54bc 44da d1bc
000003a0: 2836 093e be04 f0bc 161b 353b 16b4 333d
000003b0: d4c3 be3c 18ee e5bc 4405 b93b a28b 5a3d
000003c0: 0baa a4bd df4d 1e3e 9694 a73d 345e 243c
000003d0: b9d1 cbbd 583d 26bc 504c 28bd 0551 f2bc
000003e0: c3ce e03d a773 363b fce2 5abd 7fa0 f23d
000003f0: 45f3 5c3c 4575 54bd 7708 ecbc e581 96bd
-0.18270142 0.116018035 0.0029144816 -0.04103564 -0.015352989 0.07168549 0.14262123 -0.11864181
-0.12852888 -0.40793467 -0.42084843 0.4252326 0.052291926 0.20573078 -0.28804493 0.06744012
-0.15888092 0.6596326 -0.6375895 -0.45667526 -0.8299468 0.60064286 -0.06381851 -0.24778476
-0.08165443 0.22764699 0.16452305 -0.13927007 -0.06370823 0.22889346 0.2091932 -0.31368765
-0.0050446307 0.061995655 0.11991297 -0.0100095 -0.25588852 -0.5139452 0.009574932 -0.18888389
0.05065889 0.23791622 -0.32050228 0.1895826 0.14102833 -0.30945224 0.16857815 0.5110847
-0.4602056 0.03007136 0.041276675 0.5319757 -0.22930612 0.021371534 -0.082156256 0.068973556
-0.2692421 -0.012456782 0.030328406 -0.06594259 -0.2209449 -0.14846805 -0.093231514 -0.13253708
-0.07198911 -0.08501525 0.031402722 0.052831437 -0.0071711475 0.06973436 0.011138089 -0.038991004
-0.120992586 0.005234462 0.12294319 0.14013393 0.093670525 -0.00961203 0.05790225 0.03374815
0.12387534 -0.041299436 0.020794611 -0.11354072 0.017748296 0.07343367 -0.045132335 0.021059593
0.12268677 0.09919805 0.068554536 0.039085336 0.119367436 -0.11372622 0.05876138 0.07612173
0.05059095 -0.15401332 0.059143435 -0.13485874 -0.0939076 -0.036936652 0.069995366 0.10879167
0.03606978 0.02647794 0.010255356 0.14224915 0.045861613 -0.073026374 0.034611825 0.039538473
4.3363656e-05 0.011414503 0.04570152 -0.024827618 -0.06274193 -0.15599279 0.00019074407 -0.03890218
0.06879396 0.004912569 0.019810276 0.06877135 0.07014437 0.06189132 0.09727907 0.09129531
0.05927194 0.053476475 0.021398699 -0.09242422 0.07067013 0.006499612 -0.06812485 0.10623039
0.0032824683 0.029183865 -0.08074549 -0.038281053 -0.06293671 0.056558285 -0.014679033 0.09182132
0.07140749 0.14521268 0.04889172 0.006257298 0.035714984 -0.08891776 -0.015218039 -0.07008951
-0.03402329 0.13156362 -0.0017575843 -0.064422175 -0.046311278 0.10856356 0.07600278 -0.024897361
-0.0064114863 -0.071319714 0.07285684 -0.028651062 0.105914935 0.058336023 0.04309036 0.0013619289
-0.0443042 -0.07588403 0.009361536 -0.034998886 -0.08525816 -0.018778974 -0.07337655 -0.10145564
-0.046390384 0.107209384 0.10725449 -0.08478491 0.09608942 0.08062526 0.13532738 0.044924583
0.061959185 0.012775267 0.022832558 -0.01122051 0.11959387 0.07873552 0.062481977 0.0051864963
0.014407089 0.026629603 -0.024936188 -0.016691107 -0.022433845 -0.093342714 0.04942104 0.086991064
-0.009638998 0.10118763 -0.040726386 0.06503998 -0.028495943 -0.086418144 0.096771985 0.06974579
0.0057714297 0.000841606 5.436373e-05 0.1510293 -0.010560984 0.16977815 0.05574751 0.067634985
-0.013833883 -0.12153633 0.020243607 -0.08039127 -0.0853236 -0.013751762 -0.05219648 0.09394923
-0.018196587 -0.051734384 -0.0010341435 0.028252497 0.09125316 -0.08466063 -0.012967598 -0.025616772
0.13399565 -0.029299136 0.0027634553 0.043872915 0.023286738 -0.028067634 0.0056463797 0.05335582
-0.080402456 0.15459393 0.081826374 0.010032225 -0.09952111 -0.010146461 -0.041088402 -0.029579649
0.10976937 0.002783993 -0.053439125 0.118470185 0.013485734 -0.05186965 -0.02881263 -0.07348994

critic.2.bias f4 [64]
00000000: 9af1 99bb 3635 86bd b064 66bc be6c f9bd
00000010: 08fb 903d 0a5a 1dbc 8377 17bd 5be6 063e
00000020: ca5a 213e 14e9 8f3d dadd 103d e747 81be
00000030: f0c3 b4bd 2641 123d 2fda 4a3c fa89 083e
00000040: 611c bc3d c200 0cbe 392e a4bd 0dfb 623d
00000050: c853 c1bd 0f19 b2bd 2b7f 693c 257e 61bc
00000060: d20e c0bd 78c4 8b3c 9d13 2bbe 06f5 97bc
00000070: ab01 b8bd cf99 003b 0257 a23d c544 3f3d
00000080: e8f0 d8bc 5b36 313e 6e04 d03d c0a4 cf3d
00000090: 714a 2fbc 3a21 b8bc f4f2 4dbe 7d69 b9bd
000000a0: e2d0 63be 63b8 e53b 08c2 853d 11f1 6a3e
000000b0: 6511 da3c 64be b1bd 9199 543d 8798 19bc
000000c0: 8a2b d93d 572f 7cbd 98c2 0b3e 9fe6 c43c
000000d0: 11b8 6ebc 2124 a3bd 64b3 fe3c b80c a6bc
000000e0: 9ec1 d0bd 272d a5bd 93b3 c1bc 0549 023d
000000f0: 16da ddbd a44a 5ebd 1ff2 70bd 2618 6c3c
-0.0046979906 -0.06553118 -0.014062092 -0.12178944 0.070791304 -0.0096039865 -0.03697921 0.13173811
0.1575729 0.07026878 0.035367824 -0.2525017 -0.088264346 0.03570666 0.012381121 0.13333884
0.091851 -0.13672164 -0.08016629 0.055415202 -0.09439808 -0.08696186 0.014251511 -0.013762985
-0.09377827 0.017061457 -0.167067 -0.018549453 -0.08984693 0.0019622927 0.07926752 0.046696443
-0.02648206 0.17305891 0.10157095 0.101388454 -0.010698901 -0.022476781 -0.2011221 -0.090533234
-0.22247651 0.007010506 0.06531149 0.22943522 0.026619622 -0.08678892 0.051904265 -0.009374744
0.106040075 -0.061568584 0.1364845 0.02403575 -0.014570252 -0.079658754 0.0310914 -0.020269737
-0.101931795 -0.08065253 -0.023645198 0.031807918 -0.10832612 -0.0542704 -0.058824655 0.014410054

critic.4.weight f4 [1, 64]
00000000: 4a23 fdbd 87d4 53bb e213 29bb c3b0 903a
00000010: 42a1 9abb 936f e037 5d12 953a 1016 c3ba
00000020: 3c52 5abc 4486 a9bb 128b 4ebb 08c1 0a3e
00000030: 9f45 8d3a cb27 153b dea8 3fbb 5359 01be
00000040: ab92 9bbb 0666 0e3e 573b bd38 d826 ad3a
00000050: 8a7c aa3b c6ae 9339 0abc 5d3d 4dfa 6dba
00000060: 0b9e fb38 5e59 d7bb e7c3 483c f3d7 593a
00000070: df08 1d3b 88b9 b3ba 7df3 b8bb 648c 8abb
00000080: 8da2 86b9 fbc7 ccbd 2953 b5ba e425 b0ba
00000090: 7a86 0cba 7fdb 9d39 8990 b7bd fdf3 a4b9
000000a0: c153 593d 2ca6 72bd 83de b93b 21ed 19be
000000b0: c710 363b 67ab fd3d cf15 143a 6a71 a33a
000000c0: a421 6fbb c8f7 3ebb 2544 2dbc 58b4 16bb
000000d0: 82a5 abbb 5b3c 863a 6edf 72ba 3bc9 0bbb
000000e0: bf34 503b 916b 4e3a 92fe f93a 8cfa 65ba
000000f0: 6988 47bb 7324 af3d 0442 7dbb 9fe2 15bb
-0.123602465 -0.003232272 -0.0025799205 0.0011039007 -0.0047189305 2.6754837e-05 0.001137327 -0.0014883894
-0.01332527 -0.0051734764 -0.0031515998 0.13550198 0.0010778195 0.0022759314 -0.002924494 -0.1263173
-0.004747709 0.13906106 9.023275e-05 0.0013210429 0.0052028345 0.0002816824 0.054134406 -0.000907813
0.000119980505 -0.0065719327 0.012253738 0.0008310072 0.0023961586 -0.0013711909 -0.0056442604 -0.0042281616
-0.0002567958 -0.09999081 -0.0013833988 -0.0013439027 -0.0005360615 0.0003010891 -0.08963115 -0.00031462303
0.05305839 -0.059240505 0.0056722774 -0.15031864 0.0027780996 0.12386208 0.00056490017 0.0012469713
-0.0036488557 -0.0029139388 -0.010575329 -0.0022995677 -0.005238236 0.0010241376 -0.0009264861 -0.002132966
0.003176972 0.0007874305 0.001907306 -0.0008772991 -0.0030446297 0.08551874 -0.0038644085 -0.0022870672

exp_avg f4 [7]
00000000: 0567 a83a ba58 b3ba 4364 6e3a b678 a4ba
00000010: 4c00 beba 02f6 e8ba f642 bd3a
0.0012848085 -0.0013683059 0.00090939197 -0.0012548182 -0.0014495938 -0.0017773511 0.0014439512

exp_avg_sq f4 [7]
00000000: fba6 133a ea28 4a3a 6c1f 303a d3b4 563a
00000010: add8 383a b838 e639 3f1c 4f3a
0.0005632487 0.0007711785 0.00067185494 0.0008190397 0.000705133 0.00043911277 0.00079006323

exp_avg f4 [64, 32]
00000000: aa37 88b9 c853 6039 93a9 73b9 f3f3 2239
00000010: 4429 e739 8867 8ab9 22f6 9939 acbe 3136
00000020: 1e8c 06b7 76d1 8a39 b3cc c039 3ba1 4aba
00000030: d062 db39 59b9 1dba 1414 5739 2472 2c3a
00000040: ff60 e636 56c0 b036 9184 8b38 2396 aeb7
00000050: f251 ebb7 4f36 172d 7570 f1b8 7fdb 4eb9
00000060: cbed b0ac d228 87ba 0bf3 9c39 0f36 81ba
00000070: fb59 b239 c06b 753a c18e 55b9 4dbf a73a
00000080: fd66 8739 fcc9 c6b9 a7aa 42b8 187b 68b8
00000090: b8c9 97b8 2fc3 6539 b80e a935 a3cf 1838
000000a0: 95df d337 80a1 2db9 4bf9 9b39 e5a4 0db9
000000b0: 0242 a238 81ab c1ba 7a88 b5b9 04b4 0dba
000000c0: afd7 3837 de11 2cb7 1a54 c8b8 6ffb 3339
000000d0: c96c 5db9 e212 fb2d 618c 23ba da50 2bba
000000e0: 6fdf efad c59d 023a 4cea 073a 325d d039
000000f0: c4e4 75b9 5008 82b9 f8d3 363a 0dbd 5039
00000100: a642 3238 c236 22b9 7b63 71b9 4dce 5ab7
00000110: d75e 4439 9fc0 98b9 865f 8eb8 3ecd 93b7
00000120: 1b6e 2937 6ef8 e639 e403 9139 e0ab aaba
00000130: 8ed6 5139 1992 0cba e724 6bba e93f 103a
00000140: 7090 5cb6 65a9 2637 55e0 2839 90f1 d3b7
00000150: 83a4 5c39 0ec6 77ad 8873 5d39 3b76 a839
00000160: 74a1 212d 3a04 bfb9 9b88 1936 8a16 80ba
00000170: c32c 5eb9 8de2 82b8 3d35 2aba d2d3 1139
00000180: f6d1 0ab9 6028 8fb9 ae34 9db8 130a 2f38
00000190: 2be9 8239 ff44 24b9 57b4 9b39 a0d6 5935
000001a0: ab10 4537 481c 66b9 70c7 df38 56cd 7838
000001b0: 6203 5039 4389 46ba 1a24 29ba 4651 87b9
000001c0: d642 3736 f811 5235 34a7 23b9 08f7 0d38
000001d0: f7ee 8037 c6a6 572d 97d8 06ba b610 93b9
000001e0: b8b8 c5ad 6d51 03ba bd5d 0ab9 cc15 b9b9
000001f0: 83a0 dd39 b423 4b3a 922d 0db9 03cd 4e3a
00000200: d7bd a3b9 543a 24b9 8899 9039 b8e2 2e39
00000210: af8c 9bb8 2966 b7b9 6bac a338 4e3f 6e37
00000220: 8384 a6b6 61d4 17ba 0971 7eb8 4889 773a
00000230: 9493 123a 3ff1 aa39 9c5d e239 7302 5f3a
00000240: ead7 cdb7 e1f9 f036 d4df 46b9 9e54 04b7
00000250: 173b 35b8 e1d2 d52d 11b1 92b9 a1b8 11ba
00000260: 0cf8 56ad 58d7 ce39 e1bf 8eb9 d9b3 7e3a
00000270: 8ebb 933a ced3 fab9 9763 8eba 43b9 283a
00000280: 7742 1938 d21c bdb8 4830 9e39 a0c3 f837
00000290: eb5e 1ab8 547e b3b8 1b29 3638 0dc0 9135
000002a0: 086b e3b7 9c0c 8bb9 0b77 483a a326 2fba
000002b0: f103 c139 b932 a939 f2a2 7c3a ae79 5639
000002c0: 4685 a4b7 e604 02b7 3c32 f739 c13f 9238
000002d0: 3936 0e3a f2da 92ad fc1e ddb9 9174 c839
000002e0: 6f04 a2ad 6262 18b9 2c21 ca39 172f 9f39
000002f0: 37c7 8039 54f5 813a 1850 d539 1e9f 0339
00000300: c7d8 1834 cf5e 5c39 4156 b5b8 3f35 6639
00000310: 2d8d 6539 94a1 24b9 b713 9e39 0555 dd36
00000320: 6d30 8eb7 8a26 1dba faa9 d638 7964 5337
00000330: 0c03 4039 a49e 04b9 3758 a539 2372 c4b9
00000340: 3c5b 2fb7 3b2c 46b6 8b21 3738 b073 0eb6
00000350: 671d 6438 f41e a42b 09e7 18ba af53 deb7
00000360: 5e60 e0ad a320 6ab9 fa13 6eb8 de2a 27b9
00000370: 9096 bf39 5ce9 9e3a 0255 48b9 d852 803a
00000380: a790 5e39 84b2 f3b9 7b1a 7e39 d265 2138
00000390: d063 0539 9621 4337 a518 8439 9ba2 ae37
000003a0: d546 9437 1cc5 5a3a 2dae 19b9 8b40 8eba
000003b0: f224 5f38 0d26 1dbb 9578 77b9 ed0d bcb9
000003c0: 637b 2c37 7768 a1b6 4a91 1f39 e6f8 1339
000003d0: 275a 1c39 c503 582d f4ba 36b9 009e 93b9
000003e0: c852 06ad c0dd a939 9b3a db39 7eb6 9739
000003f0: a9d6 27b9 0080 153a ea40 e638 45d0 373a
-0.00025981414 0.00021393516 -0.00023237457 0.00015540402 0.000440905 -0.00026398548 0.00029365817 2.648604e-06
-8.019646e-06 0.00026477472 0.00036773607 -0.00077297137 0.00041844556 -0.00060166937 0.00020511477 0.00065782876
6.865826e-06 5.2675996e-06 6.652729e-05 -2.081233e-05 -2.8052342e-05 8.595415e-12 -0.00011512722 -0.0001972746
-5.028621e-12 -0.0010311848 0.0002993572 -0.000985803 0.00034017846 0.00093620643 -0.00020366443 0.0012798101
0.0002582594 -0.00037915993 -4.6412137e-05 -5.542775e-05 -7.237814e-05 0.00021911853 1.2595765e-06 3.6433e-05
2.5257274e-05 -0.00016558729 0.00029749642 -0.00013508236 7.737057e-05 -0.0014775844 -0.00034624693 -0.00054055476
1.1017472e-05 -1.0256159e-05 -9.552408e-05 0.00017164437 -0.00021116728 2.8543782e-11 -0.00062388746 -0.000653518
-2.7270379e-11 0.0004982616 0.0005184754 0.00039742287 -0.00023450243 -0.00024801726 0.0006974335 0.00019906853
4.250058e-05 -0.00015469923 -0.0002302061 -1.3041846e-05 0.00018727347 -0.00029135213 -6.78888e-05 -1.7619339e-05
1.0098821e-05 0.00044054113 0.00027659454 -0.0013021193 0.00020011721 -0.00053623464 -0.00089700375 0.00055026874
-3.2866628e-06 9.933811e-06 0.00016105299 -2.5265646e-05 0.0002104212 -1.4084301e-11 0.00021119241 0.00032131546
9.18764e-12 -0.00036433508 2.2878291e-06 -0.0009772342 -0.00021188245 -6.2410814e-05 -0.00064929185 0.00013907187
-0.00013238922 -0.00027305167 -7.496156e-05 4.1732634e-05 0.00024969256 -0.00015665962 0.00029698267 8.115112e-07
1.1745996e-05 -0.00021945045 0.00010670617 5.931904e-05 0.00019837686 -0.0007573554 -0.0006452218 -0.0002580976
2.7308029e-06 7.8257244e-07 -0.0001560718 3.3847085e-05 1.5370066e-05 1.2258366e-11 -0.0005143969 -0.00028050476
-2.2478339e-11 -0.0005009387 -0.00013195626 -0.0003530219 0.00042271995 0.00077491556 -0.00013463784 0.00078888255
-0.00031231224 -0.00015661988 0.0002758021 0.00016678392 -7.41718e-05 -0.00034980595 7.804561e-05 1.4200645e-05
-4.962612e-06 -0.000579184 -6.066359e-05 0.0009442759 0.0005591449 0.0003260467 0.00043175824 0.000850714
-2.4538447e-05 7.181647e-06 -0.00018966134 -7.887515e-06 -4.3208795e-05 2.4308945e-11 -0.00027979215 -0.0005558823
-1.2219569e-11 0.00039451825 -0.00027227312 0.00097161304 0.0011271106 -0.00047841523 -0.001086342 0.00064362976
3.6539943e-05 -9.0175905e-05 0.0003017208 2.9654999e-05 -3.680486e-05 -8.5589156e-05 4.3430464e-05 1.0859236e-06
-2.7110349e-05 -0.0002652154 0.00076471333 -0.00066814775 0.00036814765 0.00032271983 0.0009637318 0.0002045396
-1.9612384e-05 -7.749744e-06 0.0004714894 6.9736976e-05 0.000542495 -1.669551e-11 -0.0004217549 0.0003823382
-1.8419237e-11 -0.000145325 0.00038553157 0.00030361928 0.0002456249 0.0009915032 0.000406862 0.0001255241
1.4234966e-07 0.00021016154 -8.6468186e-05 0.00021954345 0.00021891734 -0.00015700451 0.00030150797 6.596211e-06
-1.695027e-05 -0.00059948175 0.00010235976 1.2599973e-05 0.00018311682 -0.00012647599 0.00031536978 -0.00037469072
-1.0452055e-05 -2.9530045e-06 4.366184e-05 -2.1226988e-06 5.438682e-05 1.1661492e-12 -0.0005832767 -2.650343e-05
-2.5508647e-11 -0.00022328137 -5.6762226e-05 -0.0001594233 0.00036542537 0.001212399 -0.00019105154 0.0009790314
0.00021225457 -0.00046481576 0.00024233192 3.848022e-05 0.00012721051 1.1630726e-05 0.00025195364 2.0818135e-05
1.7675959e-05 0.00083454116 -0.00014656103 -0.0010852976 5.320175e-05 -0.002397898 -0.00023600676 -0.0003586853
1.0280727e-05 -4.810335e-06 0.00015217546 0.00014111734 0.00014910904 1.22790155e-11 -0.00017426518 -0.00028155744
-7.635399e-12 0.00032399409 0.000418146 0.00028936932 -0.00016006328 0.00057029724 0.00010979346 0.00070119306
