logs/rsl_rl/franka_reach/2025-06-16_20-11-58/model_0.pt (torch, 172231 bytes, 36 tensors)

std f4 [7]
000000 bb 83 80 3f a2 b2 7f 3f 59 de 7f 3f 57 36 7f 3f
       1.0040201 0.9988195 0.9994865 0.9969229
000010 55 3b 7f 3f 36 a8 80 3f 60 7e 7f 3f
       0.9969991 1.0051334 0.9980221

actor.0.weight f4 [64, 32]
000000 a8 5d 17 3e 38 8d 9f 3d 45 ff c8 ba 54 10 00 3e
       0.14781821 0.07790607 -0.0015334865 0.12506229
000010 34 61 1d bd e7 e3 69 3d 73 89 7f bd ed 87 d9 3d
       -0.03842278 0.05710211 -0.06238694 0.10621629
000020 4d b8 3c 3e 2f e5 fb bd 01 53 1c 3e bc c5 23 3d
       0.1842968 -0.12299573 0.15266038 0.039983496
000030 64 3d 25 3e eb 26 5d 3c 1b 12 83 3d ce 2a 16 bd
       0.161367 0.013498048 0.06399938 -0.036661915
000040 c2 51 6f 3c 49 b3 cc bd 46 d6 04 be ad d2 02 be
       0.014606895 -0.099951334 -0.12972364 -0.12775679
000050 6a 0a a8 bd 03 ba a9 bc 5e 31 93 bd 99 5a e2 3d
       -0.08205111 -0.02071858 -0.071871504 0.110524364
000060 a5 e4 0e be 33 c3 a7 bd 79 ba 2b bd e8 59 d3 bd
       -0.13954408 -0.08191528 -0.04192588 -0.10319883
000070 00 09 2b 3d d1 0f 24 be 7b b4 17 3e d6 fd 12 be
       0.04175663 -0.16021658 0.14814942 -0.14354643
000080 0d e2 a8 3d 3b 0e a0 3d 06 24 47 3b a0 11 02 3e
       0.08246241 0.07815214 0.0030386462 0.12702036
000090 6f 0e 8e 3d 3c 28 0d 3e 84 1c bb 3d cd 5f 34 bd
       0.06936347 0.1378488 0.09136298 -0.044036675
0000a0 96 a0 58 3d 58 13 2e bd fb 9b ac 3d c3 e6 1e 3e
       0.05288752 -0.042498916 0.084281884 0.15517716
0000b0 0e 56 b1 3d b0 8c 76 bd 7e 77 e2 3d a2 55 60 3d
       0.08658992 -0.060192764 0.110579476 0.054769166
0000c0 b7 5e f3 3d ed 11 a1 bd 61 9c 38 be ae 85 19 be
       0.118833 -0.07864747 -0.18028404 -0.14992401
0000d0 e3 f7 14 be 43 91 14 3e b0 01 83 3d 0a 97 84 3d
       -0.14547686 0.14508538 0.06396806 0.06474121
0000e0 9d 11 65 3d 80 ff e5 bc 7a 24 f5 3d af 79 07 be
       0.055925 -0.028075933 0.11969848 -0.13230012
0000f0 19 7c 96 bc 62 e3 ca bd 9d b4 2a 3d fa 5f 3d bd
       -0.018369721 -0.09906651 0.041676152 -0.04623411
000100 a5 3e a5 3d 65 00 4c bd 80 e2 21 3e fe 67 01 be
       0.08068589 -0.049805064 0.15809059 -0.12637326
000110 65 fa e6 bd cd 7e 40 bd 34 e0 6e 3e fc e8 82 3d
       -0.11278228 -0.046995927 0.23327714 0.063920945
000120 b7 28 3a 3e 77 1c 0c be 8d 73 16 be 01 3c ff bd
       0.18179594 -0.13682733 -0.14692517 -0.12462617
000130 88 b4 c8 bd cb 40 9c 3d 4f 9c 1a 3d 36 31 01 3e
       -0.098000586 0.07629546 0.037746724 0.12616429
000140 e1 26 be bd 87 63 d6 bd 4c cb ac 3d d0 e3 d4 bd
       -0.09284759 -0.10468202 0.08437213 -0.10395014
000150 61 f7 d4 3d 5d dc 2b bd 9c fa dd 3d 4e 4b 0b be
       0.10398746 -0.0419582 0.108388156 -0.13602945
000160 31 b2 b6 bd 0a 83 a4 3d 02 e0 76 3d 77 bd 72 bd
       -0.08920706 0.08032806 0.060272224 -0.05926272
000170 cb 52 0b 3e 3e 25 f2 3d 15 06 0a be 3d 5b 02 be
       0.13605802 0.1182351 -0.13478883 -0.12730117
000180 9f 15 8f 3d c7 3e fb bd 68 91 cd bc fd f4 37 be
       0.06986546 -0.12267833 -0.02509375 -0.1796455
000190 0a 26 e7 bd 93 74 52 3d fd 44 9e bd 54 2a 0c be
       -0.11286552 0.051380705 -0.07728002 -0.13688022
0001a0 4a ab 9b 3b cd 73 e6 bd 2a 7a 31 be 5a f7 b0 bd
       0.004750644 -0.11252556 -0.17331758 -0.086409286
0001b0 48 2a 2f be 1d 14 fe bd c5 84 46 3e a1 9b 5a 3d
       -0.17105973 -0.1240618 0.19386585 0.053371076
0001c0 88 cc 64 3d 13 e2 3f be c2 46 0b be b2 18 f9 bd
       0.05585912 -0.18738584 -0.1360121 -0.121629134
0001d0 e2 53 95 3c 49 4d 1f be 09 f1 6d bd 53 94 c7 bd
       0.018228475 -0.15556826 -0.058091197 -0.097450875
0001e0 2e 1d 09 3a 5b e2 e6 bc d5 c1 1f bd 17 f4 90 bd
       0.00052304834 -0.028184107 -0.039003212 -0.070778064
0001f0 b7 95 00 be 25 54 f7 bd a8 fc 64 bd e2 6e f3 bd
       -0.12557112 -0.12076596 -0.055905014 -0.118863836
000200 cb 98 0c 3e d4 69 bf bd 92 7f c0 3d 78 66 1d bc
       0.13730161 -0.09346357 0.09399332 -0.00960695
000210 7f e3 3f be 19 29 fa 3d de aa 17 bc af da 3d bc
       -0.18739127 0.1221487 -0.0092570465 -0.011587783
000220 8c 74 af bd da 21 28 be db c0 2f 3d 8c 5f b9 bc
       -0.085671514 -0.16419163 0.04290853 -0.022628568
000230 74 d7 92 3c d4 9f 1a be 11 dc bf 3d 28 6e e4 bd
       0.017925002 -0.15100032 0.09368146 -0.11153823
000240 d9 51 25 be be 6d ae bd d2 f6 8d 3d f3 24 3b 3e
       -0.16144504 -0.085170254 0.06931843 0.18275814
000250 9f 11 05 3e 2d 82 0f be 23 14 c5 3c 5a e7 da bd
       0.12995003 -0.14014502 0.024057453 -0.10688658
000260 95 e0 9e bc ad 70 fd bd 53 cc 2a 3e b1 34 12 be
       -0.019394198 -0.12375007 0.16679506 -0.14277913
000270 36 df d0 3d a5 79 63 3d ea 23 64 3d ba 1a 50 bd
       0.10198824 0.05553593 0.055698313 -0.05080674
000280 2d 42 79 3e 84 d3 1c 3d 36 b6 05 3d 5e 3b 1b be
       0.2434165 0.038287655 0.032644473 -0.15159366
000290 50 10 4a 3d fe 05 a9 bc 0e a2 24 bc 71 d7 39 3e
       0.049331963 -0.02063274 -0.0100484025 0.1814859
0002a0 c5 92 57 3d 20 34 ee bd 4f 1f 82 bd a4 7e 37 bd
       0.052630205 -0.11631036 -0.06353628 -0.04479851
0002b0 21 06 dc 3d 82 75 37 bd 33 fe a5 bd 2c a8 57 bd
       0.107433565 -0.0447898 -0.08105125 -0.052650616
0002c0 46 5f ff bd 8f 66 b2 3d fd 36 f0 3d 98 65 8c bd
       -0.12469344 0.08710968 0.11729238 -0.06855315
0002d0 b6 1b d7 3b 2a 07 bb 3d 40 80 af 3c 91 41 82 bd
       0.0065645827 0.09132226 0.021423459 -0.06360162
0002e0 75 f5 bc 3d 15 df 2c 3d d8 46 d4 3d 04 36 97 bd
       0.09226505 0.042204935 0.10365075 -0.073833495
0002f0 fb 30 a9 bc 5b cd 92 bc 32 15 73 bd f0 c7 3c bd
       -0.020653239 -0.017920187 -0.059346385 -0.046089113
000300 2b 77 0a 3e c4 68 88 3d 9a d0 00 3d bb d0 8d bd
       0.13522021 0.066606075 0.031448938 -0.06924578
000310 d4 81 cf 3c 61 8a 65 3d 81 dd 75 3d 39 f4 81 3d
       0.025330462 0.05604017 0.060025696 0.0634541
000320 d9 82 0d be 88 b9 88 bd 71 fb 24 3e fb 50 c0 3d
       -0.13819446 -0.06676012 0.16111542 0.09390446
000330 b1 0d 66 3a dc 34 d1 bd 8c e8 e4 bd 04 5b 1a be
       0.0008775844 -0.1021516 -0.11177167 -0.15073782
000340 20 0b da bd 54 89 8c 3b 43 6b b0 3d da db f0 bc
       -0.10646653 0.0042888317 0.086142085 -0.029401708
000350 c1 a8 2d be 2a 89 d9 bd 9c 5d 9d bd b6 b2 1d 3e
       -0.16958906 -0.10621865 -0.0768387 0.15400204
000360 ab 89 d0 3c 1a 14 33 bd d7 7a ba 3d e6 1e d7 bc
       0.02545627 -0.043720342 0.09105461 -0.02625985
000370 b8 86 ab bd fd 49 0f 3e 55 8b a6 bd 06 81 d5 bc
       -0.08375305 0.13993068 -0.08132044 -0.0260625
000380 94 d7 db bd 20 bf 98 3d 28 35 76 3d 02 0e af 3c
       -0.10734478 0.07458329 0.060109288 0.021368984
000390 79 80 3c be 06 9b 54 be f0 1c 34 be 47 7b 3b 3e
       -0.18408383 -0.20762262 -0.17589164 0.18308745
0003a0 2f c3 ef 3d 96 b6 1b 3e 88 c3 ce 3d 1f 76 43 3d
       0.1170715 0.1520637 0.100958884 0.04772007
0003b0 f8 a2 75 3c f2 fd 10 be 53 9d 18 be fd 84 3f be
       0.014992468 -0.14159372 -0.14903764 -0.18703075
0003c0 38 b1 23 3c 9f ea 16 be d6 4d 46 bd 6e a7 15 be
       0.009990983 -0.14737938 -0.048414074 -0.1461465
0003d0 32 7a 86 bd c6 d0 fe bd 49 45 13 be 06 cc 73 3d
       -0.06566276 -0.12442164 -0.14381899 0.059520744
0003e0 75 60 57 bd 50 6b dd 3d b0 2f 3c bd d9 39 13 be
       -0.052582223 0.10811484 -0.045943916 -0.14377536
0003f0 f6 dc 44 3d ac b5 ea bd e9 4c 69 bd 14 77 34 be
       0.048062287 -0.114604324 -0.056958113 -0.1762355

actor.0.bias f4 [64]
000000 90 02 99 3d 21 c6 e3 3c 5d fd 28 bd b3 1d a8 3d
       0.07471192 0.027804436 -0.04125725 0.0820879
000010 5e fd 24 3d 83 59 46 be 74 09 f3 bd 7c 80 da bc
       0.040280692 -0.19370084 -0.118670374 -0.026672594
000020 b9 7c 80 3d b6 e8 9e 3d 96 d9 b8 bd e0 b6 13 be
       0.06273789 0.0775923 -0.09025876 -0.1442523
000030 f0 ac 8b bc 6b 60 8a bc 47 88 1d 3d 35 18 5e bd
       -0.017050236 -0.016891679 0.038460042 -0.054222304
000040 36 37 fd 3d 73 92 8f 3b 83 b4 d3 3d 99 73 f1 bd
       0.12364046 0.004381472 0.10337164 -0.11789627
000050 45 2a 67 3d be d9 23 3c 82 a7 dd bd f0 a4 6d 3d
       0.056436796 0.010000644 -0.10822965 0.058018625
000060 8c be 2f be 29 dd fa 3d 8d 90 34 3c 4f ca a4 bb
       -0.17162532 0.12249214 0.011020792 -0.005029
000070 f2 32 9a 3d b0 ff a7 3b 69 ce 45 3d 6b ae c1 3d
       0.07529248 0.005126916 0.04829255 0.09457096
000080 16 ba 24 be 28 f2 e3 3d bd 71 31 bd 9e 38 c6 bc
       -0.16086611 0.11130172 -0.04332136 -0.024196919
000090 51 f5 af 3c 99 de 07 3e 68 5f f1 bd aa d6 f1 bd
       0.02147928 0.13268508 -0.117857754 -0.11808522
0000a0 2c 25 ad 3d ca 7a b8 bd 97 41 71 3d 91 a7 92 bc
       0.084543556 -0.09007795 0.058900442 -0.017902168
0000b0 c9 b8 d4 3c be e6 e1 3d 7e 10 9b bd dc 85 13 be
       0.025967019 0.11030339 -0.07571505 -0.14406532
0000c0 82 2f a7 3d d8 9d cd bb 09 4b bb bc 6a 38 06 be
       0.08163358 -0.00627492 -0.022862928 -0.13107458
0000d0 f7 32 ea 3d 7d 96 ad bc a5 5c 42 bd 0f 8c c6 bd
       0.11435502 -0.021189922 -0.047451634 -0.09694683
0000e0 1f 1d 16 bd e4 b6 73 3d d9 3f 3f bc 16 a7 15 3e
       -0.036648866 0.05950059 -0.011672937 0.1461452
0000f0 f0 8d f3 3b 16 38 27 bd c9 e7 9c 3d 50 27 91 bc
       0.0074326918 -0.040824972 0.07661397 -0.017718941

actor.2.weight f4 [64, 64]
000000 86 9b b8 bc 13 2b 17 3d c7 a3 96 3d 83 c3 1b 3d
       -0.022535097 0.036906313 0.07355457 0.03802825
000010 52 74 a5 3d 3d 50 95 3d 44 70 a3 3c f7 18 da 3c
       0.08078827 0.07290695 0.019950993 0.026623232
000020 5a db e0 3c cb 91 0b 3c e9 85 e7 3d dd 58 c1 3d
       0.027448345 0.0085186465 0.11304838 0.094407775
000030 cb 62 54 3d 21 69 ca 3c 53 5f bd 3d dc b7 d9 bd
       0.05185203 0.024708332 0.09246697 -0.106307715
000040 e6 78 a0 3d d5 fa 99 3d 9a b4 b5 3d 1d b5 e4 bb
       0.078355595 0.075185455 0.08872338 -0.006979598
000050 86 15 b0 bd 14 9b c2 3d f2 48 63 bd b0 cb 3b 3d
       -0.08597855 0.09502235 -0.055489488 0.04584855
000060 ec 59 92 3d bb 12 f9 bd a0 1d 17 3b ed ea 62 bd
       0.071460575 -0.12161776 0.002305843 -0.055399824
000070 95 58 ad 3d 5e 15 bd bd 52 2a 84 3d b4 dd 9c 3d
       0.08464161 -0.09232591 0.064533845 0.07659474
000080 11 ca 8d 3d 3a 26 1c 3e a3 79 07 3d 5a 12 e9 bd
       0.06923307 0.15248957 0.033074986 -0.113804534
000090 5a 6e d0 3d 76 71 96 3c 43 9d ee bb e4 22 fc bd
       0.10177298 0.01836465 -0.0072819307 -0.12311342
0000a0 9b 10 15 bd da 42 3e bd 1a cc de 3d 91 f0 b9 3d
       -0.03639279 -0.046450473 0.10878773 0.090790875
0000b0 53 52 cb 3d 2a e4 a8 3d 76 3a 94 bd be d1 54 bd
       0.099278115 0.08246644 -0.07237713 -0.05195784
0000c0 80 4b 83 bd 8c a1 58 bd ab c5 ab 3d ed f9 1f 3d
       -0.06410885 -0.052888438 0.083873115 0.039056707
0000d0 d1 da d6 3d 3d cd 95 3b c4 a1 f7 bd bb 8e e0 bc
       0.10490955 0.0045715855 -0.12091401 -0.02741181
0000e0 32 0b b9 3d f0 4c a1 3d 4c d8 62 3d 3e cf 4a bd
       0.090353385 0.07876003 0.055382058 -0.049514048
0000f0 93 1e f1 bd 92 0a 98 bd d4 a5 7c 3d 12 ec 31 bd
       -0.1177341 -0.07423891 0.061681584 -0.043438025
000100 ae a5 63 3d 61 bd 2f 3d 76 88 50 bd 73 f7 81 3d
       0.055577926 0.042905215 -0.05091139 0.06346025
000110 04 60 01 bd e8 e8 36 bb 25 45 56 bd 4a c4 02 be
       -0.03158571 -0.002790982 -0.052312035 -0.12770191
000120 8b d8 46 3c 67 1c 2e 3d c3 77 57 bd 55 5d 9d 3d
       0.012136589 0.042507555 -0.052604448 0.07683817
000130 4f 29 f3 bd b3 19 04 be fb e4 b1 bd 1a e3 45 bd
       -0.11873113 -0.12900428 -0.08686253 -0.048312284
000140 d0 35 4a bb 50 34 ae bc 3b 1d 8d 3d 7e be d3 bd
       -0.0030854829 -0.021265179 0.06890341 -0.10339068
000150 0c 1c 6e 3c 1a 1e 56 3c 22 c7 49 3d 30 c9 07 3e
       0.014533054 0.0130687 0.049262173 0.1326034
000160 fe 2c b4 3d 99 f3 8d bd f6 8f bf bd 0e 78 d8 bc
       0.08797644 -0.06931228 -0.0935363 -0.026424434
000170 43 9d 37 bd ea 8a 0e 3d 41 cd 90 bb a3 27 e3 3d
       -0.04482771 0.034800448 -0.0044189994 0.110915445
000180 69 3c 42 3d b4 9d f1 bc 53 70 ce 3b 98 e2 fe 3c
       0.047420893 -0.029494144 0.006300011 0.031113908
000190 f4 a9 8c bc 06 44 c7 3d 29 fa be bd 0b ed 68 3d
       -0.017170884 0.09729771 -0.09325058 0.056866687
0001a0 31 01 9d bd ae f0 08 be c2 6f 9a bc 91 16 89 3d
       -0.07666243 -0.13373062 -0.018852118 0.06693757
0001b0 66 6c b5 3d 04 ac 1e 3d f9 e0 79 bb b1 8a c5 3a
       0.08858566 0.038738266 -0.003812848 0.001507124
0001c0 58 a8 6e bd 70 42 42 bc 79 66 87 bb 1d b0 e7 3d
       -0.058266014 -0.01185666 -0.0041320887 0.11312888
0001d0 8b 2c 8d 3d 34 8e cf bd 05 aa 24 3c 97 0d 86 bd
       0.068932615 -0.10134545 0.010050301 -0.06545561
0001e0 1e bf 65 bc 5e e9 c4 bd dd 76 f9 3c e8 65 bd bd
       -0.014022617 -0.09614824 0.030452186 -0.09247953
0001f0 07 3e e3 3d 5e b1 d4 3d 68 62 93 bd 11 c8 e9 bd
       0.11095815 0.103853926 -0.07196504 -0.11415113
000200 c5 eb 49 3c a8 79 18 bd e9 d5 a4 ba 1e 74 ab bd
       0.012324278 -0.037225395 -0.0012575957 -0.08371757
000210 c8 13 7b 3d 52 4e cc bd ef 2c 79 bd 74 e9 8b bd
       0.06129816 -0.09975876 -0.060833868 -0.06831637
000220 46 54 42 3d 62 2a 3f 3c 0e fe e0 bd 5e df 86 bd
       0.04744365 0.01166782 -0.10985957 -0.06585573
000230 cb ab 78 bd 91 42 e6 bd 81 32 86 3c 58 ce 17 3d
       -0.06071071 -0.11243165 0.016381504 0.03706202
000240 1b ba 0d bd c5 a6 1e bd 45 6c 37 3b 8a 92 cc bd
       -0.034601312 -0.038733263 0.0027988118 -0.099888876
000250 3a cd 8b bd 4b 39 3e 3b 63 1e 06 3e 70 5d f0 bc
       -0.06826253 0.0029025848 0.13097529 -0.02934143
000260 7b 3d 84 3d 9d 5e 38 bd f5 a2 ef bc 23 b5 dc bd
       0.06457039 -0.045012105 -0.029252509 -0.107767366
000270 d9 92 e1 3d dd e9 f1 3d 80 c3 30 bc 9a b7 a6 3d
       0.11014337 0.11812184 -0.010788798 0.08140488
000280 26 26 e3 3d d7 32 94 3d 39 0d 51 3d 5e ee 05 be
       0.110912606 0.072362594 0.051038 -0.13079211
000290 ca da ea bd d2 a1 ab bd f9 1c 05 3d 92 56 01 be
       -0.11467512 -0.08380474 0.032498334 -0.1263068
0002a0 8f 7b cf bd 18 c7 7b bd b2 ea 10 be 81 7b b4 3c
       -0.10130989 -0.061469167 -0.14152029 0.022031548
0002b0 5a 2f 93 3c 6c 3c 86 bd d2 32 9e 3d f6 3a 40 bd
       0.017966915 -0.06554493 0.07724537 -0.04693123
0002c0 7e b4 69 bd 25 52 c8 3d 61 11 bd 3d be dd 61 bc
       -0.057056896 0.09781293 0.092318304 -0.013785778
0002d0 a0 12 da bd d5 f8 61 bd b7 38 85 3c 4b a4 86 3d
       -0.10648084 -0.055168945 0.016262395 0.06574305
0002e0 33 47 93 3d 98 00 51 bd 76 33 f1 bd b3 b6 ab bd
       0.071913145 -0.051025957 -0.117773935 -0.083844565
0002f0 25 25 28 bd 29 35 72 36 34 0d 3f bd 69 54 be bd
       -0.04105105 3.6091753e-06 -0.04664345 -0.09293444
000300 ff d1 56 bb 1d 63 c9 bd 5e ed d1 bd e7 af fd bd
       -0.0032778976 -0.098333575 -0.10250352 -0.12387066
000310 04 ca 2d bd bb b4 f4 3d 6f 0a 9a 3d 23 35 84 3b
       -0.042428985 0.11948534 0.07521521 0.0040346547
000320 83 27 82 3c bc 83 07 3d d5 fd 89 3a d9 31 b6 bd
       0.015887981 0.033084616 0.0010527918 -0.088962264
000330 f7 a8 90 bd b1 b5 b6 bd 2d d2 95 3c 7f 79 b8 bd
       -0.070634775 -0.08921374 0.018288696 -0.090075485
000340 d2 60 9b bc 2c 54 f7 bc 23 94 e5 3d b3 72 e7 3d
       -0.018967066 -0.030191503 0.112098955 0.11301174
000350 03 46 58 3d 60 42 5a 3b 6d d4 ff bc 6b 76 03 3d
       0.052801143 0.0033303723 -0.031229222 0.032095354
000360 20 16 b2 bd 23 8e 55 bd 75 cb 84 bc c1 89 a5 bc
       -0.08695626 -0.052137505 -0.016210297 -0.020207288
000370 ef 6a f3 bd b0 ea 45 3d 92 f0 db 3d 56 bf 8a bd
       -0.1188563 0.04831952 0.107392445 -0.06774776
000380 6c fd 23 3d ce bb ad bc 7f 14 ad 3b 3a b5 da 3c
       0.040036604 -0.021207716 0.0052819843 0.026697744
000390 10 4a db 3d 95 97 19 3c 1c 32 95 bd eb 14 24 bd
       0.10707486 0.009374519 -0.07284948 -0.04005901
0003a0 e4 1b 06 3d 87 c6 ae 3c 48 5b c8 3c 57 28 1c bc
       0.032741442 0.0213349 0.024457589 -0.009531102
0003b0 fa ff 52 bd 36 50 59 bd 28 96 5a bd 0f 03 09 3d
       -0.05151365 -0.05305501 -0.053365856 0.033450183
0003c0 c5 90 fa 3c c4 10 ce 3d 6b 74 d3 bc cd 02 cb 3b
       0.03058661 0.100617915 -0.025812348 0.0061954022
0003d0 89 87 8b 3d 36 0a 79 3d ac e6 5b 3c 1b 14 33 3d
       0.06812961 0.060800754 0.013421696 0.043720346
0003e0 7e 38 86 3c 65 20 05 be e8 e4 13 3c a6 c1 0e bd
       0.01638436 -0.13000639 0.0090267435 -0.034852646
0003f0 57 21 da 3d f9 30 f3 3d 80 1e 33 3c d3 ad f2 3d
       0.1065089 0.11874575 0.010932565 0.118495606

actor.2.bias f4 [64]
000000 a6 54 a7 bd 76 24 86 bd 8f 1f 96 bd 4d 2a 8e bd
       -0.08170442 -0.06549923 -0.07330238 -0.06941662
000010 b2 f6 ae bd 97 92 9a bd 52 27 43 bd ed 25 e2 bd
       -0.08543147 -0.07547491 -0.04764492 -0.1104239
000020 86 7f c8 3d 05 24 09 3d a2 3b 03 be bb 9b 03 be
       0.09789948 0.033481617 -0.12815717 -0.12852375
000030 9e ef 93 bd d6 49 4a 3d 6e fa e9 3d 09 7a fc bc
       -0.07223438 0.04938682 0.11424719 -0.03081991
000040 9c 01 89 3d 13 48 70 bd e8 e2 b2 bc a0 fe f2 bc
       0.0668976 -0.058662485 -0.021836713 -0.02966243
000050 c4 d4 01 be 1f 16 db bb b2 1a d9 3c 42 87 98 3d
       -0.1267882 -0.0066859866 0.026501987 0.074476734
000060 32 98 c2 bd 08 d0 0c bd 72 27 8d 3b fc c6 21 3b
       -0.09501685 -0.03437808 0.0043076808 0.0024685254
000070 54 50 d1 3b a4 35 be bd 0a 54 c4 3d 31 1b e8 bd
       0.0063877497 -0.09287575 0.09586342 -0.11333311
000080 b0 17 2b bd 97 80 72 3d 23 90 15 bd 80 dd 81 bd
       -0.041770637 0.059204664 -0.036514413 -0.06341076
000090 b7 e0 f7 bd 6a 74 ae 3d 2f 68 66 bc b0 62 4d 3d
       -0.12103408 0.08518298 -0.014062925 0.050142944
0000a0 95 72 0d 3c 1c 66 bc bd 4b 8f 74 bd 33 93 ac 3d
       0.0086332755 -0.09199163 -0.059706967 0.084265135
0000b0 f9 f4 8a bd a1 84 75 bd 54 5b 8b 3d 31 6f 58 bd
       -0.06785006 -0.059940938 0.06804529 -0.052840415
0000c0 fc d6 7b 3c d9 91 85 bd 70 87 04 3d 93 a9 b0 39
       0.0153710805 -0.06521959 0.032355726 0.0003369568
0000d0 8e 2d d6 bd 36 c4 bf bd dc 70 ec 3c e6 55 59 bd
       -0.104579076 -0.09363596 0.02886241 -0.053060435
0000e0 0e 34 65 3d 8a a9 67 3c 2f 03 2b bd 27 dc 8c bc
       0.055957846 0.014139542 -0.041751083 -0.01719482
0000f0 88 c5 78 bd 54 d5 5e 3d 31 6d c0 3d 4a 9d 2e bb
       -0.060735255 0.054402664 0.093958266 -0.0026644045

actor.4.weight f4 [7, 64]
000000 ca 06 87 bd 3d 51 86 3d 79 83 c2 3d b7 1a 9b 3d
       -0.06593092 0.06558464 0.09497733 0.07573455
000010 1a 5c 16 bc 82 14 bd 3c ee 1d c2 bb 35 01 21 bd
       -0.009177232 0.023081068 -0.005923978 -0.03930779
000020 88 20 d2 bd 66 84 a4 bb da 71 66 3d da b3 6f 3d
       -0.10260111 -0.005020666 0.05626092 0.05852113
000030 76 d3 36 3d 35 2f 0f 3d 07 16 ad 3d 8b 00 e6 bb
       0.04463526 0.03495713 0.08451467 -0.0070191077
000040 74 25 b1 3d a8 89 9b bb e6 7c 29 bd ac 73 18 bd
       0.08649722 -0.0047466345 -0.041378878 -0.03721969
000050 2e 11 7a bd 9c f9 89 bd 32 11 0f 3d 2f 87 e9 3d
       -0.06105154 -0.06737062 0.034928508 0.11402737
000060 d4 76 ee bb 17 7e b9 3c 03 f4 83 bd 2a d5 12 bd
       -0.007277349 0.022643132 -0.06443026 -0.03584782
000070 80 76 dd bc 2c 62 41 3d ca 1f e9 3c 04 8d 54 bd
       -0.027034044 0.047212765 0.028457541 -0.051892295
000080 dd d7 cb 3c 79 88 0e bd ec 6a ef bb 94 09 c3 3d
       0.024883205 -0.03479812 -0.0073064473 0.09523311
000090 90 fb 62 bd 14 b7 e1 3d 16 72 74 bd 09 60 e6 3d
       -0.05541569 0.110212475 -0.059679113 0.11248786
0000a0 b3 4b 54 3d 7a d5 4b 3d ec d6 16 bb fe 58 15 bd
       0.051830005 0.049764134 -0.0023016287 -0.036461823
0000b0 c5 8a 99 bd 7d 32 98 bd 5d 18 aa 3d 0d f9 00 3e
       -0.07497171 -0.07431505 0.08305428 0.12595005
0000c0 eb 5e 29 3d 5c 83 74 bd 24 1d b4 3c 14 04 42 3b
       0.041350286 -0.059695587 0.021986552 0.0029604482
0000d0 e1 d1 c3 bd 80 8e cd bd 3a f9 58 3d 70 28 32 bd
       -0.095615156 -0.10036945 0.052972056 -0.043495595
0000e0 ea 07 b8 bc 48 1c 9a bd cf ec 65 3d 21 65 4f bd
       -0.022464711 -0.075249255 0.05613404 -0.050633553
0000f0 38 c9 30 bd 93 77 37 3d b1 ac bf 3d 2c 33 bf 3d
       -0.043160647 0.04479177 0.0935911 0.09335932
000100 35 12 45 3d 5e aa 15 ba 2d 04 c0 3d 64 b1 d2 3d
       0.048113067 -0.00057092856 0.093757965 0.10287741
000110 f4 73 4b 3d 32 8d de 3c ae a9 06 3d 45 12 bb 3c
       0.04967113 0.027166937 0.032876663 0.02283586
000120 6b 56 a4 3d 5e ef c7 3c b2 cb dd bd b4 3a 86 bd
       0.080242954 0.024406131 -0.108298674 -0.065541655
000130 7b 5f d7 bd 96 0a 00 bd 5d e5 2a 3c c0 65 83 bd
       -0.10516258 -0.031260096 0.010430661 -0.06415892
000140 89 f0 cc bd 0e 3f 97 bd e5 f4 43 3d 38 94 0a bc
       -0.10006816 -0.073850736 0.04784097 -0.00845819
000150 b6 a4 89 bc f6 a5 1b 3c 09 f5 ba bc 36 77 94 bd
       -0.016802173 0.009500017 -0.02282192 -0.072493
000160 f3 f8 29 bd c4 00 aa bc 2b 1d e3 bd 33 99 d4 bd
       -0.041497182 -0.020752318 -0.11089548 -0.10380783
000170 92 9b 20 bd b4 c2 5c 3d 5c 22 ec 3d 0d 98 ba 3b
       -0.039210863 0.05389662 0.11529991 0.0056943954
000180 16 24 ad 3d 38 08 30 3d 15 cd cb bd 1f 13 66 bd
       0.084541485 0.042976588 -0.09951226 -0.05617058
000190 b8 b8 c3 bc 16 66 e7 bd f6 b8 26 3a 2e 90 0d 3d
       -0.023891792 -0.11298768 0.0006359959 0.03456133
0001a0 23 ae 82 bd 51 63 e8 bc ab bb a5 bd 5c ad dc 3d
       -0.0638087 -0.02836767 -0.080924354 0.10775253
0001b0 15 a2 9d 3d cc 3a 39 bd 3b 20 e2 3d d9 6e 71 bd
       0.0769693 -0.04522209 0.11041304 -0.058943603
0001c0 36 f1 c2 3d e7 73 1e bd ee 26 c9 3c 2a 19 a9 3d
       0.095186636 -0.03868475 0.024554696 0.08256753
0001d0 f5 27 a2 3d 70 21 2f 3d 9f 86 3e 3b 7e 42 52 3c
       0.079177774 0.042756498 0.002907194 0.012833236
0001e0 d4 1a c0 3d ba ea 2f bd 1e 86 2e bd 9e b9 10 3c
       0.09380117 -0.042948462 -0.042608373 0.008833317
0001f0 9f 20 55 bd 0b 49 59 bd 0a 09 bf ba c6 c0 d9 3d
       -0.052033063 -0.053048175 -0.0014574837 0.10632472
000200 3a fa 60 3d 25 d2 72 bd 94 1c 99 3d 4f ca 0e bd
       0.054926135 -0.05928244 0.07476154 -0.034860905
000210 37 d6 15 3d 38 5b 06 3c 5e cb a6 3d 52 32 1b bd
       0.036581244 0.008200459 0.08144258 -0.037889786
000220 e5 91 2e bd 47 d1 96 bc f7 6e 11 bc f1 91 30 bd
       -0.042619605 -0.018410338 -0.008876554 -0.04310793
000230 61 f6 8f 3d b2 7b 86 bd 8b 48 47 3c 06 c8 9e bd
       0.07029415 -0.06566562 0.012163292 -0.07752995
000240 68 00 08 bd 2b ee 00 bd f6 c4 54 bd 33 8e 89 3d
       -0.033203512 -0.031477135 -0.05194565 0.067165755
000250 17 28 be bd 5a 8c 60 3b 19 7a e2 bb 12 31 83 bd
       -0.0928499 0.0034263344 -0.006911528 -0.06405844
000260 c9 3c 8c 3d a8 c9 91 3d 42 a5 ff 3b e1 09 42 3c
       0.06847531 0.07118541 0.0078016827 0.011843176
000270 aa 38 6d 3d 5f 6c 5f bd be e4 bb bd a9 e3 c0 3d
       0.057915367 -0.05454671 -0.091744885 0.09418423
000280 c2 e6 4c bd 14 33 b8 3c fb e9 05 3c 8c 91 bd 3d
       -0.050024755 0.022485293 0.008173461 0.092562765
000290 7d 55 f5 3d 5d a1 96 bd 9c 62 8c bb 1b f8 d3 bd
       0.11979196 -0.07354996 -0.004284216 -0.10350057
0002a0 12 2b 96 3d 27 ae c6 3d 3f c8 4b bd 4f 7f fd 3c
       0.07332434 0.09701186 -0.049751516 0.030944495
0002b0 0c 79 3b bc 4b 27 92 bc a3 db b0 3d df 56 f8 bd
       -0.011442434 -0.017841002 0.086356424 -0.12125944
0002c0 ac 69 1f 3c 79 ac 8a 3c 12 87 9d bd 6b 8c 59 3d
       0.009729784 0.016927944 -0.07691778 0.05311243
0002d0 8c 9a 86 3d 76 6f b0 bd ee 72 2e 3d aa 0c 83 bb
       0.06572446 -0.086150095 0.042590074 -0.0039993124
0002e0 4d 3c d7 3d f6 db d9 bd 04 3a b5 3d 9c d7 32 bd
       0.10509548 -0.10637657 0.08848956 -0.043662652
0002f0 e7 1a d4 3d 78 14 83 bd d2 13 10 3d f6 df c7 3c
       0.10356694 -0.064003885 0.035175152 0.024398785
000300 07 7d 87 3d 5e a1 3f 3d 7f 7e 62 3d e9 a9 04 bd
       0.06615644 0.04678475 0.055296417 -0.0323886
000310 20 84 a8 bd c8 e3 e5 3a e9 b6 df 3d 4a 13 b7 3d
       -0.08228326 0.0017539198 0.10923559 0.08939226
000320 5b 6e 85 bd 2d 13 a4 3d b9 ec 3f 3d 22 f7 6e bc
       -0.06515189 0.0801147 0.046856616 -0.014585288
000330 ff ac 75 3d 0c 96 3e bc c2 cb a4 3b 01 62 77 bd
       0.059979435 -0.011632454 0.0050291726 -0.0603962
000340 0c 11 d1 bc 39 bd d6 3d 5b 2a 9a 3d 3d aa a6 bd
       -0.025520824 0.1048531 0.0752761 -0.08137939
000350 bf 6c 7d bc 07 9a 83 3d 74 d2 04 bd cb 57 b3 bb
       -0.015467822 0.06425863 -0.032427266 -0.005473112
000360 7a bc 03 3d 42 ea b5 3d c3 27 f6 3d 4e f5 82 bd
       0.032162167 0.08882572 0.12019303 -0.063944444
000370 7f a2 e5 bd 3b 03 c3 3d 19 63 73 bc fc 03 dc 3d
       -0.11212634 0.095221005 -0.01485517 0.107429475
000380 38 74 a9 3d c5 92 23 bd e8 d4 14 3d df 04 32 3d
       0.0827412 -0.039934892 0.036335856 0.043461677
000390 cb 28 36 bd e1 53 c2 3d 92 55 a1 3b 1e 36 1c bd
       -0.044472497 0.09488655 0.004923531 -0.038137548
0003a0 0f d0 ea bd 56 5a b1 3d c2 f8 e9 bd ae 02 a8 3d
       -0.11465465 0.08659808 -0.114244 0.08203636
0003b0 41 f5 48 bd 40 e2 f4 bb b7 11 dd 3b 87 a6 d2 3d
       -0.049062017 -0.00747326 0.0067464965 0.10285669
0003c0 cb e3 86 bd 42 96 ac bd da 9d 52 3d d6 a7 4a bd
       -0.06586417 -0.08427097 0.05142007 -0.049476467
0003d0 e3 3e 24 bd e4 45 5e 3d 40 34 6e bd d7 e5 85 3d
       -0.040099036 0.05426587 -0.0581553 0.06537979
0003e0 1c 3e 3d bd 66 04 b9 3d 52 23 da 3d a2 15 1f 3c
       -0.04620181 0.09034042 0.10651268 0.0097097475
0003f0 92 f8 37 bd 32 bc 9f 3d e4 65 11 3d 13 1f ef bc
       -0.04491479 0.07799567 0.03549756 -0.029189622

actor.4.bias f4 [7]
000000 64 0a b6 3d e5 cb 12 bd 36 0d f0 3c 22 6a 1f 3d
       0.088887006 -0.03583898 0.029303174 0.038919576
000010 f3 4c 7e bd b1 cf 47 3b f0 1b c3 3c
       -0.062085103 0.0030488784 0.023817033

critic.0.weight f4 [64, 32]
000000 c2 b6 26 be 95 d3 6a 3c f5 83 39 3c 1c eb 28 3e
       -0.16280654 0.014332672 0.011322965 0.16495937
000010 10 8a 8c 3c d5 12 df bc e6 c6 db bc 4e 6f 0f 3e
       0.017155677 -0.02723066 -0.02682824 0.14007303
000020 38 57 6d bd c2 c5 17 3e f8 40 d8 bb 6e e8 f7 3d
       -0.057944506 0.14821532 -0.0065995418 0.12104879
000030 89 fc bb bd 4d 16 0b 3e 49 0b 70 3c 8b 5e 5c bc
       -0.09179027 0.13582726 0.014651128 -0.013450275
000040 cf 44 12 3e 2a 8d bf 3d 2f 29 c4 bd 4a de ca bd
       0.14284061 0.09353097 -0.09578168 -0.099056795
000050 09 c4 1a 3e eb 29 34 3d ed 82 31 bd b3 1e cb bd
       0.15113844 0.04398529 -0.04333775 -0.09917965
000060 a4 83 fd bd ab cd fe 3d cf b5 cd 3b 53 1c 01 be
       -0.12378624 0.12441572 0.006277777 -0.12608461
000070 dd 4f 2e 3d 0e 27 83 3a ad 9b 0d be 70 56 25 3e
       0.042556632 0.0010006146 -0.13828917 0.16146255
000080 82 40 14 bd eb 97 be bc a9 4a 62 3d 86 83 b4 bb
       -0.036194332 -0.0232658 0.055246983 -0.005508843
000090 dc 68 b2 3d 36 35 64 3e 5a bd ac 3d 90 67 b1 bc
       0.087114066 0.22285923 0.084345534 -0.021655828
0000a0 be 22 d3 3c 01 7d 03 3d d2 bf 46 bd e8 f6 12 be
       0.025773402 0.032101635 -0.048522778 -0.14352
0000b0 23 54 37 bc ae 59 87 bd aa 37 1e be 8a 36 cc 3d
       -0.011189493 -0.06608902 -0.15450922 0.0997134
0000c0 6a e2 07 bb fe f9 76 3e f9 0f 49 3d a2 67 7c 3d
       -0.0020734319 0.24118802 0.0490875 0.06162227
0000d0 04 eb 23 3d 0a c3 8d 3d 20 e4 26 3e 89 08 d0 3d
       0.04001905 0.069219664 0.1629796 0.10157878
0000e0 7a 28 1d bc e3 50 84 bd 5b a3 69 3d a5 c0 9d bd
       -0.00959217 -0.064607404 0.057040554 -0.0770276
0000f0 50 15 d8 bc b1 d1 55 3d a7 71 84 3d 01 1d 1e be
       -0.02637735 0.05220193 0.0646699 -0.15440752
000100 64 0c 6e 3d eb 96 33 3a 4d 61 c7 bd f2 83 04 be
       0.058117285 0.00068507966 -0.097353555 -0.12940958
000110 51 5b 41 3d 13 d5 08 3e 39 41 0b be e8 c8 77 3c
       0.047206227 0.13362531 -0.13599099 0.015123583
000120 f6 78 01 3e 10 4c e8 bd 81 9e 5b 3d 64 2e 72 bd
       0.12643799 -0.11342633 0.053617958 -0.059126273
000130 f0 3d b9 3c b8 56 4f 3d 0f 1f f3 bd 5e d5 a6 3d
       0.022612542 0.05061981 -0.11871158 0.08146165
000140 e9 4c 8e 3e c2 ea e8 3d 21 ad f2 bd 07 0b 62 bc
       0.27793053 0.113729015 -0.11849428 -0.013796574
000150 62 1a 4b 3d 84 58 5f 3d cc 7f 3b 3d a3 9b 57 bd
       0.049585707 0.054527774 0.045776173 -0.05263866
000160 04 da b3 bd 30 20 eb 3d 4c 75 b8 bd 99 b1 5d bd
       -0.087818176 0.11480749 -0.090067476 -0.05412445
000170 be a5 ae 3d c7 74 d7 bd 6e 67 51 bd 5a 54 35 bd
       0.085277066 -0.105203204 -0.05112403 -0.044269897
000180 23 f8 7e be 08 d3 70 3c 18 ae 2f bd 52 de 83 bd
       -0.24899344 0.014698751 -0.042890638 -0.064388886
000190 cd 03 35 3d ee 8a 12 3e bf 8b 56 3e da 18 6f 3e
       0.044193078 0.1431081 0.20951746 0.23349324
0001a0 b7 94 a2 3d 35 e7 04 be c3 25 73 3d 82 05 28 bd
       0.07938521 -0.12978823 0.059362184 -0.041020878
0001b0 a7 08 6e 3e 75 ea 82 3d 02 d9 cf bd cd 2d 85 bc
       0.23245488 0.063923754 -0.10148813 -0.016257191
0001c0 66 7d 9a 3d 91 b8 33 3e 0b 1b 10 bd 1e 2a ea 3c
       0.07543449 0.17550875 -0.03518204 0.028584536
0001d0 c4 2e 28 3c 15 a5 fd bd a1 57 5c be b5 1d 91 3d
       0.010265056 -0.123850025 -0.21517803 0.07085744
0001e0 87 72 25 3e d0 1c e9 bd 1d 11 32 3e 67 09 47 3a
       0.1615697 -0.11382449 0.1738934 0.00075926486
0001f0 07 70 f1 3c 21 63 53 39 6b bf 93 bc 57 90 38 3d
       0.029472364 0.00020159456 -0.018035611 0.04505953
000200 1d 37 ca bd df 64 09 be b3 bf 1b 3e f4 9c b8 bc
       -0.09873793 -0.13417386 0.15209846 -0.022535779
000210 68 32 0d 3e 60 e8 34 bb 3b c6 bd 3d 5f 38 8b 3d
       0.1378876 -0.0027604327 0.09266325 0.06797861
000220 36 31 87 bb 2d 04 a9 3d 78 e3 a7 3c 84 98 c3 bd
       -0.0041257394 0.082527496 0.020494208 -0.095505744
000230 e3 fb 02 be 3a df fb bd aa ca 60 bc bc 69 1d 3c
       -0.127914 -0.122984365 -0.013720194 0.009607729
000240 b3 38 50 be b8 c4 6c bd 26 cd ca 3d c6 33 01 3e
       -0.20334129 -0.057804793 0.0990241 0.12617406
000250 c3 3f 94 bd c3 99 25 3d a4 30 49 be d0 77 14 3e
       -0.07238724 0.04042984 -0.19647461 0.1449883
000260 5a b6 10 be 5b 99 36 3c c0 67 84 bd 5a 91 11 be
       -0.14132062 0.011144961 -0.06465101 -0.14215603
000270 17 f5 fe bd af 15 ba bd bf 6c d3 bd d0 cc e3 3d
       -0.12449091 -0.09086167 -0.10323476 0.11123049
000280 b2 69 1b bd 64 53 03 be 9d 4b 49 bc 77 4c dd bd
       -0.037942596 -0.1282478 -0.012286094 -0.108056
000290 1f 4a 12 bd 27 e7 9f 3e 72 f8 57 be 56 06 f8 bd
       -0.03571522 0.31231043 -0.21090868 -0.121105835
0002a0 c5 ef 9a 3d c3 eb d4 3d b9 0d 2f bd 77 60 a2 3c
       0.07565264 0.103965305 -0.042737696 0.019821389
0002b0 f5 ae f7 3d ea f2 78 bc 74 fe a8 bd 2e 9c c7 3d
       0.12093917 -0.015194634 -0.08251658 0.09746586
0002c0 4f 30 0f 3e 9c 3f ad 3c 52 37 39 be 78 89 31 bd
       0.13983272 0.021148495 -0.1808751 -0.04334399
0002d0 32 89 1a be 51 68 1a be b6 71 10 3d a3 f4 a2 3d
       -0.15091398 -0.15078856 0.035264693 0.07956817
0002e0 ce 4b 91 3d bd 5d 39 be 29 dc 79 3e 90 f7 82 3d
       0.07094537 -0.18102165 0.2440039 0.06394875
0002f0 4d 15 a4 3d 0f e8 71 bc 2f 87 f0 bc ef 4e 1f be
       0.08011875 -0.0147648 -0.029361336 -0.15557455
000300 5c 7b 07 3e 1f 7d b8 3a 04 03 2a be cc aa 2d 3e
       0.13230652 0.0014075375 -0.16602713 0.16959685
000310 41 a0 f7 bc 61 43 30 3e e7 8e 49 bc d2 cf 0c bd
       -0.030227782 0.17213203 -0.012302137 -0.03437788
000320 33 8a 18 3e b1 8f 21 3e 54 e4 84 bd f0 98 a8 3b
       0.14896469 0.1577747 -0.06488863 0.0051451847
000330 f3 89 e7 3d bf 2f e7 3b 14 86 18 bd cf aa 29 3e
       0.113056086 0.0070552523 -0.037237242 0.16569065
000340 9c bc 24 3e 9e d0 37 bd 74 5e 0b 3e 28 10 1b be
       0.16087574 -0.044876687 0.1361025 -0.15142882
000350 cf 0a 03 3c c0 32 11 3e 46 8e fb bd 64 b6 9f bc
       0.007998182 0.14179516 -0.12282996 -0.01949615
000360 f5 76 1d bd a7 fd 10 be fe e5 e1 3d 49 fc f4 bd
       -0.038443524 -0.1415926 0.11030196 -0.11962182
000370 35 7a c1 bd 58 26 25 3c 06 09 37 3d b4 e5 df 3b
       -0.09447137 0.010079943 0.04468634 0.0068328027
000380 f8 c5 de 3c 87 45 04 3e 47 ad 36 be 64 2a 33 bd
       0.027194008 0.12917148 -0.17839538 -0.0437416
000390 b1 0e ca bc c9 43 86 be 1a cd ca bd 36 ba 0c 3e
       -0.024665209 -0.2622359 -0.09902401 0.13742909
0003a0 ef d1 8f 3d b6 c7 23 bd 2f 3a 89 3c 05 bd 0d 3d
       0.070224635 -0.03998538 0.016751377 0.03460409
0003b0 47 05 dd bb 0b 04 0d 3e c5 19 2c bc cd 1e 05 3e
       -0.006745014 0.13771074 -0.010504191 0.13000031
0003c0 27 9d 5d be ee 56 18 be 28 6c 46 3d 71 15 0d 3e
       -0.2164198 -0.14876911 0.04844299 0.1377771
0003d0 fc ef 64 bd a3 59 02 3e c5 24 30 be e6 a5 03 bd
       -0.05589293 0.12729506 -0.17201526 -0.032140635
0003e0 f0 0e 08 3e 6d 93 d5 bd ce de 34 be 43 36 a3 bc
       0.13286948 -0.1042851 -0.17663118 -0.019923335
0003f0 5a 40 fd bd bd 3b 2e 3d 45 fb 8d bc 8b 34 fd bc
       -0.1236579 0.04253744 -0.017331729 -0.030908844

critic.0.bias f4 [64]
000000 e1 d3 26 3e 5b 25 21 be 7d 6a ff bd b9 8e 28 be
       0.16291763 -0.15736906 -0.12471483 -0.16460694
000010 28 b8 95 3a e2 4f 78 bd 75 41 0b be 31 13 22 3d
       0.0011422681 -0.060623057 -0.13599189 0.039569084
000020 93 e7 57 bd 0d c0 cb bd d7 49 44 bc 59 3f 2d 3d
       -0.05271108 -0.0994874 -0.011980495 0.04229674
000030 c1 87 13 bc 1a 29 96 bd fa 0f 00 3e 9f 81 fc bc
       -0.009004534 -0.07332058 0.12506095 -0.030823527
000040 80 a7 a5 bd a3 d6 18 3e 2a 32 dc bc 18 2b f9 3d
       -0.08088589 0.14925627 -0.026879389 0.121664226
000050 99 36 9d 3d 26 a0 e2 bc c8 d4 e9 3d 9f 09 2b 3d
       0.07676429 -0.027664255 0.11417538 0.041757222
000060 6d 96 d8 3d 70 2b 4f 3d d1 0c 8a 3d 7f b5 56 3d
       0.105755664 0.050578535 0.06740726 0.052419182
000070 dc fe 99 bd 3e 89 1f 3e 7e 77 5d bc e6 63 81 3d
       -0.07519314 0.15579697 -0.013517259 0.06317882
000080 44 df 24 be be 1a ba bd f0 cf 76 3d ca 00 a8 bd
       -0.16100794 -0.09087132 0.0602569 -0.082032755
000090 60 96 c2 3c 58 56 f7 3d 59 3d 03 be 1a b5 23 bb
       0.023753345 0.12077016 -0.12816371 -0.002497977
0000a0 51 50 7d 3d 84 ac 00 3e 69 f0 69 bd c5 81 31 be
       0.061844174 0.1256581 -0.05711404 -0.1733466
0000b0 12 d6 04 be 79 d2 6a 3d ab 3b 0d be cb 34 06 be
       -0.12972286 0.05732963 -0.13792293 -0.13106076
0000c0 bc 41 4b bd ab db 1b 3d fe 59 04 be f4 f6 47 bd
       -0.049623236 0.03805129 -0.12924954 -0.048819497
0000d0 aa 66 b9 3d c1 d6 1c be 05 4e 1b be 43 6b 45 bd
       0.09052785 -0.15316297 -0.15166481 -0.048197996
0000e0 5a 95 01 3e e9 38 3d bd d2 d5 df bd f8 7d f8 bd
       0.1265463 -0.046196852 -0.10929455 -0.12133402
0000f0 48 e3 1f bd 96 f3 e4 3d 5e c3 8d 3d f0 a3 00 be
       -0.03903511 0.11179273 0.06922029 -0.12562537

critic.2.weight f4 [64, 64]
000000 4e 91 8e bd 9e 9b f6 bd 74 5c 93 3d ff 1c 46 3d
       -0.069613084 -0.120414004 0.071953684 0.048367497
000010 f3 aa 3b 3c 1e b9 36 bd 7c 6a 8b 3d 74 ea 32 3d
       0.011454332 -0.044610135 0.0680742 0.043680623
000020 d6 87 a3 bc d0 76 6a 3c 5c a0 f0 3a 53 ee fd bb
       -0.019962233 0.014310554 0.0018358338 -0.0077493577
000030 68 eb 1b bd 6d 8f bc 3d b3 fa 95 bd 6f 88 0b 3d
       -0.038066298 0.09207044 -0.07323208 0.03406566
000040 3d c1 26 be 0c 48 f2 3d 93 6a 24 be 43 d2 6d bd
       -0.16284652 0.11830148 -0.1605628 -0.05806185
000050 8d 2e d7 bd b3 6f 66 bd 85 12 75 bd 82 10 94 bd
       -0.10506926 -0.05625887 -0.059832115 -0.07229711
000060 19 7f 73 3c 53 22 49 3d 1e 23 81 3d 3f a4 0b be
       0.014861845 0.049105 0.06305526 -0.13636874
000070 c4 8a 00 bd f7 b5 c3 3c 36 a9 e0 3d c0 12 13 3d
       -0.031382337 0.023890479 0.109697744 0.035906553
000080 a6 e9 56 3c 91 67 c4 bc c5 d2 95 3c 9e 77 01 bc
       0.01311723 -0.023975166 0.01828898 -0.007902054
000090 86 c5 dd bd 66 82 05 be b9 2d c5 bc 3b af d9 bb
       -0.1082869 -0.13038024 -0.024069654 -0.0066432036
0000a0 67 85 1d 3e a1 a8 2d 3d ef b4 d7 bc e3 f7 08 bc
       0.1538292 0.042397145 -0.026331393 -0.008359882
0000b0 b3 02 55 3d c1 cf 5a 3d 1c fb 51 3c ba 08 89 bc
       0.052004527 0.053420786 0.012816217 -0.016727794
0000c0 ac 23 5c bd f4 cc 3c 3d 21 56 5a bd 1e 7a cd 3c
       -0.053744957 0.046093896 -0.053304795 0.025082644
0000d0 51 47 39 3c ec 85 70 bd 61 5a ca bd 46 4c 8c 3d
       0.011308507 -0.058721468 -0.0988052 0.068504855
0000e0 60 ef 9c 3d 61 c3 df 3c 0f 25 72 3d ed 1a 59 bd
       0.07662845 0.027314844 0.059117373 -0.053004194
0000f0 f7 87 70 3c 2d ea 8d bd 2d fe 20 bd bf 90 1b be
       0.014680854 -0.06929431 -0.0393049 -0.15191935
000100 c5 ba b5 bd d8 93 93 bd 18 39 21 3d c6 01 ed 3d
       -0.08873514 -0.07205933 0.03936109 0.11572604
000110 7d 55 bc 3b 0c fe b5 3d 37 75 c4 bb 4f 07 62 bd
       0.0057474957 0.08886346 -0.0059954184 -0.05518275
000120 04 26 c6 bd 77 96 90 bd 75 ee d4 3d 65 5e a2 3d
       -0.0967522 -0.07059949 0.103970446 0.079281606
000130 a0 d6 17 3e 86 64 a7 bc 47 c6 9c 3d 30 39 91 3b
       0.14827967 -0.020433675 0.07655006 0.004431866
000140 9b 66 13 3e b4 07 aa bd ef 3a 22 3d a9 f7 25 be
       0.1439461 -0.083022505 0.039606985 -0.16207756
000150 a5 6c 09 3d c7 35 86 bd bb 36 74 bd 1c fe f0 bb
       0.033550877 -0.06553226 -0.059622508 -0.007354511
000160 d7 7a 06 3e ee 0e e9 3d ed 5a c4 3d 64 ab 42 3d
       0.13132797 0.11379801 0.09587655 0.047526732
000170 fe 66 31 3c ca ae d8 bd 53 3c 88 3d 3f 4a 62 3d
       0.010827778 -0.10580213 0.06652131 0.055246588
000180 1c f0 ff 3d ae 88 f8 bd aa e0 83 ba d1 2e d6 bd
       0.12496969 -0.121354446 -0.0010061462 -0.10458148
000190 65 8b 14 be cc 58 39 bd 1d 86 0f ba 69 01 f6 3d
       -0.145063 -0.0452507 -0.00054750015 0.12011988
0001a0 07 1b 41 3d 0a be ef bc 4a ed 10 3d 74 65 f4 3d
       0.047144916 -0.029265422 0.035382546 0.11933413
0001b0 23 59 6a 3d 4f cd 9e 3b 9d 8a 7d bd 69 fb 36 3d
       0.057213914 0.004846252 -0.06189977 0.044673357
0001c0 20 83 d2 bc 8a ad 94 bd c6 67 2b 3d 13 6e 26 bc
       -0.02569729 -0.072596624 0.041847013 -0.01015808
0001d0 60 e0 4b bd 12 c7 eb bd 51 c6 29 3d 9f bf 91 bd
       -0.049774528 -0.11512579 0.041448895 -0.07116627
0001e0 f1 05 4f bc f5 51 62 bc 3c bf ab 3d 5d da 83 3d
       -0.012635694 -0.013813485 0.083860844 0.06438134
0001f0 93 8f 0d 3e fa 70 ac 3d 66 96 89 3d 82 b5 13 3e
       0.138243 0.08419986 0.06718139 0.14424708
000200 a1 20 c8 3b 4d 90 7e 3d ce bc 95 bb 7c 78 e1 bd
       0.0061074053 0.062149335 -0.0045696264 -0.11009309
000210 85 8a ce 3d 24 41 83 3b 19 97 46 bd 67 4f 98 3d
       0.10085014 0.004005568 -0.04848394 0.0743702
000220 40 ba 98 bd 57 96 65 3d 21 9d 97 bd 08 fc 1d bd
       -0.07457399 0.05605158 -0.07403017 -0.038570434
000230 ae 22 f3 bd a3 ee 89 3d 07 e5 0e 3d a6 4d e1 3d
       -0.11871849 0.067349695 0.034886386 0.110011384
000240 39 36 98 3d ab 8c f8 3b e8 33 43 3c d8 44 bc 3b
       0.07432217 0.0075851283 0.011914231 0.0057455115
000250 af 9f b4 bd 7e 97 57 bd 6c a9 06 bd 41 19 ca bd
       -0.0881952 -0.05263471 -0.032876417 -0.09868098
000260 2b 3d 9e bc bd a4 d7 3d 9f 60 3f 3d 5d 46 c8 bd
       -0.019316277 0.10529468 0.046723004 -0.09779046
000270 7f 20 1d bd a5 bd bc 3d f7 bb 61 bc 4e 5b ac bc
       -0.03836107 0.09215859 -0.0137777245 -0.021039631
000280 68 f3 82 3c a5 be f2 ba a3 73 2a 3d bc b1 98 bb
       0.015985206 -0.0018519951 0.041614186 -0.0046598595
000290 c4 a2 9d 3d 77 f9 91 3d 89 3e d7 3c b2 ec 36 3d
       0.07697061 0.0712766 0.026274936 0.044659324
0002a0 6f 72 40 bd c5 09 01 be 9c bb 4b bd b8 d0 c9 bd
       -0.046984132 -0.12601383 -0.049739465 -0.09854263
0002b0 28 4c f3 bd 8e e1 e9 bd 2a 8f d8 bb 16 0a d2 bd
       -0.1187976 -0.11419974 -0.0066088634 -0.1025583
0002c0 f2 7c e8 3c b6 fb a2 3d f6 01 81 3d 28 06 01 be
       0.028379891 0.07958166 0.06299202 -0.12600005
0002d0 6d 00 ef 3d 90 9b 65 3d d1 15 0e 3e 49 b7 1e 3d
       0.11670003 0.05605656 0.1387551 0.038749013
0002e0 04 94 8d 3c 86 8d 7e bb cf a3 a6 3d 52 aa b8 bd
       0.017282493 -0.0038841679 0.08136713 -0.09016861
0002f0 0c 9d cf 3d 74 a8 b3 3d af 97 84 3d 01 68 c9 bb
       0.10137376 0.08772364 0.06474244 -0.0061464314
000300 f0 cb cf bd 8a 6b 43 bd e2 17 d4 3d 3b 04 b4 bc
       -0.1014632 -0.04770998 0.10356118 -0.021974673
000310 4c d7 6d bd 55 20 94 bd 65 e4 c9 bc 23 aa 58 3d
       -0.05806665 -0.07232729 -0.02464504 0.05289663
000320 1e 5d 8e 3c f1 0a 32 bb 8f 89 7f bd 04 bf a4 3d
       0.017378386 -0.0027167166 -0.062387045 0.08044246
000330 24 c1 44 bc c4 ec f1 bd 56 fd 96 3d 71 05 79 3d
       -0.012008939 -0.118127376 0.07372539 0.060796205
000340 ea b5 6a bc b9 44 00 bd 6e 5b 81 3d e4 33 10 3e
       -0.014325598 -0.03131554 0.06316267 0.14082295
000350 4e 69 92 bb 3e f7 c8 3d 04 03 48 3c 5c e2 a9 3d
       -0.0044681197 0.09812783 0.01220775 0.08295128
000360 b7 96 95 bc 8d 91 1e bd b9 af 79 3d 1e af 04 be
       -0.018260343 -0.038713027 0.060958598 -0.12957427
000370 4c 15 9e bd 88 5a 7f 3d ff ef 92 bb 70 44 a4 3d
       -0.07718906 0.062342197 -0.004484176 0.08020866
000380 35 f2 f7 bc b0 81 90 bd 63 d4 f8 bb a6 a7 ba 3c
       -0.03026686 -0.07055986 -0.007593678 0.02278502
000390 57 06 9c 3d 59 ae d1 bd 32 da a3 bd e2 d2 06 bd
       0.07618397 -0.10238332 -0.08000602 -0.032915957
0003a0 bf 58 dd 3d b3 ff b8 bd a7 8d 13 bd 53 12 a0 3b
       0.108079426 -0.09033146 -0.036023762 0.004884997
0003b0 30 dc 47 3d 47 07 9f 3d 82 d8 22 bd 70 84 06 3d
       0.04879397 0.0776506 -0.03975726 0.032841146
0003c0 49 26 dc bd 0e 59 bd 3d cb fd c7 3d 5f 4d 98 3d
       -0.1074949 0.092455015 0.09765204 0.07436632
0003d0 46 c6 02 be 62 8f 97 3d 7b 24 be bd b8 c0 9f 3c
       -0.12770948 0.07400395 -0.09284302 0.019501075
0003e0 b1 b4 85 3d 9d 7c a7 bc 7f 95 0d bd 9c 88 c3 3d
       0.06528605 -0.020445162 -0.0345664 0.095475405
0003f0 bf dc 27 3d 7a 69 4f bd b7 b9 eb bd 38 ec 9c bd
       0.040982004 -0.0506377 -0.11510032 -0.07662243

critic.2.bias f4 [64]
000000 00 a1 54 3d 32 71 98 bd a6 93 1d bd db 41 e9 bd
       0.051911354 -0.07443465 -0.038470887 -0.11389514
000010 f5 73 c2 3d ce 6f a0 bc f1 e6 6e bd ed 36 a8 3d
       0.09494773 -0.019584563 -0.05832571 0.08213601
000020 e4 88 fe 3d f3 29 69 3d e9 a1 9e 3d f2 be fc bd
       0.124284536 0.05692477 0.07745726 -0.123411074
000030 38 5b d4 bd 45 cb 61 3d f0 90 87 bc 16 d6 6f 3d
       -0.10368961 0.055125494 -0.016548604 0.058553778
000040 67 2b 52 3d 69 81 26 bd 7c 07 6d bd 96 2c d6 3d
       0.051310923 -0.04065076 -0.057868466 0.10457723
000050 58 73 5e bd 72 7d 6b bd 53 e9 b3 3d 2e 97 84 3a
       -0.05430922 -0.05749268 0.087847374 0.0010115856
000060 0e fc 96 bd 85 d4 19 3d 66 99 9b bd 9e 15 62 bb
       -0.07372294 0.03755619 -0.07597618 -0.0034497748
000070 4e c1 af bd 5c 6d c0 bc 20 23 ac 3d 78 16 50 3c
       -0.08581792 -0.023489647 0.08405137 0.0127006695
000080 6b a6 a8 bc ab 18 cc 3d 8e ca 99 3d da bd a1 3d
       -0.020587167 0.099656425 0.07509337 0.078975394
000090 19 07 48 3d 1a 71 08 bd d6 6b 03 be 8d 41 b2 bd
       0.048834894 -0.033310987 -0.12834105 -0.08703909
0000a0 b7 ea b8 bd 60 f7 b9 3c bb 10 aa 3d b4 0b fd 3d
       -0.09029143 0.022700965 0.08303972 0.12355748
0000b0 74 b7 b1 3d 80 ca 9d 3b 07 66 9a 3d 87 62 c7 bb
       0.08677569 0.0048153996 0.075389914 -0.0060847434
0000c0 9c e9 87 3d f6 3e 98 bd bb 6d 00 3e a3 67 28 3d
       0.06636354 -0.07433884 0.12541859 0.04111446
0000d0 8c ed 3f bc f7 33 26 bd 1b 97 dd 3c 02 bb e9 bc
       -0.01171435 -0.0405769 0.027049592 -0.028531555
0000e0 78 ba c9 bd d4 d6 9d bd 44 0c 21 bd 25 cc c2 3c
       -0.09850019 -0.07706991 -0.039318338 0.023778984
0000f0 f4 a8 bd bd 63 79 69 3d 31 b7 93 bd 51 2e 7b 3d
       -0.09260741 0.05700053 -0.07212675 0.061323468

critic.4.weight f4 [1, 64]
000000 cf 7c 23 bb 82 20 42 3c 98 2f 24 3a 94 90 0e 3b
       -0.0024946218 0.011848571 0.00062631955 0.0021753656
000010 38 e5 22 3d 65 6d 84 3c da 0e 7a bc 3c e3 88 3b
       0.03976938 0.016165445 -0.01526233 0.004177479
000020 88 a2 5f bd 54 1e 48 3a 75 ae 60 bb e9 aa 27 3d
       -0.05459836 0.0007633914 -0.0034283672 0.040934477
000030 cb 2b 57 3c 3d 0c a4 bb 21 21 d6 bc 99 a0 da bc
       0.013133 -0.0050063417 -0.026138844 -0.026687907
000040 c7 26 1e ba e8 64 4c 3d 7b b8 1e 3c 9e 0e 90 3d
       -0.0006033 0.04990092 0.009687538 0.07034038
000050 77 b2 67 bc 62 b7 56 3b 89 68 87 3d 65 d2 ac bb
       -0.01414167 0.0032763113 0.066117354 -0.0052741044
000060 6f 3f 2d 3d 38 01 48 3b e4 75 56 3d 9e 19 a4 bb
       0.042296823 0.0030518305 0.052358523 -0.0050079366
000070 dd 11 0c bd 18 83 4f bd 64 48 01 3d f4 cb d8 bb
       -0.034196723 -0.05066213 0.031563178 -0.00661611
000080 ff 70 4a bb c6 cd 94 bc 47 38 1b bd 27 8f e7 bc
       -0.0030890105 -0.018164527 -0.037895467 -0.028266503
000090 54 29 9d bc 01 16 8e bd b1 d3 f3 bb 20 f3 e8 3c
       -0.019184746 -0.06937791 -0.007441007 0.028436244
0000a0 4e 3f 3a 3d 1e f2 fd 3c 1a df a2 3b 74 8b 74 bd
       0.04547053 0.03099924 0.0049704434 -0.059703305
0000b0 7f b2 31 3d bc 63 72 3d a1 e5 9f 3c 13 86 16 3d
       0.043383118 0.059177145 0.019518675 0.036748957
0000c0 05 60 83 bd 7f 60 05 bd f1 ff a5 bb 25 a4 6c 3c
       -0.06414799 -0.03256273 -0.005065911 0.014443432
0000d0 9f ae 1a 3d d7 a5 d2 bb 9c 4a aa bc bf b9 2e 3d
       0.037764188 -0.006428461 -0.02078753 0.04265761
0000e0 65 02 b2 bb 95 bf 03 ba c5 2f 80 bd b5 b9 0a 3c
       -0.0054324144 -0.00050258014 -0.06259111 0.008467128
0000f0 74 41 7b 3c ff 83 c2 3d 65 5a eb 3a 43 e9 68 3d
       0.015335429 0.094978325 0.0017956017 0.05686308

exp_avg f4 [7]
000000 27 29 78 ba a4 f4 1a ba 74 19 1d b8 90 bd 7a b9
       -0.00094665814 -0.0005911088 -3.7455422e-05 -0.00023912475
000010 06 6b 5e 3a 0b 73 e6 b9 e8 7d 33 ba
       0.00084845757 -0.00043954732 -0.00068470696

exp_avg_sq f4 [7]
000000 c9 4e 0f 36 68 1d 6c 35 67 55 58 35 18 58 55 36
       2.135452e-06 8.795964e-07 8.059055e-07 3.179075e-06
000010 a4 fc ad 36 f3 8b 71 36 e5 d6 f3 35
       5.185213e-06 3.599326e-06 1.8167453e-06
