logs/rsl_rl/franka_reach/2025-06-16_20-11-58/model_850.pt (torch, 172795 bytes, 36 tensors)

std f4 [7]
00000000: 868d ca3d 6cb3 be3d ce67 c93d 1817 0c3e
00000010: 3e77 d13d c75f e03d b028 fe3d
0.09890275 0.09311566 0.09834252 0.13680685 0.10227822 0.10955768 0.12410104

actor.0.weight f4 [64, 32]
00000000: 7c7d c1be c986 5c3e 9ec6 e8be 1018 c53e
00000010: 37e9 b73d 05c2 693e a153 213e 8385 e63e
00000020: 9b60 1d3f a87e 613c 3a14 b23e 97af 723e
00000030: 030d 9b3e f20d 683d aab9 6bbc a842 abbd
00000040: 5fec 0dbf 0cab b53d d1a6 46bf 881c d5bd
00000050: b640 3e3f 9431 aebc 41a4 32bf 15a9 ad3d
00000060: 3f3a 11be de68 d3bd b25c 8dbe 5f44 79be
00000070: 8b69 ac3d 3af5 a7be e981 9f3b 7afc 75be
00000080: 8b2b fc3c 27f1 e93d d553 91be 7afc 593f
00000090: 8651 5c3f 9ebe 833e 1fb6 d73d b397 25be
000000a0: 1706 503e 5614 ce3d 9e6d 43be c050 0b3f
000000b0: b170 f1bd 0dd9 3a3d cddf dd3d bd7f 3f3e
000000c0: 0fbe ad3e 8407 a0bf 6c9e 7ebf bf65 01c0
000000d0: 5386 03bf e78c 103e 46cf 903e 0032 ae3e
000000e0: 1276 663d cd8c b93d ba77 db3d 5c78 05be
000000f0: 3b46 c03d d359 bfbd eabe 003b a889 283c
00000100: b4c3 2c3f 4510 31be 19ea 493f ff17 81be
00000110: a223 683e 5887 9f3c 9abf 783e 2b9f 223f
00000120: 4c80 563f dfbc debd 22ff b9bb ffe7 26be
00000130: 6c0d ac3d ee4c d53d 1d71 473e d0a6 033e
00000140: 0af9 48bf ad00 223f 11d0 003d 9067 dfbf
00000150: d225 ae3e 60da 20bd fc53 63be f3e4 2a3d
00000160: d5f1 b9bd f764 0bbd e670 f13d 23a7 13bd
00000170: b9ed 233d df9f a03e 771a fabe b119 02bf
00000180: 978a 8cbf c9fe 75ba 9da1 6c3c e6dd 3dbf
00000190: b899 adbd 6f27 eabe cd79 8e3e 0c46 6abd
000001a0: 5fb6 233e 92b0 2fbe 23d7 b8be e0f5 c13d
000001b0: 08da 683e 481b 80be 9216 39be b94b 063d
000001c0: da80 ee3e fbe2 993e 7fcd f2bd 45de af3e
000001d0: deda 043f cdc9 1ebe 992f 11bf bf09 34be
000001e0: ac91 0cbb 2f86 febe df0e 70be 6344 9abd
000001f0: 37c9 a6be 0e19 d8be 154d 0b3e a596 a9be
00000200: 976b 57bd e8ea 02be 368b ad3d a0eb 913e
00000210: 9147 09bf 3fbf 773f b8a9 bd3d 487d 5abe
00000220: 8e89 53be 4f29 193d fb3b 38be 5fd4 05be
00000230: c53b 473d d356 cfbd 88ed a6bd d7b6 e7bd
00000240: 64a6 b1be a1d8 bdbe c7b8 d8be e965 fa3f
00000250: e6a3 693f 3744 0ebe da70 93be d9d4 40bf
00000260: da88 93bc b545 1abf 8c14 1d3d 9abc e83d
00000270: e815 1dbe 1a8a 5f3d 4d0f abbe 8103 cdbc
00000280: e4a3 ea3e 6229 18bf 1d51 d23e 8ee0 34be
00000290: 5920 af3e 65db 963f ce35 2a3d 0631 c13e
000002a0: 3df9 123e 2938 63bd 7abf 453d 890b cbbd
000002b0: 0e7f 13bd 5ed4 bebb a6ce bd3b 6fce 49bd
000002c0: 816a db3c a75a 4abf 2b35 c53d edf6 aabf
000002d0: e01a 49bf 6fdc a83d 5588 8d3d 8470 703f
000002e0: d9ca b53d 878a 6c3e ecbc 663e 107a a43d
000002f0: 79b6 8a3d a666 983d 71ab 9f3d 9abc 12bd
00000300: 76a4 c43d 7bce 263d 72c3 56bc 2616 11bf
00000310: a224 b5bd f875 fbbe 138b c23d 0a6f 8b3e
00000320: 2920 b93d 9162 a63d 036a 4b3e 6621 6c3d
00000330: acba a7be 952e 41bd ebb5 a73d df3f 84be
00000340: 046b ac3f 5904 fd3e f3b8 3dbe 9dac cabd
00000350: e525 5dbc 6407 dcbd 4ffa e1be 981f b53e
00000360: 6787 cd3c 3982 613e b1ce c73e f8f8 02be
00000370: f350 8abd 2ed9 f43d 4fe6 a8bd 85c2 e3bd
00000380: b9f7 783f 48f8 b23a 2a6c 943f faa0 96be
00000390: a53c ccbe d8f1 d3be 4d4a 3ebf 26a1 773e
000003a0: 3a3f e13d 6b24 da3d d71d cf3c 9fd3 5a3e
000003b0: 356d c83e c117 2c3e ba42 0b3d 4793 8abe
000003c0: c42f 683f c9e3 f1bd 3f99 133d 7e2f fdbf
000003d0: a78c 17bf 8bbe f9bd cd34 16bf 58e0 183e
000003e0: cb7f 6abd ec1a 4abe 7ee4 e1bd 6677 08bf
000003f0: ef28 b13c 9c6e 8dbd 2624 8a3c 1ac7 84bb
-0.3779105 0.21535791 -0.45464033 0.3849492 0.08980029 0.22827919 0.15754558 0.45023736
0.61475533 0.013763107 0.34781057 0.23699795 0.30283365 0.056653924 -0.0143875275 -0.08362323
-0.554388 0.08870515 -0.7759829 -0.104058325 0.7431749 -0.021263875 -0.6978188 0.084795155
-0.14182375 -0.10322736 -0.27609783 -0.24342488 0.08418568 -0.3280428 0.0048677814 -0.24022093
0.030782482 0.11422949 -0.2838427 0.85150874 0.86061895 0.25731367 0.10532784 -0.1617115
0.20314823 0.100624725 -0.19084784 0.5442009 -0.11789072 0.045617152 0.10833702 0.18701072
0.33934066 -1.2502294 -0.9946048 -2.021835 -0.5137684 0.1411625 0.28283137 0.34022522
0.056264944 0.09060059 0.107161954 -0.13034195 0.093883954 -0.093433045 0.0019645044 0.010286726
0.6748612 -0.17291363 0.7887283 -0.2521362 0.22669843 0.019473717 0.2429184 0.6352412
0.83789515 -0.10875868 -0.005676166 -0.16299437 0.084009975 0.10415064 0.19476743 0.12856603
-0.78505003 0.6328228 0.031448428 -1.745348 0.3401323 -0.03927076 -0.22200006 0.04172225
-0.09079329 -0.034031834 0.11789112 -0.036048066 0.040021632 0.31371972 -0.48848316 -0.5082045
-1.0979794 -0.0009383974 0.0144428285 -0.74166715 -0.08476585 -0.4573321 0.27827302 -0.05719571
0.15987538 -0.171572 -0.36101636 0.09470725 0.22739422 -0.25020814 -0.18075016 0.03278706
0.4658268 0.30055985 -0.118556015 0.34349266 0.51896465 -0.15506668 -0.56713253 -0.17581843
-0.0021449132 -0.4971175 -0.23443173 -0.07532575 -0.3257539 -0.42206615 0.13603623 -0.33122745
-0.05259284 -0.12784922 0.08473818 0.2850008 -0.53624827 0.96776193 0.09260887 -0.21336854
-0.20657942 0.03739291 -0.1799163 -0.13069294 0.048640985 -0.10123982 -0.08150774 -0.11314171
-0.34697258 -0.37079337 -0.42328474 1.956235 0.91265714 -0.1389321 -0.28797036 -0.7532478
-0.018009592 -0.60262614 0.038349673 0.11364098 -0.15340388 0.054575063 -0.3341011 -0.025026085
0.45828164 -0.59438145 0.4107751 -0.17663786 0.34204367 1.1785704 0.04155522 0.37732714
0.1435289 -0.05547348 0.04827831 -0.099143095 -0.03600984 -0.005823656 0.0057924567 -0.049269136
0.026784183 -0.79044574 0.096292816 -1.3356606 -0.78556633 0.08245169 0.06910769 0.93921685
0.08876581 0.23099719 0.22533005 0.08031094 0.06773085 0.07441454 0.07796372 -0.035824396
0.09601681 0.04072426 -0.013108121 -0.5667442 -0.08844878 -0.4911344 0.094991826 0.27233154
0.09039337 0.08124269 0.19864659 0.05764904 -0.32759607 -0.047163565 0.08188995 -0.2582998
1.3470159 0.4941738 -0.18527584 -0.098962046 -0.013497804 -0.10743597 -0.44136283 0.35375667
0.025088979 0.22022332 0.3902488 -0.12790287 -0.06753721 0.11955486 -0.08247053 -0.11121086
0.97252995 0.0013654316 1.1595509 -0.2941969 -0.39890018 -0.4139545 -0.74332124 0.24182567
0.10998388 0.106514774 0.025282783 0.2136979 0.39145818 0.16805936 0.033999182 -0.2706549
0.90697885 -0.11811025 0.03603482 -1.9780118 -0.59198993 -0.12194546 -0.5867432 0.1492933
-0.05725078 -0.19736832 -0.110299096 -0.5330719 0.021625964 -0.06905863 0.01686294 -0.004052055

actor.0.bias f4 [64]
00000000: ebc7 89be 1e80 05be dca2 25bf 7a3f 72bb
00000010: 288f 0e3e ff3b a5be 48d9 c1be 579e e6bc
00000020: 46f6 c43e 92aa 883e bab9 d1bd 923b cfbc
00000030: f81b fcbd 4039 82be d84c 2abf c2d0 8ebe
00000040: ac99 293f 781d 553e 13b7 8d3e f642 3e3e
00000050: 2b65 113e 4058 723e bdd6 afbe 50d6 1f3e
00000060: f8a8 2abf 88a8 353f 30c5 9dbd 5246 ddbe
00000070: aa06 d3bd fbe1 433e 362e 53be 34bf e43e
00000080: 70bd 36bf 6238 4ebe a2df b23e d54c 8fbd
00000090: e571 2a3d 5330 3a3d 37df 11bf eab3 99be
000000a0: 3ebb 0a3e d75e 9cbd 7797 0b3f 652d 43be
000000b0: f469 da3d 088d ba3d 5b63 7fbe 6e3d c9bc
000000c0: 6d4b fd3e 0115 06bf b3f0 8c3d 62fd 4ebe
000000d0: 6e95 17bc ffd3 72be fba2 13bf fbad 96be
000000e0: 45c7 cfbe 1d6c f63c 0adf 0e3e 78c4 983e
000000f0: b964 4bbd 050c 923e e0e8 923e 4f6d afbd
-0.26910338 -0.13037154 -0.6470163 -0.0036964105 0.13921797 -0.32272336 -0.37861085 -0.028151674
0.38469142 0.26692635 -0.10240503 -0.02529696 -0.12310022 -0.25434303 -0.66523504 -0.27893645
0.6625011 0.20812023 0.27678737 0.18580231 0.14198749 0.23666477 -0.3434352 0.15609097
-0.66664076 0.70960283 -0.07703626 -0.43217713 -0.103040054 0.19129173 -0.20623097 0.44677126
-0.7138281 -0.20138696 0.34936243 -0.069970764 0.041612525 0.04545624 -0.56981224 -0.30020076
0.1354799 -0.07635277 0.5452799 -0.19060285 0.1066474 0.09108931 -0.24940245 -0.024565425
0.49471608 -0.523758 0.06881847 -0.20213845 -0.009251935 -0.23713683 -0.57670563 -0.29429612
-0.40581718 0.03008085 0.1395227 0.29837394 -0.049656603 0.28524795 0.28693295 -0.08565771

actor.2.weight f4 [64, 64]
00000000: a14c 0ebe 98c2 113e 770f f13e 7e50 803e
00000010: d90c f2bd 8eb7 883e 7a6b 833e 779c d7bd
00000020: 45e7 3e3e 8209 23be a066 ef3d 1584 4fbd
00000030: 6903 c63c cf7d 5e3e 07cd 373e 8e51 3fbd
00000040: 78d2 043c 5692 203e 7bb9 6a3d 4bf8 d3bc
00000050: dcdd 21be f556 2a3e 08de a9bd d26c 05bd
00000060: da56 883d 8ac8 48bf 90b1 cb3c 0dbb a8be
00000070: 946e 62be a388 a8bc b966 0dbe 7b60 7abe
00000080: d8f5 92be 9e17 ae3e 9308 273e f086 02bf
00000090: 6203 af3d 30d6 7ebd e78c be3e 414b 023d
000000a0: 6707 ab3d 17c0 1d3e 0b9c 823e 8f92 9bbc
000000b0: 2071 b9bc 6878 933b e62a 3dbe 9479 553e
000000c0: 44af 58be 8b16 a6bd ba19 6cbe 35a3 f9be
000000d0: 75a8 fcbb 7d24 0fbc 61f9 c9be c6c8 303e
000000e0: 4a93 153c d83b 2fbe 19cb 123e 5e1f f0be
000000f0: 9f40 2dbc ee0a cd3d 9f14 053e e3aa 3dbe
00000100: c5c5 153e 2f59 b13e 7d14 29bd 3bb6 133e
00000110: cad9 59be afad a7bc b5bf 6a3d 2e0b ff3d
00000120: 215c dd3c 1fb0 323e 3b71 1d3d f573 4abd
00000130: 830a afbd 9955 8e3e eb30 ee3d 9f74 d4bd
00000140: 735b c4bd dbbb c3bc a345 c23d 536c 22bd
00000150: 62a6 b53d df10 cf3d a424 39bc e13f 873d
00000160: e4c3 6b3d ca6f a3bc e78f 8abd b10d e8bc
00000170: 707a 18be d83a 14bd edfc 26be af64 253e
00000180: ad74 6e3e 399e 753d cefe 83be 70d1 35be
00000190: 0112 c1bc c458 afbc 4f89 6c3d 2ac8 f53d
000001a0: bfdc 86be bfdb b0be 2395 bbbc de12 2ebd
000001b0: b58e c23d 75b1 253d 8c7d c43d 8dc3 1abe
000001c0: 33bf b1be a816 9e3d 9aaf 1fbe d316 b93e
000001d0: a4f8 c8bc 7bed 6fbb f498 213d 0efe 1d3e
000001e0: c2f8 d13d f026 9fbe 1007 95bc 2e4c 803e
000001f0: 800e 3e3e f3bf 59bc 0036 f53d 3336 a7be
00000200: a44a 8f3e c2c7 82bd 7634 d9be dc2a b6be
00000210: 1ce0 703e ee84 aebe ac90 04bd 5abe 12bd
00000220: 5a68 8a3b 5a8d c8bc 03fb dcbd c029 e53d
00000230: 7477 8cb9 859b c53d b43f 663e 9a1e 3f3e
00000240: c8f1 77be 3f08 e2bd 7091 4ebc f78f 17bc
00000250: 3c60 f5bd 3024 573e 1496 8b3e d9b5 c6bd
00000260: ebc7 3a3e 5d33 87be 9f5d b4be 11e1 59bc
00000270: 5021 4e3d ca43 9a3c cee9 ce3d 5b5d 8ebe
00000280: 9554 5b3e 89cc 8d3e 1ee8 0eba e26a 0cbe
00000290: f594 9cbe 1e9e a3be 9700 12be 373f f1bd
000002a0: c6e3 8bbd e055 19be bb02 69be 2ec5 6cbd
000002b0: 8a74 613e bceb bd3c 6861 273e a084 e8bd
000002c0: 5c6e 613e 94bf 1e3e e897 333d 91fa 423e
000002d0: 4a1d 373e 8fb6 6cbe f3f9 093e 0d84 68bd
000002e0: 9145 0c3e 541c 0fbd bcef dfbe fe3a debd
000002f0: 45b0 f33c 6532 a6bd 586f 54be c054 983b
00000300: 4bbc a03c 210c 453d f895 88be 2c74 c8be
00000310: 9a4c 1f3e 158b 823e 5a67 1e3e bcbd cdbd
00000320: 8528 373d a194 7d3e e238 29bd a029 86bd
00000330: f099 a73c 9570 59bd ec67 fabd 88ba a7bd
00000340: 7dd2 263b 2656 663d 9a16 1f3e 00e9 363e
00000350: 139e 1f3e 279d d63c 8bca bfbd c242 023e
00000360: 581c bfbe 6bf2 2e3e 280a 95bd e6a2 22be
00000370: 4e21 0ebd 5d47 313e 3e95 cc3d 68d2 edbc
00000380: 3be5 103e 34f5 25be 7a7a c7bd e86e 3dbe
00000390: ac39 d43e b94e b03d 09d8 cbbc 0c74 d7bb
000003a0: ee9c e73d cdb8 3cbd cedd 363d 39eb 5c3d
000003b0: 15c5 e3bd b2c4 293d 6d7a 62bd 5a8b 3e3e
000003c0: e8ed 05bd c816 b63d f0b4 1cbe d725 063e
000003d0: 5bf9 89bd 6463 3b3d 9bfa 2b3e a76d afbb
000003e0: 28fe 4d3e e69f ebbd bff5 e63c 5ea0 133e
000003f0: 8cde 6c3d c0d9 31bd ed59 1f3e b0a4 fe3d
-0.13896419 0.14234388 0.4708211 0.2506141 -0.11818857 0.2670254 0.25667936 -0.1052789
0.1864291 -0.15921596 0.11689496 -0.050663073 0.024171548 0.2172768 0.17949305 -0.046708636
0.00810682 0.15680823 0.057305794 -0.025875231 -0.15807289 0.16634734 -0.08294302 -0.032574482
0.066571906 -0.78431 0.024864942 -0.32955208 -0.22112495 -0.020572966 -0.13808717 -0.24450867
-0.2870319 0.34002393 0.16311865 -0.5098715 0.08545567 -0.062215984 0.37216875 0.03181005
0.08351021 0.15405308 0.25509676 -0.018990783 -0.02263695 0.0045004375 -0.18473396 0.2084716
-0.21160609 -0.081097685 -0.23056689 -0.4875733 -0.0077105113 -0.008736727 -0.39448074 0.17264089
0.009129355 -0.17112672 0.14335288 -0.4689893 -0.010574489 0.1001185 0.12996148 -0.1852222
0.14626224 0.34638354 -0.041279305 0.14424984 -0.21274486 -0.020468561 0.057311732 0.12453304
0.02702147 0.17449997 0.038438063 -0.04942699 -0.08546927 0.2779968 0.11630424 -0.10373806
-0.09587755 -0.023893287 0.094859384 -0.039654087 0.08869626 0.1011064 -0.01130024 0.06603981
0.057559863 -0.019950766 -0.067657284 -0.028326841 -0.14890456 -0.03618893 -0.16307421 0.16151689
0.23286696 0.059965346 -0.25780338 -0.17755675 -0.023568155 -0.021404631 0.057748135 0.12001069
-0.2634029 -0.34542653 -0.022898262 -0.042498462 0.094998755 0.04045244 0.09594259 -0.15113659
-0.34716186 0.07719165 -0.1559433 0.36150226 -0.024532624 -0.0036610055 0.039452508 0.15428945
0.10252525 -0.31084394 -0.018191844 0.2505812 0.18560219 -0.013290393 0.1197319 -0.32658538
0.27986634 -0.06385757 -0.42422837 -0.35579574 0.23522991 -0.34085792 -0.032364532 -0.035826065
0.0042238655 -0.024481464 -0.10790064 0.11189604 -0.0002679188 0.096488036 0.22485238 0.18664017
-0.24213326 -0.11036729 -0.012607917 -0.0092506325 -0.11981246 0.21009898 0.27262938 -0.097026534
0.18240325 -0.26406375 -0.35227677 -0.013298289 0.050324738 0.018831152 0.101031885 -0.278056
0.21418984 0.2769511 -0.0005451458 -0.13712648 -0.30582395 -0.3195657 -0.14258038 -0.117796354
-0.06830554 -0.14974165 -0.22754948 -0.057805233 0.22017112 0.023183696 0.16345751 -0.11353421
0.22014755 0.15502769 0.04384604 0.19040896 0.17882267 -0.23116516 0.13474254 -0.05676656
0.13698412 -0.034939125 -0.4373759 -0.108510956 0.029747138 -0.08115081 -0.207456 0.004648775
0.019621035 0.04810727 -0.26676917 -0.39151132 0.15556565 0.25496736 0.15469113 -0.100459546
0.044716377 0.24763729 -0.041314013 -0.06550908 0.020459145 -0.053085882 -0.12226853 -0.08189875
0.002545505 0.0562345 0.15535966 0.1786232 0.15587644 0.026197983 -0.09364804 0.12720779
-0.37326312 0.17084663 -0.07277328 -0.15882453 -0.03469973 0.17312379 0.09989403 -0.029030994
0.14149944 -0.16206819 -0.097401574 -0.18499339 0.4145025 0.08608765 -0.024883287 -0.006575113
0.11309229 -0.046074677 0.044645123 0.053935263 -0.11121575 0.04144735 -0.055292536 0.18607846
-0.03269759 0.08891064 -0.15303397 0.13100372 -0.06737014 0.045749083 0.16794817 -0.0053536477
0.20116484 -0.115051076 0.028193353 0.14416644 0.057829425 -0.043420553 0.15561648 0.124337554

actor.2.bias f4 [64]
00000000: 42ac d8be dd2f 16bd 9e7d 04be 5294 0f3e
00000010: a8ff 7fbe f718 acbe e29f e9bd 2342 c4be
00000020: 4ace bebd 6923 4dbe 6b49 bfbe e4d0 8bbe
00000030: eaa4 86be 894a c6bc 0308 42be df74 a1bd
00000040: 13bb 91be 21d3 14bf 61ea 58be 2c8d aebe
00000050: eb96 00bf e013 82be 9eeb 91be fbc5 70bd
00000060: 70c7 b6be 0a48 14bf 74f1 cdbe fb07 5ebe
00000070: 0ab2 87bd a4fe 8ebe 4e5e 4b3e 1b5e ccbe
00000080: 576d 05be 5c35 35be 8cae 07bf 751c f2be
00000090: 2248 14bf 35b6 ddbe d608 18be 2ae6 50be
000000a0: 5e67 eebe db16 afbe 4307 17be 67be 37bd
000000b0: e51f 77be 975b 08bf 11a8 74bc 0c9f edbd
000000c0: 9c4d debc c4ba a5be 88c4 72be 349b f1be
000000d0: f8aa b1be c2d5 7cbe 782d d4be 54ff bebe
000000e0: eed7 0cbe 2d7f 94be 1fb7 81be f9cf e6be
000000f0: 36c8 aabe 50c7 71be 2d55 74be 298a 373d
-0.42318922 -0.03666674 -0.12938544 0.14021423 -0.24999869 -0.33612797 -0.11407448 -0.38331708
-0.0931669 -0.20033039 -0.373607 -0.27307808 -0.26297694 -0.024205463 -0.18948369 -0.078836195
-0.2846304 -0.5813466 -0.21183158 -0.3409208 -0.5023028 -0.25405788 -0.28500074 -0.05878256
-0.35699034 -0.5792242 -0.40223277 -0.21682732 -0.06625755 -0.2792865 0.19860193 -0.39915547
-0.13029991 -0.17696136 -0.5300071 -0.47287336 -0.57922566 -0.43303075 -0.1484712 -0.204003
-0.46563238 -0.34197125 -0.14748864 -0.044859316 -0.2413326 -0.53264755 -0.014932648 -0.116026014
-0.027136616 -0.32369053 -0.23707783 -0.47188723 -0.3470075 -0.24690917 -0.4144094 -0.37304175
-0.13754246 -0.29003277 -0.25335023 -0.45080546 -0.33355874 -0.23611188 -0.23860617 0.044809494

actor.4.weight f4 [7, 64]
00000000: 3ab4 993d c222 f93b 5c8c 8bbd 1068 893c
00000010: 71c5 a43d 7c90 c0bc e228 4dbb 654b 17bd
00000020: 7b48 933c 0ed2 83bb b6eb 8f3d 7ea4 de3d
00000030: 4795 49bc 3f6c 9b3c 8178 683c fc29 77bd
00000040: 36d5 b63d b8d8 b8bd 8dce 10bd 0814 b1bd
00000050: 4c94 f7bb a625 843d de0e 40bc 23e6 013e
00000060: 5dbc d8bc 0007 fd3d 5982 033d a6df 8fbc
00000070: 855d 2abd 647e 163d 6d60 03bd 2f58 303e
00000080: 3bfd 5e3e a38b acbd b81c 79bb d022 aa3c
00000090: 81e6 99bd 368d cfbc 1c5f 0dbe e2da cc3d
000000a0: b4e4 d93d 6b49 da3d 567f cbbd e364 7f3d
000000b0: 5bde e9bd f55a 0c3e c99d 653d 341d d63b
000000c0: 3525 8b3d 8849 57bd a388 bc3d 6b54 68bd
000000d0: ae93 973d 79de 89bd f258 4e3d 892a 503d
000000e0: 58ed 77bd 885b 75bd 6718 663d 16b1 9bbc
000000f0: 5f92 6f3e 9c29 023e cc61 943d b3cf b9bd
00000100: 469d 01bd beca 6cbc 6503 e13c 3999 d03c
00000110: 27a7 703d cdea 453d 7b47 463c c349 073d
00000120: aab5 743c 4c45 a03d edb4 84bd 9013 10bd
00000130: 04c4 eebc dde9 a13c 76f5 73bd aba2 dabc
00000140: c137 c0bc 0df0 37be aa36 98bd 77c6 f43c
00000150: 7295 e7bd ded9 d2bd a4b9 3c3b 6c32 35bd
00000160: be0b 343c 5f97 663a 1c19 a3bd ff2f dd3c
00000170: 6f62 1d3d df67 b4bc 4ae4 183d ef98 0b3d
00000180: 7fc8 363e 1a20 26bd 37a9 59be 35fd dcbc
00000190: 78dc 28bc 1c9c 22bd 0357 cdbc 03c1 613d
000001a0: f9af 49bd ea50 0bbe ce32 3cbc a5e9 b93d
000001b0: fd77 f6bb 05bf d0bd ab8d 2c3c 7d66 a8b9
000001c0: a0ab 073d 0f18 4bbc 9fa1 123d 54f2 f83b
000001d0: 0ce7 493d c465 f7bd ef43 263d 4e72 cebd
000001e0: 4255 373d 0d5a 5ebd fcac d0bc e1df 263d
000001f0: 4088 7c3c d1a5 ddbc bb83 d73c 8dc6 21bc
00000200: bf9a 593e b1c9 1ebd 81c8 163d 0b3f f1bc
00000210: 5267 42bd af36 31bd 2414 f53c 36ee 89b9
00000220: 7313 84bc d41f 1b3d d392 a0bd 2692 42bd
00000230: 36c1 8cbd 0572 5a3b 5a4a 47be 79b1 65bd
00000240: c309 40be 9b18 8b3c 3f0b b53c 6750 423d
00000250: ea2f f33c 472e e3bd bf34 9bbd baea 463d
00000260: 0e03 4cbd 431e 013e db6e 53ba 068e c83c
00000270: 181a a83c 4f6e dcbd 8811 e13c 5671 5c3e
00000280: 0f46 19bd bd85 d6bd 25cf d33c 13f2 bfbd
00000290: e80d 83bd 125b afbd 90a0 98bd a831 963d
000002a0: 07dc 5c3d 6031 473e cfd5 fdbd 25d8 fdbc
000002b0: b7e2 9c3d 1056 2b3e ee49 8c3d 3a56 db3c
000002c0: e958 373d 08ec f5bd be05 653d 71b0 873d
000002d0: 65f4 81bd 1fa2 0ebe b965 94bc 0a18 3d3e
000002e0: f534 e2bc 9ea3 b43d 94f8 ec3c ac70 0fbe
000002f0: 3efc 0d3e bd93 9d3e 4ad9 64bd 6702 1d3d
00000300: 97ea 14be 1c09 843d bf97 10bc 714f 213d
00000310: 55c7 b1bd f65d 14bd 69e9 153e 5995 a83d
00000320: 3488 443d 6b94 60bd f4ad 843d 27ea e83b
00000330: 7022 a13c 8fc1 2c3c f512 a6be 10f6 0cbc
00000340: a0e2 833c f3c3 1bbd 3487 edbc 1301 e03d
00000350: 2509 af3a 214f c03c 62c8 e63d 06af 5a3d
00000360: eec2 aabc bb95 5d3d d0f7 203e df74 c13d
00000370: b583 4ebd 19d3 b53d 2a73 e83c 1a00 9e3c
00000380: 230c 17be 2e1a eb38 a675 96bd 382e 36be
00000390: 602d 433e 4b9a 29bd 0593 90bd ffb0 8c3c
000003a0: d0e4 18be 4ee2 21bd 6eac bcbd 3532 f33a
000003b0: 1558 03bd fcdb 2cbe cc2b 7fbc 55e9 5a3d
000003c0: ff34 58bd 56be bbbd b5da 80bd 2a6e 9ebb
000003d0: 6923 083d a3cd 403d 41a5 2fbe 2691 c4bb
000003e0: 27f3 dfbd 5c51 bfbc bb67 23bd 9914 48be
000003f0: 54dc dd3b 8f0f 2d3e cde1 28bd 3398 073d
0.075050786 0.0076030204 -0.06813881 0.016773254 0.080454715 -0.023506396 -0.0031304886 -0.036937136
0.017978897 -0.004022843 0.0702738 0.10871218 -0.012303657 0.018972514 0.014188887 -0.060342774
0.089273855 -0.09025711 -0.035353232 -0.08646399 -0.00755552 0.06452493 -0.011722295 0.12685446
-0.026457006 0.12354851 0.03210673 -0.017562699 -0.041593093 0.03674163 -0.03207438 0.1722114
0.21776287 -0.08425071 -0.0038011502 0.020768553 -0.07514668 -0.02533589 -0.13805813 0.10002686
0.10639325 0.106585346 -0.09936397 0.062352072 -0.11419364 0.13706572 0.05605868 0.006534243
0.06794206 -0.05256036 0.09205749 -0.056721132 0.074012145 -0.067318864 0.050377794 0.050821815
-0.060529083 -0.059901744 0.056175616 -0.01900534 0.2339568 0.12711185 0.07245216 -0.090728186
-0.03164413 -0.014452634 0.027467439 0.025463687 0.05875316 0.048319627 0.012102003 0.03302933
0.01493589 0.07825717 -0.06479821 -0.035174906 -0.029146202 0.019764835 -0.05956026 -0.026688894
-0.023464086 -0.17962666 -0.07432301 0.029879792 -0.11307801 -0.10295461 0.0028797174 -0.04423754
0.010989128 0.000879636 -0.079637736 0.027000425 0.03842395 -0.022022186 0.03732709 0.034081396
0.1784992 -0.04055796 -0.21255957 -0.026976207 -0.01030647 -0.03969966 -0.025065904 0.05511571
-0.049240086 -0.13605085 -0.011486722 0.09077767 -0.007521628 -0.10192684 0.010531823 -0.00032119817
0.03312266 -0.012395873 0.035798665 0.007597247 0.04929261 -0.12079957 0.04059213 -0.10080396
0.044759043 -0.054285098 -0.02547311 0.04074085 0.015413344 -0.027056606 0.026307931 -0.009873998
0.21250437 -0.038766567 0.03681231 -0.029449007 -0.047461815 -0.04326504 0.02991683 -0.00026308157
-0.016122555 0.03787215 -0.078405045 -0.04750266 -0.068727896 0.003333212 -0.19461957 -0.056077454
-0.18753724 0.016979506 0.02210009 0.04743996 0.029685933 -0.11092811 -0.0757842 0.048563696
-0.0498076 0.126092 -0.000806553 0.024481785 0.020520255 -0.10763227 0.02747418 0.21527609
-0.03742033 -0.10474727 0.02585561 -0.09372344 -0.06399137 -0.08562292 -0.074525 0.0733369
0.053920772 0.19452429 -0.123942964 -0.030986855 0.0766043 0.16732049 0.068500385 0.026774514
0.044762526 -0.1200791 0.05591368 0.066254504 -0.06345443 -0.13929032 -0.018114911 0.18466201
-0.027613143 0.0882027 0.028927125 -0.14007825 0.13865754 0.30776778 -0.055871285 0.03833237
-0.14542614 0.0644705 -0.008825242 0.0393824 -0.08680598 -0.03622242 0.1463982 0.08231611
0.047981456 -0.054829042 0.064784914 0.0071079913 0.019669741 0.010544195 -0.32436338 -0.008603588
0.016099274 -0.03802867 -0.028995134 0.10937705 0.0013354166 0.023475232 0.11268689 0.05338957
-0.020844903 0.054097872 0.15719533 0.094461195 -0.050418574 0.08878154 0.028375227 0.019287158
-0.14750724 0.000112105496 -0.073466584 -0.17791069 0.19060278 -0.04140691 -0.07059292 0.017174242
-0.14931035 -0.03952246 -0.09212576 0.0018554392 -0.032066423 -0.16880792 -0.015574407 0.05344518
-0.052784916 -0.09167163 -0.06291715 -0.00483491 0.033236895 0.04707111 -0.17152883 -0.0059987484
-0.109350495 -0.023354225 -0.039893847 -0.19539107 0.00677065 0.16900466 -0.041230965 0.033104133

actor.4.bias f4 [7]
00000000: f39e 933c f82d 3e3e ef0d 2abe 9edb 223e
00000010: c579 593e d9dd a3be 9fcb 023e
0.018020129 0.18572223 -0.16606878 0.1590409 0.21237858 -0.32005194 0.12772988

critic.0.weight f4 [64, 32]
00000000: 668d 6fbe 6da5 1dbe 0458 58be 0429 a23e
00000010: 2a46 1dbe 3378 a43d 9ba4 93be 8766 093e
00000020: e13d 3a3d 7e53 a73c a747 6d3d 2d06 e53c
00000030: c5f7 43bb ca72 38bd 6e63 4fbc cb80 1bbd
00000040: a39f 99bd 9000 26bd cdfb 4d3e 2d6c 8f3f
00000050: 1f22 723f 58f0 343d bcc8 4cbe a5bb 22bf
00000060: 5484 fdbd 849e bb3b ad03 d7bd 723b 23be
00000070: c9cc 4abd 6ddd b5bd 4aa1 7d3c 98c8 e2bc
00000080: 7a97 26be 500c 4f3e 5ef5 b5bd fa71 713e
00000090: e3cd cf3b 7782 14be faaf bb3d aa46 f8bb
000000a0: 14af fcbb fd95 f2bb b3be 033e b23d 27bb
000000b0: 30ba 1b3d 18f1 f3bb 5c52 09bb 314b cb3b
000000c0: 8144 19bf aba7 d5be 7a23 ab3e 716d 93bf
000000d0: 04b4 d0bf 42a7 8d3d ee12 993e ae18 f2bd
000000e0: babd 1cbc b830 eabc 51fd cebd bb82 e5bb
000000f0: 36a6 2f3d 83b3 ecbc d699 f4bd fbe1 e0bc
00000100: 4578 2c3d 33d9 7a3e b188 c3bc 696c e1bd
00000110: 10f2 533e 5a38 adbc 5366 28bd 283a 3abc
00000120: 3218 6c3d 5faf 93bd af68 af3c e666 d2bd
00000130: 94f5 14bc a3f7 463d 6076 0d3b d1ae acbb
00000140: 4a80 4c3e 72ae 8bbc e1fc 32bf ced4 b8be
00000150: 516f 043f 874b 603d ab6f 6bbd 71d5 5dbe
00000160: e4e9 b3bd 2630 c23d ef51 b33d e978 cd3d
00000170: 0686 3b3d b212 b6bd f0b5 2e3d 5e54 0f3c
00000180: 21a6 37be 93b5 563d 27f3 23be 7e9b d6be
00000190: 317d 1bbd b2dd 4e3e 7290 1c3c b471 853e
000001a0: 1950 c13d 0483 5bbe ef0c 9dbd 47f6 62be
000001b0: 1f0e 1abe 0bc8 c6bc 79c5 8d3b e73f 10bd
000001c0: 345e 40be 7109 f1ba 2e5b aebe 8412 eb3d
000001d0: e1f1 62be 7fc3 fdbd d26e 92bf dcc8 193e
000001e0: cd3f 253e 7132 533a 3dee 7b3d 1dad b3bc
000001f0: 086c 08be 2154 a7bd 868d dd3d 6bad 4f3d
00000200: d688 aebe ae8d 5ebd 2bdd 6abe 2d41 853e
00000210: 1ff7 c63e 8153 f93d debb 773e fe51 903d
00000220: 415c 613a 9867 44bc b082 f13b eb06 c93b
00000230: 6a24 a6bd 0a37 153c 4b24 c9bc 9dfb fdbc
00000240: 4b3b 52be 3878 77be d3a5 d33e ee13 b8bc
00000250: 46ad 7bbe 6f07 243d 7f0a 20bf e242 a33e
00000260: 924b 11be 39f2 b6bb d749 9f3d 6203 c4bd
00000270: 721f abbc 7249 cebc 39dc aabc dfa9 7d3d
00000280: 5ffb 65bd 3d30 d2bd 157d 2dbe 516d d7bd
00000290: 507d ba3d 357b 3e3e 73c5 19bd c565 6cbd
000002a0: 27ed ee3d 56f1 e43d c1c2 493e f960 083e
000002b0: 03a8 2ebe 4b1b f5bc 6b29 8dbc 4cb7 79bc
000002c0: 5dab 8f3d 28aa 01be 659b e9be beac 29bf
000002d0: 5f65 f7be 56d1 1abe 463d 153f 8862 f43e
000002e0: 90b0 913d fe2e d03c 66ce 9b3d 24f2 9a3d
000002f0: 5717 b23c d1be aa3c 6dec 833d 309b a1bd
00000300: e99d 3c3e 341c a33e 7f49 c83d 475b cebd
00000310: 2585 eabc 5e02 3f3d 6fe1 cabd 86c5 08be
00000320: 1feb 403d ea48 423d 77dd cf3b 6f1b 163d
00000330: 6576 58bd a7ce 01bc f0ce 063c 5210 32bb
00000340: 9e08 943d 67a9 09be c92a 813e dd34 44c0
00000350: c029 2bbe 3001 113e 0747 54bf 5292 633e
00000360: 7a95 1ebd 98c6 39bd 0ca2 303d 5071 683d
00000370: 1064 bcbb eae4 bdba 5445 1e3d 4737 e03a
00000380: ea6b 4d3d 6538 783d 9f13 18be 5db2 81be
00000390: 772b 7abe 5694 69be 2682 47be eb56 123e
000003a0: 67e0 a33d 2c32 223d ee20 163e 0094 213c
000003b0: 8969 063d 69ec 73bc 4446 95bb a25f e7bb
000003c0: 5cff dc3d e369 513e 933e 623d feee ef3e
000003d0: 2585 80be 124d 023e 0ed5 0dbf 0a3f fbbd
000003e0: 8fe7 073e af26 4cbd f801 72bc 3e22 26be
000003f0: 8652 52bc 64ae 81bd 6c7b dfbc e427 7fbd
-0.23393783 -0.15395136 -0.21127325 0.31671917 -0.15358797 0.08030739 -0.28836522 0.13418017
0.04546917 0.020425554 0.05792966 0.027957046 -0.002990232 -0.045031346 -0.012657983 -0.037964623
-0.075011514 -0.04052788 0.20115586 1.1204888 0.94583315 0.044174522 -0.19998449 -0.6356757
-0.12378755 0.0057256836 -0.10498748 -0.15940645 -0.049511705 -0.08880124 0.015480349 -0.027683541
-0.16268721 0.2021954 -0.08884691 0.23578635 0.0063416823 -0.14502893 0.09164424 -0.007576783
-0.0077113006 -0.007403134 0.12865715 -0.002551895 0.03801936 -0.007444512 -0.002095363 0.006204032
-0.59870154 -0.41729483 0.33425504 -1.1517774 -1.6304936 0.069166675 0.29897255 -0.118211135
-0.009566719 -0.028587684 -0.1010691 -0.0070041097 0.04288312 -0.028894192 -0.119434044 -0.027451506
0.042106885 0.24496917 -0.02386889 -0.11007006 0.20697808 -0.021145035 -0.04111321 -0.011366405
0.057640262 -0.07211184 0.021412222 -0.102735326 -0.0090917535 0.04857601 0.002158545 -0.005269863
0.19970813 -0.017050955 -0.6991711 -0.36099857 0.51732355 0.05475953 -0.05747954 -0.21663453
-0.087848455 0.0948184 0.08755862 0.100328274 0.04578211 -0.088902846 0.042653978 0.008748142
-0.17934467 0.052419256 -0.16010724 -0.41915506 -0.03796119 0.20201758 0.009555923 0.2606331
0.094391055 -0.21436697 -0.076684825 -0.2216426 -0.1504445 -0.02426531 0.004326519 -0.035217192
-0.18785936 -0.0018389655 -0.3405394 0.11478141 -0.22162582 -0.123908035 -1.144007 0.15018028
0.1613762 0.00080565276 0.0615065 -0.021933133 -0.1332246 -0.08170343 0.10818009 0.050702494
-0.34088773 -0.054334335 -0.22935931 0.26026288 0.38860413 0.1217413 0.2419276 0.07046889
0.0008596816 -0.011987589 0.0073703155 0.006134858 -0.08112414 0.009107361 -0.024553439 -0.031003768
-0.20530431 -0.24166954 0.4133745 -0.02247044 -0.24577817 0.04004615 -0.62516016 0.31886965
-0.14188984 -0.0055830744 0.07777756 -0.09570958 -0.020889018 -0.025181506 -0.020856963 0.06192958
-0.05614793 -0.10263107 -0.16942246 -0.10518897 0.09105933 0.18601687 -0.037541818 -0.057714242
0.11666327 0.11178844 0.19703199 0.13318242 -0.17056279 -0.02992024 -0.017231664 -0.015241455
0.07015107 -0.12662566 -0.4562637 -0.6627921 -0.48319528 -0.15118918 0.5829662 0.47731423
0.07113755 0.025413033 0.07607727 0.07565716 0.021739645 0.020842941 0.06441579 -0.07890928
0.18419613 0.31857455 0.09779643 -0.100760035 -0.028627941 0.046633117 -0.09906279 -0.13356599
0.04709923 0.047432818 0.0063435393 0.036647256 -0.052847285 -0.007922805 0.008228049 -0.0027170372
0.07228206 -0.13443528 0.25227955 -3.0657265 -0.16715145 0.14160609 -0.8292088 0.22223786
-0.03871677 -0.04535541 0.04312329 0.05674869 -0.005749233 -0.0014487777 0.038640335 0.0017106318
0.050151743 0.060600657 -0.14851235 -0.25331393 -0.24430643 -0.22810492 -0.19483241 0.14290969
0.08001786 0.03959863 0.14660999 0.009861946 0.03281549 -0.014887908 -0.0045554955 -0.007060961
0.107908934 0.20450549 0.055235457 0.46862024 -0.2510158 0.12724712 -0.5540322 -0.12267883
0.13271926 -0.04984158 -0.014770977 -0.16224 -0.012837058 -0.063320905 -0.027280532 -0.062293902

critic.0.bias f4 [64]
00000000: a338 b13d e57f fdbd 9ce9 b33d 2b3e 15be
00000010: 7f0c 2c3b d5ec febd 5aad 5fbc 7b4a da3d
00000020: 3598 a73d d3cf c73e cc16 d63e 2bed 58be
00000030: 3e35 43be 96c5 4cbe 72b6 923e 3b3c 343e
00000040: 008c 83bc 4b3a 11be 7f91 ee3d 8cfd 063f
00000050: 8551 243f 2920 35be 6585 7c3d 3a9c 103d
00000060: 2122 963e ad14 bcbd 2240 a33d 57fa b13e
00000070: d8c5 273e 0f20 0fbe 0934 85bd 8b16 c13e
00000080: 38d4 dabd ceae 5ebe 1f43 adbd 9c4f d5bd
00000090: 9dbe 6e3e 404a 043f 4abe 3fbe 9474 573e
000000a0: f661 8abc ac1f 333d e6e9 923e adbc 9dbe
000000b0: d51a a8be 5928 ac3e 34a9 4bbe dd10 74be
000000c0: 0998 623e 566a 0d3d 4f7e 86be 62de 93be
000000d0: cae9 9a3e 598e a7bd 7471 dfbd 6422 abbe
000000e0: 2c39 8d3e 3dff 00be 69c6 49be c636 403e
000000f0: 4320 fd3d 3a13 973d 1c82 b83d e784 9dbc
0.08653381 -0.123779096 0.08784792 -0.14574496 0.0026252565 -0.12447516 -0.01365217 0.10658737
0.08183328 0.39025745 0.41814268 -0.21184222 -0.19063279 -0.19997248 0.2865482 0.17601101
-0.016057968 -0.14182393 0.11648845 0.5273063 0.6418689 -0.1768805 0.061650652 0.03530524
0.29322913 -0.09183631 0.07971217 0.34761307 0.16384065 -0.13977073 -0.065040655 0.3771251
-0.10685009 -0.2174637 -0.08460068 -0.10415575 0.233149 0.51675797 -0.18724933 0.21040565
-0.016892415 0.043731377 0.28694075 -0.3080801 -0.3283297 0.33624533 -0.19888765 -0.23834558
0.2212831 0.034525238 -0.2626824 -0.28880602 0.30256492 -0.081814475 -0.10910311 -0.33424675
0.2758268 -0.12597366 -0.19704594 0.18770894 0.12359669 0.07376714 0.090091914 -0.019228412

critic.2.weight f4 [64, 64]
00000000: 0b12 3ebd ad97 75bd 4704 973d cd33 29bd
00000010: ffeb d5bc d3c4 dc3d 0ec5 073e d08c c9bd
00000020: 68ee 36be 8387 ffbe 10e7 d0be 8097 df3e
00000030: 5b1a e33d 7943 d43e 4158 71be cfa2 b13d
00000040: 39c2 f7bd 9cfb 263f a6ae 28bf 4cc0 16bf
00000050: 6ff1 88bf 80bc 243f 2a5e 91bd 6892 83be
00000060: 046e c8bd f452 9c3e 2cec 2b3e b69d 8ebe
00000070: d8c7 c5bd 5dfb 843e 110d 6c3e 18e3 92be
00000080: 5f65 b0b9 ee5f 9b3d 2944 de3d c1dd efbc
00000090: 1701 a6be 0d67 26bf 8af5 39bc f1bf 7dbe
000000a0: ad4a 083d 5437 6b3e 529f b3bc 8206 4c3e
000000b0: 712d 323e 1785 a5be 4b78 6c3e 927d 183f
000000c0: ea73 0bbf 2598 5ebd d369 3bbd c6b2 2b3f
000000d0: f247 61be 0bba aebd 7799 a6bd a640 4f3e
000000e0: cf20 b1be 09f3 813c 8d11 ec3d 70a9 31bc
000000f0: b6a2 49be 53c4 2abe 126e b6bd 3024 0cbe
00000100: 0b7b 51bd 0177 9cbc 791d 153d c9c6 4a3d
00000110: 6649 77bc 5020 9b3d 1ca8 07bc 10b5 75bd
00000120: c1ce 42be 0e9c 89bc ab0c e13d 878f 043e
00000130: 0355 043e f3f5 42bd be0d c03d e05a 773c
00000140: 1032 f43d 85c2 66bd 32fc 0d3d b633 6bbd
00000150: c722 b83c e9bb 8d3d 6be6 52bd 6399 eb3c
00000160: b0ad db3d 50d7 0e3e 3d2b 7b3d 8308 153d
00000170: 20fd f83d bbcd 03be 0177 483d 0fee f13d
00000180: 112e 6c3d 8a0c 12be 5e62 703d 8ec8 0ebe
00000190: 697d c5bd 7688 f0bc d122 a33d 0575 083e
000001a0: 4fbe 4bbc b534 7b3c ee1b aeb9 ca40 073e
000001b0: 63d4 2b3c 06b5 abbd f605 03bd 4064 333c
000001c0: acd7 183d 050e 6f3c e97e 993d e740 0c3c
000001d0: 726b 86bd 85fe 0fbe 6245 b2bb 1fde 3ebd
000001e0: 231d 873d d4a2 993c 459d 4e3d 7c89 473d
000001f0: fb0b 4b3d 11d3 6d3d 206c cd3d ce29 b23d
00000200: c2cd 923d b88b a13c a75a 193d 2ded cebd
00000210: 0f49 783d bab3 83bb aa2b 9ebd 7e06 fa3d
00000220: e52f 43b9 d072 c93c 54b2 a2bd 336a acbc
00000230: 34ed 21be b321 b2bb 516e 85bc ef60 a13d
00000240: 6881 713d 309b 333e 3895 2f3d ddd3 07bd
00000250: a08e 54bb 3d90 d5bd 56ba 38bc f055 b3bd
00000260: 6b60 d3bc 52a4 0f3e d072 0c3b 687b 97bd
00000270: b608 1fbd 186e e93d ad30 953d 5fde 83bd
00000280: a704 50bc 943a b8bd f473 b43d 4b63 17bd
00000290: f15f 503d c50c a03d b34a 193d 2e5f 4b3b
000002a0: 9a56 f9bc fb31 50bd 70e5 bb3c 0231 0abd
000002b0: 1026 bcbd b7b6 ecbc c8d4 06be d970 88bd
000002c0: 5bf2 cdbc a3f1 c03d 7bd0 e63d 63fa c8bd
000002d0: 1e19 a33d 5611 943d ec81 183e 5aac ae3d
000002e0: 3c0b 723d 21e4 e83c e234 643c 18af 513c
000002f0: 3d37 003e b98e 8f3d 3b70 5d3d 71f9 8abb
00000300: 2841 d9bc d8c4 203d 1ec5 40bd bc9d 8ebc
00000310: 0356 abbc ca11 dabd 28d5 893d 01f8 853d
00000320: 5fc7 a9bc 8ec7 db3d fd3c 30bd 4b65 903d
00000330: c3b5 56bd 0f88 b7bd 4ec4 9e3d 1427 723d
00000340: b57f 5bbc fb67 c23b 547d a5bc 898c 473e
00000350: 2c45 10bd 0816 2f3e d662 7c3d d85b 863d
00000360: 69ac 8bbc 03fe 44be e618 18bb ebd0 c9bd
00000370: ca09 a2bd 60a2 d7ba ae2e 93bd 8726 033e
00000380: 799a 84bc 8b9d 4bbd 6530 37bc 2ef8 d53c
00000390: 451d 063d e613 a6bd 2c81 8abb c356 b1bc
000003a0: 6231 3e3e bd36 8abc e826 0b3b 9188 5e3d
000003b0: a569 d63b 5e76 10bd 4eab 1cbd 3334 993d
000003c0: cc9a b4bd 72f8 1f3e 026d b13d a874 2c3c
000003d0: 5f08 febd 6586 5dbc fef6 70bc 6d45 44bd
000003e0: 52ff c53d 9b79 c63b 53b6 eeba 0d42 d63d
000003f0: 783c 003c ea1b 2abd c28f 02bd c9e9 a2bd
-0.046403926 -0.059959102 0.07373863 -0.041309167 -0.026113508 0.10779729 0.13258764 -0.09841311
-0.17864382 -0.49908075 -0.40801287 0.43670273 0.11089011 0.41457728 -0.23568822 0.086736314
-0.12097592 0.65227675 -0.6589149 -0.5888717 -1.069868 0.6435013 -0.070980385 -0.25697637
-0.09786609 0.30532038 0.16789311 -0.278547 -0.09657258 0.25973025 0.2305186 -0.28688884
-0.00033644863 0.075866565 0.10852844 -0.029280545 -0.32422706 -0.65000993 -0.011350045 -0.24780251
0.03327434 0.22970325 -0.021926556 0.19924358 0.17400147 -0.32328102 0.23092763 0.59566605
-0.54473746 -0.054344315 -0.04575522 0.6706966 -0.22000101 -0.08531579 -0.0813474 0.20239505
-0.34595343 0.015862959 0.11526785 -0.01084362 -0.19690976 -0.16676454 -0.08907713 -0.1368568
-0.051142734 -0.019099714 0.03640506 0.049505983 -0.015093183 0.075745225 -0.0082798265 -0.059987128
-0.19024183 -0.016798045 0.10988744 0.12945376 0.12923054 -0.047597837 0.09377621 0.01509735
0.11923611 -0.056337852 0.03466434 -0.057422362 0.02247752 0.06920607 -0.051489275 0.028759664
0.10726488 0.13949323 0.061320532 0.03638507 0.12157655 -0.12871449 0.048941616 0.11812984
0.05766112 -0.14262596 0.05868756 -0.13943693 -0.09643061 -0.029361945 0.07965625 0.1332589
-0.01243551 0.015332391 -0.00033208675 0.13208309 0.010487649 -0.08384137 -0.031988107 0.010949194
0.037315056 0.014590745 0.07494909 0.008560396 -0.06563462 -0.14061935 -0.0054404 -0.04659855
0.06597354 0.0187544 0.050442953 0.0487151 0.049571972 0.058062617 0.10030389 0.0869938
0.071681514 0.019719943 0.03743997 -0.101038314 0.06061655 -0.004019228 -0.07723172 0.122082695
-0.00018614491 0.02459088 -0.0794417 -0.021046733 -0.15813142 -0.005436146 -0.016287955 0.07879817
0.058961302 0.17539668 0.042866915 -0.033161033 -0.0032433644 -0.10427902 -0.011274895 -0.08756626
-0.025802812 0.14027527 0.0021430738 -0.07396585 -0.038826667 0.11397952 0.07284675 -0.06438898
-0.012696422 -0.08995548 0.08811179 -0.036959928 0.050872747 0.078149356 0.037424754 0.0031032073
-0.030436803 -0.050828915 0.022936553 -0.033738144 -0.09186947 -0.028895719 -0.13167107 -0.06662149
-0.025139978 0.094210885 0.11270233 -0.098133825 0.07963775 0.07229869 0.14893311 0.08528967
0.059092745 0.028429093 0.013928624 0.012798093 0.12521072 0.07009644 0.05406211 -0.0042411615
-0.026520327 0.039250225 -0.047062986 -0.017409198 -0.020915037 -0.10647924 0.067301095 0.065414436
-0.02072495 0.107314214 -0.043026913 0.0705057 -0.052419435 -0.08961498 0.07752286 0.0591193
-0.013397147 0.0059328056 -0.020201363 0.19487204 -0.035222217 0.17098248 0.061617695 0.065604866
-0.017049985 -0.19237523 -0.00232082 -0.09854301 -0.07912023 -0.001645159 -0.07186638 0.12807666
-0.01618694 -0.04971079 -0.011180972 0.026119318 0.032742757 -0.08109264 -0.0042268243 -0.021647817
0.18573526 -0.016871804 0.0021232907 0.05432946 0.0065433555 -0.035269134 -0.038249306 0.07480659
-0.08818588 0.15622118 0.0866337 0.01052586 -0.124039404 -0.013520812 -0.014707325 -0.047917772
0.09667839 0.006056977 -0.0018212296 0.10461817 0.007826917 -0.041530527 -0.03187538 -0.07954747

critic.2.bias f4 [64]
00000000: 9980 b63b f7bf c3bd ee88 db3b 5d91 16be
00000010: ec65 653d ecfc 16bc f56e d7bc 4f5c 103e
00000020: a0bf fc3d 9b45 a33d 468d 643d 33ac 94be
00000030: 9245 a0bd cb12 073d 1dbd ea3c d33b 263e
00000040: 256a d93d 0188 17be 9025 c9bd 0182 503d
00000050: 2812 a1bd d294 babd c522 b73d 1512 11bd
00000060: 9de0 c0bd 8b11 a03c de73 72be b161 57bd
00000070: fd39 85bd 49e6 f3bb 4f18 a93d 34e3 1e3d
00000080: 8aa5 b4bc 05cb 543e 6fec eb3d 8106 db3d
00000090: 0fb8 8bbc 43e2 b6bb 267b 32be ac3d cbbd
000000a0: ea55 9ebe 9068 6fbc f93a a43d 01fd 863e
000000b0: c9d1 b43c 3ed4 ccbd 47d4 8f3d 9e45 2dbc
000000c0: 811e 053d 361c 20bd 22c1 2b3e 138d 9e3c
000000d0: 02b5 01bd 1f4f 9fbd eaa8 693d 6e5d debc
000000e0: f82b aebd a775 b5bd 7310 31bd 83c1 403d
000000f0: 1333 0abe ea6e debd 439d 1bbd 1577 523c
0.0055695293 -0.09558099 0.006699673 -0.14703889 0.056005403 -0.009215575 -0.026298026 0.14097713
0.12341237 0.079722606 0.05579879 -0.29037628 -0.078257695 0.032976907 0.02865463 0.16233759
0.106159486 -0.14797975 -0.098216176 0.05090523 -0.07864791 -0.091104165 0.08942179 -0.035417635
-0.094178416 0.019539615 -0.23677012 -0.0525834 -0.06505201 -0.0074432236 0.082565896 0.038790897
-0.022051591 0.20780571 0.115197055 0.106946 -0.01705554 -0.0055811717 -0.1742979 -0.09923872
-0.30924922 -0.014612332 0.08019061 0.26364902 0.02207269 -0.100014195 0.070229106 -0.01057568
0.032499794 -0.039089404 0.16772893 0.019354379 -0.031666763 -0.07778763 0.057045855 -0.02714416
-0.0850448 -0.08860331 -0.043228578 0.047059547 -0.13496046 -0.10860999 -0.037991773 0.012845774

critic.4.weight f4 [1, 64]
00000000: 41b6 04be 65de 1db9 e561 443b a9bb 90b8
00000010: f796 74ba f08c 143b 1fde cc3a 603e 49be
00000020: 28e9 6f3b 67c3 9dbb 24ec 833b 7055 fb3d
00000030: 1a22 ca3a 8ca2 a1bb d22e 0d3b 7fd8 9dbd
00000040: cc7e bcba 5768 0e3e dfea 31bb 78fe b5bb
00000050: fed5 1ebb c65f 6abb 9379 9f3d 19c4 303a
00000060: e795 00bb 22ec da38 fd6b 0d3e 3b1e a7bc
00000070: bfe1 4bbb 8f8e 003a 0a30 81bb 03f4 9239
00000080: 6fcd 65ba fd31 b7bd 46bf 383b 3656 98b9
00000090: f4eb e1b9 94c4 973a 2a75 cdbd eeff 1dbb
000000a0: 900f 583d 3d58 ddbd a414 f0b9 eeb3 21be
000000b0: db95 a9bb 715f e83d a114 273a d9f3 de3b
000000c0: 6e48 ae3b 6fdb 0c3b 6f14 dfbd ee60 82bb
000000d0: 3e5a 1dba 7fd6 10ba f8a9 a039 0bd1 82bb
000000e0: a602 97bb 6f7f 9f3b 702c 323a e93e 3cbb
000000f0: 1511 883a 139e 6a3d 104d eeb7 ef2b a3bb
-0.1296015 -0.00015055535 0.0029965576 -6.9014095e-05 -0.0009330357 0.0022667013 0.0015630162 -0.196527
0.0036607478 -0.0048145535 0.004025953 0.12272155 0.001542154 -0.004932707 0.00215428 -0.07707309
-0.001438105 0.1390699 -0.002714805 -0.0055540167 -0.0024236436 -0.0035762652 0.0778686 0.0006743088
-0.0019620599 0.00010439033 0.13810726 -0.020400157 -0.0031109897 0.00049040554 -0.0039424943 0.00028029093
-0.0008766269 -0.089450814 0.002819018 -0.0002905593 -0.00043091143 0.0011578971 -0.10032113 -0.0024108845
0.052749217 -0.10807846 -0.00045791746 -0.15791294 -0.005175335 0.11346329 0.00063736184 0.0068039712
0.005318693 0.0021493097 -0.10892569 -0.00397884 -0.0006002522 -0.00055251265 0.00030644215 -0.003992205
-0.00460847 0.004867486 0.0006796783 -0.002872402 0.0010381067 0.057279658 -2.8407696e-05 -0.0049796025

exp_avg f4 [7]
00000000: aeaa 2c3a 26c7 00bb 060d a53a 7dc9 a5ba
00000010: f9fe 4d3b b457 2abb f6fa 463b
0.00065867126 -0.0019649952 0.0012592382 -0.0012648549 0.0031432493 -0.0025992217 0.0030361987

exp_avg_sq f4 [7]
00000000: aa86 033b 643a 1e3b 2272 053b 5e83 8e3a
00000010: e532 0f3b 148b d03a 57e5 923a
0.002006928 0.002414369 0.0020362218 0.0010872891 0.0021850404 0.0015910589 0.0011207265

exp_avg f4 [64, 32]
00000000: e78d bfb9 c60a 91b8 d325 c139 be64 5039
00000010: 8af8 df39 0ec0 9eb9 2f7c 443a 1d9c bf37
00000020: fcf7 2237 8bea a6b8 8996 e439 21e2 2b3a
00000030: f1d4 d3b8 f3fa 3e3a a9a7 b139 3e88 87b9
00000040: 2e44 3ab7 2e75 e136 c6fe 2639 8b0b 2b38
00000050: 0099 6439 483e a72d 98fa cdba 9669 e4b9
00000060: d8f3 96ae 5a32 96ba 6d56 7339 1500 b13a
00000070: c795 bf3a 6066 f239 bb99 6fba c98f 073b
00000080: 45e0 a5b9 e563 a4b8 dbd5 cc39 8bc6 17b9
00000090: 1181 ff39 4995 ba39 3c2f 3d3a 3ee4 16b8
000000a0: b30c 2638 c753 103a 2fa1 e6b8 8481 3db9
000000b0: cc70 b4b9 f831 efb9 0788 4e39 5b2e 31b9
000000c0: 1a6c ffb7 75f1 9237 71c4 4938 cbf6 e638
000000d0: 75dc 30b8 7c1f 7cad 82ed ddb9 95be ab39
000000e0: b38b a2ad b8f7 66ba 3219 8cb9 c833 7f3a
000000f0: 280a cfb9 32c5 043a 493a 353a 0cea 0e3b
00000100: 8a37 133a 0741 0dba 6125 3439 2c02 37b9
00000110: ac56 e4b8 941a b739 3d74 8db9 f5d1 00b7
00000120: f12d 03b7 b3b7 48ba bebe ec36 4e6b 63ba
00000130: 6349 a738 019e 9638 f26a ab39 7941 5fba
00000140: 0c8d b535 302c 8536 1a4d 7ab9 c53f 6138
00000150: fb7b 0d39 f74f ecac 7b91 9939 253c 2239
00000160: 5b99 602d 574e be3a 3f41 65ba cf1a 9d3a
00000170: bf8f f7ba 452e a739 9ea6 033a 545c 44ba
00000180: e8fc b1b8 56e8 4b3a 647a a239 01fe e439
00000190: 1285 d8b9 3c26 6fba 5360 80b9 5146 4bb8
000001a0: 0b69 83b8 eae3 beb9 8e64 d5b8 0cf2 2039
000001b0: b874 0939 6159 1639 4051 cbba 1185 8236
000001c0: 3917 9d37 fae2 a437 116c 413a 2714 8638
000001d0: b9c7 e039 4935 d4ad bc9b 0cba 2383 103a
000001e0: 9927 cead e1c1 57b9 843b 823a 1a3b 9f3a
000001f0: 764f 473b c734 a6ba 13f8 daba 2251 8ab9
00000200: 17ce 10ba 10a3 b83a e286 2e3a 1569 4c3a
00000210: ae70 0db8 f5b6 9eba e525 193a a195 7cb8
00000220: 63e6 9bb8 305f 36b9 166f cab7 1465 6d39
00000230: 083a bdb8 e9d1 6b39 dfee 91ba 3e4b 4dba
00000240: 008d 94b7 d92f 4cb7 9849 a13a 9aea af38
00000250: c008 193a 841e 2bad 0d03 50ba f44f 6839
00000260: 5571 18ae 4bf2 8cba 4520 df3a 9c03 233b
00000270: 5bab ad3b 00bf 65b9 2138 f5ba 3aad c23a
00000280: e419 463a 2a7f ebb9 3cfd c538 647f 15ba
00000290: 9f64 4dba c868 133a 35f5 5aba 0f04 22b8
000002a0: a712 eab6 703d 8a38 dfec 2237 3f89 ab39
000002b0: 89ac 3c3a 7300 abb9 c3db e63a 7123 94b9
000002c0: c1aa 2c38 9b05 0138 6a95 e1b8 02cb 8e39
000002d0: 248b bc38 072d 7fad 5ad8 2db9 39b2 ad39
000002e0: 091d 00ad 3abd 153b 313c 01ba 8afb b33a
000002f0: f869 1cbb 6c1e 0bbb fd14 d73a b8b7 28bb
00000300: f4a6 7039 f266 1aba 225e 1b39 2969 89b9
00000310: 53c6 21b9 7e01 0a3a 8390 8bb8 17bf 8a38
00000320: a40a c138 4517 273a 0cab 2738 1e0b 9ab9
00000330: 23a2 80b8 d785 2239 3fe7 f839 a405 4938
00000340: 9ad9 8e37 c34e 4235 b66e 72ba c138 7eb7
00000350: 5062 2aba 25f2 3b2e ec94 8a39 f838 80ba
00000360: 6d1a 4b2d b8a0 873a c139 3eba 3074 ae3a
00000370: 392d 9cba 1032 76ba 8f15 a73a eaf0 90ba
00000380: 0b36 6d39 9592 85ba 328a 1db9 672a 08ba
00000390: 5311 8939 1691 2a3a 11b2 8c38 8c84 91b7
000003a0: 6cb1 cb37 84c4 1f38 148b 09b9 5676 aa39
000003b0: 835e 02b8 2e03 94b9 9f48 7a39 5ded 6ab8
000003c0: 32cf d3b7 e96f ab37 1003 2aba 770d 0339
000003d0: 77e5 0bb9 3d4a 742b 5160 873a 6a92 a3b7
000003e0: 99c3 462e 3873 7b3a 6dbb d9ba 7c1d 16b9
000003f0: 0896 2dbb 0291 423a c752 853a ec56 c439
-0.00036536084 -6.9161455e-05 0.0003684001 0.00019873955 0.0004271905 -0.000302792 0.00074953114 2.284167e-05
9.713691e-06 -7.959184e-05 0.00043599706 0.0006556828 -0.000101009275 0.0007285319 0.00033884987 -0.00025850715
-1.1102338e-05 6.719164e-06 0.00015925904 4.0780327e-05 0.00021800771 1.901336e-11 -0.0015714942 -0.00043566216
-6.8645256e-11 -0.0011459098 0.00023206482 0.0013504053 0.0014616781 0.00046234112 -0.0009140034 0.0020685068
-0.00031638346 -7.838736e-05 0.00039069247 -0.00014474445 0.00048733552 0.0003558791 0.00072168163 -3.5975354e-05
3.958931e-05 0.0005505648 -0.000109972774 -0.00018072693 -0.00034416316 -0.00045622862 0.00019696365 -0.00016897304
-3.0448708e-05 1.7516993e-05 4.8105085e-05 0.000110132234 -4.2166987e-05 -1.43315325e-11 -0.00042329362 0.00032757656
-1.8479307e-11 -0.00088107167 -0.00026721653 0.0009735194 -0.00039489684 0.0005064785 0.0006913287 0.0021806983
0.0005615881 -0.0005388413 0.00017180062 -0.00017453049 -0.00010888031 0.00034924282 -0.0002698022 -7.678279e-06
-7.818905e-06 -0.0007656768 7.0555534e-06 -0.00086753524 7.97685e-05 7.181988e-05 0.00032695342 -0.0008516531
1.3526601e-06 3.968853e-06 -0.0002387058 5.370357e-05 0.00013492994 -6.7164013e-12 0.00029290825 0.0001547193
1.2766978e-11 0.0014519197 -0.0008745379 0.0011986139 -0.0018887444 0.00031887196 0.00050220813 -0.00074905646
-8.487125e-05 0.0007778456 0.00030990236 0.00043676796 -0.00041297876 -0.0009122824 -0.0002448583 -4.846446e-05
-6.2661326e-05 -0.00036409433 -0.00010175361 0.00015348959 0.00013108819 0.00014338411 -0.0015511885 3.889793e-06
1.8726672e-05 1.9656018e-05 0.0007378469 6.3933716e-05 0.00042873414 -2.4125273e-11 -0.00053637824 0.0005512705
-2.3437073e-11 -0.00020576223 0.000993595 0.0012148351 0.0030412353 -0.0012680524 -0.0016706012 -0.0002638186
-0.0005523874 0.0014086682 0.00066576723 0.0007797641 -3.372196e-05 -0.0012108969 0.00058421335 -6.0220835e-05
-7.433889e-05 -0.00017392333 -2.4132005e-05 0.00022639736 -9.0230315e-05 0.00022489544 -0.0011133811 -0.00078313414
-1.7708633e-05 -1.2170488e-05 0.0012305258 8.388348e-05 0.00058377907 -9.7270005e-12 -0.0007935025 0.00022155029
-3.4661458e-11 -0.0010753361 0.0017023167 0.0024873978 0.005299968 -0.00021910295 -0.0018708744 0.0014852651
0.00075569586 -0.00044917437 9.4408606e-05 -0.00057028816 -0.0007835123 0.00056232186 -0.0008352579 -3.862759e-05
-6.975915e-06 6.5917964e-05 9.711103e-06 0.00032717918 0.00071973406 -0.00032615996 0.0017613102 -0.00028255166
4.1167023e-05 3.0761217e-05 -0.000107566666 0.00027235603 8.9904555e-05 -1.450507e-11 -0.00016579163 0.00033129918
-7.282405e-12 0.0022848384 -0.00049299287 0.0013731581 -0.0023866873 -0.002122785 0.0016409453 -0.002574427
0.00022950378 -0.0005889974 0.00014817019 -0.00026209027 -0.00015428038 0.00052645046 -6.654954e-05 6.615946e-05
9.204939e-05 0.0006374012 3.9975203e-05 -0.00029381452 -6.133716e-05 0.00015499383 0.00047474538 4.7927388e-05
1.7029048e-05 7.2385245e-07 -0.00092480646 -1.5152794e-05 -0.0006499635 4.2733945e-11 0.00026432367 -0.0009782603
1.1545082e-11 0.001034758 -0.0007256531 0.0013309773 -0.0011915333 -0.0009391615 0.0012747514 -0.0011058126
0.00022622214 -0.001019078 -0.00015024169 -0.0005194307 0.00026143584 0.0006506605 6.708888e-05 -1.7347069e-05
2.4282104e-05 3.8091574e-05 -0.00013117149 0.00032513094 -3.1082436e-05 -0.0002823113 0.00023868911 -5.601101e-05
-2.5249643e-05 2.04369e-05 -0.00064854417 0.0001249815 -0.00013341555 8.678924e-13 0.0010328387 -1.9499294e-05
4.5193713e-11 0.0009592059 -0.0016611643 -0.00014316099 -0.002648713 0.00074221205 0.0010171764 0.00037448795
