logs/rsl_rl/franka_reach/2025-06-16_20-11-58/model_150.pt (torch, 172795 bytes, 36 tensors)

std f4 [7]
00000000: d1b7 123f daf3 0f3f eadd 193f aac0 063f
00000010: ce0c 023f d05e 263f 2b4c fe3e
0.5731173 0.5623146 0.6010424 0.5263773 0.5080079 0.6498842 0.49667487

actor.0.weight f4 [64, 32]
00000000: d96d b8be 8e9f 233e 5b7b ccbe 9504 953e
00000010: 3d1a 043e 6db7 b93e 18fa 123e 96d1 c23e
00000020: aafa 2f3f aafb 933b ca09 993e d997 8e3d
00000030: d4d2 853e 33fb 9b3d 8858 36be cb5d bbbd
00000040: 7ba5 dabe eba6 153e 3b50 18bf 30ad 5cbe
00000050: 9ebd 2d3f a521 9fbc 6353 31bf c7d9 fdbb
00000060: 170e 11be 0616 7ebd 8945 a1be 2230 77be
00000070: db4d 67bb 035a 9abe 2bed 933d c6ac 11be
00000080: ab03 7c3c b92d 833c ea0c bebe f3a6 3d3f
00000090: d78a 573f 1d37 d43e 6d2e 393c 11b1 82bd
000000a0: 94be ae3e a687 b23d 32da 63be c6ee bf3e
000000b0: 84eb 083e 29f9 92be 5b96 f53d be15 ef3d
000000c0: 5063 7c3f c7fb 80be 4fa5 3bbf e5b1 fdbf
000000d0: afe1 e3be b565 143e 40b1 7f3e 856e 073e
000000e0: cb64 653d 959d f43d 6f20 263e f1e0 48be
000000f0: b962 7f3d 0b77 12be d63e e83d ead0 99bd
00000100: 0a8e 333f 688f 5abd 1bc9 393f 3ebf 57be
00000110: c116 1b3e 2c4b ec3c a9d8 8b3e 49fa 083f
00000120: 0a11 513f 3290 0bbe 34ed d13d 49f1 9cbe
00000130: 3017 8c3d 9aa3 eb3d a369 113e 2230 fe3d
00000140: 76a1 ccbe 7076 d23c 93d0 e33d f40b d0bf
00000150: 16fd 923e 0bc6 30bd e15b 23be 5d83 633e
00000160: c6b1 b7bd ed0f 323b 3145 683e ab09 9fbc
00000170: d43b c43d 4986 a43e fe23 e2be 6030 dcbe
00000180: c349 83bf 9b9b 19be f797 afbd edac 7ebf
00000190: f574 ffbd 9f1c 4abd f2c6 6d3e 6584 30be
000001a0: ab9f 103e c15c 5abe 2e0e e4be 0ce7 fa3d
000001b0: da2a 083e 7e07 b1be b488 0c3e 911d 043d
000001c0: 9169 a53f b3d2 883f ff28 9bbe 2bc0 153e
000001d0: a9f1 063f bb3a 1fbe 1993 d6be 9d16 1abe
000001e0: aa22 40ba 171d e8be 3ba5 0fbf c4f8 0fbe
000001f0: 7719 e7be 433f e6be c0d1 7d3e 789a 9ebe
00000200: 1951 93bd fa6c 1fbe 0de8 133d 9142 c93e
00000210: d738 05bf 3b39 6d3f 9142 ac3d 0529 36be
00000220: 56f8 3cbe 0df0 66be 81fe 25be c0e5 f53c
00000230: 3adc 35bc 44b7 b8bd 1b98 233d 212e 22be
00000240: 0400 66be 857d e4be 474d bebe 9d14 d83f
00000250: adca 553f 84aa 0bbe c91a a8be e7dd 57bf
00000260: 4fa6 9bbc fc8a 2cbf 00dc 7e3d aae8 f53d
00000270: f867 0cbe 2fb6 1c3e 9d7d 8ebe 2d78 513d
00000280: 4f83 e63e 7472 04bf 406b c53e 1f81 e8bd
00000290: 12f0 983e 4427 9d3f 68d3 4ebc 4513 cd3e
000002a0: b14a 1e3e 3067 42be 79bd a73d 35cb e9bc
000002b0: 2a62 15be 19a2 6c39 b363 ef3d 33d6 01be
000002c0: 94a8 373e fc9b 6fbe 2ec7 323d dea4 a3bf
000002d0: 67f9 52bf b4fd ae3d ab87 243e 37d6 5e3f
000002e0: faf2 ba3d b87f 173e e1c2 683e f4b2 8a3d
000002f0: eda9 f13d aeba 5b3c 2cd4 b43d 26cd 51bd
00000300: 5d61 033e f010 babd 31f8 233e 9a2a 0ebf
00000310: 5a75 76bd c4f7 5fbe 2d26 e93d d6fb b63e
00000320: a6b4 763e 7f47 843d 5259 5b3e abee 943d
00000330: a10a 61be 6231 1fbe 50f9 d6bc 265f f2bd
00000340: 23b7 bf3e cad5 893e da56 31be b238 aebd
00000350: ce0f 99bd 5bcd dabd b8e8 eabe b519 943e
00000360: 6673 c73c 5f72 643e 20d5 a33e 4d76 4ebc
00000370: 9c69 6dbe c09a 853d 951f fcbd 5aab 79bd
00000380: 5a46 7c3f a744 363d 6005 783f 9a26 dabd
00000390: 4abc 06bf 0780 02bf 45b4 54bf fab5 2a3e
000003a0: bcd2 873d 0c0e 863d 6125 443c 0c0d 6e3e
000003b0: 17e0 a73e a461 183d e72b 503d 9c37 11be
000003c0: d281 e73e 8345 dd3e e169 bb3d 8113 b6bf
000003d0: c93a e0be bb82 00be b1ea 07bf bac9 903e
000003e0: 09a9 60bd a6ba 2abe 4c27 5abd c95a 0dbf
000003f0: bedb 303e a752 35be 7ece 5e3b dde1 9abd
-0.36021307 0.15978834 -0.39937863 0.29105058 0.12900634 0.36272755 0.14353216 0.38050526
0.6874186 0.0045160847 0.2989028 0.069625564 0.26137412 0.07616272 -0.1780721 -0.09148749
-0.42704377 0.14614455 -0.5949742 -0.21550441 0.6786746 -0.019425223 -0.69267863 -0.0077469083
-0.14165531 -0.062032722 -0.31498364 -0.24139455 -0.0035294208 -0.30146798 0.072229706 -0.14226064
0.015381734 0.016013013 -0.37119228 0.7408287 0.8419623 0.41448298 0.011302573 -0.06381429
0.34129775 0.08717279 -0.22251204 0.37486857 0.13371092 -0.2870572 0.11991569 0.11674069
0.9858904 -0.2519209 -0.73299116 -1.9819914 -0.4450812 0.14491923 0.2496996 0.13225754
0.056004327 0.11944119 0.1622331 -0.19617058 0.06235001 -0.14303224 0.1134011 -0.0751055
0.7013861 -0.05335942 0.7257249 -0.21069047 0.15145399 0.028844438 0.27313736 0.53506905
0.81666625 -0.13629225 0.10250321 -0.30652836 0.0684036 0.11505814 0.14200453 0.12411524
-0.39966935 0.025691241 0.11123767 -1.6253648 0.28708714 -0.04315762 -0.15953018 0.2221808
-0.089694545 0.0027170137 0.22682644 -0.01941379 0.09581724 0.321337 -0.44168085 -0.43005657
-1.0256885 -0.15000765 -0.08573907 -0.99482614 -0.1247348 -0.0493437 0.23220423 -0.17238005
0.14123408 -0.21324445 -0.44542068 0.122511 0.13297597 -0.3457603 0.13724023 0.03225476
1.2922841 1.06893 -0.30304715 0.14624088 0.52712494 -0.15549748 -0.41909102 -0.15047689
-0.0007329384 -0.45334694 -0.56111497 -0.1405974 -0.45136616 -0.4497014 0.24787045 -0.30977225
-0.071932025 -0.15568915 0.036109973 0.393086 -0.52039856 0.9266545 0.08411134 -0.17789085
-0.18454108 -0.2255251 -0.16210367 0.03001678 -0.011099869 -0.0901933 0.03993998 -0.1583791
-0.22460943 -0.44627014 -0.37168333 1.6881291 0.83512384 -0.13639265 -0.32832935 -0.8432297
-0.0190002 -0.67399573 0.062221527 0.12007268 -0.13711536 0.15303873 -0.2783021 0.05114
0.45022056 -0.5173714 0.38558388 -0.11352753 0.2987066 1.2277608 -0.012623645 0.40053764
0.1545818 -0.18984675 0.08190436 -0.02853928 -0.14588228 0.000225671 0.11688938 -0.12679367
0.17935401 -0.23399347 0.043646984 -1.2784688 -0.8241181 0.08544484 0.16067378 0.87045616
0.09128375 0.14794815 0.2273059 0.06772414 0.11799989 0.013411207 0.08829531 -0.051221035
0.1283011 -0.09085262 0.16012646 -0.55533755 -0.06017051 -0.21871859 0.113842346 0.3573901
0.2409235 0.06458949 0.21420792 0.07272085 -0.21976711 -0.15546182 -0.026241928 -0.118345544
0.3744441 0.2692092 -0.17318287 -0.085069075 -0.07473718 -0.106837 -0.45880675 0.28925863
0.024347018 0.22309254 0.3199854 -0.012601447 -0.23184818 0.06523657 -0.12310711 -0.06095443
0.9854485 0.044499066 0.968832 -0.10651894 -0.52631056 -0.50976604 -0.8308757 0.16670981
0.06631991 0.06545648 0.011971802 0.23247164 0.32788154 0.037202492 0.05082312 -0.1418137
0.45216233 0.43217096 0.09151054 -1.4224702 -0.4379485 -0.1254987 -0.53092486 0.28278905
-0.054848704 -0.16672763 -0.053260133 -0.5521665 0.17271325 -0.1770731 0.003399759 -0.07562611

actor.0.bias f4 [64]
00000000: 25c9 84be a794 5bbe 4215 0bbf 5e9a 83bc
00000010: f1d5 a63d f3a3 afbe 9759 e7be bf37 fc3c
00000020: 7d17 893e bf16 3b3e f9df 86bd a08b 383d
00000030: d698 94bd 68a2 86be b527 0ebf 19ac 95be
00000040: d8bb 1f3f dab9 4b3e ce4e 773e 0c5b bb3d
00000050: 9bf4 0d3e 852d 4a3e b0f5 a3be 3d0f 0c3e
00000060: 861a 18bf 62b3 383f 1684 82bd 8c70 afbe
00000070: ac6a 9ebd ad11 123e bb41 f0bd 9e0e d53e
00000080: e81a 2cbf 5539 2ebe 7d59 8e3e 2641 51bd
00000090: ecca c2bb 94c2 833d 230a 00bf 2811 1fbe
000000a0: 28d0 d83d a2a2 21bd 8712 0a3f 7d9a dfbd
000000b0: 3c08 233d 4bd3 e63d 5bc0 61be 27a7 0ebc
000000c0: 43d7 f43e e7cc 03bf deb5 193d 1d5f 61be
000000d0: 39e7 f13c cb97 26be 1289 09bf 1ef1 abbe
000000e0: c3b4 dcbe fc3b b43c 6de7 443e f075 bb3e
000000f0: 2469 dfbd cd56 6a3e 1b3d 963e 83a6 a4bd
-0.2593471 -0.21443425 -0.5432931 -0.016064819 0.08146275 -0.3430477 -0.4518554 0.0307883
0.26775733 0.18270396 -0.06585688 0.04505503 -0.07255714 -0.2629578 -0.5552934 -0.29232863
0.62396 0.19895115 0.24151155 0.09148225 0.13862841 0.19743927 -0.32023382 0.13677688
-0.5941547 0.72148716 -0.0637285 -0.34265554 -0.0773519 0.14264555 -0.11731287 0.41612715
-0.67228556 -0.17014058 0.2780265 -0.05108752 -0.0059446003 0.06433597 -0.5001547 -0.15533888
0.10586578 -0.03946174 0.5393452 -0.10918138 0.039802775 0.1127077 -0.22046034 -0.008706844
0.47820482 -0.5148453 0.037526958 -0.22008939 0.0295292 -0.16268842 -0.5372478 -0.33582395
-0.4310666 0.022001259 0.19228907 0.36613417 -0.10908726 0.22884674 0.29343495 -0.08039572

actor.2.weight f4 [64, 64]
00000000: 4618 37be 25c7 923d ce31 833e 0867 433e
00000010: 2b1c f1bd ba41 2a3e 3a9f 8b3e 6af5 36bd
00000020: fcfc a439 acdc 30be f46d aa3e f85d 4e3d
00000030: 1325 563c 4ee7 633e bec3 043e 1e59 adbd
00000040: 118c bdbc c90e 4c3e f1fe 7c3e 94ca 17be
00000050: 4dec 3fbe 95ad 333e ef11 b9bd 4b17 cbbb
00000060: f36f 963d 9db6 06bf 9aca b9bd 3d1a 8bbe
00000070: 3420 9cbe d34f 3dbd ac6f 403d 7ee9 c63d
00000080: 470c 66be e840 883e 4660 903d 6c0d b2be
00000090: c4f1 293e 7d02 df3d 2090 c43e 21f3 f9bd
000000a0: b022 17bd c309 553c cf3b 423e 81e3 6cbb
000000b0: a703 eabb 40e4 68bc 267b f6bd 3d7a 5f3e
000000c0: 9880 13be 0392 813e 655a 033d 4a71 afbe
000000d0: 92fd 2b3e 4b1f cf3c c7a5 a9be 10b7 f33d
000000e0: 9ac2 b33d 5194 69be a439 2e3e c3d0 a3be
000000f0: ba68 33be e1b3 803d 237a cd3d 4242 853d
00000100: e562 363d 8130 d03d fcc1 65bd e1ed 1b3e
00000110: 5785 45be dfe5 5d3a 58ad 02bd b734 873c
00000120: b38a 083e 7f9a 833e 7bad f4bc 63c5 3d3c
00000130: d4c4 ffbd b33a 2a3e c459 913d abf9 0bbe
00000140: 2d1e d5bd 98b6 913a 2912 9b3d 8d20 b2bc
00000150: efd2 bf3d 12a4 7c3d e4bc 813d fe66 bf3d
00000160: b9bf 5d3d 87f5 23bd 673f 65bd 20d1 04bd
00000170: 17cc adbd 3ca1 9f3d 6509 0abe 7c0c 983e
00000180: 7eb0 0a3e 7dad 043d 361d 34be 75c0 58be
00000190: c1c9 3f3d 307c 02be 8f10 873d 3ad1 073e
000001a0: 4e15 3dbe b8e6 c1bd b8b8 4f3d 232d 0ebd
000001b0: 41d5 5e3d d205 993d 64c7 19bd 99e6 fabd
000001c0: e6a3 76be 6259 0ebd 5bc4 3d3c 7672 0b3e
000001d0: 1ab2 cabd 33fe 8f3c 3b39 1d3d c65a 2e3e
000001e0: 35fd 1dbd ef1b 84be ba43 823d 5f3a f13d
000001f0: 76a8 6c3e 7e6c ee3d be46 333d 4620 84be
00000200: 8a35 873e a64c 56bd 1dbb 58be 8781 9abe
00000210: 9060 203e 8d70 b9be b966 cc3b 58d3 1bbe
00000220: 51b3 593d c85d c3bd 8220 a6be a25e df3c
00000230: 7538 88bd 8107 d43d f78e f73d 08fa 16bd
00000240: 6449 8dbe 0b4a 54bd 6e1d aabc dc6f 28bd
00000250: cf72 c8bd 9371 8b3d d941 0a3e db12 c2bd
00000260: 7831 233e d505 42be 9bbd adbc 1549 bf3c
00000270: e88d a93e 87aa d13d 360e e73c d0ed c7bd
00000280: 632b 293e e17b 5b3e 020a c7bd 300a afbd
00000290: 186f 8abe 4341 0bbe 4339 44be 16d2 a7bd
000002a0: 67f7 9ebd 0ec9 e9bd 3dad 19be 1cac 98bd
000002b0: 22c7 b93e 2fe6 c43c 81ba 503e 3cec 72bd
000002c0: 25f0 903d 6571 00bd 8447 283e 7fa2 023e
000002d0: 5e4f 21bb 1e0f 57be 4932 d83d a3cb ef3d
000002e0: 3377 943e 1a80 ee3c c012 3ebe 155b abbd
000002f0: a50e b43d 4613 203d 0982 91bd 9366 e3bc
00000300: 3d21 e43c 37b4 9a3c 3980 dbbd 80d5 afbe
00000310: 18f3 403e c74a 593e a767 d93d 8a81 68bd
00000320: 7ee0 da3d 2a8c 933e 78fb 92bd 2434 adbd
00000330: 881d b2bc cade 0bbe a3b5 94bd a1e4 58bd
00000340: e4c5 dcba b4eb 353d c3d4 a13d 2cdf 883e
00000350: a931 fe3d 2650 203e e7b4 d3bd f979 d63d
00000360: e5c4 a0be 17c8 213e dd74 263d 99ba 1ebe
00000370: 2f25 e23c 9e63 b23d ccf8 303e 8622 3a3c
00000380: 00e7 d93d 80b2 92bd b6b8 093d 5e05 f8bc
00000390: 63cc 713e 4e86 55bd ff07 b4bd 821c c9bc
000003a0: 4f68 bb3d 8ffe 2c3d 718c d9bb 445b ce3c
000003b0: 1c0a 8fbd 7803 0abd 8918 0ebe c402 243e
000003c0: c8e1 853c 0d8c eb3c 5720 97bb 71b8 aa3d
000003d0: c929 c43c 8deb f53c 2461 823e 327a 7e3d
000003e0: d380 d43c 75e6 cebd b2d7 043e 8869 003e
000003f0: 9d77 213d 90fc b43d 84e1 303e 18e1 663e
-0.17880353 0.0716689 0.25623935 0.19082272 -0.11772951 0.16626635 0.27269918 -0.04466764
0.00031469006 -0.1727168 0.33287013 0.050382584 0.013070363 0.22256204 0.12965295 -0.084642634
-0.023138078 0.19927515 0.24706627 -0.14823371 -0.18742485 0.17546685 -0.09036624 -0.006197845
0.07345571 -0.52622396 -0.09071846 -0.27168456 -0.3049332 -0.046218704 0.0469815 0.09712504
-0.22465621 0.2661202 0.07049613 -0.34775865 0.16596133 0.108891465 0.3839121 -0.12204576
-0.036898315 0.013002816 0.18968128 -0.0036146345 -0.0071415487 -0.014214575 -0.120352075 0.21823974
-0.14404523 0.2530671 0.03206863 -0.3426612 0.16795948 0.025283476 -0.3313429 0.11900151
0.08777352 -0.22810484 0.17014176 -0.3199521 -0.17520419 0.06284309 0.10033061 0.06506778
0.044527907 0.101655014 -0.0560932 0.15227462 -0.19289146 0.00084647344 -0.031903595 0.016504629
0.1333416 0.2570381 -0.029867878 0.011582705 -0.12488714 0.16623954 0.070971996 -0.1366946
-0.10406146 0.0011117039 0.07571823 -0.021744037 0.09366404 0.061679907 0.06334856 0.09345816
0.05413792 -0.040029075 -0.05596867 -0.032426 -0.08486193 0.07794425 -0.13480146 0.29697025
0.13543889 0.032392014 -0.17589268 -0.21167167 0.046823267 -0.12742686 0.06594955 0.13263407
-0.18465158 -0.09467834 0.05071327 -0.034711014 0.054402594 0.07471813 -0.03754367 -0.12251014
-0.2408596 -0.03475321 0.011582459 0.13617882 -0.098972514 0.017577266 0.038384657 0.17026815
-0.038571555 -0.25802562 0.06360574 0.117787115 0.23111138 0.11641787 0.043768637 -0.25805873
0.26408035 -0.05231919 -0.21165128 -0.30176947 0.15661836 -0.36218682 0.0062378314 -0.1521734
0.053149525 -0.09539372 -0.32446676 0.027266804 -0.06651393 0.10352994 0.12087815 -0.036859542
-0.27595055 -0.051828425 -0.020765986 -0.041122302 -0.09787523 0.06808772 0.13501681 -0.09476253
0.1593684 -0.18947537 -0.021208575 0.023350278 0.33116078 0.10237604 0.028205018 -0.09762156
0.16520457 0.21433975 -0.09718706 -0.08546865 -0.27037883 -0.13599114 -0.19162469 -0.081943676
-0.07762032 -0.11415301 -0.15007491 -0.07454702 0.3628474 0.024035541 0.20383646 -0.059307322
0.07077054 -0.03135814 0.16433531 0.127573 -0.0024613957 -0.2100186 0.10556466 0.117087625
0.28997192 0.029113818 -0.1856184 -0.08366982 0.08791856 0.03908088 -0.0710488 -0.027758872
0.02784788 0.018884761 -0.10717816 -0.34342575 0.18842733 0.21219932 0.10615473 -0.056764163
0.1068735 0.28817874 -0.0717687 -0.08457211 -0.021742597 -0.13659206 -0.07261207 -0.052952413
-0.0016843644 0.044414237 0.07901909 0.26732767 0.12411816 0.15655574 -0.10337239 0.10472483
-0.3140022 0.15798984 0.040638793 -0.15500869 0.027605621 0.08710407 0.17282408 0.01136077
0.10639763 -0.071629524 0.03362342 -0.030275997 0.23613124 -0.052130036 -0.08790588 -0.024549726
0.09150755 0.042234953 -0.0066390564 0.025190003 -0.0698435 -0.033694714 -0.13876547 0.1601668
0.016343012 0.028753305 -0.0046120095 0.08335961 0.023945706 0.030019546 0.25464737 0.062128253
0.025940334 -0.1010255 0.12972906 0.12540257 0.039420713 0.08837235 0.17273527 0.22546804

actor.2.bias f4 [64]
00000000: 6993 b6be d0b7 97bd 2f60 2abe 9c5a fe3d
00000010: 3044 46be c69a 8bbe 19f0 bdbd e41b b7be
00000020: 0e3e 82bd ba61 31be 2e56 c0be d2ce 62be
00000030: e3d8 4ebe f2d8 063d 8883 1dbe c572 cebd
00000040: 3173 89be baee 00bf 3e61 78be d814 aebe
00000050: 6228 cdbe 11d8 83be 10d8 5fbe 67bb 8ebd
00000060: 390b b5be eed8 febe d5e0 babe 0f38 40be
00000070: 76c7 b0bd d825 93be 2aa6 633e 0075 d9be
00000080: ce53 adbd 6008 0dbe abe1 f9be d9b1 b4be
00000090: 26c5 febe 738b 80be be8c 49be ba46 0ebe
000000a0: 92bd c4be 3e59 99be e045 0dbe 050f d7b8
000000b0: cc2a 36be 550a d2be 90b4 05bd 45a9 09be
000000c0: 9dc9 e2bc ae00 82be 6782 77be a4c0 bbbe
000000d0: 1ac2 81be 260e 63be 4ff8 7fbe 163f c8be
000000e0: 0eb2 cabd 532e 44be 8b11 4abe 7b08 f4be
000000f0: 786b a7be 01c3 85be 88bf 4abe 8cd4 843d
-0.3565934 -0.07408106 -0.16638254 0.12419626 -0.19361949 -0.2726652 -0.092743106 -0.35763466
-0.06359492 -0.17322436 -0.3756575 -0.22149208 -0.20199923 0.03292174 -0.15382206 -0.10080484
-0.26845697 -0.5036427 -0.24255845 -0.34000278 -0.40069872 -0.25750783 -0.21859765 -0.06969338
-0.35360125 -0.4977488 -0.36499658 -0.18771385 -0.08631794 -0.2873981 0.22231355 -0.42472076
-0.0846325 -0.13772726 -0.48804983 -0.35291937 -0.49759787 -0.2510639 -0.19682595 -0.13894168
-0.3842588 -0.299509 -0.13796186 -0.000102547965 -0.17789763 -0.41023508 -0.0326429 -0.13443477
-0.027684027 -0.25391144 -0.24170838 -0.3667041 -0.253434 -0.22173366 -0.24997066 -0.3911063
-0.098972425 -0.19158296 -0.19733255 -0.4766272 -0.3269918 -0.2612534 -0.19799626 0.064858526

actor.4.weight f4 [7, 64]
00000000: 8309 b3bc 1b67 e73b d6bb debc d071 063d
00000010: 26b7 b53d 1a39 80bd bb0b c43d 15ac 14bd
00000020: 4c9a 57bb a999 1c3c aeb2 383c e818 383e
00000030: fc40 3a3d 74a6 85bd 5806 1cbd d812 143c
00000040: 16d8 ef3d 7592 9ebd d590 58bc 5adf b9bb
00000050: 4bfe 6ebd 4a12 5cbd ca2a 72bd a945 8a3e
00000060: e487 203c 9e17 363e 5a5d 943d d072 feba
00000070: 7ba9 3fbd 72ea 853d e412 053d 42c0 4d3e
00000080: f4af 0e3e 64eb 88bd 0cda 763c 6c13 03bc
00000090: 0c31 23be 734b bdbc a8fa 2dbd 8a75 8a3d
000000a0: d25a d03d 6ce6 383e bd0a 39be 6092 2c3d
000000b0: cd52 d4bd 88cd 923d 3a96 fe3d 708b 873c
000000c0: 5098 c43d 7aef b63c ad80 d63d 39b2 4a3b
000000d0: edf7 debd 6a73 023d f16f 4d3d 55d2 10bc
000000e0: d28d cdbd 2f2d 25be e004 a6bc d969 14be
000000f0: 8845 9e3e f962 523e 8b92 9d3d 9705 ff3c
00000100: 200d 4fbc a9c6 0e3d 467c 0abb df81 bc3c
00000110: 85b7 76bd ae10 b33d 9a64 043d d66a a93c
00000120: 515f 293a ca43 d83c 98b3 0bbe 57dc 16be
00000130: 9e51 4f3d bf93 a0bb dae9 e4bd 9387 84bb
00000140: adc9 8bbd 4e18 6abe 76c4 a3bc 478b d23d
00000150: 3ae7 2cbe e34e 54bc 5a56 92bd 8857 e8bd
00000160: c126 6bbc 4c6e 11bc 0cde dbbd cc5e 86bc
00000170: c53e 3e3d 1d59 883d c71b 1e3e 7e6f 853d
00000180: 552d 433e beb9 513d 2417 6fbe 5bbb a0bd
00000190: 07d9 4dbe 14f2 b5bd 4d8b 623c 93ff 943c
000001a0: 24ee 9bbd 8473 92be c99a aabc fd99 fc3b
000001b0: 8e1c cfbb 5c1a 06be 649c 9d3d fdea 1ebd
000001c0: ed99 88bc 47f7 9bbd 60c1 363d 133e c73c
000001d0: 850a bf3d bcda 33be 6a48 313d 5168 febd
000001e0: 7c36 783d 8d16 99bd c86a fbbd d7ab 56bd
000001f0: b1c7 bb3c a1e3 1fbd f31e 673d 07cf c839
00000200: 9bc4 2e3e 3ea9 7a3b f651 4b3d b359 343c
00000210: 03e8 d63c 4369 c2b9 9ec5 1cbd d87b 92bd
00000220: aa71 86bc cb2e 253d 9737 29be b78d 90bd
00000230: f749 16bc 2892 043d 76cf 0ebe 3ff7 01bd
00000240: 2e11 6fbe 44fa aabc af62 fdbc 447c a73d
00000250: 5769 7b3d b74e 103b 988f 1bbe ccc6 b53d
00000260: 1c1d 9abd 503b 253e 855e ef3d 9418 da3c
00000270: 9ce6 7ebc 0382 05be 24cc 6dbd 83cd aa3e
00000280: 1032 b13d 9fc1 b8bd 7121 ddba 36d3 efbd
00000290: f821 1cbd ce8b 943d c387 e8bd b9a0 68bd
000002a0: c49b d23d 6772 5d3e 16a9 7fbd c4e5 083c
000002b0: 6a8c 403e 9dff 203d e9d7 01bc c2b8 2ebd
000002c0: e32c ecb9 ddd2 ccbd 77a5 443e 12cd e53c
000002d0: 0073 b1bc 32dc 1cbe c006 453d b0c6 133e
000002e0: 03a4 a8bd 0907 4cbc 6926 2bbc e3e1 99be
000002f0: af5a 603e b8e2 d53e d478 653c 3cf7 7c3d
00000300: d1ff b9bd d5c5 0fbc 41ac f8bc f1ee 4a3c
00000310: 9ccd 15bc 34dd 4f3d a6c4 373e b339 6b3d
00000320: f2a8 d8bb c1db fcbc a5ca 1a3e 2681 f53c
00000330: 0179 c1bb f749 ffbc e577 8ebe 5c15 23bd
00000340: f41f 403d f31f e9ba 12ec 383c 5725 7b3c
00000350: 6bac 2a3c 7f6e 6abc 137c 833d 663d 17bb
00000360: 37f1 0b3c e718 713d 29f3 1f3e a038 bebb
00000370: 590f adbd 4f44 2a3e 296f cbbc 55ab d33c
00000380: 39b7 57be 0c28 a13d 22e3 48bd 6a51 73be
00000390: 098d 093e 0eb3 033b d6d3 d5bd b48f 71bc
000003a0: a563 13be 2c6d 4dbd c41a 26be 4a7d 5a3b
000003b0: e2b7 15bd fa02 d3bd 300a e6bc df6c 9c3d
000003c0: 49c1 fdbd bcc5 23be 6fd8 8cbd 1653 06bd
000003d0: 72dd f23c f8de 3d3b bdbe 4ebe f649 75bd
000003e0: f5c1 9dbd 3d66 38bd 2676 70bc 8b36 79be
000003f0: 88d1 713a 81ad 6d3e 9d92 b0bd c2ac f93c
-0.021855121 0.0070618517 -0.027189177 0.032823384 0.088728234 -0.06260891 0.0957255 -0.036296923
-0.0032898365 0.00955812 0.011273069 0.17978251 0.04547213 -0.06525889 -0.038091987 0.009037696
0.11711137 -0.07742778 -0.013218124 -0.0056723775 -0.05834798 -0.05372838 -0.059122838 0.2700627
0.009798024 0.17782447 0.07244368 -0.0019412879 -0.04679249 0.065388575 0.03248872 0.20092872
0.13934308 -0.06685522 0.015066635 -0.008000236 -0.15936679 -0.023107266 -0.042475373 0.067607
0.101735726 0.18056649 -0.18070503 0.04213178 -0.103673555 0.07168108 0.12430997 0.016545981
0.09599364 0.022330988 0.10473762 0.0030928983 -0.10887132 0.03184835 0.050155584 -0.00883921
-0.10036816 -0.16130517 -0.020265996 -0.14493503 0.30912423 0.20545568 0.076939665 0.031130595
-0.012637407 0.034857426 -0.0021131202 0.023011146 -0.06023361 0.08743416 0.032322504 0.020680826
0.00064610416 0.026399512 -0.13642728 -0.1473249 0.050614946 -0.004900425 -0.11177416 -0.004044482
-0.06825576 -0.22860834 -0.01999114 0.10280471 -0.16885081 -0.012958261 -0.071453765 -0.1134482
-0.014352501 -0.0088763945 -0.107357115 -0.016402625 0.04644658 0.06657622 0.15440284 0.06515406
0.19060262 0.05120253 -0.23348671 -0.07848235 -0.2010232 -0.08884063 0.013827157 0.018188274
-0.07613781 -0.28603756 -0.02082576 0.0077087865 -0.0063205427 -0.13095993 0.07695845 -0.03879832
-0.01667496 -0.07615524 0.04461801 0.024321591 0.09328178 -0.1756391 0.04328195 -0.124222405
0.060598835 -0.07475004 -0.12276226 -0.052409973 0.022922369 -0.039035443 0.056426 0.0003830122
0.17067187 0.003824785 0.04963871 0.011007714 0.026233679 -0.0003708099 -0.0382744 -0.071525276
-0.016411621 0.04032783 -0.16525112 -0.0705828 -0.009172908 0.032365948 -0.13946328 -0.031729933
-0.23346397 -0.02087129 -0.030930845 0.08177999 0.061379757 0.0022019574 -0.15191495 0.08875808
-0.075250834 0.16135907 0.1168795 0.026623048 -0.015557911 -0.13037877 -0.05805601 0.33359918
0.08652127 -0.09021305 -0.0016870928 -0.11710207 -0.038118333 0.07253228 -0.113540195 -0.056793902
0.10283616 0.21625672 -0.062417112 0.008355562 0.18803564 0.03930627 -0.007925012 -0.042656668
-0.0004504687 -0.100011565 0.19203745 0.028051887 -0.021661282 -0.15318373 0.04810214 0.14431262
-0.08234408 -0.012452849 -0.010446169 -0.3005515 0.21909593 0.41774535 0.014005858 0.06175922
-0.09081996 -0.008775194 -0.030355575 0.01238607 -0.009143259 0.050748065 0.17946109 0.057428073
-0.0066119367 -0.030866506 0.15116365 0.02996881 -0.0059043174 -0.031163199 -0.27825847 -0.03981529
0.046905473 -0.0017786011 0.011286752 0.015328727 0.010417084 -0.014308571 0.0642015 -0.0023077368
0.008541397 0.05886164 0.15620102 -0.00580509 -0.08450193 0.1662762 -0.024833279 0.025838533
-0.21065988 0.078689665 -0.049044736 -0.23761526 0.13432707 0.0020095739 -0.10440795 -0.014743734
-0.1439348 -0.050152943 -0.16221148 0.0033338838 -0.036552317 -0.10303302 -0.02808103 0.07637953
-0.12390382 -0.15993398 -0.06877219 -0.03279408 0.029646609 0.002897201 -0.20189948 -0.059884988
-0.0770301 -0.045019377 -0.014676606 -0.24337213 0.0009224643 0.23210718 -0.08621714 0.030477885

actor.4.bias f4 [7]
00000000: 2d9b 7e3d 430b 353e ee07 3ebe b615 083e
00000010: 0c40 3a3e 2241 83be 16b7 b53d
0.062159706 0.17680077 -0.18557712 0.13289532 0.18188494 -0.2563563 0.088728115

critic.0.weight f4 [64, 32]
00000000: 6dc7 0abe 8be3 9bbc 9d2d 2bbe 423a 9b3e
00000010: c8be bcbd 78c3 ea3c a149 53be acf6 0b3e
00000020: bacb 27bd 0af9 82bc 22a4 e5b8 1b9e 0b3d
00000030: 5354 37bd f56c 223d e6f7 3e3c 4839 cb3b
00000040: 4e82 b23d 5f2c 323d 5836 78bd 6079 913f
00000050: c65e 983e 0ae2 343d 3977 15be 60c4 b7be
00000060: a88c fdbd cbdb e03c 7a20 dc3b a93c e6bd
00000070: 3e90 1fbd f5fd dcbd 4db9 ddbc 1421 283d
00000080: 53d1 59bd 192f 873d 6a2b bf3d ec2a 7cbd
00000090: 50de 193e d106 de3d b109 3e3e 4e78 f9bc
000000a0: 0853 eb3b 045d 8cbc cc69 6fbc ef39 87bd
000000b0: f8c0 4a3b 796a 69bd 87c5 c3bd 6d09 af3c
000000c0: 2360 273c 9c56 7f3e 8e83 9e3d c447 6fbf
000000d0: 4e04 e53c cfa1 8d3d 40f0 683e e3c8 133e
000000e0: 24c2 1cbc 74f8 15bd 2014 913d 9dd4 b63c
000000f0: 27de 2ebb 76bf 1d3d 6a2e 983d bb96 92bd
00000100: 4658 8bbc a87d 233e 684c bcbd 12bd 5abd
00000110: 48aa cd3d 12c3 d8bd 696e f7bd ebd7 19bd
00000120: a535 963d 0c8c e1bd 8d3b ef3c ee13 3ebd
00000130: bc4a a1bc 5db1 803d 4a28 55bd c508 863d
00000140: 2d7e 323e 8b4d fa3c 0b80 6fbe 6a78 05bf
00000150: 09c7 2f3d eb48 603d 8419 af3c 0b26 b4bd
00000160: 3ae8 b3bd f3da 1c3d 9e7f 1c3d d16b 56bd
00000170: 8a74 c53d 3ff8 09bd dd01 553b 0050 0ebd
00000180: 624e 4cbe 9d70 ae3d b53c aebd d3c2 8dbe
00000190: 7d53 873d f142 943d 2628 da3d d369 4a3e
000001a0: a757 1d3d b1a9 28bd 2269 6f3c c649 7dbd
000001b0: b9f7 9d3c d09b 313c 66a7 17bb fece ecbc
000001c0: b320 84bc 23d8 373e 2f32 74be d5fa 79bf
000001d0: c758 e9bd bbc7 fdbd 8c6a 84bf 8bfe 5c3e
000001e0: 9342 253e f84d 5abc 2a36 29bc 8f15 693c
000001f0: 9b76 3cbd 49fb 33bd 65b9 063d dbdf 803d
00000200: 7661 89be a8e5 d3bd 3669 82bd 65f6 243e
00000210: 4636 d63e 1b71 283d 596f 803e 62ee db3d
00000220: 2e5d 233d 813f a5bc d4a0 f63b 4d9b 263b
00000230: d4ce 61bc 700f b7bb a0de e13b 1851 27bd
00000240: e332 d5bd 843f 593b 270f bd3e d675 01be
00000250: 411d 35bd cd25 243d 9637 1dbf 7e40 8e3e
00000260: 8e48 11be b107 663c 589f 8e3b 971e dcbc
00000270: dcba e63c f800 57bb 0823 14bd f750 a23d
00000280: 1559 8ebd 0bfc 8fbd 1cc7 d3bd fb00 9ebd
00000290: 1170 993d 836c 0c3e e24f 9cbd be6c 9dbd
000002a0: cb27 ca3d f8e1 5d3d fec4 58bd f28e d03c
000002b0: 8dd6 e7bb 6643 0abc 7939 47bb 6698 ac3c
000002c0: 4376 c93d ebd0 8abd 96ac e4be 7b80 73be
000002d0: b70e adbe 3ec9 1abe 8f8f 0d3f 1d44 d03e
000002e0: 32a9 913d 77fd 4dbd d482 9e3d 6ac6 033d
000002f0: eb14 153c bf58 963c 70a8 983c 9299 a4bd
00000300: 194b 1a3e 1aa1 4e3e 272a 403d 4688 e8bd
00000310: 6707 e7bc 9b50 0b3d bc25 34be 2ab1 17be
00000320: ce4d 473d 9d73 843d 6de8 cdbc 03f6 003d
00000330: a7f0 a4bc e37d 073c 4c70 dabb 57c2 543c
00000340: b564 243d cf97 b8bd 9133 803e a286 29c0
00000350: ae60 823d 2917 113e 240a 45bf 8d3a ee3d
00000360: 3062 1ebd 4209 48bd 4ae7 343d 7714 223d
00000370: 5bea a9bb a360 efbb 8685 c13c 5fd3 33bd
00000380: eb5c 263d 78f7 f73d 9b58 3ebd 4978 3bbe
00000390: 20d9 21be b3b3 71be 08c4 0dbe d44d 123e
000003a0: 1a79 a13d 0f7a febc 0da3 f33c 148e 8a3b
000003b0: 8b5a aa3a c788 0e3d a0ab 233c 270f e63c
000003c0: 4edf 17be a3e6 a6bd e3f6 923d 0f60 ac3d
000003d0: 73cf febd de46 023e cf2c 0cbf 05df a3bc
000003e0: 0ae7 073e d53e 80bd e5d2 6cbd 68d9 8ebc
000003f0: bf52 2bba bc97 03bd 20ec f0bb fff9 19bc
-0.13552637 -0.0190294 -0.16716619 0.30317885 -0.09216076 0.02865766 -0.20633556 0.13668317
-0.040965773 -0.015987892 -0.00010950143 0.034086328 -0.044758152 0.03965469 0.011655783 0.006201897
0.0871626 0.043499347 -0.0605987 1.1365166 0.29759806 0.04416088 -0.14596261 -0.3589201
-0.12380344 0.027448555 0.0067177387 -0.11242039 -0.03895592 -0.10790626 -0.027065897 0.04104717
-0.053178143 0.0660078 0.093344525 -0.06156437 0.15026212 0.10841144 0.18558384 -0.030452874
0.007181529 -0.017134197 -0.014612626 -0.06602847 0.0030937772 -0.056986306 -0.0955916 0.0213668
0.010215792 0.24935383 0.07739936 -0.9346888 0.027956154 0.06915628 0.22747898 0.14432101
-0.009567771 -0.036613896 0.07083917 0.022318179 -0.0026682706 0.03851267 0.07430728 -0.07157656
-0.017009865 0.15965903 -0.09194261 -0.053402968 0.10042244 -0.10584082 -0.12081606 -0.03755943
0.07334451 -0.1101304 0.0292032 -0.046405725 -0.019688956 0.06283829 -0.052040376 0.065446414
0.17430945 0.030554553 -0.23388688 -0.5213686 0.042914424 0.05475704 0.021374471 -0.087963186
-0.08784528 0.038294744 0.038207643 -0.052348915 0.09641369 -0.03368401 0.0032502331 -0.034744263
-0.19951776 0.08517573 -0.08507673 -0.27687702 0.06607721 0.072393306 0.10652189 0.19766931
0.03841367 -0.041177455 0.014612468 -0.061837934 0.019283162 0.010840371 -0.0023140549 -0.028907295
-0.016128873 0.17953543 -0.23847269 -0.97648364 -0.11393886 -0.12391611 -1.0345016 0.21581475
0.16138677 -0.013324253 -0.010327855 0.014226331 -0.04601155 -0.043940816 0.03289165 0.06292697
-0.2683217 -0.10346538 -0.06367724 0.16109617 0.41838282 0.04112349 0.25084952 0.10738827
0.039883785 -0.020171883 0.0075264964 0.0025422156 -0.013782222 -0.005586557 0.006892994 -0.04084882
-0.104100965 0.003314943 0.36925623 -0.12642607 -0.04421735 0.040075112 -0.6141294 0.2778358
-0.14187834 0.01403992 0.0043524913 -0.026870055 0.028165273 -0.0032806974 -0.03616622 0.07925599
-0.06950585 -0.07030495 -0.103407115 -0.07715031 0.07492078 0.13713269 -0.07632424 -0.076867566
0.09870871 0.05417058 -0.05292224 0.025458787 -0.007075137 -0.008438921 -0.0030399247 0.021068763
0.0983701 -0.06778129 -0.44662923 -0.2377948 -0.3380029 -0.1511583 0.5529718 0.40676966
0.071123496 -0.05029055 0.07739797 0.032171644 0.0090992255 0.018352864 0.018635005 -0.08037104
0.1506771 0.20178643 0.0469152 -0.11354117 -0.028201772 0.03401242 -0.1759252 -0.14813676
0.048658185 0.06467364 -0.025135243 0.031484615 -0.020134283 0.00826976 -0.006666219 0.012985787
0.040135104 -0.0901333 0.25039342 -2.6488423 0.063660964 0.14168991 -0.769686 0.116322614
-0.038667858 -0.048836954 0.044165887 0.039570298 -0.005185408 -0.007305221 0.02362324 -0.04390275
0.040615957 0.12107748 -0.04647122 -0.18307604 -0.15805483 -0.23603706 -0.13844311 0.14287502
0.078844264 -0.031064061 0.029740835 0.004228363 0.0012996955 0.03479841 0.009989649 0.028083397
-0.14831278 -0.08149459 0.07175996 0.08416759 -0.124419115 0.12722346 -0.5475587 -0.020003805
0.13271728 -0.06261984 -0.057818312 -0.017437652 -0.00065354625 -0.032127127 -0.007352367 -0.009397983

critic.0.bias f4 [64]
00000000: 86fe 483e 5d2e 39be 5746 a7bd 415b 08be
00000010: 84ab a5bc 3ae5 0dbe 6b3b 24bc c5f6 573d
00000020: 84d4 aabd ae6a 96bd df42 933d 1ea4 503d
00000030: 7f23 43bd aca8 93bd 634a ce3d 44ad 01bc
00000040: e252 91bd 26b6 a43d 3738 ac3b fae0 f83d
00000050: 0ee9 313e 38b4 b7bd 1fcb 0f3e 1797 83bb
00000060: 92b3 c63c 700f cfbc a0e9 083d 8551 dcbc
00000070: af86 85bb 38d6 133e 09f2 d1bd 6a39 8a3d
00000080: fcf7 eabd 62ef 81bd 2d2a 533d d100 05be
00000090: ffc3 1abd 2cc7 6b3e 5232 d0bd d154 e43a
000000a0: b146 903d 4993 bb3d 4793 873d 16e6 50be
000000b0: fa81 40be 3f2c e03d a2f0 dfbd a893 0ebe
000000c0: 337b 53bc 0a58 e7bc ebca 12be 87c6 00be
000000d0: 84ef f83d 6737 ccbd d9a2 02be ac4a 5ebd
000000e0: 5245 0e3e f3b6 3cbd 35b0 91bd 8fdb 6ebd
000000f0: f9b8 28bd 8447 b63d eea2 e63d 6b79 9fbd
0.19628343 -0.18084092 -0.08167713 -0.1331606 -0.020223387 -0.13856974 -0.010023932 0.052725572
-0.083413154 -0.07344566 0.07190489 0.050937764 -0.047641274 -0.07209906 0.10072782 -0.007914845
-0.07095887 0.080425546 0.005255725 0.12152286 0.1737406 -0.08969921 0.14042328 -0.004015814
0.024255548 -0.025275916 0.033425927 -0.02689434 -0.0040748934 0.14437187 -0.10251243 0.06749232
-0.114730805 -0.06344487 0.051553894 -0.12988593 -0.037784573 0.23025197 -0.10165848 0.0017420297
0.07044733 0.09158952 0.06619888 -0.20400271 -0.18799582 0.10945939 -0.10934569 -0.13923514
-0.012907791 -0.028240222 -0.1433522 -0.12575732 0.12155059 -0.09971505 -0.12757434 -0.05427043
0.13893631 -0.04607291 -0.07113687 -0.058314856 -0.04119203 0.08900359 0.11261545 -0.077868305

critic.2.weight f4 [64, 64]
00000000: 0cec 933d 22ac 76bc 62dd e13d b072 a13c
00000010: 67c9 b5bc 7567 8b3c d6c9 f93d 37b4 cabd
00000020: 5794 2fbe 492f c0be f465 32be ffe8 833e
00000030: 85f3 a4bd ef0b 123e 0e7e 4bbe 023d f13c
00000040: 5a7c 51be 0918 063f 62f7 04bf 1d8a 8bbe
00000050: 6d90 35bf b1dd 033f 8b9d 83bd d132 36be
00000060: 75f4 f9bd 24f8 7c3e 2f30 2e3e ced4 49be
00000070: cde1 a03d 9e6c 9f3e 8fbc 203e f74e 28be
00000080: b662 f53c 5015 003e a15c 913d dd2a 003d
00000090: bc70 98be d6a4 91be 12e9 37bd 72c7 ecbd
000000a0: 3789 a53d 2e5a 633e 6540 e4bd cd18 e63d
000000b0: 14ac 0d3d 5dbc 28bd ef2e 343e 2d78 c33e
000000c0: 5423 e4be fd63 a33a 1181 93bd aacb f73e
000000d0: 9c91 27be af98 493c 0a95 d5bd dc35 0d3d
000000e0: 1d72 8bbe 2db5 9abd 39de 5e3d 18ee f13c
000000f0: 77f0 82be 3316 2abd d456 953a ba03 e2bd
00000100: f12a 7fbd a479 c6bd 27b4 723c 18db 513d
00000110: ccd2 5abc 6b3f 883d a30c f53b 91df 43bd
00000120: 0387 bebd 4e47 41bd 2e07 163e 19c8 af3d
00000130: 9427 093e 070a 903b dce5 b53d b39c a5bb
00000140: c356 1d3e 5eb2 70bd 8565 d83b 958c 15be
00000150: 3c68 3fbc ff70 963d 7089 46bd d007 d33c
00000160: b274 f63d 2c2a a73d b225 8a3d a936 833d
00000170: 5515 d03d 4354 bdbd cedd 7b3d 396b 1d3d
00000180: 31c6 413d 8fd7 1bbe 1f28 053d aeaf 12be
00000190: 9acb 98bd 21fe 21bd 01a0 533d 681e 023e
000001a0: 665d 3e3d 5ad3 d13c f8b2 3d3d dd13 0f3e
000001b0: eabb 603d 259b 83bd 7511 ec3b 0366 0f3d
000001c0: 49e3 01bd bd7a 553c 5073 393d 9e3a efbc
000001d0: 9fc0 5bbd 7972 21be ee00 34bb 768e c3bc
000001e0: 6d8b 323d d6da 9a3c d829 26bb 6920 dc3d
000001f0: 4a79 b23d f740 883d 1b9c b83d b668 b13d
00000200: 2193 8a3d bfa7 923d 4093 c3ba fb46 d1bd
00000210: 5d06 903d 5f31 9d3b 4b67 83bd 5452 ef3d
00000220: b71a d1bc fdaa 473d 14ae 41bd a79e 79bd
00000230: fb86 dabd a024 813d 43a5 94bb fb9b d83d
00000240: da4f 803d d8c9 023e a793 233d 14a4 da3c
00000250: d796 353d 7629 b2bd 03ff 75bc 4819 abbd
00000260: c620 06bd 2e62 e13d f406 42bb 99da 89bd
00000270: edd0 54bc 39f7 e23d ed18 8b3d 55e7 fc3c
00000280: f835 38bc 0c7f 83bd 7dc1 983d 9631 fabc
00000290: b38f b93d 1894 b03d baa7 703d 722d 923c
000002a0: 3ba8 1fbd 6d59 84bd 6cad f5bc aba7 46bd
000002b0: 6502 c9bd 1c2d 03bc b837 60bc f3a1 e8bd
000002c0: f9f1 fabc 7bae e33d 14aa ab3d 537f 9fbd
000002d0: 4f9e bd3d 6ef9 953d b5cf 093e 6842 183b
000002e0: 17a9 1b3d 02bb 913c d6c3 8e3d c642 68bc
000002f0: 35ad bf3d 0f12 933d b18d 6e3d 66b2 763b
00000300: e03b 1bbd d028 d8bc 5aac 4f3d b304 a3bc
00000310: 43c1 e0bc d47c b8bd d93b 063d 14d8 823d
00000320: c3dc 953c c57f a73d 04b9 35bd 40f2 c03d
00000330: eccb 34bd de0e e6bd 7078 fd3d 1da5 6f3d
00000340: 9fa2 0e3c 504e 51bc b85e 003d e40a fb3d
00000350: 343a cebc 9d3e 233e dcf7 3e3d d608 9b3d
00000360: bfd9 94bc df5c 9dbd 5112 d53c 6014 babd
00000370: 6bf8 e6bd cf7a a63c a50a 52bd 84e3 5e3d
00000380: 2e75 c0bc 36ec 69bd 4ac4 a7bc 9fd8 ee3c
00000390: c796 f13d 4970 f0bd 31a7 02bd 51f7 9fbc
000003a0: 72bc cf3d fc74 33bd 15dc 00bc b0d8 0e3d
000003b0: 1054 0b3d cedf b0bc c655 0f3d 34e1 6c3d
000003c0: 080a b2bd dab6 173e 37f7 cc3d 2edc b93c
000003d0: d19a f4bd 1825 0ebc 299f 49bd 5450 9c3c
000003e0: 2b60 ca3d 6c41 15bc 7b11 b1bd 5251 df3d
000003f0: ae95 253d 7daa 39bd fc71 f0bc 9e4c 9fbd
0.07222757 -0.015055688 0.110285535 0.019708008 -0.022190763 0.017017106 0.121967 -0.098976545
-0.17146431 -0.37536076 -0.17421705 0.257637 -0.0805426 0.14262365 -0.19872305 0.029448036
-0.20457593 0.52380425 -0.51939976 -0.2725381 -0.709235 0.5151015 -0.06426533 -0.17792822
-0.122048296 0.24704033 0.17010568 -0.19710085 0.07855568 0.31137556 0.1569693 -0.16436373
0.029954296 0.1250813 0.07097746 0.031290878 -0.2977351 -0.28446072 -0.044900008 -0.11561479
0.08082812 0.2220237 -0.11145095 0.11235199 0.034587935 -0.041195262 0.17596029 0.38177624
-0.44558203 0.0012465712 -0.07202352 0.4839757 -0.1636414 0.012304469 -0.104288176 0.034475192
-0.272355 -0.07554088 0.054411147 0.029532477 -0.25574085 -0.041525077 0.0011393675 -0.11035867
-0.06229681 -0.0969117 0.0148134595 0.051234335 -0.013355922 0.06652721 0.007478313 -0.04782063
-0.09303095 -0.047187142 0.14651176 0.085830875 0.13394004 0.0043957266 0.08881733 -0.0050540804
0.15365128 -0.058763854 0.006603899 -0.14604409 -0.011682566 0.07345771 -0.048470914 0.025760561
0.120339766 0.081623405 0.06745471 0.0640691 0.10160319 -0.09244587 0.061490826 0.038432334
0.04730815 -0.15218948 0.032508966 -0.14324829 -0.07460709 -0.039548997 0.051666263 0.12706912
0.04647579 0.025613476 0.046313256 0.13972421 0.05486671 -0.06426076 0.0072042295 0.035009395
-0.031710897 0.013029751 0.045275986 -0.029202756 -0.053650495 -0.15766324 -0.0027466374 -0.023871642
0.043589998 0.018903177 -0.002535453 0.10748369 0.0871454 0.06653016 0.0901415 0.0866255
0.06766344 0.07160901 -0.0014921203 -0.102186166 0.07032464 0.0047971453 -0.06416186 0.11685625
-0.025525434 0.04874705 -0.047285154 -0.06094232 -0.10670277 0.06305814 -0.0045363023 0.10576626
0.062652305 0.1277231 0.039935734 0.026689567 0.044333305 -0.08699314 -0.015014413 -0.083544314
-0.0327461 0.110050544 -0.0029606195 -0.06731147 -0.012989265 0.1108231 0.067918636 0.030872026
-0.011243336 -0.06420717 0.0745878 -0.030541223 0.090606116 0.08621997 0.058753707 0.017843936
-0.038978796 -0.06462369 -0.02998992 -0.048499744 -0.0981491 -0.00800636 -0.013685159 -0.11359014
-0.03063296 0.11117264 0.08382049 -0.07787957 0.092587106 0.073229656 0.1345814 0.002323294
0.038003054 0.017789368 0.069709465 -0.014176076 0.093592085 0.07181179 0.058240596 0.0037642955
-0.037898898 -0.026386648 0.050701477 -0.019899702 -0.027435904 -0.09008184 0.03277192 0.0638887
0.018293744 0.08178667 -0.044365898 0.094212055 -0.044139788 -0.112333044 0.12376487 0.058507074
0.008705764 -0.012775019 0.03134033 0.122579366 -0.025174238 0.15941854 0.046623096 0.07570045
-0.018170236 -0.076837294 0.02600971 -0.090859175 -0.11277851 0.020322232 -0.051279683 0.054416195
-0.023493376 -0.057110034 -0.02047934 0.029156027 0.117963366 -0.11740167 -0.031897727 -0.01952711
0.10143365 -0.043812737 -0.007864972 0.034874618 0.034015715 -0.021591093 0.03499391 0.057831958
-0.086933196 0.14815846 0.1000809 0.022687998 -0.119435914 -0.008675836 -0.049224053 0.019081272
0.09881624 -0.009109836 -0.08645912 0.109041825 0.04042595 -0.045328606 -0.029351227 -0.077782854

critic.2.bias f4 [64]
00000000: 52cf 933c 87f7 91bd 3a02 f8bb 89ac 03be
00000010: ac1e 9b3d 2b39 12bd 7986 30bd 7be1 183e
00000020: bf60 403e 2aff 823d 525c ca3c bec4 6fbe
00000030: b7c2 d5bd a49a f43c 1210 813c bb46 fb3d
00000040: b4e4 ab3d 1847 f7bd 5621 aebd e431 7f3d
00000050: 38d2 cdbd 4dda acbd e7bf 833c 26b1 ccbb
00000060: 0c8a a1bd 2a13 943c df80 3dbe 322e bebc
00000070: cf6e afbd 1bfe 713b 8683 b03d 0550 513d
00000080: a267 f8bb 15a0 363e 1b0a dd3d cb15 de3d
00000090: 5fd0 adbc 2a15 d03a 9c36 2bbe 3b98 debd
000000a0: 09b5 5cbe 1356 29bc 1186 aa3d 162b 513e
000000b0: 379b 633d 2113 94bd 402f 983d ea2c 213b
000000c0: a32c 0a3e e2b0 90bd c884 043e 266e 153d
000000d0: 8cf1 71bc a67e 8fbd 09bf cb3c bb9b 07bd
000000e0: 82f2 dabd a925 b6bd 2ab9 01bd 4084 583c
000000f0: 5277 dabd 4ed1 28bd f9c7 80bd 33b6 713c
0.018043194 -0.0712729 -0.007568625 -0.12858786 0.075742096 -0.03569905 -0.043096993 0.14929764
0.18786906 0.06396325 0.024702225 -0.23414895 -0.104375295 0.029858895 0.015754733 0.1226935
0.08393231 -0.12074107 -0.08502452 0.06230344 -0.10049862 -0.08440075 0.016082717 -0.0062467037
-0.078876585 0.018075544 -0.18506192 -0.023215387 -0.08566057 0.003692514 0.08618836 0.051101703
-0.0075807134 0.17834504 0.10792943 0.108440004 -0.021217523 0.0015875448 -0.1672005 -0.108688794
-0.21553434 -0.010335463 0.083263524 0.20426592 0.055567946 -0.07230211 0.07430887 0.0024593421
0.1349359 -0.07064988 0.12941277 0.036482 -0.014767062 -0.07006578 0.024871366 -0.0331075
-0.10690786 -0.08893902 -0.031670727 0.013215125 -0.1066729 -0.041215234 -0.06288142 0.014752912

critic.4.weight f4 [1, 64]
00000000: b7d3 a3bd 921a e139 75d2 c3b9 af9f 06bb
00000010: 6c65 263b c28f 4839 09e6 8eb9 8fb9 113b
00000020: c6d4 12bd e89f feba c7c4 41bb 7f4e 0b3e
00000030: ff17 dbba cb8e 1b3a a963 8aba 7d2f 95bd
00000040: 572d 91b9 3b29 0b3e 0b67 93bb 3a53 663a
00000050: 10a3 26bb 33ee 1b39 fced 0a3d 3a2e 80b9
00000060: 2d5f d1ba 8de5 04ba 519a b43c 43dd 983a
00000070: e30d b7b8 254e b7ba b559 8839 1c3f dab8
00000080: b9a6 cfba 9792 aebd 6838 793b e2ad 253b
00000090: ea86 513a e87f 8dbb 617f 89bc 7859 61bb
000000a0: 0e9a 8b3d cc84 643c 4f4a a43a 845e 16be
000000b0: 43cb 333a bd7f 003e e482 4e3b ef6f 69bb
000000c0: 4729 0ebd e445 05bb dfdd c93b 6018 a5ba
000000d0: ff5f c4ba 1d93 1ebb 8104 57ba ae35 a9bb
000000e0: f96d 5dba 7a11 e9ba ada6 f2ba d466 01ba
000000f0: 4337 3dbb 19ef cf3d db10 25bb 2361 4bbb
-0.07999366 0.0004293514 -0.000373501 -0.0020541956 0.0025390042 0.0001912704 -0.0002725574 0.0022235846
-0.035847448 -0.0019426318 -0.0029566751 0.13604163 -0.0016715525 0.00059340586 -0.0010558265 -0.07284448
-0.00027690336 0.13589947 -0.0044983677 0.00087862054 -0.0025426783 0.00014870688 0.033918366 -0.00024448504
-0.0015973799 -0.0005069606 0.02204624 0.0011662621 -8.7287066e-05 -0.0013985081 0.00026006778 -0.00010406805
-0.0015842534 -0.085240535 0.0038028006 0.0025280644 0.0007992821 -0.004318226 -0.016784372 -0.0034385603
0.06816493 0.013947677 0.0012534353 -0.14684492 0.00068585965 0.12548728 0.0031511122 -0.0035619696
-0.034707334 -0.0020335848 0.0061604823 -0.0012595765 -0.0014982222 -0.0024196573 -0.000820227 -0.00516387
-0.0008446868 -0.0017781698 -0.0018512808 -0.0004936282 -0.002887205 0.10153026 -0.0025187049 -0.003103324

exp_avg f4 [7]
00000000: 7683 9c38 acf3 b9b8 1558 9a3a a33b 6dbb
00000010: 5a70 403b 7dcf 80ba 9796 28b9
7.463146e-05 -8.866875e-05 0.0011775518 -0.0036198876 0.0029363842 -0.0009827461 -0.00016077828

exp_avg_sq f4 [7]
00000000: b0e8 1339 5027 1e39 79e8 1a39 87de 1739
00000010: 861d 6439 5639 e938 c3b6 5d39
0.00014105695 0.00015082699 0.00014773187 0.0001448338 0.00021754773 0.000111209854 0.00021144286

exp_avg f4 [64, 32]
00000000: d335 24b7 22d8 c539 9382 f438 ace3 0539
00000010: f60a b3b8 f6db 62b9 7306 1039 d2ab dcb7
00000020: 29a5 d4b7 29f6 0fba ea8e 1e39 5ce0 e339
00000030: da89 8739 043f 33ba 3e4e 1e3a d17f f3b8
00000040: c3b9 b8b6 2839 feb6 8bca 9239 e654 83b8
00000050: b8d5 5139 1b46 aaac 51ff 1dba e89a e838
00000060: 17b5 e7ad cdda 39b8 7718 3b38 f769 373a
00000070: a23a 883a 379d 3fb9 a0ca f1b9 34dc 28b8
00000080: a452 3739 c040 51b8 5fd4 5438 a0e7 f8b6
00000090: f091 71b8 e51b 6f38 479c ecb7 f79a 2db5
000000a0: 6502 cd36 9bcf 783a 4d48 51b9 eb45 3bba
000000b0: 40c7 3738 e785 ac39 84e5 0338 bd83 f1b9
000000c0: f39f b2b7 d07c bd34 b26c 02b9 c537 3238
000000d0: 0f25 5738 5501 12ac c68f 5ab8 2382 4738
000000e0: c475 20ac 32ec 0439 3c7e 24ba d619 6eb9
000000f0: 8889 8a39 5778 93b9 819b 4a39 dbac 82b9
00000100: 696b beb8 a3ef 9ab8 7107 ceb7 9499 fcb8
00000110: be7b 31b9 47e5 7c39 d54e 2eb9 295d 0a37
00000120: f545 0cb7 1bce 8aba fe88 4f3a f7cb 5a3a
00000130: c2f3 3d38 769e 81ba 6bdc 593a 26f5 2bb9
00000140: a0de ea36 76fc 8b36 7a8e 66b9 1968 fcb8
00000150: 1fc4 29b8 59ef ffac 9246 4ab9 1b2f 2e39
00000160: 676c 14ad 5cf1 efb9 6a86 da39 b5a5 173a
00000170: 9aab 5cba 0a14 68ba d90b 173a 743c f6b9
00000180: b280 60b8 e402 ac39 38c5 cb37 5430 ed37
00000190: 3e23 9bb7 221d 25b9 f818 1e38 9302 05b8
000001a0: 96dd f3b7 517c d9b9 116d cc39 345b 7b37
000001b0: f562 e6b8 79cd 38b9 1900 03b9 a512 d637
000001c0: 5fde 1ab5 0676 2c36 c24f 9339 745c 1fb8
000001d0: 9aa8 0839 833c caad 98f4 c2b8 b2d9 093a
000001e0: 50f0 8eac 24b5 6ab8 4c53 8339 8c4e 3539
000001f0: fa1e f6b7 295e 05b9 a3d6 abb9 03dc a239
00000200: d229 e938 a25a bab8 2fdb 2c39 9614 21b8
00000210: 2d0a 24b9 d5f5 ff37 3866 4bb6 f2c1 9d37
00000220: c971 a837 a7fe d837 0aa1 5e39 9f0c 40b8
00000230: c04b d0b8 d7b1 cb39 5c21 003a a9e1 7b39
00000240: b8d5 40b7 4a40 b4b5 ef46 93b8 3f44 9e38
00000250: 9673 2eb9 bdd2 4c2d 201d 6bb9 bb8b 8bb9
00000260: 1139 2cad e1b7 3a39 7b09 02b9 1c1d 8139
00000270: 7b42 4eba d790 d2b9 46f6 3b3a e1e7 26b9
00000280: 7d10 f4b8 b1e2 e9b8 56bd ae37 404e 5a38
00000290: 757f 7439 92ed 1437 7d84 4a39 1de2 11b7
000002a0: e159 8337 7a29 373a c2e5 003a bab7 fcb9
000002b0: 981a 233a 280e 2039 8d0c 8f3a 3c14 edb8
000002c0: 926b bdb7 7b64 13b7 121c 58b9 c034 a2b6
000002d0: 57e3 ebb8 ddda b62c 435d 5338 3cbb f9b8
000002e0: e6b0 1a2c 95cc bf39 9c42 2fba 0bad 91b9
000002f0: 98d6 f439 4bd8 1f3a 51b3 ee39 06ca 6d3a
00000300: e8be e2b8 5f82 1539 04b0 bfb6 6502 f337
00000310: 33d5 4e37 53a7 e3b8 702e d937 3881 8bb7
00000320: 5540 2eb7 45db f5b9 417e 9339 bc21 133a
00000330: 57c8 6838 3a49 d2b8 8a3a da39 5f4c a5b8
00000340: ec4f d2b6 90ec b0b6 afa1 d038 4ed2 53b8
00000350: 4839 9838 798b 05ad 666a adb6 2714 3639
00000360: eaf3 7caa 1aef 62b9 480d 5539 a070 6fb8
00000370: e37e 3539 2a51 2639 5684 07b9 6070 4839
00000380: 8eec 81b7 299c 8938 2fb3 ce37 521e f336
00000390: 3f0a 11b7 d576 8939 ce2e 1bb9 d1bb d7b6
000003a0: ff30 85b5 4c19 a63a 4fa2 cf39 d496 9bba
000003b0: 31c9 2338 538d bcb9 d74b 103a 3b1a 5dba
000003c0: 1d85 26b7 9fd7 67b5 623f 6db9 c325 d0b8
000003d0: b264 8eb8 c1a7 92ac 382c 9739 1413 c738
000003e0: f5b9 5d2d 39d2 fb39 3fd7 93b8 9fdd 48b9
000003f0: cca5 32b9 4f1d ff38 44d9 0f39 4d7d c8b9
-9.787694e-06 0.000377358 0.00011659148 0.00012768683 -8.537427e-05 -0.00021634981 0.00013735313 -2.6306054e-05
-2.5349278e-05 -0.0005491698 0.00015121294 0.00043463975 0.00025851914 -0.0006837698 0.00060388807 -0.000116109506
-5.505253e-06 -7.5764437e-06 0.00027998196 -6.26238e-05 0.0002001141 -4.839474e-12 -0.000602712 0.000110914756
-2.634208e-11 -4.431121e-05 4.460706e-05 0.0006996686 0.001039345 -0.00018273747 -0.0004611807 -4.02594e-05
0.00017483026 -4.9889786e-05 5.0742525e-05 -7.4179407e-06 -5.7594792e-05 5.700802e-05 -2.8206165e-05 -6.4673026e-07
6.109755e-06 0.0009491385 -0.00019958727 -0.00071439025 4.3816166e-05 0.00032906162 3.1446587e-05 -0.00046065255
-2.1293736e-05 3.5294806e-07 -0.00012438258 4.2490447e-05 5.1294508e-05 -2.0748587e-12 -5.210915e-05 4.7566497e-05
-2.280274e-12 0.0001267649 -0.0006274914 -0.00022707073 0.0002642388 -0.00028127685 0.00019322151 -0.0002492432
-9.079913e-05 -7.387928e-05 -2.4560579e-05 -0.000120449025 -0.00016926133 0.00024118005 -0.000166233 8.2471315e-06
-8.360938e-06 -0.0010589989 0.0007916837 0.0008346433 4.528813e-05 -0.0009889144 0.0008310738 -0.00016399156
6.9996604e-06 4.171913e-06 -0.00021987586 -0.00012035686 -4.0475392e-05 -7.274109e-12 -0.0001929051 0.00016611481
-8.436896e-12 -0.0004576546 0.00041680346 0.0005784885 -0.00084179046 -0.0008853084 0.00057619583 -0.00046965817
-5.352562e-05 0.0003280855 2.4291323e-05 2.8275106e-05 -1.849385e-05 -0.00015746479 3.769339e-05 -3.171207e-05
-2.9071041e-05 -0.00041482088 0.00038991173 1.4982001e-05 -0.00010985687 -0.00017624152 -0.0001249317 2.551947e-05
-5.7693063e-07 2.5698696e-06 0.0002809745 -3.7994658e-05 0.0001303278 -2.2991614e-11 -9.2962e-05 0.00052585744
-4.062563e-12 -5.5958648e-05 0.00025048328 0.00017290766 -2.933991e-05 -0.00012718946 -0.00032775578 0.0003106297
0.000111180954 -8.886053e-05 0.0001648485 -3.8404563e-05 -0.0001564405 3.0512843e-05 -3.0308856e-06 1.8806171e-05
2.0080146e-05 2.5867788e-05 0.00021231562 -4.578812e-05 -9.9323224e-05 0.00038851678 0.00048877834 0.0002402129
-1.1493852e-05 -1.3429756e-06 -7.022719e-05 7.546739e-05 -0.00016636992 1.1642851e-11 -0.00022422196 -0.00026616253
-9.789739e-12 0.00017806843 -0.00012401298 0.00024626486 -0.0007868183 -0.00040162235 0.00071701815 -0.00015917375
-0.00011637898 -0.0001115253 2.0830583e-05 5.2048126e-05 0.00023317135 8.876801e-06 0.00019313577 -8.69532e-06
1.565827e-05 0.00069870765 0.0004917049 -0.00048202073 0.00062219193 0.00015264063 0.0010913775 -0.000113048096
-2.2580647e-05 -8.785278e-06 -0.00020609822 -4.834117e-06 -0.000112480186 5.19705e-12 5.0393177e-05 -0.0001190812
2.1982915e-12 0.00036582784 -0.0006685646 -0.00027785482 0.0004669919 0.0006097599 0.000455285 0.00090709364
-0.00010812079 0.00014258314 -5.7127345e-06 2.8968972e-05 1.2328196e-05 -0.0001085537 2.589004e-05 -1.6630263e-05
-1.0386187e-05 -0.0004689341 0.0002813209 0.0005612632 5.549969e-05 -0.0001002722 0.00041623815 -7.882038e-05
-6.267792e-06 -5.2727482e-06 9.948329e-05 -5.050218e-05 7.258594e-05 -7.591144e-12 -5.168188e-06 0.0001736438
-2.2466721e-13 -0.00021642112 0.0002031821 -5.708693e-05 0.00017308774 0.0001586123 -0.00012923902 0.0001911535
-1.5488153e-05 6.561756e-05 2.4640553e-05 7.245494e-06 -8.645059e-06 0.00026219213 -0.00014799388 -6.429364e-06
-9.923532e-07 0.0012672334 0.00039603046 -0.0011870512 3.9049602e-05 -0.0003596345 0.0005504465 -0.00084343896
-9.925364e-06 -8.6367976e-07 -0.00022625693 -9.9252466e-05 -6.7898436e-05 -4.168194e-12 0.0002883391 9.492613e-05
1.2603686e-11 0.0004803108 -7.049599e-05 -0.00019156047 -0.00017037167 0.00012164807 0.0001371848 -0.0003824033
