logs/rsl_rl/franka_reach/2025-06-16_20-11-58/model_100.pt (torch, 172795 bytes, 36 tensors)

std f4 [7]
000000 e6 1a 2b 3f a0 bf 28 3f 7e 46 2c 3f 9b c7 2a 3f
       0.6683792 0.65917397 0.6729506 0.66710824
000010 70 df 17 3f 6a 2f 3f 3f f6 3d 13 3f
       0.59325314 0.74681723 0.5751642

actor.0.weight f4 [64, 32]
000000 bf 85 aa be 08 21 15 3e 97 71 ff be af 2d 47 3e
       -0.33305165 0.14563382 -0.4989135 0.1945102
000010 8b fe 33 3e ff bb c8 3e 93 4a fe 3d 69 a8 af 3e
       0.17577569 0.3920593 0.12416568 0.34308174
000020 a0 65 30 3f c6 62 e6 3c da b0 2c 3e 52 6b ff 3d
       0.6890507 0.02812327 0.16864339 0.124716416
000030 6f 6a 8b 3e ee 58 d2 3d 8d 65 4e be 8e fc da bd
       0.2722964 0.10270868 -0.20155926 -0.10692702
000040 35 b1 92 be b9 65 ad be e6 9f 0c bf 0c 39 80 be
       -0.28650823 -0.3386667 -0.54931486 -0.25043523
000050 3b 96 14 3f 07 c7 a1 bc 05 3a 1a bf cc 7b a0 3c
       0.58041734 -0.019748224 -0.6024478 0.019590281
000060 c9 37 10 be 22 a5 ea bd 1f 0e c7 be 5a 8d 85 be
       -0.1408378 -0.11457278 -0.3887796 -0.26084405
000070 38 af 27 bc 4a 21 78 be 0d 82 d7 3d e6 d0 e6 bd
       -0.0102346465 -0.24231449 0.10522852 -0.11270313
000080 a0 99 69 3d f5 67 60 bc 66 a3 bd be f0 cc 2d 3f
       0.057031274 -0.01369666 -0.37038726 0.67890835
000090 93 4d 32 3f 63 15 f6 3e 1d aa f5 bd 62 28 10 bd
       0.6964962 0.48063192 -0.11995337 -0.035194762
0000a0 4f 16 a1 3e ca 90 f9 3d c8 3e 29 be eb 3e a5 3e
       0.31462333 0.121858194 -0.16527855 0.32274565
0000b0 78 d2 24 3e 9b 68 83 be 2d f4 a7 3d 77 79 37 3e
       0.16095912 -0.25665745 0.0820087 0.17917429
0000c0 22 87 24 3f 0a 64 d2 3d fe 63 2a bf 88 47 ff bf
       0.64268696 0.10272987 -0.66558826 -1.9943705
0000d0 1b 28 c5 be af 06 14 3e 91 b0 8c 3e a1 50 2b 3e
       -0.3850716 0.14455675 0.2747846 0.16729976
0000e0 c9 5b 66 3d 20 3b 29 3e a8 89 06 3e 2c 64 85 bd
       0.056239877 0.1652646 0.13138449 -0.06513247
0000f0 17 1d d0 3b 4f c4 60 be fe b7 8a 3d 18 8f 88 bd
       0.006351124 -0.21949886 0.06773375 -0.06667918
000100 35 82 03 3f a1 21 c2 bd f4 c2 2d 3f f2 7f 92 be
       0.51370555 -0.094790705 0.678756 -0.2861324
000110 63 0c 34 3e cf d5 fc 3d d8 cc 8b 3e 1c d0 03 3f
       0.1758285 0.12345468 0.2730472 0.51489425
000120 52 37 4c 3f 63 88 95 bd 73 b7 a7 3d 0f b7 91 be
       0.7977191 -0.07301404 0.08189287 -0.28459975
000130 e4 9c 69 3e 1a a5 68 3d a1 f5 ce 3d d9 ca 97 3d
       0.22813755 0.056798078 0.10105444 0.07411737
000140 50 48 49 be 7d 8c 12 bf fd 88 bc 3d c3 88 c1 bf
       -0.19656491 -0.5724562 0.09205816 -1.5119861
000150 b5 61 69 3e 1c 2e 30 bd 7e 07 59 be 10 12 58 3e
       0.22791179 -0.043012723 -0.21194264 0.2110064
000160 8c 3e b9 bd 4e e7 20 3c be 8e 9b 3e 17 26 c3 bd
       -0.09045133 0.009820772 0.3038234 -0.095287494
000170 fa 03 9c 3d 4d 18 ae 3e 54 e7 e3 be 45 08 d6 be
       0.07617946 0.34002915 -0.44512427 -0.41803184
000180 d8 2a 80 bf 7c 2d 6d bd 41 38 36 be 13 5c 73 bf
       -1.0013075 -0.057904705 -0.17794897 -0.9506237
000190 43 e0 11 be b1 fb 57 3c 3e d2 8a 3e a8 f8 f8 bd
       -0.14245705 0.0131825665 0.27113527 -0.121568024
0001a0 07 e6 2f 3e 86 c3 09 be b0 4a c6 be 32 7a 95 bc
       0.17177592 -0.13453493 -0.38728857 -0.018246744
0001b0 c0 fd 89 3d c4 88 97 be b3 94 31 3e 7f 88 9b 3d
       0.06737852 -0.2959653 0.1734188 0.07594394
0001c0 7b c3 ef 3f fb 64 4a 3f 11 99 b7 be 39 78 43 3e
       1.8731531 0.79060334 -0.35858968 0.1908883
0001d0 93 f4 c2 3e b8 39 1f be 24 1f cc be ee 67 19 be
       0.3807722 -0.15549362 -0.39867508 -0.14981052
0001e0 b2 4d 1f ba 0a b2 15 bf eb e5 de be 57 e2 5c be
       -0.0006076946 -0.5847479 -0.43534788 -0.21570717
0001f0 8b 07 cf be 63 52 bb be 7a 5a a1 3d 7f ee 84 be
       -0.40435442 -0.36586294 0.07878585 -0.25963208
000200 25 7b 24 be 09 34 f5 bd 0f 1d 61 bd ee 72 de 3e
       -0.16062601 -0.119728155 -0.054959353 0.4344706
000210 5e 70 e2 be 89 14 60 3f c9 82 0c 3e 73 1f 43 be
       -0.44226354 0.87531334 0.13721766 -0.19054966
000220 1f 3c 2d be fc c3 f8 bd 09 66 1b be e5 63 a5 bc
       -0.16917466 -0.12146756 -0.15175642 -0.020189235
000230 17 9a d5 3d 4f 1b 16 3d 09 90 c7 3d 4b 4b a9 be
       0.10429781 0.036647137 0.097442694 -0.33065256
000240 7b 18 90 be 08 6a 13 bf 0d 45 96 be 28 24 c2 3f
       -0.28143677 -0.57583666 -0.29349557 1.5167284
000250 33 e6 53 3f 33 66 0c be ab 9c b5 be 93 52 4c bf
       0.8277313 -0.13710861 -0.3547109 -0.798135
000260 3d b1 a0 bc 38 ae 35 bf a5 ce ab 3d 2f 89 e6 3d
       -0.019615764 -0.7096896 0.08389024 0.112566344
000270 29 af a5 bd 48 95 11 3e ee ef 98 be 78 89 8f 3d
       -0.0809005 0.14217103 -0.29870552 0.07008642
000280 96 be e6 3e ed c2 0b bf 22 bb bd 3e 4f e5 87 bd
       0.4506728 -0.5459431 0.37056834 -0.06635534
000290 a6 4c 9d 3e 8d 5e 8e 3f 5f ce 22 3c 0f c7 ca 3e
       0.3072254 1.1122605 0.009936898 0.39604995
0002a0 fe d2 3e 3e 38 c0 7f be 0e 9f 9d 3d b1 0a 42 bd
       0.18635175 -0.2497567 0.07696353 -0.047373477
0002b0 5c 24 09 be a7 8d f8 bc 51 25 d8 3d 90 4e 03 bc
       -0.13392776 -0.030340983 0.105539925 -0.008014336
0002c0 a6 85 6a be 35 cf c5 3e f8 3c 80 3c b8 42 a5 bf
       -0.22902545 0.3863465 0.015654072 -1.2910986
0002d0 a4 d6 47 bf 59 5b b1 3d 18 22 4d 3e 68 9c 52 3f
       -0.7806189 0.08660001 0.20032537 0.82269907
0002e0 60 38 bc 3d e0 8b 41 3d dd 4d 80 3e bb 5a 1e bd
       0.0919044 0.047252536 0.25059405 -0.038660746
0002f0 54 b8 fa 3d 13 39 21 3d 0f aa 42 3e 08 d6 36 bc
       0.12242189 0.03936107 0.19010185 -0.011159427
000300 35 67 37 3e db 6f db bd c5 da 38 3e d6 3a 91 be
       0.17910464 -0.10714694 0.18052204 -0.283652
000310 8f 60 9a bd ad 5c a0 be ec ab 79 3d 5c ee b8 3e
       -0.07537948 -0.31320706 0.060954973 0.36119354
000320 3b 26 8b 3e 3a 2f ec 3d da d8 90 3e bc e1 93 3d
       0.27177605 0.11532445 0.28290445 0.0722079
000330 74 ac d3 bc ff 19 01 be a7 ca b3 ba 36 ec fd bd
       -0.025839068 -0.12607573 -0.0013717011 -0.12398569
000340 37 29 66 3e 18 37 18 3f da dd 3c be 9b 17 c3 bd
       0.2247666 0.59459066 -0.18444005 -0.09525987
000350 50 17 5c bd a3 cb d9 bd b2 11 cf be f7 df 4d 3e
       -0.05373317 -0.10634544 -0.40443188 0.20104967
000360 b2 4d c9 3c f1 24 a7 3e 98 ea 6e 3e af 09 f5 3c
       0.02457318 0.32645372 0.23331678 0.029911844
000370 17 3a 2f be 97 6e dc 3d 41 d8 47 be 45 df 83 bd
       -0.17112003 0.10763281 -0.19516088 -0.0643907
000380 9a 6c 80 3f e7 57 81 3d 84 df 5b 3f 48 a0 93 bd
       1.0033143 0.06315594 0.8588793 -0.072083056
000390 6a 8e 0e bf 69 0e e5 be 4d ce 57 bf fe 55 3e 3e
       -0.55686057 -0.44737557 -0.84299165 0.18587491
0003a0 51 7b 19 3d 50 8a 96 3d c1 51 4c bd 58 48 24 3e
       0.03747112 0.073506 -0.049882654 0.16043222
0003b0 91 c0 5d 3e 34 23 5d bd bf af 47 bc 10 ce 56 be
       0.2165549 -0.05398865 -0.012187897 -0.20977044
0003c0 6e 3e 8d 3e a2 ec 89 3f 31 b6 48 3d a6 72 96 bf
       0.27586693 1.077534 0.049001876 -1.1753738
0003d0 81 91 ba be bc db 00 be 8c 5b 0b bf b4 d7 9e 3e
       -0.36439136 -0.12583822 -0.54436564 0.31023943
0003e0 c3 c5 61 bd 9c 3e b2 bd 04 a7 ab bd 56 6d 0a bf
       -0.05512024 -0.08703348 -0.08381465 -0.54073083
0003f0 96 69 03 3e 4a 4e 6f be be b6 0e 3c 09 3d 11 be
       0.12833247 -0.23369709 0.008710561 -0.1418344

actor.0.bias f4 [64]
000000 eb d0 82 be b4 0d 4f be 5f 8c 02 bf 66 49 61 bc
       -0.25550017 -0.20220071 -0.5099544 -0.01375041
000010 f8 13 ad 3d 18 6f b4 be 26 a4 e3 be dc e3 3a 3d
       0.08451074 -0.35241008 -0.44461173 0.04562746
000020 88 2d 9b 3e b7 1d 2a 3e 27 c0 54 bd fd 58 5b 3d
       0.30308175 0.16612898 -0.051941063 0.053551663
000030 e1 09 e8 bc d3 6e 94 be b2 88 02 bf ee 6a 9d be
       -0.028325023 -0.28990802 -0.5098983 -0.30745643
000040 6e eb 15 3f 9c 13 24 3e d1 96 41 3e 51 b3 a4 3d
       0.5856236 0.16023105 0.18905188 0.080420144
000050 77 3f 38 3e 97 50 2f 3e 18 a6 a3 be 37 06 0c 3e
       0.1799296 0.17120586 -0.31962657 0.13674246
000060 27 92 14 bf b2 25 36 3f 18 e9 23 bd 5c 4c a5 be
       -0.5803551 0.7115127 -0.040017217 -0.3228482
000070 f0 64 46 bd 15 45 38 3e f9 bf fd bd e2 de c7 3e
       -0.048436105 0.17995103 -0.123901315 0.39037234
000080 3b 94 1f bf e3 b1 1b be 65 ee 98 3e e8 7f 9a bd
       -0.62335557 -0.15204577 0.2986938 -0.075439274
000090 2d 94 6c bd 1e dc eb 3d ca 23 ec be 70 78 3d be
       -0.0577585 0.115165934 -0.46121055 -0.18502975
0000a0 a3 65 d4 3d 21 e0 9f bd 26 94 08 3f 01 5c a0 bd
       0.10370948 -0.07806421 0.53351057 -0.07830048
0000b0 cd 2f c5 3c 0f 78 0c 3e 8a ff 39 be aa e7 52 3d
       0.024070645 0.13717674 -0.18163887 0.051490463
0000c0 21 3f de 3e b3 b2 f1 be e4 33 d0 3a eb 5d 55 be
       0.4340754 -0.4720665 0.0015884605 -0.20836608
0000d0 b4 a3 ca 3c 9f 06 30 be 97 0e 06 bf cd d3 9f be
       0.024736263 -0.17190026 -0.5236601 -0.3121628
0000e0 ce d0 c0 be e3 e3 b9 3c 4e 37 51 3e 18 af b7 3e
       -0.37659305 0.022691673 0.20431253 0.35875773
0000f0 6c 5f db bd 92 33 59 3e b4 ca 9b 3e 6c 38 f6 bd
       -0.1071156 0.21211079 0.30428088 -0.1202248

actor.2.weight f4 [64, 64]
000000 9c c3 bf bd 1a 7e a6 3d b8 d1 12 3e 0c 07 68 3c
       -0.093634814 0.08129521 0.14337814 0.014161836
000010 fc 2b 07 be ea 7a d6 3d 45 14 61 3e 72 e4 a7 bd
       -0.13200372 0.10472663 0.21980388 -0.08197869
000020 14 7b f1 3c 66 1c ce bd d5 eb c7 3e 41 f9 b4 3d
       0.029477634 -0.1006401 0.39047113 0.08836604
000030 34 69 9d bd e5 39 cd 3d c2 26 62 3d 32 3b 10 be
       -0.076860815 0.10020808 0.055212744 -0.14085081
000040 17 02 ac bb 9f ba c1 3d c5 f0 ec 3d a4 71 01 be
       -0.0052492726 0.09459423 0.11569361 -0.12641007
000050 da b6 06 be ee 9e c4 3d 10 78 17 be ca 7c 49 3d
       -0.1315569 0.09600626 -0.14791894 0.049191274
000060 a6 08 a5 3d fb 22 04 bf 85 54 7c be af 39 33 be
       0.0805829 -0.51615876 -0.24641617 -0.17502473
000070 b8 1f 47 be c5 fc 90 bd a9 60 16 bc 27 4d 1d bd
       -0.19445693 -0.07079462 -0.009178319 -0.038403656
000080 89 d4 6a be 37 2b 81 3e 3f 35 41 3d 62 4c 1d be
       -0.22932638 0.25228283 0.04716992 -0.15361169
000090 88 61 42 3e d3 35 18 bd de c7 7e 3e 92 8e 9d be
       0.18982518 -0.037160706 0.24880931 -0.30772835
0000a0 0e ac bf bc 1d ca bd bd 3a 48 62 3e cf 9e 9d 3d
       -0.023397472 -0.09267066 0.22097865 0.07696306
0000b0 c6 54 7f bc 11 9d f8 3b 6d b3 ef 3c e2 4d 08 3e
       -0.015584176 0.007587083 0.029260362 0.1331096
0000c0 f2 81 26 be 3c ac d3 3d 1a e1 a4 3d e1 41 46 be
       -0.16260508 0.103355855 0.08050747 -0.19361068
0000d0 3f 4f 08 3e 8b 83 43 bd 97 ae c7 be 7b 54 cb 3d
       0.1331148 -0.04773287 -0.3900039 0.09928223
0000e0 0e fd ce 3d e4 2c 61 be aa bd df 3c ea af 72 be
       0.1010686 -0.2198978 0.027312119 -0.23699918
0000f0 0c b5 53 be b8 46 2a 3c d5 ba 9a 3c e0 e8 a4 bd
       -0.20674533 0.010392837 0.018887917 -0.0805223
000100 6e 5a 46 3d e3 d6 e5 3d 52 34 9f bd 90 ef 28 3e
       0.048426084 0.11222627 -0.07773651 0.16497636
000110 35 14 f5 bd be a1 bb 3c f3 48 a5 bc 80 bc c4 3c
       -0.11966745 0.022904273 -0.020176386 0.024015665
000120 6b 75 5b 3d e9 a3 5c 3e 98 29 fa 3b 45 cd 0a 3d
       0.053578775 0.21546902 0.007634353 0.033887167
000130 b7 56 15 be 4c c7 16 3e 7e f2 76 3d e4 e0 00 be
       -0.1458386 0.14724463 0.060289852 -0.12585789
000140 9e 5b b4 bd a8 43 b4 bd a4 2d f4 3d f5 e6 b5 bc
       -0.08806537 -0.08801967 0.11922768 -0.022204855
000150 04 64 b3 3d 94 28 82 3b 68 66 eb 3d 1f 6a d7 3d
       0.08759311 0.0039721224 0.11494142 0.10518288
000160 dd f7 90 3c 38 d7 50 bd bc cd 63 bd 1c 9c cf bd
       0.017696315 -0.0509865 -0.055616125 -0.101371974
000170 6d f8 a3 bd 0a b3 23 3e d2 3a 34 be aa 7a 0f 3e
       -0.08006368 0.15986267 -0.17600563 0.14011636
000180 42 9a 94 3d 4f 8f 22 bd e1 0e 12 be ba 69 2f be
       0.07255985 -0.03968745 -0.14263488 -0.17130175
000190 b3 17 96 bd fb 24 29 be 18 82 6a 3d 10 a8 eb 3d
       -0.07328739 -0.16518013 0.057252973 0.11506665
0001a0 04 b2 39 be 4e 5f 2d bd cc db 39 3d 05 65 21 bd
       -0.18134314 -0.042327218 0.04537563 -0.03940298
0001b0 cd f3 f9 3d 9e ba a1 3d aa 2c a9 bd b3 e6 f0 bd
       0.122047044 0.078969225 -0.08260472 -0.117627524
0001c0 e4 35 56 be c2 02 2a bc f6 6f e3 3c 4d 18 a1 3d
       -0.20918995 -0.010376634 0.027763348 0.07865963
0001d0 1b dc 8e bd 13 c2 bd bc a8 93 45 bc 3a b5 4a 3e
       -0.069755755 -0.02316383 -0.01205913 0.19795695
0001e0 af 05 3a bd 9e d5 8b be c4 66 1a 3d a8 a7 37 3d
       -0.045415577 -0.27311414 0.03769566 0.044837624
0001f0 27 3e 3a 3e c1 3e 0d 3e 59 39 20 bd 7b 12 95 be
       0.18187772 0.1379347 -0.03911719 -0.29115662
000200 2b 61 21 3e 46 67 10 be 7c 37 3d bd ba 6e 7a be
       0.15759723 -0.14101896 -0.046195492 -0.24456301
000210 33 3e 21 3e 45 b3 42 be 42 4c 05 be aa 87 f6 bc
       0.15746383 -0.19013698 -0.13017371 -0.030093987
000220 36 44 aa 3d c1 fa 3d bc a7 44 87 be 3c fd 85 3d
       0.083137915 -0.011595429 -0.26419565 0.06542441
000230 9a 9b 17 bd 11 31 8a bd 61 73 b7 bc 6e 00 93 bd
       -0.037013628 -0.0674764 -0.022393884 -0.07177816
000240 37 88 8c be 62 0a 0e be 10 56 bc bd 4a d1 cd bd
       -0.27447674 -0.13871148 -0.091961026 -0.10049684
000250 25 46 be bd 3d 9e b4 3c 1a 92 1a 3e cc a7 bb bd
       -0.09290723 0.02204811 0.15094796 -0.09162864
000260 61 8f 4f 3d 13 9c 1a be 7e 60 8a 3d 66 6c 54 bd
       0.050673846 -0.150986 0.06756686 -0.05186119
000270 0c 15 5e 3e 0f 34 bd bc 12 7e 8a bc 9c 81 46 bd
       0.21687716 -0.023096113 -0.016905818 -0.04846345
000280 a7 f3 f5 3d a2 62 05 3e 27 8a 14 be c3 ac 5d be
       0.120093636 0.13025907 -0.14505826 -0.21647935
000290 2b e4 81 be 06 a1 06 bd 85 bd 05 be 68 75 f0 bd
       -0.2536939 -0.032868408 -0.13060577 -0.117411435
0002a0 89 5f db bd e6 41 d6 bd cc 8d 18 be 4b 06 f8 bc
       -0.10711581 -0.10461788 -0.14897841 -0.030276438
0002b0 4c e5 cb 3d 7b 24 1a 3d b9 98 98 3d 53 a5 de bb
       0.09955844 0.037632447 0.074510045 -0.0067946105
0002c0 29 aa fe 3c b3 d9 d7 3d e5 39 b6 3d 1b bb 5f 3d
       0.031086998 0.1053957 0.08897761 0.054621797
0002d0 0a 73 28 bd 8b 8e 01 be 5a 3d 61 3c bb f1 cc 3c
       -0.041125335 -0.12652032 0.0137475375 0.02501761
0002e0 19 8a 8b 3d 05 de bd 3b db 4b 16 be c5 c5 df 3c
       0.068134494 0.005794289 -0.14677374 0.027315984
0002f0 5c 42 95 bd 63 eb 3d bd 47 db 1c bd a2 1d 83 bd
       -0.07288048 -0.04636706 -0.038295057 -0.064021364
000300 46 fb 4d 3d a8 3a 91 3c ae 16 5e bd 15 62 8a be
       0.05028846 0.017728165 -0.054220848 -0.27027956
000310 cc 43 4d 3e 3a ca 8b 3e 4c e2 b5 3d 5f b1 3f bd
       0.20045394 0.27302724 0.08881053 -0.046800014
000320 83 17 0f 3d 7b 69 90 3e e3 05 87 bd 89 7a fc bd
       0.034934532 0.28205475 -0.0659292 -0.12328059
000330 6d 76 77 3d c0 a3 d0 bd ec 00 75 bc 4b fd 11 bb
       0.060415674 -0.10187483 -0.014953833 -0.0022276219
000340 bc 18 63 3d a5 df 89 ba db fd e8 3d 25 35 77 3e
       0.05544351 -0.0010518922 0.11376544 0.24141367
000350 fe dc e7 3d 04 5a 4d 3e 3b d8 e9 bd 40 cc d4 3d
       0.11321448 0.2005387 -0.11418196 0.1039052
000360 db 14 92 be 85 32 18 3e 66 51 93 3c 1c 11 20 be
       -0.28531536 0.14863022 0.01798315 -0.15631527
000370 f2 2f a1 bd 79 62 43 3d 62 13 5e 3e 5b 20 09 be
       -0.07870473 0.047701333 0.21687081 -0.13391249
000380 ef af 0d 3d c4 c5 d0 bc d1 57 a1 3d e1 f3 82 bd
       0.03459161 -0.025484927 0.07878078 -0.063941725
000390 77 68 95 3e 2d 4e 8f bd f9 43 d5 3c 54 77 c5 bc
       0.29181263 -0.06997333 0.026033388 -0.024104752
0003a0 1b 2e 1c 3d 4e 50 fd bc 18 22 e8 bc 66 7d a0 3c
       0.038129907 -0.030922081 -0.02833657 0.019591045
0003b0 b5 9e 68 bd 42 86 f3 bc c1 01 24 be 88 13 28 3e
       -0.05679198 -0.029727105 -0.16016294 0.164137
0003c0 ba cd 79 3c 15 a4 89 3d 38 4e 25 bd 21 d6 36 3d
       0.015246803 0.06720749 -0.0403578 0.044637803
0003d0 fc ee 80 3d eb 55 79 3d 31 be 47 3e cf ab a7 3d
       0.06295583 0.060872953 0.19506146 0.08187067
0003e0 b0 7b 91 3c de ca ea bd 5b 40 e1 3d 49 64 84 bc
       0.017759174 -0.11464475 0.10998603 -0.016161101
0003f0 4f 62 4b 3d d1 ca 48 3d 35 fa e8 3d 3a 06 85 3e
       0.0496543 0.049021546 0.11375848 0.25981313

actor.2.bias f4 [64]
000000 49 e7 87 be 3d ab 8f bd f3 ac fb bd 1d 86 cb 3d
       -0.26543644 -0.07015083 -0.12288847 0.099376895
000010 50 b8 4a be f2 67 69 be 31 5e ab bd cc 85 80 be
       -0.19796872 -0.22793558 -0.08367575 -0.2510208
000020 6d d5 5c bd 9b e7 27 be 71 73 b3 be 65 c0 64 be
       -0.053914476 -0.16396944 -0.35049012 -0.22339018
000030 2f 2d 42 be 71 31 b9 3d 32 aa d9 bd 34 bf 52 bd
       -0.18962549 0.09042633 -0.10628165 -0.051451877
000040 61 8b 3a be d4 8f d5 be c4 dd 55 be c8 58 7e be
       -0.18217231 -0.41711295 -0.20885378 -0.24838555
000050 0e 41 ce be 76 8b 62 be 57 84 28 be f5 62 83 bd
       -0.40284008 -0.22123513 -0.16456734 -0.06415359
000060 47 bb a0 be 6a 0b e8 be 1f 53 b3 be 51 4f 12 be
       -0.3139288 -0.45321208 -0.35024354 -0.1428807
000070 4f 8e 40 bd f0 5d 8f be 3b 48 1f 3e 1e b3 db be
       -0.047010716 -0.28001356 0.15554897 -0.42910093
000080 c8 7d cc bd ce cc de bd 35 c8 d2 be f3 4b 7a be
       -0.09984928 -0.10878907 -0.4116837 -0.24443035
000090 e2 3d f1 be dc d2 49 be 6e 91 45 be 2b 59 dd bd
       -0.47117525 -0.19709343 -0.19293758 -0.10808023
0000a0 83 b4 aa be 0b cb a7 be 78 bf d9 bd 73 05 5c 3c
       -0.33340845 -0.32772097 -0.10632223 0.013429034
0000b0 da 09 0e be e3 24 c7 be 84 41 a6 bc b7 a0 a1 bd
       -0.13870946 -0.3889533 -0.020294912 -0.07891982
0000c0 11 db 89 3c f4 f8 4d be 0a 67 4f be 8f c3 93 be
       0.016828092 -0.201145 -0.2025415 -0.28860137
0000d0 ff c9 4e be 0e 6d 55 be 6b a1 28 be 86 a7 b0 be
       -0.20194243 -0.20842382 -0.16467826 -0.3450281
0000e0 82 ce 77 bd 75 e8 3b be 80 42 f9 bd 8b 3a ea be
       -0.060499676 -0.18350394 -0.12170887 -0.4574779
0000f0 24 ca af be a7 70 83 be 9b f0 03 be 5f f5 3f 3d
       -0.3433391 -0.25671884 -0.12884752 0.046864863

actor.4.weight f4 [7, 64]
000000 e7 39 68 bd 14 7b 94 3c e2 cd 2c bd 4d 36 8f bc
       -0.056695845 0.018125094 -0.042188533 -0.017481947
000010 41 28 95 3d c3 50 23 bd 28 44 07 3e 83 46 5a bd
       0.072830684 -0.039871942 0.13209593 -0.0532899
000020 aa 2a 8f 39 e7 8e 69 3c a0 6b a4 3b cb ab 51 3e
       0.00027306873 0.014255262 0.0050177127 0.2047569
000030 df a7 36 3d df b3 9f 3b 15 98 97 bc 65 e6 20 3d
       0.044593688 0.004873737 -0.018505136 0.03928222
000040 4c bd 81 3d 13 20 98 bd b2 bb 73 3c 2a 72 3d 3c
       0.06334934 -0.07427993 0.014876293 0.011562863
000050 a7 f4 8c bd a3 88 3b bd 31 0b aa bc fd aa 87 3e
       -0.06882601 -0.045784604 -0.02075729 0.2649764
000060 10 91 93 bd d8 a0 43 3e 13 97 36 3a 58 9d 40 3d
       -0.07205403 0.19104326 0.0006965261 0.047025055
000070 91 05 3f bd 2b cf 00 3e 95 ba a8 ba 17 ae 41 3e
       -0.046636168 0.12579028 -0.0012872989 0.18914066
000080 ff f2 cd 3d ab 24 b7 bc 6a 71 c4 39 b4 38 29 3d
       0.100561135 -0.022356352 0.00037468533 0.041313842
000090 6d ae 0e be 3d 8b 8f bd 12 ac b7 bd 78 8a 66 3c
       -0.13933726 -0.070089795 -0.08968367 0.014071099
0000a0 43 48 da 3d f5 60 b2 3d 25 79 08 be ce 01 bb 3b
       0.10658314 0.08709899 -0.13327463 0.0057070022
0000b0 90 f6 5a bd 40 6b bf 3c 2f 4f 85 3d e8 79 f7 3c
       -0.053457797 0.02336657 0.06509244 0.030209497
0000c0 de 8e 80 3d 61 e5 d8 bb 9d 41 d6 3d d3 33 aa 3d
       0.0627725 -0.006619141 0.104617335 0.08310666
0000d0 0f 98 94 bd b8 19 a4 bd 24 13 53 3c 26 a0 8e bb
       -0.072555654 -0.08012718 0.012882981 -0.0043525873
0000e0 44 cf 10 be 9e 05 3a be cb 26 00 3d 88 d3 38 be
       -0.14141566 -0.18166205 0.031286996 -0.18049443
0000f0 f4 ac 8c 3e 8c 18 3f 3e 92 00 41 3d b1 8e d0 3c
       0.27475703 0.18661708 0.047119685 0.025458666
000100 2a 33 d4 bc 18 1d 9b bc 60 74 bc 3c b3 c6 76 3d
       -0.025903303 -0.018934771 0.02300471 0.060248088
000110 0e 5b 85 bd c6 45 a1 3c e7 bf 4d 3d ab fa 92 bc
       -0.06511508 0.01968659 0.05023184 -0.017941793
000120 bc e7 a4 bb 3d 75 1d 39 a4 93 99 bd 1e 31 92 bd
       -0.0050325077 0.00015016361 -0.07498863 -0.071382746
000130 35 1a 21 3b 30 bd 9a 3b 66 35 bb bd 41 cc c6 bb
       0.002458227 0.00472226 -0.09141044 -0.0060668294
000140 54 9a 6d bd bd 84 15 be af 27 cb bc df 2d 1d 3d
       -0.058008507 -0.14601417 -0.024799196 0.038373824
000150 cd d0 3d be f4 d9 1f 3d e6 15 62 bd 32 5b 42 bd
       -0.18536682 0.039026216 -0.055196665 -0.047450252
000160 54 21 3b bd 0d 66 25 3d f3 1f ae bd 67 aa 78 bc
       -0.04568608 0.040380526 -0.085021876 -0.015177346
000170 75 45 ed 3c 8c a1 89 3d fd 4a ee 3d fe 6a 87 3d
       0.028963784 0.06720266 0.11635397 0.06612204
000180 4b 60 21 3e aa 1a 04 bd 73 e9 62 be 75 8b b3 bd
       0.15759389 -0.03225199 -0.22159366 -0.08766834
000190 d9 b4 51 be a0 28 5d be 9e a6 2a 3a 8e 03 0a 3c
       -0.20479144 -0.21597528 0.0006509813 0.008423699
0001a0 8b ae 01 be 6c 94 5a be 7b 60 93 bd e5 b0 1d 3c
       -0.12664239 -0.21345681 -0.071961366 0.0096246945
0001b0 10 d6 00 3c d1 b3 0c be bb 97 8f 3c 11 cb 01 3d
       0.0078635365 -0.1374047 0.017528405 0.0316878
0001c0 8d 1d cb 3c e5 3c 19 bd 7a 96 f2 3d 4d 97 68 3c
       0.024794364 -0.03741159 0.118451074 0.014196229
0001d0 e4 85 8c 3d 8e 8c d9 bd 77 f9 85 3d b3 6f 64 bd
       0.06861475 -0.10622512 0.06541722 -0.055770587
0001e0 cd 8d 20 3d 70 64 ff bd 67 51 8a bc 4b b4 ad bd
       0.03919773 -0.12470329 -0.016884519 -0.08481654
0001f0 11 c5 ed 3c a2 d4 9c bd 55 d2 ae 3d 8c 83 88 bc
       0.029024633 -0.07657744 0.085362114 -0.016664289
000200 00 f4 d8 3d 13 2a 7a 3c 82 c1 05 bd 79 d5 d0 bc
       0.10593414 0.01526882 -0.032655247 -0.025492417
000210 70 18 40 3d 55 18 08 bc 20 7b 97 bd db 5a 32 bd
       0.046898305 -0.008306582 -0.07396531 -0.043543678
000220 59 94 62 ba 56 16 08 3d 24 41 06 be 47 e2 17 be
       -0.00086433213 0.033224426 -0.13110787 -0.14832412
000230 6e b2 ae 3c 4a 87 63 3c fc 32 0b be 3d fc 53 bd
       0.021325316 0.013887236 -0.13593668 -0.051754225
000240 e0 ad 0d be b2 bd aa 3c 03 c1 11 3d 7c d7 91 3d
       -0.1383586 0.020842407 0.03558446 0.071211785
000250 4b 73 94 bd 7d 41 52 3d ab af d8 bc 13 3d 9c 3d
       -0.07248553 0.051331986 -0.026450953 0.076288365
000260 18 d9 fe 3b 5d fe 0b 3e 54 80 b8 3d 3c 62 25 bc
       0.0077773444 0.1367125 0.09008852 -0.010094222
000270 40 08 ab 3c 45 53 25 be 6b 59 ab bc e7 8d a7 3e
       0.020877957 -0.16145046 -0.020916661 0.3272545
000280 0c d1 ce 3d 9a 8d 3f bd 43 02 51 3c 9d 57 f9 bd
       0.10098466 -0.0467659 0.012756887 -0.12174914
000290 fa f1 dd 3b c4 63 41 3d a0 e9 de bd 8e ed d1 bd
       0.0067732306 0.047214285 -0.10884404 -0.10250388
0002a0 8a bf 07 3e fd 5d 39 3e 10 e2 7e bd 13 be da 3c
       0.1325666 0.1810226 -0.06222731 0.026701963
0002b0 d5 a7 af 3c c3 0e b2 3c 49 24 9d 3c 26 2c 34 bd
       0.021442333 0.021735555 0.019182341 -0.043987416
0002c0 aa e8 93 bd 01 b7 6f bd de 90 2b 3e 9b ea f8 bc
       -0.072221115 -0.058524136 0.16754481 -0.030385306
0002d0 75 86 1a bd 2f 66 7f bd ae 51 21 3c 6b 68 8e 3d
       -0.037725884 -0.06235331 0.009846134 0.0695351
0002e0 a8 ad a2 bc f1 01 e1 bc e5 89 47 38 35 12 97 be
       -0.019858196 -0.027466746 4.757372e-05 -0.29506078
0002f0 f4 49 5f 3e 1b 8a cc 3e 98 99 82 bd 6a 1f f9 bb
       0.21805555 0.39949116 -0.06376952 -0.007602622
000300 17 e3 a6 bd 2c 63 09 3c 30 68 ac 3c 3b 3b 6e bd
       -0.08148783 0.008385461 0.021045774 -0.058161955
000310 04 1e 36 bd 7a fa 63 bd 52 04 23 3e c3 ed 8e 3d
       -0.04446222 -0.055658795 0.15919617 0.06978943
000320 df 05 de bb 9e bc ee 3b 8c dd 1c 3e da 11 f1 3d
       -0.006775602 0.0072856685 0.15318888 0.11770983
000330 11 a8 79 bc 4d 62 2a 3d 4e fc 83 be 79 b5 76 39
       -0.015237824 0.041597653 -0.2577843 0.00023527992
000340 d9 d7 b6 3d 35 68 36 bc 5c 0f 6e 3b cd dc 40 3d
       0.089278884 -0.011133243 0.0036325073 0.047085572
000350 1b 59 a0 bd f7 4f 34 3c ce 53 ec 3c e8 9f 87 3c
       -0.078294955 0.011005393 0.028848555 0.016555741
000360 9a 42 be 3c a7 9d f9 3b 39 b7 41 3e 75 c4 86 bc
       0.023225117 0.0076176706 0.1891755 -0.0164511
000370 93 a9 6b bd 26 5e 12 3e aa 7b 66 bd 96 43 d1 3c
       -0.057534765 0.14293727 -0.05627028 0.025544923
000380 ca 44 91 be 42 98 d3 3b f2 dc 6a bd 2a 18 38 be
       -0.28372794 0.0064573595 -0.057339616 -0.17977968
000390 f2 b7 f7 3d 72 78 8c 3d 60 60 b1 bd 16 94 5c bd
       0.12095632 0.068589106 -0.0866096 -0.053852163
0003a0 f2 22 37 be 51 ae 38 bd 4a 42 7c be bf e8 fa 3b
       -0.17884424 -0.045088116 -0.24634662 0.00765714
0003b0 58 d6 66 3c 94 6d cb bd f2 fe cb 3c 25 43 1e 3d
       0.0140891895 -0.0993301 0.02490184 0.038638253
0003c0 6e dc c2 bd ff 93 4a be da 3f 3f bd 3c 3f 6d bd
       -0.095147 -0.19783019 -0.046691753 -0.057921633
0003d0 f3 3b a2 3d 32 49 a4 3a 53 c9 09 be b2 e6 40 bd
       0.07921591 0.0012534021 -0.13455705 -0.04709501
0003e0 0b 46 aa bd 75 91 22 bc d3 ae c1 bd c8 d5 69 be
       -0.08314141 -0.009922375 -0.09457173 -0.22835457
0003f0 de 84 1b 3c f5 4e 3d 3e 9e 66 09 ba d8 2c 0b 3c
       0.009492127 0.18487151 -0.00052414264 0.008494578

actor.4.bias f4 [7]
000000 43 39 0b 3d 99 a8 2b 3e a5 2b 32 be fb ac cf 3d
       0.033990156 0.16763534 -0.17399462 0.10140415
000010 dd f3 10 3e 4a cb 56 be a5 98 86 3d
       0.14155526 -0.20975986 0.065720834

critic.0.weight f4 [64, 32]
000000 55 98 2c be da c4 63 bd 69 75 b8 bd db f4 54 3e
       -0.16854985 -0.055607654 -0.09006769 0.2079653
000010 93 ef 84 bd 9a 66 91 3c 20 37 37 be 2e f0 0c 3e
       -0.06491008 0.01774912 -0.17892122 0.13763496
000020 96 57 3a bd 2f ee da 3c 38 cd 08 bc 11 b2 a5 3d
       -0.045493685 0.026724903 -0.008349709 0.08090604
000030 d8 df ad bd 4f 33 11 3d 1d 3d b2 3c fc 1d 93 bc
       -0.084899604 0.035449322 0.021757657 -0.017958634
000040 81 a8 ec 3d 33 65 a2 3d 1a 32 14 be e2 00 6d 3f
       0.11555577 0.079294585 -0.14472237 0.9257947
000050 62 c1 61 3e 07 de 34 3d 22 32 e9 bd 87 b3 a3 be
       0.22046426 0.044157054 -0.11386515 -0.31972906
000060 c3 8b fd bd 8b a7 88 3c e5 da ba 3b 4c 33 bb bd
       -0.12380173 0.016681453 0.005702364 -0.091406435
000070 08 21 09 3d 11 d2 ee bd 75 f2 b4 bd 1c d5 59 3d
       0.033478767 -0.11661161 -0.088353075 0.053181753
000080 93 fd 01 bd 99 b9 78 3d 86 6b 9f 3d df b9 cf bc
       -0.031735968 0.060723875 0.0778418 -0.025357185
000090 e9 41 15 3e 36 65 08 3e 70 09 2c 3e aa d5 e6 bc
       0.14575924 0.13319859 0.16800475 -0.028178055
0000a0 7c 12 0e 3c 14 a3 54 bc 40 f4 73 bc 7b be 9e bd
       0.008671399 -0.012978334 -0.014889777 -0.07751175
0000b0 5c 6c 45 3c 7f 46 76 bd 10 ef d6 bd 81 dc 6d 3d
       0.012049761 -0.060125824 -0.10494816 0.058071617
0000c0 77 8a ec 3b 46 7b 79 3e 40 2e b9 3d 8f fc 31 bf
       0.0072186547 0.24363431 0.090420246 -0.69526
0000d0 51 45 19 3d aa a0 8d 3d 72 1d 72 3e 01 5f 1b 3e
       0.03741962 0.0691541 0.23644045 0.1517296
0000e0 fc b9 1c bc 15 bc c1 bc 65 d6 91 3d 84 f1 22 3b
       -0.0095658265 -0.023649255 0.07120971 0.0024863193
0000f0 3a 7e 6c bc 01 83 2b 3d 66 f7 b6 3d a9 6f a7 bd
       -0.014434392 0.041872982 0.08933906 -0.08175594
000100 61 c7 0e 3c 73 6d d1 3d 1e e9 b3 bd c7 86 92 bd
       0.008714528 0.10225954 -0.08784698 -0.07154613
000110 55 fb a5 3d b9 5f a1 bd bc 35 fc bd cc 5a 18 bd
       0.081045784 -0.07879586 -0.123149365 -0.037195966
000120 8c eb 98 3d 32 ae eb bd b7 21 40 3d 0d 0c 15 bd
       0.07466802 -0.115078345 0.046907153 -0.036388446
000130 6c f2 29 bc 43 d6 62 3d 51 1b 90 bd 92 07 60 3d
       -0.010372739 0.055380117 -0.0703646 0.05469472
000140 9b ba 52 3e 06 af 84 3d 9b fb 77 be 70 2c ed be
       0.20578997 0.064786956 -0.24217074 -0.46322966
000150 24 74 43 3d e3 48 60 3d 9c ab 9e 3c be bb ba bd
       0.047718182 0.05475701 0.01936894 -0.0911784
000160 93 e8 b3 bd f6 f9 08 3d 00 27 29 3d 31 1b 79 bd
       -0.087845944 0.033441506 0.04129696 -0.060816947
000170 84 35 c0 3d 95 46 3f bd aa ec d2 bc d4 ac 43 bd
       0.09385207 -0.04669817 -0.025747616 -0.047772244
000180 4f ac 22 be 0f 82 a0 3d 99 91 3c bd 6c 4a 8c be
       -0.15886043 0.07837307 -0.04603729 -0.2740053
000190 de d8 79 3d dc 33 91 3d dd aa db 3d 8e 18 4c 3e
       0.060997836 0.070899695 0.10725949 0.19931242
0001a0 5b 33 4b 3d 41 da 3e bd 1b 81 85 bc 0c 87 84 bd
       0.049609523 -0.046594862 -0.016296914 -0.06471071
0001b0 e6 30 de 3c b6 9d 28 3c 45 3a 4e bb 1b af 5e bc
       0.027122926 0.0102915075 -0.0031467837 -0.013591553
0001c0 6c 51 91 3d 01 09 83 3e b0 78 64 be c2 03 42 bf
       0.07095608 0.25592807 -0.22311664 -0.75786984
0001d0 8c b4 8f bd 92 c6 fd bd 0d ba 81 bf f3 d0 57 3e
       -0.070168585 -0.1239139 -1.0134903 0.21075802
0001e0 22 44 25 3e 09 c7 3d bc 0b 5f 67 bc 52 ad 2a 3c
       0.16139272 -0.011583098 -0.014121781 0.010417299
0001f0 88 ee 3e bd 50 96 2a bd c9 65 0a 3d db 03 8a 3d
       -0.0466142 -0.041647255 0.033788476 0.067390166
000200 a1 41 87 be fd 9d ea bd 87 e8 e6 bc ec bd 9c 3d
       -0.26417258 -0.11455915 -0.02818705 0.07653412
000210 3f 8e db 3e f4 12 12 3d f9 5b 85 3e 5b b6 e3 3d
       0.42881963 0.035662606 0.26046732 0.11118766
000220 c4 86 3d 3d 45 44 cb bc 25 0c 1d 3b 1e 52 97 3b
       0.0462711 -0.024812827 0.0023963538 0.0046179434
000230 6b e9 a3 bc 5a ab d7 bb a1 99 18 3b 69 81 0a bd
       -0.020008763 -0.006581706 0.002328493 -0.03381482
000240 75 e1 bf bd 9c a0 e0 ba 4e 67 b0 3e f7 44 27 be
       -0.093691744 -0.0017137709 0.34453815 -0.16334902
000250 ba d2 38 bd 2e 2d 24 3d 75 8f 1c bf 37 75 8a 3e
       -0.04512284 0.04008215 -0.611564 0.27042553
000260 b6 47 11 be b8 6b c1 3b be 21 33 bc 42 25 f0 bc
       -0.14187512 0.0059027337 -0.010933338 -0.02931464
000270 99 be bc 3c 72 5c 44 3c 25 93 04 bd de 3e c6 3d
       0.023040103 0.011984931 -0.03236689 0.0967996
000280 4a 63 9d bd 5e 20 95 bd 70 7c de bd 6e b5 54 bd
       -0.076849535 -0.07281564 -0.10863578 -0.051930837
000290 9e 2e 94 3d 77 f3 16 3e 1e 75 93 bd 64 65 8b bd
       0.07235454 0.14741312 -0.07200073 -0.06806448
0002a0 59 7d d6 3d d1 46 6b 3d 70 0f 45 bd d7 44 cd 3c
       0.10473127 0.057440583 -0.048110425 0.02505724
0002b0 e5 b2 c9 3b 61 9e 88 bc 3c 3e 01 bc 06 16 9d 3c
       0.006155359 -0.016677083 -0.007888373 0.01917554
0002c0 55 0e 9c 3d e1 21 d1 bd f1 28 d8 be fd 30 70 be
       0.07619921 -0.1021154 -0.42218736 -0.23456188
0002d0 8e b5 a6 be b6 ca 1a be bd ea 07 3f b3 8f d2 3e
       -0.3256039 -0.1511639 0.5309256 0.4112526
0002e0 e9 9d 91 3d 41 42 8a bd b7 d4 a7 3d 7f f3 c2 3c
       0.07110197 -0.06750918 0.08194869 0.023797749
0002f0 52 db 81 3b 10 5b dd 3c 1f 6e cd 3c 6d 65 9d bd
       0.0039629126 0.027020961 0.025076924 -0.07685361
000300 09 cd 2b 3e 14 f5 23 3e f3 d0 06 3d ad 15 94 bd
       0.16777433 0.16011459 0.032914113 -0.07230697
000310 41 10 b8 bc 9b 4f 3c 3d 8c be 2b be 66 ed 0b be
       -0.022468688 0.045974355 -0.16771907 -0.13664779
000320 be af 8a 3d 52 86 89 3d fc 51 79 bc ec 80 3c 3d
       0.067718014 0.06715073 -0.0152173005 0.046021387
000330 c9 89 a7 bb fa c5 b5 3b 1e 61 ef bb 4a 3f 8b 3a
       -0.005112861 0.0055472823 -0.0073052784 0.001062372
000340 c5 d7 b5 3d fe 61 41 bd 76 1d 72 3e 69 54 22 c0
       0.088790454 -0.047212593 0.23644051 -2.536402
000350 32 1d ae 3d f0 21 11 3e 9b aa 45 bf ad fb 85 3d
       0.08501662 0.14173102 -0.7721345 0.06542144
000360 c8 62 1e bd 9f ec 60 bd 99 3a f4 3c 23 c7 0b 3d
       -0.038668424 -0.05491316 0.029813098 0.03412546
000370 73 49 a4 bc 19 d9 02 bc 03 43 fc 3c ae 35 45 bd
       -0.020054555 -0.00798633 0.030793672 -0.048146896
000380 60 e0 37 3d ca 10 de 3d f1 50 33 bd 25 b8 3c be
       0.044891715 0.10843046 -0.043778364 -0.1842962
000390 64 95 1c be 06 1a 5a be a3 50 03 be d2 16 1a 3e
       -0.15291363 -0.2129899 -0.12823729 0.15047768
0003a0 02 f4 bd 3d a9 17 5f bc 29 59 e9 3c 30 e4 8b 3c
       0.092750564 -0.013616481 0.028484898 0.017076582
0003b0 42 72 0a 3c d9 f9 34 3d 9c 03 a5 3c 7f c4 49 3d
       0.008450093 0.044183586 0.020143323 0.04925966
0003c0 55 5f 22 be 9f ab bb bd b5 e6 8c 3d c0 42 ba 3d
       -0.15856679 -0.091635935 0.068799414 0.09094763
0003d0 44 79 d9 bd a6 46 02 3e 2f 59 0d bf 17 34 85 bc
       -0.10618833 0.12722263 -0.5521421 -0.01626019
0003e0 75 e6 07 3e 11 b4 5e bd 5e ff 72 bd da 14 75 ba
       0.13271506 -0.054370943 -0.05932557 -0.00093491154
0003f0 fe 99 e8 bb 90 22 0e bd 31 88 02 3c d6 d2 07 bc
       -0.0070984354 -0.03470093 0.007967041 -0.008290013

critic.0.bias f4 [64]
000000 b7 e8 36 3e e3 47 2b be 43 eb b7 bd 0f 9a 14 be
       0.17862211 -0.16726641 -0.089804195 -0.14511894
000010 dd 5f 1f bc 45 87 18 be 39 68 8a bc 82 36 20 3d
       -0.009727445 -0.14895351 -0.0168954 0.039114483
000020 4b 66 a5 bd 21 ef e2 bd 80 f5 15 3d b3 3b 96 3d
       -0.080761515 -0.110807665 0.03661108 0.073356055
000030 7a a0 3e bd 20 1c b1 bd c8 6e cc 3d 3d 41 0b bd
       -0.04653976 -0.086479425 0.09982067 -0.033997763
000040 d6 aa 8a bd 5d 73 03 3e 55 40 03 bd 6a 9e d0 3d
       -0.067708656 0.12836976 -0.032043774 0.10186465
000050 da ee e0 3d 0e aa 04 bd b4 1f 11 3e 9c d1 17 bd
       0.10983057 -0.03238874 0.1417225 -0.037065133
000060 89 da ff 3c 7d 6c 0c 3c a4 0a 0d 3d db 43 04 bd
       0.031232135 0.0085707875 0.034433976 -0.032291275
000070 5c f7 fe bc 7f 68 38 3e 20 e1 d3 bd 81 1d 64 3d
       -0.03112381 0.18008612 -0.103456736 0.0556922
000080 ac f2 ce bd f8 60 94 bd 57 b3 82 3d fe 33 03 be
       -0.1010488 -0.07245058 0.063818626 -0.12812802
000090 af d5 03 bd 89 3f 32 3e 50 70 a3 bd eb 4d a0 bc
       -0.032186206 0.17407049 -0.07980406 -0.019568404
0000a0 80 8f 8b 3d 42 c4 02 3e d8 d4 45 3d 8a c7 30 be
       0.0681448 0.12770179 0.048298687 -0.17263618
0000b0 01 14 1a be 27 10 99 3d fa 82 c5 bd da b4 ab bd
       -0.15046693 0.07473784 -0.096441224 -0.08384104
0000c0 12 b0 0e bd 39 74 52 3a b5 ff 01 be 86 11 a0 bd
       -0.034835882 0.0008028183 -0.126952 -0.07815842
0000d0 34 c4 9e 3d 34 ec b8 bd e7 2f 06 be c1 90 5d bd
       0.077522665 -0.09029427 -0.13104211 -0.054093126
0000e0 31 37 ba 3d ad 26 26 bd e2 c2 88 bd 62 3d 99 bd
       0.09092558 -0.040564228 -0.06677796 -0.07482411
0000f0 14 f8 0a bd 1d fb b3 3d 58 42 c3 3d a4 48 99 bd
       -0.033927992 0.087881304 0.095341384 -0.07484558

critic.2.weight f4 [64, 64]
000000 40 3b 05 3e 40 87 6a 3c 45 62 0c 3e 0f 3b ae 3c
       0.13010883 0.014314473 0.13709362 0.021268396
000010 90 35 c6 bc 8f fe a5 3c 13 ca cd 3d 21 06 ce bd
       -0.024195462 0.020262985 0.10048308 -0.10059763
000020 d6 20 2c be 9c b6 b4 be 69 ab 1c be df d8 64 3e
       -0.16809401 -0.3529557 -0.15299763 0.22348355
000030 08 87 03 be b7 5c 14 3e ea 52 20 be e6 77 82 3d
       -0.12844479 0.14488493 -0.15656629 0.06370525
000040 63 35 6a be d0 6c fc 3e a9 b3 01 bf 33 ef 6c be
       -0.22871928 0.49301767 -0.50664765 -0.23138122
000050 fe 61 25 bf bd fc e0 3e c5 23 94 bd fb 66 26 be
       -0.6460265 0.43942824 -0.07233385 -0.16250221
000060 42 c0 a1 bd cf b0 76 3e cf 65 3e 3e 47 12 3f be
       -0.078979984 0.24090885 0.18593524 -0.18659316
000070 6b f7 bf 3d f6 cc be 3e a7 c2 18 3e 92 38 14 be
       0.09373363 0.37265748 0.14918004 -0.14474705
000080 58 88 d0 3c 95 83 e0 3d 8a 84 e3 3c 69 2a e2 3c
       0.025455639 0.10962597 0.02777316 0.027608113
000090 41 ba a3 be 35 df 3c be 87 2a b9 bd b9 6f 96 bd
       -0.31978038 -0.18444522 -0.090413146 -0.07345528
0000a0 a5 c0 9e 3d 24 a2 53 3e 94 70 ab bd 46 13 7a 3d
       0.07751588 0.2066732 -0.08371082 0.061053537
0000b0 12 55 a2 bb 79 7c a2 39 95 4a 3a 3e 6b be 95 3e
       -0.004953989 0.00030991787 0.18192513 0.2924684
0000c0 7f 56 dd be d6 c2 7c bc 38 e7 c1 bd 14 27 e0 3e
       -0.43230054 -0.015427312 -0.094679296 0.43779814
0000d0 25 92 0c be 01 7d 0b 3d 96 74 fa bd a6 50 24 3c
       -0.13727625 0.03405476 -0.12229268 0.010028994
0000e0 9c 17 4e be cb 81 da bd ff 3a 5b 3d 46 61 f6 3c
       -0.20126194 -0.10669287 0.05352306 0.03007568
0000f0 52 1a 7a be fc 6a dc bc 8a b4 22 3c 12 4a ed bd
       -0.24424103 -0.026906483 0.009930739 -0.115863934
000100 2f 4f a1 bd ae 32 b5 bd 98 b6 04 bc f0 b7 59 3d
       -0.07876431 -0.08847557 -0.008100174 0.053153932
000110 57 cf 73 bc 97 54 92 3d 2d e8 00 bc 54 c7 50 bd
       -0.014880977 0.071450405 -0.007867855 -0.050971344
000120 ea dc aa bd 7e b5 1e bd df 19 0c 3e e2 74 9c 3d
       -0.08342917 -0.038747303 0.13681744 0.07639481
000130 f5 4b 16 3e 48 6b 94 3b 60 80 b1 3d 9a c9 d9 bc
       0.14677413 0.0045293905 0.08667064 -0.026585389
000140 17 9c 32 3e df ba 90 bd ee a0 66 3b 35 0f 0f be
       0.17442356 -0.07066893 0.0035191136 -0.13970645
000150 03 0d dd ba 6e 85 4b 3d 70 d4 64 bd 16 6d f7 3c
       -0.001686484 0.049687795 -0.05586666 0.030203383
000160 75 7f 0b 3e 2a 9a 5a 3d 80 1f 98 3d 0c c2 90 3d
       0.1362284 0.05336968 0.07427883 0.070682615
000170 dc 8b 6c 3d ff ab 02 be ac 01 82 3d f6 7d 15 3d
       0.057750568 -0.12760924 0.06347975 0.03649708
000180 f1 4b 43 3d ce 9d 1c be 1c d3 92 3c 1a 37 14 be
       0.047679845 -0.15294573 0.01792293 -0.14474145
000190 68 1b 84 bd 55 e5 37 bd 79 f1 1c 3d 15 29 f1 3d
       -0.0645054 -0.044896442 0.038316224 0.11775414
0001a0 fb c1 21 3d 64 fc a5 3b f2 f5 96 3d b9 80 04 3e
       0.039491635 0.0050654877 0.07371129 0.12939729
0001b0 fa 5e 21 3d 82 bc a2 bd b2 41 01 bd 42 13 1b 3d
       0.039397217 -0.07946111 -0.031556793 0.037860163
0001c0 52 80 b6 bb e2 da ca 39 85 8b 19 3d 8d 82 60 bd
       -0.005569496 0.00038691523 0.03748657 -0.054812003
0001d0 85 25 42 bd 0c e0 19 be e2 5b e9 bb 28 57 74 bc
       -0.047399063 -0.15026873 -0.007121549 -0.014913358
0001e0 51 e3 25 3d 54 3e 7f 3c 80 a0 97 3c c5 ab a5 3d
       0.04049999 0.015578825 0.01850915 0.08089403
0001f0 ff 24 cf 3d a7 84 94 3d c3 3d b9 3d 78 02 ab 3d
       0.10114478 0.07251864 0.09044983 0.0835008
000200 2d 6d 7e 3d 31 ab 88 3d 70 63 a0 bc 19 b6 c3 bd
       0.062115837 0.06673277 -0.019578665 -0.09556217
000210 ea 2d 96 3d 58 57 00 3c d6 a5 9a bd d4 eb e6 3d
       0.07332976 0.007833324 -0.07551162 0.112754494
000220 70 d6 0c bd a2 f3 57 3d 76 7e 61 bd 07 83 65 bd
       -0.03438419 0.05272258 -0.055052243 -0.05603316
000230 ba 22 e7 bd 52 0c 8c 3d ca 67 1a 3c 99 2b d8 3d
       -0.112859204 0.068382874 0.009424159 0.105551906
000240 7f 22 88 3d f5 e0 fa 3d 73 12 3a 3d f6 a1 e8 3c
       0.066472046 0.122499384 0.04542775 0.028397541
000250 12 c1 29 3d 9c 5a 87 bd 30 ea ab bc 5c 5d a4 bd
       0.04144389 -0.06609079 -0.020985693 -0.080256194
000260 0b fa c6 bc 66 ef d6 3d 47 b0 d1 3b c1 80 7f bd
       -0.024289152 0.104948804 0.0063991877 -0.06237865
000270 6e 49 44 bd 28 51 b6 3d e0 58 81 3d ae 00 9d 3c
       -0.04792159 0.08902198 0.0631578 0.019165363
000280 94 7a ec bb 4e 0a 61 bd b3 5c 7b 3d 5d 52 be bc
       -0.007216761 -0.054941468 0.0613677 -0.023232633
000290 b4 ff bc 3d 51 f1 9e 3d 29 da 52 3d c0 cc bd 3c
       0.09228459 0.07760871 0.051477585 0.023168921
0002a0 79 df 29 bd 2c e4 ac bd 87 a6 2b bd 2c a4 6c bd
       -0.041472886 -0.08441958 -0.04190686 -0.057773754
0002b0 91 de d9 bd 39 ed 07 bd 55 19 80 bc 47 4d d9 bd
       -0.10638154 -0.033185218 -0.01563708 -0.106104426
0002c0 53 ce bb bb 95 5d c3 3d 76 22 a1 3d 27 4c b2 bd
       -0.005731383 0.09539334 0.07867901 -0.08705931
0002d0 a7 c5 ba 3d 4e 15 b3 3d 9e 61 0d 3e fe de 79 3c
       0.091197304 0.08744298 0.13806769 0.015250919
0002e0 8f c5 4a 3d 73 c2 66 3c 47 54 b2 3d 17 1a 5c bd
       0.049504813 0.014084446 0.08707481 -0.05373582
0002f0 2f ee c2 3d 3d 9e 9d 3d 56 f2 80 3d 37 bb fb 3b
       0.09518086 0.07696197 0.06296222 0.00768223
000300 20 b6 3d bd 13 00 de bc 35 8d 3b 3d 8a 63 96 bc
       -0.046316266 -0.027099645 0.045788962 -0.01835801
000310 8a ce da bc 3d b2 bc bd 6c 98 fb 3c 8b 00 85 3d
       -0.026709814 -0.09213684 0.030712329 0.06494244
000320 41 06 ac 3c 1a 67 9d 3d ba d0 05 bd 70 3c cc 3d
       0.020999076 0.07685681 -0.03266976 0.09972465
000330 22 b5 b2 bc 87 dd f6 bd cd 67 d8 3d b9 61 54 3d
       -0.021814886 -0.12053972 0.105666734 0.051851008
000340 6a c1 38 3c 44 17 98 bb 8c 35 25 3d 4c 42 04 3e
       0.011276582 -0.0046414454 0.04033427 0.12915915
000350 24 02 e2 bc ce ed 21 3e c9 97 45 3d 54 79 b0 3d
       -0.027588911 0.15813372 0.048240457 0.086168915
000360 63 fa 0d bd 39 8c ac bd e5 fb b8 3c 47 5a d5 bd
       -0.034662616 -0.08425183 0.02258105 -0.1041761
000370 fc 58 e6 bd d3 3b 17 3d e6 85 52 bd 56 b3 73 3d
       -0.11247441 0.036922287 -0.051397227 0.0594972
000380 88 2c bf bc 74 bd 64 bd ab 16 5e bb 26 5c ee 3c
       -0.023336664 -0.05584474 -0.0033888023 0.029096674
000390 39 1a fd 3d d3 49 e9 bd 4b d0 3d bd 9c 2f d6 bc
       0.12358517 -0.11391034 -0.04634122 -0.026145749
0003a0 ad 0d c8 3d 37 4f 3f bd 07 b6 3c 3a 7c 89 f6 3c
       0.097682334 -0.046706405 0.0007198755 0.030094855
0003b0 06 00 f3 3c 03 31 4a bc 41 b5 68 3c 98 3f 4d 3d
       0.029663097 -0.012340787 0.014203371 0.050109476
0003c0 8c 4b d0 bd 4f af 15 3e ba 98 d3 3d 59 a8 64 3b
       -0.101706594 0.14617656 0.10331865 0.0034890382
0003d0 7e b5 e1 bd ef 22 01 bc be 04 58 bd ca e9 36 3d
       -0.11020945 -0.007881864 -0.052738898 0.044656552
0003e0 82 18 e0 3d 83 35 90 bc ba 6d af bd 3b 7d f2 3d
       0.109421745 -0.017603641 -0.085658506 0.11840292
0003f0 2b aa 13 3d c3 c5 1b bd 69 36 b9 bc f2 6c 9e bd
       0.036050957 -0.038030397 -0.022608953 -0.077356234

critic.2.bias f4 [64]
000000 89 03 24 3d 02 0a a6 bd 21 00 e8 bc 16 33 fc bd
       0.040042434 -0.081073776 -0.028320374 -0.12314431
000010 34 84 93 3d f1 04 23 bd 07 e0 88 bd ad 1d 25 3e
       0.0720295 -0.039799634 -0.06683355 0.16124602
000020 fe 37 4c 3e 2b f3 75 3d 70 9d c2 3c cf 5b 76 be
       0.19943234 0.060046356 0.023756713 -0.2405846
000030 6c 75 f0 bd f6 b9 c4 3c da ab 55 3c 4b 0f 08 3e
       -0.117411464 0.024014454 0.013041461 0.13287084
000040 02 21 b0 3d af 1e 03 be 1d 48 bd bd 6a c5 8d 3d
       0.08600046 -0.12804674 -0.0924227 0.06922419
000050 06 ae c4 bd d9 c7 a8 bd da 3f 40 3b 46 68 43 3a
       -0.09603505 -0.08241243 0.0029334933 0.00074541976
000060 85 4e 9f bd 97 33 c7 3c 20 8b 46 be b5 1d b4 bc
       -0.07778648 0.024316592 -0.1938901 -0.021986822
000070 08 af 9d bd 00 73 8b 3c 96 68 ba 3d 0d a5 57 3d
       -0.076994 0.01702261 0.091019794 0.05264764
000080 42 2a 09 3c 0d 63 35 3e 2d 3d f4 3d 0d 7c e5 3d
       0.008371891 0.17713566 0.11925731 0.112053014
000090 98 bb 2d bc 22 a0 b9 3c 4d 94 14 be e9 86 00 be
       -0.010603808 0.022659365 -0.14509697 -0.12551464
0000a0 d1 bc 7b be d8 55 18 bd 21 6e a1 3d 4c 25 5b 3e
       -0.24583746 -0.037191242 0.078823335 0.21400946
0000b0 00 c5 62 3d ac 72 a4 bd eb 5b c1 3d be 40 25 3a
       0.055363655 -0.080296844 0.0944136 0.0006303898
0000c0 b4 d7 1f 3e 82 c2 a1 bd 46 dc 12 3e c0 37 61 3d
       0.15609628 -0.078984275 0.1434184 0.054984808
0000d0 c7 36 8a bc a1 da 8a bd 8d 57 f7 3c e0 d2 23 bd
       -0.016871823 -0.067799814 0.030193115 -0.039996028
0000e0 46 fb ed bd 98 04 b5 bd c3 a7 0d bd 7e 04 57 3c
       -0.11620192 -0.08838767 -0.03458382 0.01312363
0000f0 32 d4 de bd bb ef 35 bd f4 a4 7d bd b6 d7 a6 3c
       -0.10880317 -0.044418078 -0.06192489 0.02036653

critic.4.weight f4 [1, 64]
000000 5b d2 a0 bd 11 92 40 ba b0 ae 3b 3a 73 73 c3 b9
       -0.07852622 -0.00073459843 0.00071595144 -0.00037279315
000010 85 dd 3f 38 ee a0 2e b8 75 a1 b3 bb bf f3 12 ba
       4.5744255e-05 -4.163471e-05 -0.0054818937 -0.0005605779
000020 0d 62 45 bd a0 7f 5e b9 5c 57 38 ba e6 d9 07 3e
       -0.04818921 -0.00021219114 -0.00070320605 0.13266715
000030 6f df 15 bb 24 3a 50 39 99 d0 d5 ba 0c ae 90 bd
       -0.0022868773 0.00019858085 -0.0016312777 -0.07064447
000040 5f 69 76 3a c5 ed 0b 3e 4d 89 81 b9 c7 06 ee 39
       0.0009399857 0.1366492 -0.00024707094 0.00045399947
000050 db 06 55 ba 4d 46 85 3a 57 d9 04 3d 9b f3 25 ba
       -0.0008126327 0.0010168046 0.032433834 -0.00063305505
000060 31 db ad 3a 48 70 48 ba 90 a3 05 3d 37 5f b1 38
       0.0013264177 -0.0007646126 0.03262669 8.457753e-05
000070 51 92 1a 3b 8c 6c 60 bb 99 19 51 3a c6 53 d6 3a
       0.0023585747 -0.0034244386 0.00079765316 0.0016351871
000080 0b 3b 01 bb d7 bd b1 bd 71 3a cf 3a cd a4 32 3a
       -0.001971903 -0.08678787 0.0015810264 0.00068147184
000090 ca 4b 19 ba 4e 97 01 bc bf b3 2f bc 10 8e c9 bb
       -0.000584778 -0.007909609 -0.010724007 -0.0061509684
0000a0 b8 bb 93 3d 50 dd 9a 3c 49 76 32 38 d7 88 1a be
       0.07213539 0.018904358 4.254867e-05 -0.15091263
0000b0 24 d8 a2 bb d2 0d 05 3e 19 74 d1 b9 60 7a c2 bb
       -0.0049696136 0.12993553 -0.00039950086 -0.0059349984
0000c0 97 32 34 bd 42 7d 6d 3b a0 6e 58 3b 99 76 f0 ba
       -0.04399356 0.003623799 0.0033024922 -0.0018345892
0000d0 f4 bf 5a bb ce d3 ac 38 ec 7a 5e ba aa f6 f3 b9
       -0.0033378573 8.241051e-05 -0.0008486945 -0.0004653235
0000e0 f1 4a 77 ba 47 43 31 bb ae 86 b1 bb fc 6c 16 ba
       -0.00094334694 -0.0027048157 -0.0054176664 -0.0005738286
0000f0 ad 84 bd 3a 04 3a e6 3d c8 ae 3a 3a 7a d9 05 bb
       0.0014459096 0.11241534 0.00071213813 -0.0020423816

exp_avg f4 [7]
000000 c1 a7 8a 3a db 7b 4b bb 5a e4 a4 ba 9a 19 05 bb
       0.0010578559 -0.0031049165 -0.0012580261 -0.002030945
000010 77 4d 81 3a 3f 20 ea b9 35 df 30 ba
       0.0009865005 -0.00044655983 -0.00067471276

exp_avg_sq f4 [7]
000000 32 4e e8 38 8d 9c df 38 85 a3 bf 38 ef 42 e3 38
       0.00011077187 0.000106626285 9.1380476e-05 0.00010836671
000010 38 21 10 39 b4 14 b7 38 74 99 20 39
       0.00013745285 8.729976e-05 0.00015315955
