logs/rsl_rl/franka_reach/2025-06-16_20-11-58/model_450.pt (torch, 172795 bytes, 36 tensors)

std f4 [7]
0.2033442 0.16461302 0.18629654 0.18864596 0.18164879 0.21102986 0.20394814
00000000: 7639 503e 5190 283e 85c4 3e3e 682c 413e
00000010: 2402 3a3e 3618 583e c8d7 503e

actor.0.weight f4 [64, 32]
-0.29860175 0.26220205 -0.44910693 0.4339661 0.05978244 0.19702058 0.12390845 0.41087058
0.64890766 -0.058490343 0.23842673 0.18647861 0.1252363 0.088304505 -0.11920423 -0.1332008
-0.60177034 -0.033405595 -0.7121056 -0.12996908 0.76187897 -0.02055007 -0.67308146 0.04489696
-0.14136218 -0.07778838 -0.25854155 -0.2559155 0.10382169 -0.32737392 -0.0075151245 -0.23704326
0.07245286 0.09378643 -0.30115846 0.83815575 0.8115692 0.3081008 0.06955978 -0.14567418
0.24145748 0.13238674 -0.15477555 0.44806346 -0.07947425 0.0050699036 0.14422998 0.1607679
0.22068244 -1.097626 -0.91209126 -1.9576316 -0.48894057 0.14275229 0.30818376 0.26708186
0.057104137 0.100264594 0.061888926 -0.13711894 0.115938626 -0.11813406 0.06667437 -0.012356668
0.68981355 -0.19483218 0.8368433 -0.23872611 0.23652506 -0.007399082 0.288382 0.62969273
0.8881233 -0.09226313 -0.0019881069 -0.16464089 0.08533325 0.05383344 0.05187492 0.0967191
-0.47268686 0.744745 0.021137144 -1.8027289 0.36116478 -0.04052213 -0.24705702 0.084301434
-0.09149112 -0.0644282 0.092432104 -7.2060975e-05 0.04063352 0.3461744 -0.4842745 -0.4846814
-1.0600291 0.028911425 -0.019192206 -0.76658845 -0.06674862 -0.46432838 0.26933646 -0.031374156
0.15170045 -0.1780657 -0.38796347 -0.04387412 0.28832254 -0.28799784 -0.14427187 -0.007556898
0.81689024 0.39407507 -0.15958624 0.33335635 0.4712962 -0.15559755 -0.5361166 -0.15167831
-0.0016935208 -0.47139874 -0.25570488 -0.10179184 -0.3624381 -0.39856654 0.12370498 -0.3245178
-0.033901867 -0.123206526 0.08127531 0.34123456 -0.59369856 0.965285 0.104555085 -0.19416189
-0.1896493 -0.1133201 -0.21802224 0.0086460225 -0.001981299 -0.10520898 0.013651422 -0.09779809
-0.20479777 -0.633161 -0.39736578 1.9135087 0.8723074 -0.13786547 -0.28823256 -0.78774065
-0.017964441 -0.5896854 0.014506913 0.1381322 -0.15494837 0.08457507 -0.31909552 0.0037829562
0.4710564 -0.5520343 0.43486083 -0.15953411 0.32342568 1.2217203 0.012995169 0.37140805
0.09849598 -0.1062934 0.09439553 -0.11792686 -0.085526034 0.050389897 0.06006585 -0.15874442
-0.09773119 -0.7505051 0.08117363 -1.2715881 -0.78948903 0.08284454 0.06343529 0.9326453
0.08861485 0.2342916 0.25515252 0.096309766 0.07761801 0.030500093 0.09085319 -0.05075567
0.10557123 0.035342056 0.054571673 -0.53096575 -0.117794774 -0.46890238 0.10200669 0.23196232
0.10555164 -0.043271717 0.059282437 0.040890716 -0.3425559 -0.037049588 0.087219864 -0.13755028
1.0028929 0.05839041 -0.15460713 -0.11941305 0.020994516 -0.10793966 -0.44777215 0.37838805
0.02494439 0.22020878 0.3743784 -0.1123611 -0.09800276 0.097971626 -0.07965403 -0.11893639
0.98614544 0.0015578046 1.1030245 -0.29052758 -0.4395419 -0.41849414 -0.77546144 0.22805601
0.11802784 0.081437245 0.0063122124 0.27937403 0.30607203 0.17117774 -0.015981212 -0.22726566
0.66958493 0.12688667 0.023903107 -1.8350366 -0.5927687 -0.12178677 -0.56843317 0.14386486
-0.056530695 -0.19574824 -0.084818475 -0.5679725 0.045092437 -0.11841041 -0.007057539 -0.018807435
00000000: 54e2 98be 593f 863e 58f1 e5be ce30 de3e
00000010: 6fde 743d c3bf 493e b7c3 fd3d a15d d23e
00000020: d01e 263f 9293 6fbd 2326 743e 40f4 3e3e
00000030: f23d 003e fed8 b43d 5921 f4bd ca65 08be
00000040: 9f0d 1abf 4ed4 08bd 8d4c 36bf 9d16 05be
00000050: 800a 433f 9f58 a8bc 114f 2cbf e0e5 373d
00000060: 3fc1 10be 844f 9fbd 8f5f 84be 5b07 83be
00000070: 77a0 d43d 8e9d a7be 6f41 f6bb 78bb 72be
00000080: 2a62 943d 1a13 c03d 7131 9abe 6091 563f
00000090: 00c3 4f3f 63bf 9d3e 5c75 8e3d 9d2b 15be
000000a0: a140 773e 6490 073e 7b7d 1ebe 9368 e53e
000000b0: 65c3 a2bd 6f21 a63b 06b1 133e 57a0 243e
000000c0: 94fa 613e 027f 8cbf d07e 69bf ac93 fabf
000000d0: 6b56 fabe a82d 123e 43ca 9d3e f4be 883e
000000e0: 07e6 693d 8657 cd3d 3e7f 7d3d e868 0cbe
000000f0: 3b71 ed3d 45f0 f1bd 928c 883d 9f73 4abc
00000100: 9f97 303f 1682 47be 5d3b 563f 9e74 74be
00000110: a033 723e 0074 f2bb cea6 933e 8b33 213f
00000120: 0c5c 633f 74f4 bcbd e64a 02bb 9f97 28be
00000130: 33c3 ae3d 7480 5c3d cc7a 543d aa14 c63d
00000140: 0304 f2be 9ca7 3e3f ce27 ad3c d2bf e6bf
00000150: 97ea b83e 88fa 25bd 84fc 7cbe 3ba6 ac3d
00000160: b25f bbbd eff2 83bd 0b4d bd3d 711f 97b8
00000170: 556f 263d c53d b13e d4f2 f7be 2928 f8be
00000180: 09af 87bf a7d7 ec3c f938 9dbc 243f 44bf
00000190: 80b3 88bd 73bc edbe 78e6 893e 3082 00bd
000001a0: 5d57 1b3e db56 36be 26a3 c6be 59b5 33bd
000001b0: 039f 933e 7474 93be 01bc 13be db9f f7bb
000001c0: b81f 513f 35c4 c93e 936a 23be afad aa3e
000001d0: bc4d f13e f754 1fbe f03e 09bf 8f51 1bbe
000001e0: 21f9 ddba 2d5b f1be c0eb 82be 3d78 d0bd
000001f0: 7d91 b9be ea10 ccbe 0959 fd3d 3227 a6be
00000200: afdc 0abd b453 fcbd ab73 a63d 4cb6 ae3e
00000210: a1fc 17bf eb1c 773f fa20 d63d 60d2 46be
00000220: 6d33 42be 5e14 e8bd 3941 5fbe 0ca8 0d3c
00000230: aed8 01bb ce77 d7bd 37aa 5f3c 5d4a c8bd
00000240: 82b6 51be d716 22bf 8773 cbbe daed f43f
00000250: 8a4f 5f3f 9b2c 0dbe 3893 93be 5fa9 49bf
00000260: 2a2a 93bc 9ff5 16bf 67ae 6d3c 8772 0d3e
00000270: c9aa 1ebe b235 ad3d 7d60 a3be 79eb 773b
00000280: 4e2e f13e 1f52 0dbf 14a6 de3e e95c 23be
00000290: 0d98 a53e 5561 9c3f b0e9 543c 3229 be3e
000002a0: 43b8 c93d 5bb0 d9bd 7252 c13d a383 f1bd
000002b0: 4628 afbd a365 4e3d 9c07 763d e68d 22be
000002c0: 4a27 c8bd 1a21 40bf 5c3e a63d 66c3 a2bf
000002d0: f41b 4abf 66aa a93d 5cea 813d d8c1 6e3f
000002e0: b47b b53d 23ea 6f3e 5aa3 823e 0e3e c53d
000002f0: 31f6 9e3d 55db f93c 3d11 ba3d 2de5 4fbd
00000300: bb35 d83d d5c2 103d 8c86 5f3d 5fed 07bf
00000310: 633e f1bd f913 f0be e2e8 d03d 8887 6d3e
00000320: 752b d83d af3d 31bd 24d2 723d 067d 273d
00000330: 7d63 afbe 4fc1 17bd 54a0 b23d fbd9 0cbe
00000340: cb5e 803f c82a 6f3d 5551 1ebe d48e f4bd
00000350: b1fc ab3c 780f ddbd 6442 e5be 14bc c13e
00000360: 2d58 cc3c 697e 613e 87ae bf3e 941d e6bd
00000370: acb5 c8bd 59a5 c83d a721 a3bd ec94 f3bd
00000380: 0774 7c3f 402f cc3a e82f 8d3f 08c0 94be
00000390: a30b e1be dd44 d6be a484 46bf 8487 693e
000003a0: 95b8 f13d 92c8 a63d add6 ce3b 1d0a 8f3e
000003b0: 79b5 9c3e 3849 2f3e 08eb 82bc 54b8 68be
000003c0: eb69 2b3f 94ee 013e 73d0 c33c 7be2 eabf
000003d0: b1bf 17bf 586b f9bd d684 11bf 4f51 133e
000003e0: bb8c 67bd 3a72 48be 4fb5 adbd a566 11bf
000003f0: d9b2 383d 2881 f2bd ee42 e7bb 0d12 9abc

actor.0.bias f4 [64]
-0.24222024 -0.15417738 -0.640364 -0.0062455107 0.11040015 -0.31427357 -0.37718582 -0.03229836
0.3663632 0.2539481 -0.10436227 -0.015973436 -0.12161434 -0.24262469 -0.63599014 -0.2959672
0.6601024 0.21225356 0.2627369 0.14655632 0.14406067 0.21863303 -0.31757236 0.14721121
-0.6524965 0.6935978 -0.070185415 -0.4076707 -0.10495273 0.16192864 -0.17592424 0.4495448
-0.70661736 -0.21735677 0.32756227 -0.052047595 0.02477982 0.053197384 -0.53657985 -0.29324552
0.106843434 -0.049316525 0.5499831 -0.18331467 0.0749906 0.08959972 -0.2519336 -0.01399075
0.45944262 -0.52237105 0.049930423 -0.21267171 -0.0011676741 -0.2365802 -0.5648619 -0.30818418
-0.42383823 0.01838202 0.13607545 0.27684873 -0.06405635 0.294207 0.27916875 -0.085931
00000000: 9508 78be ade0 1dbe e5ee 23bf 24a7 ccbb
00000010: 7919 e23d 77e8 a0be 801e c1be 494b 04bd
00000020: f593 bb3e 7c05 823e e3bb d5bd b9da 82bc
00000030: f010 f9bd 9b72 78be 40d0 22bf 0389 97be
00000040: 79fc 283f ff58 593e 7385 863e dc12 163e
00000050: a484 133e 56e1 5f3e d898 a2be 89be 163e
00000060: 030a 27bf a08f 313f 5fbd 8fbd 37ba d0be
00000070: 75f1 d6bd 9fd0 253e 7c25 34be bc2a e63e
00000080: e0e4 34bf c692 5ebe 3eb6 a73e dc2f 55bd
00000090: 0dff ca3c 80e5 593d 4c5d 09bf 4724 96be
000000a0: bbd0 da3d 2000 4abd b1cb 0c3f d7b6 3bbe
000000b0: ac94 993d 0f80 b73d 71fd 80be 7539 65bc
000000c0: 103c eb3e 1cba 05bf d883 4c3d 9dc6 59be
000000d0: a40c 99ba 1442 72be ca9a 10bf 51ca 9dbe
000000e0: 5301 d9be e495 963c 5d57 0b3e 1ebf 8d3e
000000f0: fa2f 83bd 4da2 963e 35ef 8e3e 98fc afbd

actor.2.weight f4 [64, 64]
-0.13840939 0.13957861 0.44219744 0.2087082 -0.116134845 0.2781412 0.2704104 -0.09176752
0.17138703 -0.11950898 0.121231824 -0.05782706 0.03035746 0.30226603 0.18189408 -0.041355852
-0.038781133 0.16236588 0.07823761 -0.03969736 -0.15667011 0.3060222 -0.08633647 -0.01750216
0.06153168 -0.81144935 0.021697862 -0.33356154 -0.2721531 -0.063792996 -0.1306188 -0.32014328
-0.30172765 0.2550348 0.1954013 -0.50261796 0.038682025 -0.03343706 0.37574142 0.03507433
0.06881039 0.09088904 0.2507096 -2.4480629e-05 0.04121932 0.024967045 -0.19338202 0.19791979
-0.17856555 -0.0562369 -0.25384685 -0.43023285 -0.029294208 -0.030793792 -0.40150556 0.14755642
-0.012987682 -0.17892732 0.088192694 -0.46868315 -0.05670872 0.08358345 0.14426616 -0.15930821
0.07170674 0.26304966 -0.012672816 0.16555068 -0.17898569 0.019738173 -0.015229426 0.076383784
0.05603224 0.24705192 0.055810172 -0.054361258 -0.081621416 0.2919358 0.1340335 -0.08751289
-0.09973463 -0.04916516 0.06604258 -0.004241295 0.07379547 0.045689154 -0.002122991 0.07530704
0.060863532 -0.024174038 -0.0667438 -0.033195674 -0.19033365 0.034764886 -0.1416406 0.18075693
0.18379314 0.045158233 -0.17007105 -0.22308575 0.011393882 -0.06701447 0.076258644 0.16169246
-0.2582583 -0.22371599 -0.0073110363 -0.042454205 0.05923285 0.052615106 0.058380775 -0.13042797
-0.29738408 -0.006454081 -0.09278063 0.28369656 -0.055203907 -0.015660979 0.028758349 0.13307744
-0.013606303 -0.34518975 0.023328183 0.21818832 0.15899679 -0.0074324836 0.09657075 -0.31269342
0.34832683 -0.08315189 -0.36580965 -0.3703093 0.28373766 -0.3400593 -0.11671401 -0.054992348
-0.025298847 -0.037453637 -0.19111153 0.11439839 0.025691163 0.072246626 0.2099235 0.10810148
-0.2779322 -0.059512988 -0.03992131 -0.070622295 -0.10131099 0.18069184 0.2668641 -0.09709142
0.1768022 -0.23528038 -0.27377695 0.011109957 0.11810173 0.005575603 0.07468556 -0.27517244
0.25985584 0.26565275 0.01921354 -0.16000444 -0.3119705 -0.24866432 -0.1376144 -0.1091963
-0.054973964 -0.18531942 -0.20433722 -0.052414753 0.28307715 0.046260953 0.14809053 -0.12512437
0.18683355 0.13013624 -0.0021005394 0.21378438 0.20254135 -0.19980828 0.08930615 -0.025758952
0.07191709 -0.022763442 -0.36034602 0.0071718176 -0.00097376364 -0.0609072 -0.21441288 0.02215764
0.04772404 0.030541625 -0.2136237 -0.34654534 0.1683161 0.26015028 0.11254885 -0.06148671
0.092417546 0.296355 -0.13396804 -0.09171656 0.0213383 -0.1426409 -0.10943926 -0.04188521
0.04732074 0.05204198 0.08228349 0.18907742 0.14139156 0.00093296997 -0.10545596 0.109485984
-0.40413404 0.19408005 -0.064505376 -0.19229071 -0.02572626 0.13775286 0.09843776 -0.031085078
0.12547545 -0.14071804 -0.13533966 -0.16147271 0.38542256 -0.0069410093 -0.0056911516 0.03634818
0.097589836 -0.044595953 0.04065061 0.044258922 -0.12979136 0.019292016 -0.016042471 0.21270832
-0.059043422 0.07121821 -0.15414838 0.12028915 -0.07258944 0.024353515 0.1627989 -0.004663611
0.17152904 -0.07596396 0.11081229 0.17061535 0.016445676 -0.009177113 0.164702 0.12058394
00000000: 31bb 0dbe b2ed 0e3e b467 e23e 9ab7 553e
00000010: 1bd8 edbd 8668 8e3e 3b73 8a3e 9cf0 bbbd
00000020: 1580 2f3e 20c1 f4bd 6448 f83d 11dc 6cbd
00000030: 35b0 f83c 9dc2 9a3e 7142 3a3e c164 29bd
00000040: f7d8 1ebd 3e43 263e 0a3b a03d b399 22bd
00000050: 216e 20be f1ae 9c3e 2dd1 b0bd b160 8fbc
00000060: a508 7c3d 25bb 4fbf b7bf b13c 94c8 aabe
00000070: a757 8bbe e7a5 82bd efc0 05be d2e9 a3be
00000080: 0c7c 9abe ec93 823e 4717 483e 92ab 00bf
00000090: 0b71 1e3d 4cf5 08bd 2e61 c03e 1aaa 0f3d
000000a0: 76ec 8c3d 0824 ba3d 025d 803e c05b cdb7
000000b0: 97d5 283d b087 cc3c f005 46be 7cab 4a3e
000000c0: e3d9 36be aa58 66bd 37f8 81be 7b47 dcbe
000000d0: 68fa efbc 4343 fcbc 2392 cdbe 0819 173e
000000e0: 49ca 54bc b938 37be 5f9e b43d 3df7 efbe
000000f0: 6747 68bd cd2d ab3d 82ba 133e b121 23be
00000100: fcda 923d 72ae 863e a5a1 4fbc 1e86 293e
00000110: 0648 37be f3b1 a13c d884 79bc 1a6f 9c3d
00000120: 1082 653d 2efb 7c3e 3599 643d e9a9 5ebd
00000130: 2129 a7bd 9c78 953e 1440 093e f539 b3bd
00000140: ab41 ccbd 6861 49bd 5541 873d 90fa 8abb
00000150: 1422 973d 8d24 3b3d e121 0bbb 943a 9a3d
00000160: 0a4c 793d a208 c6bc f9b0 88bd 30f8 07bd
00000170: d3e6 42be a065 0e3d 3c0a 11be 5818 393e
00000180: 4534 3c3e d7f7 383d 1b27 2ebe 9770 64be
00000190: 68ad 3a3c e23e 89bd 7e2d 9c3d b592 253e
000001a0: 6f3a 84be ce15 65be 6b91 efbb 76e4 2dbd
000001b0: 259e 723d f082 573d ae20 6f3d e98e 05be
000001c0: ba42 98be c17c d3bb c503 bebd ad40 913e
000001d0: 7e1d 62bd 744b 80bc a196 eb3c 7445 083e
000001e0: f9ec 5ebc b6bc b0be bf1a bf3c c26c 5f3e
000001f0: 0ed0 223e 318c f3bb e3c6 c53d 5a19 a0be
00000200: e557 b23e 8a4b aabd 674b bbbe 2e99 bdbe
00000210: 1046 913e 411c aebe c107 efbd a83f 61bd
00000220: 873f cfbc fc68 19bd beb2 43be b449 ea3d
00000230: 4676 d23c 0af6 933d 30f6 563e 4f64 dd3d
00000240: 214d 8ebe e4c3 73bd 8784 23bd 6ca2 90bd
00000250: 237c cfbd 4807 393e 69a2 883e ded7 c6bd
00000260: a30b 353e 57ed 70be 7e2c 8cbe 8906 363c
00000270: 52df f13d 8cb3 b63b bef4 983d 67e3 8cbe
00000280: d30b 853e a303 883e b765 9d3c 34d8 23be
00000290: 99ba 9fbe dca1 7ebe caea 0cbe 4fa2 dfbd
000002a0: 612c 61bd 60c4 3dbe c73d 51be dab0 56bd
000002b0: 7def 903e 207c 3d3d 0ba5 173e 9a20 00be
000002c0: 4b51 3f3e 6f42 053e 34a9 09bb 4bea 5a3e
000002d0: 0067 4f3e 8b9a 4cbe 25e6 b63d 7004 d3bc
000002e0: 4449 933d 667a babc 467f b8be 9101 eb3b
000002f0: 2c44 7fba d479 79bd 0d8f 5bbe f083 b53c
00000300: 487a 433d 6e32 fa3c 2cc0 5abe 646e b1be
00000310: 0e5b 2c3e 6b32 853e 0380 e63d 7dd9 7bbd
00000320: 6945 bd3d d8bb 973e eb2e 09be e4d5 bbbd
00000330: a9cd ae3c 7510 12be b121 e0bd d38f 2bbd
00000340: 64d3 413d f929 553d 3f84 a83d 839d 413e
00000350: f3c8 103e 8e92 743a 4bf9 d7bd 303a e03d
00000360: a8ea cebe ecbc 463e 651b 84bd dbe7 44be
00000370: e1bf d2bc 160f 0d3e bc99 c93d 22a6 febc
00000380: a37c 003e 6418 10be 7b96 0abe 1a59 25be
00000390: 1b56 c53e 6871 e3bb d77c babb d4e1 143d
000003a0: 2edd c73d 3faa 36bd 4181 263d d848 353d
000003b0: 07e8 04be 4a0a 9e3c 806b 83bc 36d0 593e
000003c0: 84d7 71bd dada 913d 13d9 1dbe 285a f63d
000003d0: c6a9 94bd 0681 c73c c1b4 263e 34d1 98bb
000003e0: 4fa5 2f3e fe92 9bbd 8ef1 e23d cab5 2e3e
000003f0: 15b9 863c 9a5b 16bc a4a7 283e b6f4 f63d

actor.2.bias f4 [64]
-0.40722415 -0.05350606 -0.13509113 0.1343254 -0.2399881 -0.29823792 -0.10480992 -0.36945668
-0.080918044 -0.24231291 -0.35589936 -0.25235537 -0.23418523 -0.01231949 -0.15256855 -0.0906431
-0.2947947 -0.58632433 -0.21955433 -0.32542148 -0.46310803 -0.26261035 -0.25674865 -0.054049823
-0.35105273 -0.55801874 -0.37972653 -0.20678851 -0.07726283 -0.29542732 0.22354542 -0.41003272
-0.12679125 -0.16943654 -0.5468066 -0.45455346 -0.5703975 -0.38577077 -0.15510674 -0.19954753
-0.47735798 -0.3231502 -0.13313027 -0.038612563 -0.23211734 -0.4906831 -0.0035407676 -0.15362957
-0.038072504 -0.30509973 -0.2094732 -0.46053573 -0.33214945 -0.22760925 -0.373549 -0.36006323
-0.14126708 -0.29089552 -0.23035146 -0.44654134 -0.33444092 -0.25690478 -0.22220904 0.03155311
00000000: af7f d0be 2c29 5bbd 5455 0abe 998c 093e
00000010: 71bf 75be a4b2 98be 95a6 d6bd 6d29 bdbe
00000020: 5cb8 a5bd e020 78be 7138 b6be b934 81be
00000030: 41ce 6fbe b0d7 49bc ee3a 1cbe 17a3 b9bd
00000040: 55ef 96be 5a19 16bf dad2 60be a59d a6be
00000050: 7f1c edbe dd74 86be 8f74 83be 5963 5dbd
00000060: 2fbd b3be 51da 0ebf 846b c2be 5ec0 53be
00000070: fa3b 9ebd 4042 97be 17e9 643e cfef d1be
00000080: 91d5 01be c680 2dbe 84fb 0bbf 3bbb e8be
00000090: 9205 12bf bf83 c5be 4dd4 1ebe 3056 4cbe
000000a0: 4468 f4be f173 a5be 4d53 08be 3528 1ebd
000000b0: 2bb0 6dbe d13a fbbe 390c 68bb 1251 1dbe
000000c0: eaf1 1bbd 0836 9cbe 2480 56be 57cb ebbe
000000d0: 7e0f aabe 6612 69be d141 bfbe 355a b8be
000000e0: 51a8 10be 42f0 94be 41e1 6bbe 11a1 e4be
000000f0: d73b abbe 0689 83be c48a 63be d53d 013d

actor.4.weight f4 [7, 64]
0.061644066 -0.00070541643 -0.052137 0.028236058 0.09341684 -0.028236864 0.007802506 0.0019603989
0.0073478166 0.019488899 0.050991815 0.05208294 0.013945542 0.019366909 0.021019632 -0.03793677
0.089980744 -0.12189177 -0.025985612 -0.037831552 -0.011751176 0.04532518 0.04423276 0.13745153
0.009979822 0.10496994 0.011291096 -0.008502717 -0.045230497 0.034577213 -0.019870898 0.17734955
0.19834849 -0.087340094 0.004119819 -0.005316133 -0.068691395 -0.046500903 -0.12041556 0.110240184
0.09519702 0.17814486 -0.089158304 -0.03918109 -0.13659278 0.09767301 0.03597715 0.0009965874
0.00015481774 -0.014973666 0.104653984 -0.07393013 0.04824176 -0.05591524 0.03893835 0.061849505
-0.047680177 -0.0663516 0.04094788 -0.08614268 0.24917112 0.15511253 0.10596263 -0.036741905
-0.014145605 -0.025594363 -0.009207571 0.011018278 0.02591497 0.08727156 0.024283005 0.028793808
-0.0026100911 0.05358707 -0.09057585 -0.06324949 -0.0010364642 -0.02183029 -0.068899244 0.00670551
-0.068874314 -0.18265173 -0.035612777 0.021264128 -0.112002715 -0.025198523 -0.008600795 -0.04331795
0.023020664 -0.017702883 -0.035650503 -0.0032206029 0.036351457 -0.0156347 0.04460057 0.04164871
0.20723134 0.00040834435 -0.22333108 -0.060939666 -0.10523217 -0.044838853 -0.043162532 0.062752955
-0.045725368 -0.20267469 0.0252612 0.034573283 -0.010768902 -0.09925529 -0.009200593 0.027060498
0.04883465 -0.03497997 0.05063773 -0.0026635497 0.0489326 -0.14506611 0.03130802 -0.06936706
0.07907833 -0.07173701 -0.03900138 -0.043931313 0.025909575 -0.031765196 0.032545622 0.05661839
0.21548085 0.00118004 -0.0033658114 -0.040713634 -0.055359162 -0.024519911 0.015123517 -0.014722195
0.0050870366 0.02023633 -0.077880554 -0.03626601 -0.021596858 0.048656344 -0.15433364 -0.033819553
-0.18450926 0.028180366 -0.00246536 0.046049677 0.024628535 -0.09551926 -0.060068343 0.0947228
-0.03913202 0.12542577 0.05149406 0.0036940882 0.01842498 -0.1097005 0.0036283298 0.2333797
0.033413824 -0.112607546 0.014241489 -0.08605445 -0.01098187 -0.06415679 -0.07125227 -0.010724146
0.089948356 0.18308012 -0.10270967 0.0013973542 0.12273081 0.15796766 0.08314877 0.015426592
0.0467009 -0.12320502 0.111152016 0.05993481 -0.099534675 -0.14141619 0.015799431 0.17922357
-0.04413973 0.08765953 0.03434842 -0.19664864 0.1515309 0.31085593 -0.018583182 0.027415317
-0.14343788 0.01099587 0.014527906 0.03152005 -0.09330004 -0.025763031 0.17063491 0.066264585
-0.024156604 -0.07729725 0.09025594 0.035117157 -0.00039621597 -0.03490197 -0.341326 0.037098337
0.035169333 -0.052364502 0.0069341958 0.096446894 -0.022594303 -0.011855972 0.066815354 0.051336
-0.017768908 0.083571225 0.14166662 0.079488315 -0.06184092 0.08745275 0.030757533 0.017301869
-0.14550224 0.01134668 -0.09924898 -0.1936667 0.15793055 -0.019989893 -0.073879346 0.020664463
-0.15597034 -0.07967129 -0.10480822 0.021618294 -0.025217988 -0.15171894 -0.022169964 0.066490695
-0.07309319 -0.11755582 -0.048638005 0.028783534 0.057176698 0.058854725 -0.18566358 -0.012254905
-0.09178555 -0.013902186 -0.038456146 -0.2332906 0.014871279 0.18470784 -0.0018182789 0.012944028
00000000: 7d7e 7c3d b2eb 38ba 9b8d 55bd 4e4f e73c
00000010: 5451 bf3d ff50 e7bc 2aac ff3b 097a 003b
00000020: f4c5 f03b 2fa7 9f3c cbdc 503d ec54 553d
00000030: d87b 643c 5aa7 9e3c 5d31 ac3c 9663 1bbd
00000040: d347 b83d 64a2 f9bd c7df d4bc 42f5 1abd
00000050: 0188 40bc e5a6 393d 692d 353d 18c0 0c3e
00000060: 6882 233c 7bfa d63d 4afe 383c fb4e 0bbc
00000070: 9d43 39bd d6a0 0d3d 4bc8 a2bc 1f9b 353e
00000080: de1b 4b3e 5ddf b2bd 8cff 863b f532 aebb
00000090: 13ae 8cbd bb77 3ebd 6f9c f6bd 9bc5 e13d
000000a0: a8f6 c23d 9b6b 363e a198 b6bd 5a7c 20bd
000000b0: fade 0bbe c908 c83d c75c 133d ed9f 823a
000000c0: 9256 2239 1b54 75bc d454 d63d ae68 97bd
000000d0: 2799 453d 6107 65bd d27d 1f3d e855 7d3d
000000e0: 4a4c 43bd 59e3 87bd f7b8 273d 936b b0bd
000000f0: b726 7f3e d2d5 1e3e ef02 d93d ae7e 16bd
00000100: f8c2 67bc 45ab d1bc 5adb 16bc 0286 343c
00000110: a24b d43c 6fbb b23d 27ed c63c fee0 eb3c
00000120: 100e 2bbb 1e7e 5b3d d57f b9bd f388 81bd
00000130: f8d9 87ba 70d5 b2bc 0c1b 8dbd e5b9 db3b
00000140: fa0d 8dbd 0e09 3bbe b4de 11bd 1c32 ae3c
00000150: ae61 e5bd 226d cebc 59ea 0cbc 2a6e 31bd
00000160: d595 bc3c a305 91bc 4306 12bd c010 53bb
00000170: 44e5 143d 5814 80bc 16af 363d d697 2a3d
00000180: 7434 543e 0d17 d639 e7b0 64be df9b 79bd
00000190: f783 d7bd f2a8 37bd 32cb 30bd 9f84 803d
000001a0: 864a 3bbd f489 4fbe 93f0 ce3c b79c 0d3d
000001b0: 0c70 30bc 5c46 cbbd 16be 16bc faad dd3c
000001c0: d806 483d 2847 0fbd 8269 4f3d f38e 2ebb
000001d0: 8d6d 483d 368c 14be d73c 003d 5110 8ebd
000001e0: d2f3 a13d daea 92bd e9bf 1fbd 52f1 33bd
000001f0: 5140 d43c 391c 02bd 8f4e 053d afe8 673d
00000200: 03a7 5c3e 92ab 9a3a f294 5cbb 57c3 26bd
00000210: 4ac0 62bd fbdd c8bc a1c8 773c 5d35 71bc
00000220: 28b1 a63b a9c6 a53c d77f 9fbd ab8b 14bd
00000230: e5eb b0bc e04b 473d a309 1ebe 5f86 0abd
00000240: ffef 3cbe 83da e63c e191 21bb 969e 3c3d
00000250: c8c1 c93c 9a9f c3bd 390a 76bd 07fe c13d
00000260: e648 20bd 9d6f 003e 6feb 523d 8418 723b
00000270: fcef 963c a8aa e0bd 46c9 6d3b 17fb 6e3e
00000280: efdc 083d c99e e6bd 2255 693c 513d b0bd
00000290: 4ded 33bc a364 83bd b6ec 91bd 54b4 2fbc
000002a0: d836 b83d 5b79 3b3e 7359 d2bd 6d27 b73a
000002b0: 4a5a fb3d 46c2 213e e749 aa3d d1bf 7c3c
000002c0: 7149 3f3d ea52 fcbd aba3 e33d 347e 753d
000002d0: d6d8 cbbd 68cf 10be cf6d 813c 6286 373e
000002e0: ddcb 34bd d786 b33d eeb0 0c3d 435e 49be
000002f0: eb2a 1b3e 8228 9f3e c23b 98bc 1696 e03c
00000300: 61e1 12be 0628 343c 7406 6e3c 2b1b 013d
00000310: 1714 bfbd fe0c d3bc ebba 2e3e bab5 873d
00000320: 12e4 c5bc 054e 9ebd 1bd8 b83d 02d7 0f3d
00000330: 35bb cfb9 5ef5 0ebd 48c2 aebe 6df4 173d
00000340: b80d 103d 297c 56bd 4038 e33b f385 c53d
00000350: b017 b9bc 8d3f 42bc 7dd6 883d b345 523d
00000360: 1a90 91bc 6427 ab3d 0e11 113e c5ca a23d
00000370: e84c 7dbd 6d1a b33d 39f7 fb3c a6bc 8d3c
00000380: 8afe 14be 6de7 393c 0d43 cbbd 9050 46be
00000390: 8cb8 213e d8c1 a3bc 0e4e 97bd 8548 a93c
000003a0: b0b6 1fbe b42a a3bd b1a5 d6bd d918 b13c
000003b0: f495 cebc 365c 1bbe c99d b5bc 462c 883d
000003c0: e2b1 95bd 1bc1 f0bd a538 47bd 72cb eb3c
000003d0: 1d32 6a3d a711 713d 981e 3ebe ccc8 48bc
000003e0: 10fa bbbd ffc5 63bc 3184 1dbd bbe3 6ebe
000003f0: aaa6 733c 0d24 3d3e 5153 eeba 3013 543c

actor.4.bias f4 [7]
0.046351198 0.18856597 -0.18200025 0.16865805 0.22164653 -0.30483055 0.116383635
00000000: c1da 3d3d 7017 413e 465e 3abe b2b4 2c3e
00000010: 4ff7 623e c012 9cbe 8b5a ee3d

critic.0.weight f4 [64, 32]
-0.20454295 -0.15660167 -0.28819636 0.28596452 -0.18878339 0.10752695 -0.28824803 0.16472948
0.062115286 -0.006606231 0.100607954 -0.00077789905 -0.046393942 0.0075044194 -0.00219568 -0.051073484
-0.053569146 -0.036069736 0.23018974 0.82703066 0.6161142 0.04417884 -0.24328421 -0.6570491
-0.12379802 0.0745525 -0.1526468 -0.1372615 -0.059680555 -0.09418097 0.039144047 -0.025257722
-0.08189401 0.18908936 0.11386235 0.07764877 0.22622798 -0.05371653 0.14605416 -0.067205146
-0.030609412 0.039186478 0.118091196 0.001874693 0.016785074 -0.029178798 -0.010477554 -0.022310846
-0.41296273 -0.07828588 0.09791795 -1.1528593 -0.25321794 0.06915272 0.3605452 0.19544438
-0.009562216 -0.044214487 0.0350747 0.03613542 0.03977522 0.056112945 0.020613553 0.02449092
-0.09841599 0.09999785 -0.059479162 -0.04805094 0.1972622 -0.059145518 -0.11743349 0.018139517
0.082366854 -0.03023044 -0.090483546 -0.0086461725 0.003229347 -0.009282629 0.009341896 0.009731648
0.437852 0.21306372 -0.5327789 -0.4439741 0.15152207 0.054758932 0.009628258 -0.20501952
-0.087846555 0.081543736 0.05316458 0.030721512 0.079028055 -0.049581073 0.034718003 -0.008479888
-0.17489044 0.04613578 -0.149122 -0.40875658 0.019644875 0.16638613 0.058277078 0.22084038
0.0781683 -0.123338334 0.008627098 -0.14033903 -0.10325793 0.0103191035 -0.0069760233 -0.042044897
-0.2453857 -0.06080808 -0.3250925 -0.33054736 -0.08619647 -0.12391428 -1.0726268 0.20750555
0.16137943 -0.0060311 -0.011786009 -0.023618363 -0.12788858 -0.04791983 0.06943732 0.051966954
-0.29858127 -0.04510125 -0.14889565 0.22356461 0.38031995 0.07520194 0.2332028 0.07258522
0.0014403714 -0.022880899 -0.041214388 0.0052448045 0.009351273 0.008783161 -0.015375856 -0.028487822
-0.04833438 0.0045613423 0.4150857 -0.11899905 -0.12987262 0.04004527 -0.63949794 0.32809868
-0.14189401 -0.006676129 0.05522729 -0.07231812 0.0094443895 -0.02882536 -0.015352785 0.05050152
-0.0662582 -0.036418114 -0.14758624 -0.09081273 0.056471057 0.1284107 -0.07452375 -0.06829803
0.10356331 0.04491953 0.06360921 0.06724335 -0.061823905 -0.0020476596 0.016884213 -0.009512516
-0.026632523 -0.24480945 -0.46964234 -0.31719193 -0.34133863 -0.15118892 0.57877356 0.4825937
0.0711373 -0.0062646284 0.06759603 0.043431733 0.026507534 0.010149726 0.018032422 -0.082861
0.17386134 0.33112055 0.15399843 -0.09551098 -0.04104358 0.047591854 -0.12795797 -0.15990208
0.027502336 0.049195576 -0.0053367326 0.033652548 -0.027027586 -0.0022660652 -0.0028840413 -0.00872329
0.11222745 -0.070556305 0.2910844 -2.846435 -0.080851965 0.14161023 -0.8251923 0.21712384
-0.038714115 -0.06582818 0.07692243 0.0814109 0.004458386 -0.006325686 0.046389777 -0.006944034
0.053151224 0.08126719 -0.076467514 -0.25531623 -0.19821137 -0.23958708 -0.16128515 0.15031978
0.10382452 -0.021608725 0.01720579 -0.032928605 -0.045186386 -0.0034553334 0.004914542 0.025153272
-0.021130722 0.011772017 0.008345554 0.35930592 -0.08988537 0.12724392 -0.5385623 -0.097242355
0.1327196 -0.08011885 -0.06840699 -0.10199217 -0.01659561 -0.036103982 -0.025412455 -0.035971116
00000000: b573 51be 305c 20be 798e 93be f169 923e
00000010: 6f50 41be 1737 dc3d 3f95 93be d8ae 283e
00000020: 996c 7e3d 1579 d8bb 8b0b ce3d eceb 4bba
00000030: 9307 3ebd a2e7 f53b 66e5 0fbb 6e32 51bd
00000040: 526b 5bbd dcbd 13bd dcb6 6b3e 48b8 533f
00000050: a9b9 1d3f dff4 343d 7f1f 79be 5f34 28bf
00000060: d189 fdbd fbae 983d 714f 1cbe 478e 0cbe
00000070: 9973 74bd f4e1 c0bd 8255 203d 48e9 cebc
00000080: 0cb8 a7bd a4a0 413e aa30 e93d 5106 9f3d
00000090: 4fa8 673e dd05 5cbd 398f 153e daa2 89bd
000000a0: 97c0 fabc 0082 203d ccd9 f13d 42b8 f53a
000000b0: da80 893c 6008 efbc 0caa 2bbc 3cc5 b6bc
000000c0: da6f d3be 5954 a0bd 3589 c83d e590 93bf
000000d0: c8a5 81be f19f 8d3d 6199 b83e 9222 483e
000000e0: d7aa 1cbc 401a 35bd 7daa 0f3d bc02 143d
000000f0: 57eb 223d b0d6 653d c1dd a83c 2fa1 c83c
00000100: 538e c9bd accb cc3d 6ca0 73bd 10d1 44bd
00000110: 1aff 493e 9242 72bd f880 f0bd 5399 943c
00000120: f4af a83d d4a5 f7bc 704f b9bd ada8 0dbc
00000130: 74a3 533b 2b16 18bc c00e 193c 7d71 1f3c
00000140: 232e e03e 602d 5a3e 3364 08bf 9350 e3be
00000150: 9a28 1b3e e74a 603d d7bf 1d3c a3f0 51be
00000160: e5e8 b3bd 6700 a73d 1ac3 593d aeab fb3c
00000170: 76d9 a13d 8615 4bbd 7734 0e3d 3aef 0abc
00000180: 7b16 33be dff8 3c3d 70b3 18be 8b48 d1be
00000190: 4aee a03c 2061 2a3e f2b3 6e3d fb23 623e
000001a0: b416 a03d cf98 fcbd ac58 0d3c 09b5 0fbe
000001b0: e578 d3bd 7511 293c 2097 e4bb 4537 2cbd
000001c0: 6446 7bbe e511 79bd 8672 a6be 813d a9be
000001d0: c687 b0bd c5c6 fdbd d64b 89bf 567c 543e
000001e0: a640 253e 89a0 c5bb 1b1a 41bc 4c7b c1bc
000001f0: 39f5 02be 9547 44bd 2735 8e3d 4ddb 543d
00000200: a5df 98be 17bc 38bd 1a78 18be 1fee 643e
00000210: 4cb9 c23e 7a03 9a3d b7cc 6e3e 8fa7 943d
00000220: d8ca bc3a b970 bbbc 6bd0 28bd 9cdc ab3b
00000230: 1536 193c 3fe7 0f3c 04eb 7bbc 4b5f e9bc
00000240: 45fa 45bd 5077 953b 1d86 d43e c6b5 f3bd
00000250: 54fd 04be 8206 243d 23b6 23bf 8dfc a73e
00000260: aa4c 11be 6ec3 dabb 0336 623d 861b 94bd
00000270: a4bc 1a3c 2923 ecbc 3f8a 7bbc afda 4e3d
00000280: 61b2 87bd 292b 15bd d920 17be 06fc b9bd
00000290: 324e 673d 187e 033e e89f 98bd d6df 8bbd
000002a0: 0019 d43d 8bfd 373d 8c45 823d e2b6 893d
000002b0: 103b 7dbd 0732 06bb c350 8a3c 62da 1bbc
000002c0: 732c dabc 54af 7abe f674 f0be fb66 a2be
000002d0: f0c3 aebe 45d1 1abe 812a 143f 8516 f73e
000002e0: 6fb0 913d 8347 cdbb ca6f 8a3d 79e5 313d
000002f0: 5426 d93c 094b 263c bbb8 933c 07b3 a9bd
00000300: b508 323e a288 a93e c4b1 1d3e 439b c3bd
00000310: 501d 28bd adef 423d 6a07 03be 5fbd 23be
00000320: 944c e13c 4d81 493d c2df aebb 41d7 093d
00000330: f568 ddbc 4482 14bb 2f02 3dbb 21ec 0ebc
00000340: 81d7 e53d d37f 90bd 0409 953e fe2b 36c0
00000350: b795 a5bd 4602 113e cd3f 53bf b655 5e3e
00000360: b192 1ebd edd0 86bd 8289 9d3d c2ba a63d
00000370: a717 923b b347 cfbb 3503 3e3d c78a e3bb
00000380: 19b5 593d 6a6f a63d 009b 9cbd cfb8 82be
00000390: ecf7 4abe 5156 75be ef27 25be 6eed 193e
000003a0: f3a1 d43d c804 b1bc 28f3 8c3c 25e0 06bd
000003b0: 5c15 39bd e072 62bb 2b0a a13b 3c0e ce3c
000003c0: 561a adbc 6bdf 403c cabb 083c f2f6 b73e
000003d0: d215 b8bd 3b4c 023e 38df 09bf 0027 c7bd
000003e0: a6e7 073e 5a15 a4bd f718 8cbd 45e1 d0bd
000003f0: 84f3 87bc c5e1 13bd c82d d0bc 7356 13bd

critic.0.bias f4 [64]
0.10281109 -0.30615428 0.10243197 -0.12512018 -0.0045856684 -0.12985498 -0.0040181517 0.057086032
0.06291422 0.32337993 0.39192292 -0.12786865 -0.15391618 -0.114351325 0.3102347 0.18518949
0.032454163 -0.074097596 0.06988529 0.512518 0.5948493 -0.14640918 0.12250174 0.026085021
0.15195887 -0.068683006 0.024469592 0.2685446 0.13874799 -0.046388183 -0.11170819 0.3324343
-0.08927953 -0.1182694 -0.057986945 -0.098722205 0.19831443 0.4210705 -0.09541701 0.14265347
0.04665534 0.064802155 0.33398378 -0.23723762 -0.29858205 0.26450226 -0.25902718 -0.21444124
0.27678582 -0.058126368 -0.29770324 -0.24667254 0.25456637 -0.11549396 -0.101978526 -0.32753327
0.19644924 -0.115703434 -0.27342203 0.08084829 0.11082918 0.077394135 0.09226872 -0.017486615
00000000: 9f8e d23d 41c0 9cbe dac7 d13d 811f 00be
00000010: 6043 96bb b4f8 04be b3aa 83bb 0bd3 693d
00000020: 2cd9 803d 0e92 a53e 1faa c83e 00f0 02be
00000030: 349c 1dbe 0731 eabd 15d7 9e3e 50a2 3d3e
00000040: a8ee 043d 7bc0 97bd 0520 8f3d 6134 033f
00000050: 0b48 183f 4aec 15be 31e2 fa3d 41b0 d53c
00000060: 1b9b 1b3e ada9 8cbd 7474 c83c ae7e 893e
00000070: f413 0e3e 8901 3ebd 43c7 e4bd d434 aa3e
00000080: 30d8 b6bd 3a37 f2bd b883 6dbd de2e cabd
00000090: f012 4b3e 8d96 d73e fe69 c3bd c013 123e
000000a0: ab19 3f3d feb6 843d ecff aa3e 6bee 72be
000000b0: bfdf 98be d76c 873e 369f 84be 7c96 5bbe
000000c0: dfb6 8d3e ea15 6ebd 8f6c 98be ba97 7cbe
000000d0: 8656 823e 1988 ecbd 1eda d0bd 71b2 a7be
000000e0: fd29 493e ecf5 ecbd f9fd 8bbe ca93 a53d
000000f0: 69fa e23d d180 9e3d 62f7 bc3d 1740 8fbc

critic.2.weight f4 [64, 64]
-0.0887575 0.008967685 -0.020135887 -0.05075362 -0.018220022 0.08032195 0.14371015 -0.0931151
-0.15119998 -0.49871412 -0.43236062 0.42357993 0.10213445 0.3710726 -0.3521275 0.07732006
-0.12767668 0.66938424 -0.66621286 -0.56696904 -0.9916232 0.633167 -0.060403496 -0.26349315
-0.10602785 0.22017547 0.16776757 -0.22412176 -0.120873496 0.2036032 0.2205603 -0.32541794
-0.0035743867 0.03318345 0.13165441 -0.015608614 -0.26389164 -0.61574596 0.010004937 -0.2556321
0.021422641 0.24572241 -0.26184443 0.18127352 0.16220674 -0.3719682 0.24790967 0.5639091
-0.508625 0.023528215 0.033349 0.55435365 -0.22287428 0.020482153 -0.080664344 0.15705985
-0.28223217 0.030458132 0.09594915 -0.040026084 -0.21797618 -0.18073405 -0.10974078 -0.12797613
-0.057791464 -0.07176711 0.03938407 0.050585546 -0.011968419 0.0720229 0.00690209 -0.055471845
-0.14025567 -0.01073092 0.11168625 0.117677145 0.117969826 -0.02526996 0.07766347 0.018711075
0.110290624 -0.042991977 0.012795333 -0.07841641 0.018172543 0.09168228 -0.04403584 0.018881079
0.11466286 0.1229019 0.067185625 0.031139176 0.12385267 -0.11111515 0.055683002 0.10929899
0.051420406 -0.14579646 0.051807854 -0.14028591 -0.105146 -0.04481123 0.08783846 0.113283746
0.034438267 0.026565066 0.0075932285 0.15569557 0.026366802 -0.085387036 -0.0018162819 0.03661863
0.020146051 0.015148261 0.05808027 0.014818466 -0.07307605 -0.16156507 0.0004876749 -0.073009394
0.06496318 0.0048612473 0.061820455 0.05330838 0.06763403 0.062294316 0.09706667 0.08718598
0.06252536 0.045937315 0.014365614 -0.09117646 0.071980946 -0.0022946917 -0.08077717 0.107802674
-0.0074501373 0.04969261 -0.056389827 -0.017131293 -0.09386527 0.039828476 -0.004833031 0.098303996
0.07765686 0.16523024 0.045466483 -0.026523724 0.02118491 -0.092409104 -0.009710328 -0.075303495
-0.023986567 0.13016911 -0.004024189 -0.06905653 -0.029348643 0.11344649 0.07325793 -0.055119094
-0.0021088957 -0.06456152 0.08912205 -0.02631922 0.09556818 0.07595632 0.035894904 0.010039141
-0.062436707 -0.06800072 0.02967409 -0.03444866 -0.09207134 -0.02469573 -0.120798245 -0.08215686
-0.07986857 0.10611431 0.10339017 -0.078722835 0.09323717 0.0758666 0.1289518 0.0685167
0.062334172 0.027475456 0.016439606 0.020321675 0.13353527 0.08064651 0.06572743 0.004188022
0.017496545 0.025925566 -0.029199362 -0.020813484 -0.025935186 -0.099543944 0.043616485 0.08676711
-0.03580017 0.0978117 -0.045892887 0.061185878 -0.034570415 -0.08879104 0.09287211 0.061724808
-0.0026927146 -0.0019191543 -0.020618008 0.18560311 -0.01249887 0.17376994 0.05833474 0.06906252
-0.0075715743 -0.14264219 0.017503778 -0.08126895 -0.09259636 -0.011117935 -0.06422877 0.13004984
-0.019648377 -0.036386553 -0.022287108 0.01944346 0.06750757 -0.0720168 -0.010554105 -0.019747822
0.17217948 -0.026641812 0.026408233 0.056875423 0.013349038 -0.0132513475 -0.038931698 0.063541055
-0.08715962 0.14663139 0.0601327 -0.007822745 -0.117792554 -0.030789772 -0.035244234 -0.056669816
0.116423465 0.017723622 -0.029809374 0.11472073 0.02339832 -0.045239948 -0.03336178 -0.081978604
00000000: 7ec6 b5bd 32ed 123c 04f4 a4bc 07e3 4fbd
00000010: 2842 95bc d67f a43d c128 133e 21b3 bebd
00000020: 2bd4 1abe 7557 ffbe 5f5e ddbe 78df d83e
00000030: de2b d13d 3afd bd3e 0e4a b4be fb59 9e3d
00000040: adbd 02be c45c 2b3f ed8c 2abf e224 11bf
00000050: 05db 7dbf 3c17 223f a869 77bd 93e8 86be
00000060: 2125 d9bd ae75 613e 43cb 2b3e 2d80 65be
00000070: 868c f7bd 5b7d 503e 8fda 613e 2e9d a6be
00000080: 4240 6abb 5feb 073d 6ad0 063e 46bb 7fbc
00000090: ce1c 87be 87a1 1dbf bfeb 233c 36e2 82be
000000a0: 897e af3c a89e 7b3e 7910 86be c49f 393e
000000b0: 8619 263e 9e72 bebe 08dc 7d3e 595c 103f
000000c0: 3f35 02bf 3ebe c03c f698 083d 1fea 0d3f
000000d0: 2839 64be 30ca a73c 5933 a5bd 4cd4 203e
000000e0: bc80 90be 5583 f93c fd80 c43d 64f2 23bd
000000f0: 2635 5fbe 5912 39be c6bf e0bd 2d0c 03be
00000100: beb6 6cbd a2fa 92bd 3151 213d ca32 4f3d
00000110: 3017 44bc be80 933d ed2a e23b 7236 63bd
00000120: 2f9f 0fbe bed0 2fbc c3bb e43d b700 f13d
00000130: 2a9a f13d f202 cfbc 060e 9f3d f847 993c
00000140: 0de0 e13d 5b18 30bd 84a3 513c c898 a0bd
00000150: 96de 943c ebc3 bb3d ed5e 34bd 7eac 9a3c
00000160: 5dd4 ea3d feb3 fb3d 9e98 893d 9617 ff3c
00000170: 78a6 fd3d 5790 e3bd dc13 643d 26d8 df3d
00000180: 349e 523d ab4b 15be 7934 543d 1ca7 0fbe
00000190: c956 d7bd fb8b 37bd a7e4 b33d 4f01 e83d
000001a0: 240f 0d3d fb9e d93c 9ed0 f83b a96e 1f3e
000001b0: 31ff d73c 66df aebd 4f10 eeba 6bfd 153d
000001c0: 5509 a53c 6930 783c 94e5 6d3d 27c9 723c
000001d0: e5a8 95bd 5071 25be 9eae ff39 f385 95bd
000001e0: 6a0b 853d 194b 9f3b 7237 7d3d e359 5a3d
000001f0: b683 8a3d 5328 7f3d e4ca c63d 908e b23d
00000200: 4c0d 803d c428 3c3d c15d 6b3c b9ba babd
00000210: bf6a 933d 8a62 16bb 806e a5bd a6c7 dc3d
00000220: 4820 f4bb 7a8a 4b3d 05f9 66bd ed56 8cbc
00000230: 6f3c c0bd 2f23 233d 675e 9ebb 9b53 c93d
00000240: 8f0a 9f3d 1e32 293e 103b 3a3d 4848 d9bc
00000250: fa8b ad3c fc40 bdbd 1118 1fbc b838 9abd
00000260: 7a7f c4bc 0d4b 053e 58dd 83bb 836d 8dbd
00000270: 916c f0bc a256 e83d 4108 963d 8fc4 61bd
00000280: 6635 0abb d538 84bd 9f85 b63d 689b d7bc
00000290: 40b9 c33d fd8e 9b3d 8906 133d 367b 243c
000002a0: a2bd 7fbd f643 8bbd 1417 f33c 0a1a 0dbd
000002b0: e68f bcbd b34e cabc 1265 f7bd db41 a8bd
000002c0: 2292 a3bd 7652 d93d 3abe d33d 7039 a1bd
000002d0: 21f3 be3d f35f 9b3d f10b 043e 7c52 8c3d
000002e0: 1e52 7f3d 3514 e13c 5aac 863c a479 a63c
000002f0: 78bd 083e ff29 a53d 1a9c 863d ad3b 893b
00000300: ea54 8f3c da61 d43c 8033 efbc 0a81 aabc
00000310: 0776 d4bc b2dd cbbd 33a7 323d f4b2 b13d
00000320: 33a3 12bd 8051 c83d 2efa 3bbd 0b9e 7a3d
00000330: b599 0dbd 14d8 b5bd bc33 be3d 27d3 7c3d
00000340: 4178 30bb 228c fbba 19e7 a8bc be0e 3e3e
00000350: 0fc8 4cbc bff0 313e 69f0 6e3d a770 8d3d
00000360: f81a f8bb cb10 12be 1564 8f3c 5670 a6bd
00000370: 29a3 bdbd 0028 36bc 608a 83bd c92b 053e
00000380: a2f5 a0bc 110a 15bd 7493 b6bc e447 9f3c
00000390: 6941 8a3d 8b7d 93bd 20eb 2cbc 2fc6 a1bc
000003a0: d14f 303e ee3f dabc 1456 d83c 34f6 683d
000003b0: ecb5 5a3c 2e1c 59bc d876 1fbd d021 823d
000003c0: be80 b2bd 8a26 163e b54d 763d f82a 00bc
000003d0: 393d f1bd d53a fcbc 425c 10bd 9c1e 68bd
000003e0: 6d6f ee3d 2131 913c ca32 f4bc b4f2 ea3d
000003f0: d5ad bf3c 864d 39bd 5da6 08bd 66e4 a7bd

critic.2.bias f4 [64]
0.013641645 -0.077390425 -0.008123059 -0.14118293 0.05087028 -0.00030439557 -0.024085123 0.14240898
0.12579708 0.0778423 0.059609406 -0.28604817 -0.0949349 0.0424791 0.016975306 0.18523274
0.11649998 -0.15316601 -0.09137357 0.05636114 -0.08620358 -0.096972205 0.03791906 -0.034745716
-0.086287916 0.011739717 -0.18173298 -0.020972367 -0.089500286 -0.007822732 0.08323859 0.033454534
-0.03463261 0.18783003 0.115825824 0.10573357 -0.022914568 -0.02620233 -0.17850283 -0.10097011
-0.26125818 0.025418248 0.0666562 0.25390893 0.02405365 -0.107295804 0.06257384 -0.010748446
0.054501176 -0.045938034 0.17601433 0.015655547 -0.023676185 -0.07751094 0.05575786 -0.011492949
-0.09417457 -0.09023696 -0.03738708 0.04055843 -0.1365908 -0.082586475 -0.04962935 0.02229161
00000000: 3581 5f3c df7e 9ebd 9416 05bc 4292 10be
00000010: 5b5d 503d 4897 9fb9 2a4e c5bc a9d3 113e
00000020: f3d0 003e c96b 9f3d fe28 743d e874 92be
00000030: 3b6d c2bd 91fe 2d3d cc0f 8b3c a7ad 3d3e
00000040: 8b97 ee3d 8dd7 1cbe 1122 bbbd f0da 663d
00000050: 818b b0bd 5d99 c6bd 0451 1b3d 8651 0ebd
00000060: b8b7 b0bd f157 403c 3618 3abe 3ece abbc
00000070: ed4b b7bd eb2a 00bc fe78 aa3d 9f07 093d
00000080: ecda 0dbd 8456 403e 1736 ed3d d88a d83d
00000090: 55b7 bbbc 45a6 d6bc 72c9 36be 6bc9 cebd
000000a0: a2c3 85be ee39 d03c 0c83 883d 5a00 823e
000000b0: 290c c53c e7bd dbbd b726 803d 401a 30bc
000000c0: a03c 5f3d 8529 3cbd 1a3d 343e 1040 803c
000000d0: 8ff4 c1bc 0ebe 9ebd 5b62 643d ec4c 3cbc
000000e0: 99de c0bd 28ce b8bd 3223 19bd 9920 263d
000000f0: 75de 0bbe 1923 a9bd 2548 4bbd e59c b63c

critic.4.weight f4 [1, 64]
-0.13130258 0.00011249008 0.004516694 -0.0027517073 -0.00344421 0.0019463226 0.0012340561 -0.011595355
-0.00043157066 -0.0016901951 -0.00035203822 0.12125145 0.0020925803 -0.0030323085 0.004156274 -0.1289143
0.0052222535 0.13861139 0.0055737095 -0.006308022 0.0028024695 -0.0014668319 0.06615126 0.003398808
-0.0014578245 -0.0029540383 0.055628013 -0.004551573 -0.0008234334 -0.00016490588 -0.00291957 0.0006415306
-0.0025396745 -0.07919217 -0.00178983 -0.0035839116 -0.0012387476 0.00084622373 -0.09398414 -0.0047895475
0.05120095 -0.15991023 -0.0012671129 -0.15729031 -0.00017476987 0.121605106 -0.0013833769 -0.003200299
0.0012005707 -0.00033682183 -0.033721715 0.0018723321 -0.00026616635 -0.00060187146 0.0032453851 0.0026988331
0.0039497125 0.0027211749 -0.0008469171 -0.006849858 -0.0067691538 0.07216949 0.0006116547 -0.0019469991
00000000: 2f74 06be a7e8 eb38 c700 943b fd55 34bb
00000010: 41b8 61bb c01b ff3a 0dc0 a13a 72fa 3dbc
00000020: 6f44 e2b9 8989 ddba c591 b8b9 ae52 f83d
00000030: ac23 093b b2b9 46bb 5a31 883b 1c02 04be
00000040: 701f ab3b 25f0 0d3e aaa3 b63b 86b3 cebb
00000050: a3a9 373b b642 c0ba 507a 873d 89be 5e3b
00000060: 7914 bfba 8a98 41bb 33da 633d 5d25 95bb
00000070: aedb 57ba 96ea 2cb9 4256 3fbb 642c 283a
00000080: ab70 26bb 812f a2bd bb98 eaba 0fe0 6abb
00000090: 795d a2ba 1dd5 5d3a c27a c0bd a3f1 9cbb
000000a0: 16b8 513d 82bf 23be 4115 a6ba b610 21be
000000b0: 6e42 37b9 190c f93d 6d52 b5ba 1cbc 51bb
000000c0: 785c 9d3a 7697 b0b9 c81f 0abd 0a69 f53a
000000d0: 3e8c 8bb9 e9c6 1dba 87b0 543b e8de 303b
000000e0: 976c 813b bd55 323b a503 5eba c674 e0bb
000000f0: c7cf ddbb 99cd 933d 7457 203a 7332 ffba

exp_avg f4 [7]
-0.0010238544 0.0010447529 0.0011292158 0.0017261411 -0.00617181 -0.0023730125 0.0035353696
00000000: da32 86ba 17f0 883a 3202 943a af3f e23a
00000010: e53c cabb 8b84 1bbb a9b1 673b

exp_avg_sq f4 [7]
0.0010433185 0.0017265661 0.0012680896 0.0013010699 0.0012862148 0.00084013643 0.0012230834
00000000: f6bf 883a f24d e23a 0736 a63a a988 aa3a
00000010: 3596 a83a 9a3c 5c3a de4f a03a

exp_avg f4 [64, 32]
-0.00047989862 -0.00057508296 -0.0005391547 -0.00032969975 0.0005782692 0.00033222564 0.0006067794 2.1078881e-06
1.6675713e-05 0.0001198771 0.00016783463 -0.00037046793 0.00011772647 0.00053198665 0.000655336 0.0005315243
1.2767014e-05 8.260712e-06 1.0507676e-05 -0.00016318067 0.000113212634 -8.378725e-12 -0.00044407422 0.00019146629
-1.9402374e-11 -0.0008421091 -0.0005498788 -0.0017257759 -0.001294483 0.0022210004 0.0012951689 0.0018151221
-0.0002500204 8.545852e-05 -0.00031486613 -0.00013668205 0.00032995266 7.679404e-05 0.0005213222 -1.1986744e-05
-3.1294596e-05 -0.00036668676 0.00020007497 0.00051224144 0.00026915118 0.0008364584 0.0010431658 0.00012601157
1.980308e-05 1.0630263e-05 0.0002384375 -1.41936125e-05 2.1660779e-05 -5.1525056e-12 -0.00019534306 0.000117788186
-8.5454786e-12 -0.0008766857 0.00063819054 -0.0015422212 -0.00054525194 0.0011382796 0.0010985242 0.0010392178
-0.00022379475 -0.0010627588 -0.00037411394 -0.00022597914 0.0005094399 0.0002224635 0.00033964074 6.0109982e-05
6.587015e-05 -0.00027628502 0.00015368951 -0.0009359839 -0.00034708073 0.00028721624 0.0011602562 -2.3709319e-05
3.6407755e-06 -1.050364e-05 -0.000984201 -9.6819975e-05 -0.00049080857 2.7890223e-11 4.7015594e-05 -0.00063883845
2.0404694e-12 -0.0010554828 -0.0015924051 -0.0012713841 -0.0019930867 0.0021209056 0.0016094758 0.0009807993
-0.00065825955 8.415865e-05 -0.0006500889 -0.00035229736 0.0004947917 -2.9072315e-05 0.00036505098 -6.7480585e-05
-5.397105e-05 -0.00032869872 2.3238696e-05 -0.000130134 0.00026759584 0.0005548567 -0.000142411 -0.00036656173
-1.2883669e-05 -1.7941496e-05 0.0005641092 -3.270638e-05 0.00045941616 -5.1279484e-11 2.2692795e-05 0.0011734227
1.0087228e-12 -0.0016657257 7.869079e-05 -0.0022930119 -0.0011551656 0.002727201 2.8266297e-05 0.0021683415
9.925359e-05 -0.00022015223 0.00018010827 -3.4008503e-05 -0.0002024527 2.6711108e-05 -0.00016589201 8.089748e-06
2.7722619e-05 -0.00029004633 2.0694852e-05 0.0006641397 0.00013741078 -3.318614e-05 -0.00084811327 -0.000372006
5.2229716e-06 -2.0397636e-05 6.717057e-05 3.5236208e-05 3.6416426e-05 2.4829389e-11 -0.0006687167 -0.0005674492
-2.9199827e-11 0.00076544785 0.00034733748 0.0012585704 -0.00024568828 -0.0012991007 -4.6184764e-06 -0.00054394675
-0.00088174606 0.00067252474 -0.00017329313 0.00029633773 0.00065542833 -0.0005875984 0.00086660904 -6.956426e-05
-6.644369e-05 -0.0007343608 -0.00043575527 0.0008824487 0.00029979864 0.0015770862 0.00063263706 -0.00017506482
4.646202e-05 1.7138396e-05 0.000337759 -6.506483e-05 0.00024308987 -4.2038414e-11 -6.697849e-05 0.0009609419
-2.9294726e-12 -0.0017712024 0.00035603653 -0.001660963 0.001983652 0.0028968018 -0.0014178985 0.0019917737
-0.00052839855 6.640223e-05 -0.00040755 -8.062422e-06 0.0005474475 -0.00023350984 0.0007277224 -3.787879e-05
-2.516875e-05 -0.0004271159 2.2463566e-05 0.0004634122 0.00022397673 -0.0001488214 0.00046565713 0.00010465147
-6.532102e-06 -1.1142642e-05 5.257622e-05 -8.68e-05 9.788042e-05 -1.6592946e-11 -0.0005518594 0.0003794776
-2.4123628e-11 -0.0014083692 0.00035303438 -0.0015896299 0.0006639022 0.0020403217 -0.00045895876 0.0025383094
0.00025249738 -0.00073333655 8.294518e-05 9.0617e-05 -0.00045900533 0.0001519258 -0.00021364358 1.51070035e-05
5.408406e-06 0.00022854142 -2.1449361e-05 -0.00041078994 0.00020702824 0.0006441867 0.00054657145 -0.00079716824
1.0082649e-06 2.1029427e-05 -0.00038094574 -1.3056924e-05 -5.7695557e-05 3.4367714e-11 0.00017381085 -0.0007858497
7.585557e-12 0.00042545018 -0.00035792138 0.00021903544 0.00032385503 -0.0015612446 0.00031399858 -0.0011880988
00000000: e79a fbb9 2ac1 16ba 0f56 0dba 8ddb acb9
00000010: fd96 173a 922e ae39 4710 1f3a 3e75 0d36
00000020: d2e2 8b37 8766 fb38 c4fc 2f39 5d3b c2b9
00000030: ebe3 f638 0575 0b3a dbca 2b3a fe55 0b3a
00000040: e831 5637 7d97 0a37 204a 3037 7a1b 2bb9
00000050: 926c ed38 6c66 13ad a2d2 e8b9 57c4 4839
00000060: 43aa aaad fcc0 5cba be25 10ba 6e33 e2ba
00000070: a4ab a9ba 348e 113b a8c2 a93a 64e9 ed3a
00000080: 2c15 83b9 3238 b338 9e14 a5b9 4f52 0fb9
00000090: 7ffd ac39 7c0c a138 57a9 083a ac1a 49b7
000000a0: 5142 03b8 dd3f c0b9 37cb 5139 f147 063a
000000b0: dc1c 8d39 c645 5b3a d6ba 883a f921 0439
000000c0: ca1e a637 a258 3237 1405 7a39 1a21 6eb7
000000d0: 2bb4 b537 a549 b5ac 01d5 4cb9 0d05 f738
000000e0: 6a55 16ad 62d1 65ba 3e4c 273a 5b24 caba
000000f0: 3def 0eba 5332 953a 5bfc 8f3a 5d36 883a
00000100: 72aa 6ab9 454c 8bba b924 c4b9 d0f4 6cb9
00000110: ef8b 053a 1745 6939 cf11 b239 9a1e 7c38
00000120: c423 8a38 59da 90b9 b727 2139 d15c 75ba
00000130: 63f8 b5b9 8395 9639 bd13 983a 60e3 c6b7
00000140: 0c54 7436 ca38 30b7 4e00 81ba d40b cbb8
00000150: 9ba9 00ba 3353 f52d 9c32 4538 b977 27ba
00000160: d495 0f2c 2058 8aba 40b8 d0ba 92a4 a6ba
00000170: 729e 02bb e4fe 0a3b 0cf5 d23a 2a8e 803a
00000180: 0d8f 2cba 557e b038 ba6a 2aba 8db4 b8b9
00000190: e9b4 013a 52e0 f3b7 5064 bf39 5d84 8db8
000001a0: f95e 62b8 3255 acb9 b8f0 c237 9474 08b9
000001b0: 1b4c 8c39 ce73 113a 2954 15b9 152f c0b9
000001c0: f026 58b7 1281 96b7 bae0 133a 352e 09b8
000001d0: cbdd f039 9187 61ae 685c be37 88cd 993a
000001e0: 12f7 8d2b 7b54 daba cc06 a538 5b46 16bb
000001f0: ed68 97ba d7ba 323b 691d ed37 bc1a 0e3b
00000200: 5e26 d038 aad8 66b9 72db 3c39 5aa4 0eb8
00000210: 7c49 54b9 ab11 e037 4cf3 2db9 34b9 0737
00000220: df8d e837 5c11 98b9 db99 ad37 a919 2e3a
00000230: ed15 1039 5931 0bb8 eb53 5eba cd09 c3b9
00000240: fc40 af36 971b abb7 eddd 8c38 97ca 1338
00000250: d7bd 1838 d066 da2d d14c 2fba dfc0 14ba
00000260: 156c 00ae 56a8 483a d91a b639 9df6 a43a
00000270: b9cf 80b9 9646 aaba 69f8 9ab6 a697 0eba
00000280: fa24 67ba 5f4c 303a 05b6 35b9 c75d 9b39
00000290: 0dd1 2b3a 1009 1aba 262d 633a 07e3 91b8
000002a0: af57 8bb8 1e82 40ba 1576 e4b9 2154 673a
000002b0: 4b2e 9d39 3bb6 ce3a 8ed7 253a 9b91 37b9
000002c0: 37e0 4238 6dc4 8f37 3f15 b139 6a73 88b8
000002d0: f1e5 7e39 0ce3 38ae ce76 8cb8 b8e7 7b3a
000002e0: b024 4eac b127 e8ba 6aaa ba39 acb4 d9ba
000002f0: 2800 023b 45d8 3d3b c7d8 b9ba 6b88 023b
00000300: 3a84 0aba 6d41 8b38 6fac d5b9 d743 07b7
00000310: 9482 0f3a 52da 74b9 a0c4 3e3a 0be0 1eb8
00000320: 7b21 d3b7 87ee dfb9 2470 bc37 22f6 f239
00000330: 4cdb 6a39 f10c 1cb9 7123 f439 5578 db38
00000340: 542e dbb6 48f1 3ab7 4985 5c38 6508 b6b8
00000350: 2645 cd38 fef3 91ad a8aa 10ba 9ff4 c639
00000360: 9531 d4ad 0799 b8ba 7917 b939 215b d0ba
00000370: b909 2e3a ebb6 053b 67a0 f0b9 c459 263b
00000380: a061 8439 623d 40ba dbf2 ad38 a209 be38
00000390: a7a6 f0b9 454e 1f39 8305 60b9 1674 7d37
000003a0: db79 b536 9fa4 6f39 27ee b3b7 4b5f d7b9
000003b0: b815 5939 a3de 283a ca47 0f3a 0ef9 50ba
000003c0: b853 8735 5a68 b037 acb9 c7b9 100f 5bb7
000003d0: 22fe 71b8 9b26 172e ff40 3639 7b01 4eba
000003e0: 5072 052d f50e df39 65a7 bbb9 e1ac 6539
000003f0: 16cb a939 ada2 ccba 2da0 a439 fbb9 9bba
