logs/rsl_rl/franka_reach/2025-06-16_20-11-58/model_250.pt (torch, 172795 bytes, 36 tensors)

std f4 [7]
0.34697008 0.30776352 0.343515 0.29861137 0.30573577 0.41690573 0.31005627
00000000: 10a6 b13e 2e93 9d3e 33e1 af3e 97e3 983e
00000010: 6689 9c3e ab74 d53e b2bf 9e3e

actor.0.weight f4 [64, 32]
-0.27902788 0.21505424 -0.4559627 0.3906974 0.078341395 0.2254073 0.10739331 0.43336204
0.68844545 0.052108172 0.27404937 -0.0017396461 0.25031102 0.060078464 -0.16153884 -0.06355783
-0.46563423 -0.03885232 -0.6778561 -0.058332223 0.72976327 -0.019369738 -0.66226405 -0.014149292
-0.14115462 -0.05852267 -0.32216117 -0.27490902 0.07393417 -0.2879915 0.03927948 -0.19858779
0.06376514 0.03717683 -0.25969005 0.7814856 0.85633373 0.4069849 0.068079464 -0.120322235
0.30354187 0.031098507 -0.18049513 0.39800853 0.06865726 -0.17200834 0.12509999 0.1891311
0.7993732 -0.37504035 -0.859824 -1.8957916 -0.4731881 0.14458592 0.27183354 0.15912381
0.0562606 0.083875805 0.027465796 -0.16583848 0.08246093 -0.10303688 0.13502327 -0.031371478
0.6991232 -0.12569419 0.9039244 -0.20708025 0.23311058 -0.0076348493 0.33719048 0.59536093
0.87769204 -0.08982718 0.003399268 -0.23078907 0.08465996 0.08861863 0.11164131 0.11073722
-0.09721179 0.51735854 0.05454505 -1.6830269 0.29632163 -0.041402023 -0.23207009 0.1175887
-0.0910782 -0.02984682 0.14566536 0.032829117 0.06762713 0.32831112 -0.4518356 -0.43174583
-1.0612174 0.018708473 -0.05665606 -0.7872213 -0.01698431 -0.37468734 0.33929902 -0.13253303
0.15918045 -0.21969207 -0.422256 0.07420964 0.05027515 -0.2855248 0.066487305 0.1441929
1.126638 0.6754836 -0.25907257 0.4751966 0.47331694 -0.15505303 -0.56804377 -0.18361533
-0.0018705487 -0.50762373 -0.37058404 -0.1228194 -0.46218655 -0.37584373 0.17355958 -0.257416
-0.032480504 -0.1714322 0.023280382 0.29066396 -0.60913485 0.9735962 0.048761427 -0.15873492
-0.17300737 -0.18755174 -0.13579337 0.02486436 0.090381175 -0.1490668 -0.014409333 -0.07656986
-0.28709137 -0.42962492 -0.4326256 1.8153303 0.8455845 -0.13650148 -0.29292017 -0.83630997
-0.018248167 -0.6217716 0.050306562 0.10307466 -0.17432378 0.087528616 -0.28156433 -0.0036326854
0.47690594 -0.5517095 0.41555476 -0.14444718 0.30843776 1.2531557 -0.0012522406 0.35512215
0.10566844 -0.15303989 0.04793067 -0.05126557 -0.12982942 0.036643654 0.12680045 -0.10431636
0.07778801 -0.6418219 0.038879294 -1.1778022 -0.7781412 0.08364729 0.1390264 0.9205692
0.09093616 0.18388216 0.23752265 0.07292261 0.083394855 0.027581722 0.04965826 -0.06098473
0.07905366 -0.012791693 0.08122929 -0.53113323 -0.06261722 -0.46382543 0.13585018 0.25155938
0.14994611 0.09639106 0.056981247 0.063495405 -0.2436756 -0.25533518 0.13238339 -0.073188365
0.79215 0.1698733 -0.16206044 -0.2681252 -0.003694348 -0.1074478 -0.50634515 0.35078418
0.024144353 0.18515453 0.40710956 -0.09175367 -0.13425703 0.11327039 -0.06735972 -0.07718049
1.0006297 0.01588156 1.0995111 -0.25701204 -0.49008563 -0.41921297 -0.803469 0.15834789
0.08440957 0.033084407 0.048237126 0.29003567 0.4046788 0.14392939 -0.04093813 -0.1283375
0.55409634 0.46029684 0.042260993 -1.673599 -0.53588754 -0.12471143 -0.54016453 0.23972781
-0.055259913 -0.17600505 -0.047474425 -0.55152875 0.07873246 -0.19945025 -0.019132493 -0.043155234
00000000: bedc 8ebe 2e37 5c3e f173 e9be 7d09 c83e
00000010: 7471 a03d 2cd1 663e 06f1 db3d a1e1 dd3e
00000020: f63d 303f 616f 553d 3350 8c3e d604 e4ba
00000030: c428 803e d614 763d 706a 25be 9c2a 82bd
00000040: 9c67 eebe 9c23 1fbd fa87 2dbf c5ed 6ebd
00000050: c4d1 3a3f 49ad 9ebc 238a 29bf 6fd2 67bc
00000060: d68a 10be 78b5 6fbd 4ff2 a4be e0c0 8cbe
00000070: cc6a 973d 9f73 93be 85e3 203d 995a 4bbe
00000080: 4c97 823d bb46 183d 18f6 84be 710f 483f
00000090: b038 5b3f 5360 d03e 3f6d 8b3d 816b f6bd
000000a0: d769 9b3e 4cc2 fe3c b7d3 38be c6c7 cb3e
000000b0: 2d9c 8c3d f422 30be 361a 003e 95ab 413e
000000c0: b9a3 4c3f 4a05 c0be 6d1d 5cbf 4da9 f2bf
000000d0: b645 f2be 550e 143e c42d 8b3e 5af1 223e
000000e0: 8471 663d 14c7 ab3d f3ff e03c 90d1 29be
000000f0: 47e1 a83d 0005 d3bd 8a43 0a3e 617f 00bd
00000100: bdf9 323f fab5 00be 9767 673f d80c 54be
00000110: 8ab4 6e3e c22d fabb 3ba4 ac3e 9369 183f
00000120: 6db0 603f 50f7 b7bd 41c6 5e3b f853 6cbe
00000130: 3362 ad3d af7d b53d 33a4 e43d 32ca e23d
00000140: fa16 c7bd 9c71 043f a16a 5f3d 6d6d d7bf
00000150: 78b7 973e 2b95 29bd c8a3 6dbe 58d2 f03d
00000160: 3587 babd 5181 f4bc 4d29 153e d377 063d
00000170: 1880 8a3d 6518 a83e ff56 e7be ca0d ddbe
00000180: f9d5 87bf 8342 993c 2f10 68bd 5687 49bf
00000190: ae22 8bbc 05d7 bfbe 9ab8 ad3e bdb6 07be
000001a0: 3300 233e f5f6 60be f031 d8be 39fb 973d
000001b0: 51ed 4d3d 4e30 92be 7f2a 883d 4ea7 133e
000001c0: ad35 903f 7eec 2c3f 29a5 84be f84c f33e
000001d0: 9956 f23e 39c6 1ebe 516b 11bf a805 3cbe
000001e0: 332d f5ba a1f3 01bf 31bd bdbe bd88 fbbd
000001f0: b7a3 ecbe 976e c0be 9ab9 313e 08cc 83be
00000200: 470a 05bd ec8b 2fbe 80b6 be3c e8d1 943e
00000210: 43f0 1bbf 9a3d 793f 10ba 473d 688b 22be
00000220: d828 31be 900d 40be 6b0d 0bbe 58b0 cb3c
00000230: c419 b93d f8a4 18be 1f15 6cbc a9d0 9cbd
00000240: a4fd 92be ccf7 dbbe 1a81 ddbe be5c e83f
00000250: 3a78 583f 0bc7 0bbe a2f9 95be 6918 56bf
00000260: 2e7d 95bc 6c2c 1fbf 410e 4e3d cf18 d33d
00000270: ef81 32be 3442 b33d 3329 90be 5912 6ebb
00000280: 042d f43e d53c 0dbf 98c3 d43e f6e9 13be
00000290: 8eeb 9d3e 6867 a03f 3922 a4ba 92d2 b53e
000002a0: b268 d83d 7db6 1cbe f352 443d d9fb 51bd
000002b0: 01f2 04be a817 163d fad7 013e d1a3 d5bd
000002c0: 524f 9f3d 714e 24bf e53f 1f3d 39c2 96bf
000002d0: 4334 47bf 454f ab3d f05c 0e3e 6caa 6b3f
000002e0: bd3c ba3d 9b4b 3c3e 2339 733e 7358 953d
000002f0: ecca aa3d 10f3 e13c 7666 4b3d 20cb 79bd
00000300: e3e6 a13d 4094 51bc 8b5b a63d 59f8 07bf
00000310: 753d 80bd 877a edbe 4f1c 0b3e 64cc 803e
00000320: 798b 193e ad68 c53d 2b65 693d e109 823d
00000330: 1986 79be 4bbb 82be 838f 073e c8e3 95bd
00000340: 58ca 4a3f 44f3 2d3e 2cf3 25be b547 89be
00000350: e01c 72bb 980d dcbd d69f 01bf fc99 b33e
00000360: 61ca c53c 2699 3d3e aa70 d03e 59e9 bbbd
00000370: ad7a 09be 4efa e73d e5f3 89bd ce10 9ebd
00000380: a214 803f 0c1a 823c c8bc 8c3f 1597 83be
00000390: 81ec fabe 15a3 d6be 25b0 4dbf f325 223e
000003a0: edde ac3d 8483 073d 4b94 453d 8e7f 943e
000003b0: 0f32 cf3e 3a62 133e beae 27bd e86a 03be
000003c0: 42d9 0d3f 07ac eb3e dd19 2d3d 7e38 d6bf
000003d0: ed2f 09bf b568 ffbd 3948 0abf 357b 753e
000003e0: 3858 62bd ab3a 34be 8b74 42bd fd30 0dbf
000003f0: 7c3e a13d b03c 4cbe bfbb 9cbc 8bc3 30bd

actor.0.bias f4 [64]
-0.2499969 -0.2153458 -0.62049586 -0.014159618 0.08685918 -0.32541034 -0.39495686 -0.013181021
0.32627332 0.23396598 -0.110088415 -0.0044959327 -0.11343912 -0.25071168 -0.60263836 -0.30499256
0.66392004 0.23752885 0.27670383 0.09431385 0.14428495 0.22062981 -0.3004914 0.12854183
-0.6363637 0.70610833 -0.080840416 -0.39615625 -0.09468849 0.15933308 -0.13499261 0.44239596
-0.71765447 -0.18940352 0.3075077 -0.032762066 0.014748188 0.053625003 -0.5401378 -0.28720608
0.07387577 -0.06336962 0.56711406 -0.13162526 0.054361552 0.089831084 -0.22852817 -0.030047955
0.464457 -0.5212355 0.04830629 -0.20487149 0.034948263 -0.22985142 -0.5634194 -0.28916326
-0.41691843 0.004621404 0.16565526 0.27605593 -0.07843594 0.25969604 0.28595832 -0.097683966
00000000: 30ff 7fbe 9c83 5cbe d1d8 1ebf befd 67bc
00000010: 3ae3 b13d 2f9c a6be c937 cabe 36f5 57bc
00000020: 4c0d a73e c794 6f3e 0976 e1bd 9e52 93bb
00000030: c552 e8bd 485d 80be 8246 1abf fc27 9cbe
00000040: aaf6 293f c33a 733e 20ac 8d3e 9f27 c13d
00000050: 6fbf 133e c8ec 613e 02da 99be 78a0 033e
00000060: bbe8 22bf 84c3 343f a98f a5bd fed4 cabe
00000070: 0aec c1bd 3628 233e 813b 0abe b981 e23e
00000080: 34b8 37bf fff2 41be a671 9d3e 8431 06bd
00000090: 62a2 713c e4a5 5b3d 7946 0abf ad0c 93be
000000a0: 2e4c 973d eec7 81bd 632e 113f c6c8 06be
000000b0: 38aa 5e3d 5cf9 b73d 4a03 6abe 2127 f6bc
000000c0: 4fcd ed3e b16f 05bf d1dc 453d d5c9 51be
000000d0: e925 0f3d 2c5e 6bbe 413c 10bf 350d 94be
000000e0: 5576 d5be 266f 973b 88a1 293e 3457 8d3e
000000f0: 06a3 a0bd e1f6 843e 2169 923e 880e c8bd

actor.2.weight f4 [64, 64]
-0.13770315 0.07873811 0.3230166 0.14840041 -0.08998052 0.22361378 0.28905094 -0.046349987
0.1742258 -0.10320578 0.20615418 -0.037855744 0.033116516 0.3049682 0.15903986 -0.10727712
0.010072845 0.1934967 0.10512906 -0.035198517 -0.1346985 0.3230459 -0.089707315 0.011816963
0.034499016 -0.7256931 -0.023576757 -0.26732814 -0.26987213 -0.055303775 -0.13091588 -0.047179446
-0.29170066 0.2566083 0.09133907 -0.5328938 0.06832503 0.006073417 0.35616466 0.043367207
0.025772378 0.0320166 0.25305933 0.018398156 -0.0066880905 0.038169917 -0.08777064 0.20796058
-0.15414515 0.06825217 -0.1475134 -0.45190012 -0.025014304 -0.0007372969 -0.40850052 0.06620396
0.11237987 -0.18514758 0.08178871 -0.40908995 -0.10307421 0.11459951 0.094786696 -0.124464124
0.056683466 0.16036744 -0.009249282 0.13056359 -0.1686574 0.045371596 -0.018491732 0.042297497
0.10461564 0.30029064 0.08631489 0.008316133 -0.060888585 0.21506034 0.1267162 -0.1051323
-0.08453513 -0.060873114 0.06449978 0.04227141 0.07408382 0.009295925 0.0057880664 0.07692261
0.0823721 -0.03497066 -0.07775509 -0.035882585 -0.16002178 0.06335124 -0.15752465 0.203218
0.13262837 -0.014552982 -0.19219245 -0.25669944 -0.0154394265 -0.07099947 0.07213748 0.1321034
-0.26294187 -0.15999444 0.04719997 -0.05405807 0.040414684 0.06670565 -0.0073205 -0.1286904
-0.18520872 -0.077783935 0.0005384873 0.22177927 -0.09434557 0.015465158 0.029449139 0.15217987
-0.08894981 -0.26536408 0.042919956 0.13188413 0.15445493 0.10618879 0.03339466 -0.29987943
0.3475904 -0.13288966 -0.34251514 -0.29281706 0.24734682 -0.3264968 -0.037955176 -0.07481578
-0.04304355 -0.13715373 -0.14244436 0.07955611 -0.034166683 0.06972232 0.19894704 0.055989098
-0.35754055 -0.11476487 -0.02408572 -0.14062756 -0.08757181 0.16603324 0.28899026 -0.08157361
0.15983099 -0.21195994 -0.07864471 0.062217765 0.22314617 0.13055575 0.06337224 -0.13553765
0.25135505 0.20895289 -0.10828403 -0.2447493 -0.21853243 -0.22322896 -0.13843967 -0.08825116
-0.022218771 -0.124196514 -0.1927032 -0.04276095 0.3030224 0.04853099 0.115704164 -0.09676743
0.14626586 0.053366598 -0.0026909343 0.11198945 0.04726659 -0.18745509 0.10719712 -0.06541537
0.266318 -0.025248786 -0.32579413 -0.021330496 0.044435095 0.023048239 -0.17293161 5.8110214e-05
0.06643389 -0.02185895 -0.035937026 -0.377396 0.18594435 0.2455156 0.14863096 -0.065187715
0.101861924 0.33735168 -0.13231587 -0.08488829 0.016729621 -0.16062136 -0.0987938 -0.018838163
0.033805724 0.07196779 0.10625505 0.2666683 0.15839417 0.08908217 -0.13461995 0.1056794
-0.34531903 0.087492816 -0.10824433 -0.19589639 -0.025859008 0.122023046 0.13488363 0.05484893
0.09669753 -0.08601788 -0.034455083 -0.14002989 0.26171935 -0.004720732 0.019128207 0.007882469
0.10809166 -0.07933477 0.034662865 0.04364075 -0.057821795 0.021879133 -0.03773123 0.14523073
0.008581894 -0.056169365 -0.06501832 0.09990686 0.013845257 0.0036523165 0.19620933 0.035797965
0.1370006 -0.036180057 0.08244619 0.16290739 0.020808581 0.02082858 0.10027967 0.17199485
00000000: 0e02 0dbe 7241 a13d 6f62 a53e 47f6 173e
00000010: b547 b8bd 03fb 643e 7cfe 933e 7cd9 3dbd
00000020: 4068 323e 8d5d d3bd 151a 533e a00e 1bbd
00000030: 2fa5 073d cb24 9c3e 58db 223e 1bb4 dbbd
00000040: 9308 253c 0024 463e e84d d73d 522c 10bd
00000050: 67ee 09be 4666 a53e 78b8 b7bd ef9b 413c
00000060: d74e 0d3d 06c7 39bf 0b24 c1bc 3cdf 88be
00000070: ae2c 8abe 3686 62bd d00e 06be 3c3f 41bd
00000080: ca59 95be 2a62 833e fa0f bb3d ba6b 08bf
00000090: feed 8b3d 8403 c73b 375b b63e d0a1 313d
000000a0: 9820 d33c d723 033d fe90 813e bbb7 963c
000000b0: c527 dbbb 0f58 1c3d 18c1 b3bd 9ef3 543e
000000c0: 3ad8 1dbe cbc7 8b3d c10d 17be 745f e7be
000000d0: ccea ccbc 2847 41ba fb26 d1be f195 873d
000000e0: 6b27 e63d 5497 3dbe d780 a73d 3d74 d1be
000000f0: 9218 d3bd 26b3 ea3d 871f c23d 0ce7 febd
00000100: ec2c 683d 5d37 243e 4d8a 17bc 76b2 053e
00000110: 87b4 2cbe 91d7 393d f97b 97bc 2440 2d3d
00000120: ba40 d63d b2bf 993e dcc5 b03d 6440 083c
00000130: 4f66 79bd c738 5c3e e4c1 013e 9a4f d7bd
00000140: c120 adbd 1656 79bd 7618 843d c924 2d3d
00000150: 42b9 973d ef4d 183c d2a9 bd3b 9a89 9d3d
00000160: b4b2 a83d 653d 0fbd 103e 9fbd 9ef9 12bd
00000170: c0dc 23be 4bbe 813d 244e 21be 6118 503e
00000180: bbcf 073e a16f 6ebc 19ce 44be 1c6e 83be
00000190: a6f5 7cbc 2c68 91bd d1bc 933d 1d46 073e
000001a0: 51a0 86be 95d5 23be c154 413d ff6b 5dbd
000001b0: de89 253d f99c 883d cee0 efbb 6bc7 03be
000001c0: 5ba7 3dbe 2f4d 9fbd 4529 0d3a 1b1a 633e
000001d0: 4038 c1bd 9361 7d3c 523f f13c 0ad5 1b3e
000001e0: 512b b6bd cddd 87be d6cc 2f3d a20c 073e
000001f0: 6f29 1e3e 8279 d93d d7c8 083d cc89 99be
00000200: 5ef7 b13e 3a14 08be 255e afbe 1eec 95be
00000210: 7c48 7d3e 972a a7be e376 1bbd 0439 99bd
00000220: 6f4e 30bd 0772 0cbe efdc 11be 50ee a23d
00000230: 5df2 0bbd 93ca 8e3d c6b8 4b3e d354 653d
00000240: 8e0f b7be d809 ebbd 6a4f c5bc ac00 10be
00000250: d958 b3bd 9e04 2a3e 88f6 933e 1110 a7bd
00000260: bcaa 233e 070c 59be 7a10 a1bd 0ed8 7e3d
00000270: 6e80 643e 68b0 053e 4ec9 813d 62ca 0abe
00000280: 9cb1 803e bff7 553e 04c4 ddbd 8f9f 7abe
00000290: f7c6 5fbe 2296 64be 21c3 0dbe 06bd b4bd
000002a0: 2404 b6bc be5a febd fd53 45be 1b26 2fbd
000002b0: c125 9b3e 6ec8 463d 4ef6 ec3d 012e c6bd
000002c0: b8c6 153e ef96 5a3d 635a 30bb ba5a e53d
000002d0: 9d9a 413d 3af4 3fbe 2a8a db3d 7ef8 85bd
000002e0: d55a 883e 8bd6 cebc 7dce a6be 4bbd aebc
000002f0: 9301 363d a9cf bc3c fc14 31be 5ebb 7338
00000300: 7e0e 883d 8a11 b3bc b432 13bd 0c3a c1be
00000310: 3268 3e3e 7168 7b3e b732 183e 2381 85bd
00000320: fc9c d03d 5cb9 ac3e d07d 07be e9d9 adbd
00000330: 8f0c 893c ed79 24be 6754 cabd 7e52 9abc
00000340: df77 0a3d d963 933d 3f9c d93d bf88 883e
00000350: 1532 223e b670 b63d d0d9 09be 716e d83d
00000360: a8cd b0be 6f2f b33d 34af ddbd 1099 48be
00000370: 45d6 d3bc 38e7 f93d ef1e 0a3e 46a9 603d
00000380: 5b09 c63d 242a b0bd c620 0dbd ff63 0fbe
00000390: 1400 863e 5fb0 9abb c2b2 9c3c 7925 013c
000003a0: 295f dd3d 457a a2bd a6fa 0d3d a5c0 323d
000003b0: 8cd6 6cbd de3b b33c 108c 1abd 5db7 143e
000003c0: 139b 0c3c d911 66bd 5328 85bd f89b cc3d
000003d0: 38d7 623c b45b 6f3b 19eb 483e e3a0 123d
000003e0: e349 0c3e 8a31 14bd 8cd9 a83d 32d1 263e
000003f0: c276 aa3c b3a0 aa3c 6d5f cd3d 6b1f 303e

actor.2.bias f4 [64]
-0.37061673 -0.059125226 -0.16659634 0.121615656 -0.2421837 -0.3028425 -0.108151056 -0.37002075
-0.077657886 -0.2131745 -0.3641505 -0.21069415 -0.23120835 -0.004735663 -0.11984506 -0.08181855
-0.25754154 -0.53864485 -0.24075375 -0.32312155 -0.46554753 -0.27615967 -0.22797117 -0.069471054
-0.34116003 -0.5279688 -0.36633062 -0.22518533 -0.08189546 -0.29350424 0.2167572 -0.42134523
-0.10243428 -0.18683824 -0.5618456 -0.4462487 -0.54916143 -0.32683676 -0.19275011 -0.188705
-0.42664737 -0.29875323 -0.11604097 -0.039079122 -0.23552343 -0.47525278 -0.008450002 -0.13879465
-0.008978646 -0.26112893 -0.23393135 -0.43098992 -0.28352022 -0.235198 -0.30862015 -0.3712613
-0.13894813 -0.26717168 -0.21569777 -0.43708697 -0.3329865 -0.27282727 -0.19798416 0.04881586
00000000: 7ac1 bdbe 4b2d 72bd 3b98 2abe a111 f93d
00000010: 01ff 77be 2c0e 9bbe 4d7e ddbd 5c73 bdbe
00000020: 190b 9fbd 6b4a 5abe ef71 babe 35c0 57be
00000030: e2c1 6cbe 9f2d 9bbb 5471 f5bd 7c90 a7bd
00000040: 7cdc 83be a1e4 09bf 2788 76be 3070 a5be
00000050: 3f5c eebe cd64 8dbe 4671 69be d746 8ebd
00000060: 87ac aebe f728 07bf b08f bbbe fc96 66be
00000070: cfb8 a7bd 3046 96be 99f5 5d3e 90ba d7be
00000080: 10c9 d1bd 8652 3fbe 1dd5 0fbf b67a e4be
00000090: d895 0cbf 2657 a7be 4960 45be e23b 41be
000000a0: 8671 dabe 2ff6 98be e3a6 edbd 6e11 20bd
000000b0: 0e2d 71be 5554 f3be e171 0abc 2f20 0ebe
000000c0: 2c1b 13bc b1b2 85be b38b 6fbe b6aa dcbe
000000d0: 9029 91be bfd7 70be 7603 9ebe f615 bebe
000000e0: 6b48 0ebe baca 88be e0df 5cbe ddc9 dfbe
000000f0: 357d aabe 04b0 8bbe 5cbc 4abe 24f3 473d

actor.4.weight f4 [7, 64]
0.036808338 -0.03388648 -0.032236293 0.019107116 0.08634706 -0.021383133 0.08241274 -0.06707201
0.018523104 0.025641464 -0.005729108 0.12745178 0.0334825 -0.00043578932 -6.352223e-05 0.004213791
0.07110529 -0.14827919 -0.0030186852 -0.04191702 -0.035594326 0.0034880152 -0.007002191 0.16429575
0.017341577 0.14460424 0.030268772 0.00071935385 -0.055270378 0.14084686 0.015540771 0.18382925
0.15729854 -0.08317654 0.03191895 0.011997951 -0.12943074 -0.017083384 -0.08620711 0.0928008
0.056791216 0.17768423 -0.10468739 0.0027237905 -0.14567584 0.11388025 0.04291258 0.0011151211
0.06322164 -0.0002612907 0.14783488 -0.034079555 0.0039877472 -0.026179088 0.04791943 0.028468348
-0.03631492 -0.09928454 0.024501998 -0.11546092 0.2853712 0.19481799 0.14737023 -0.07659682
-0.0022005779 0.006674477 0.008147266 0.0026868442 -0.026619826 0.10376777 0.016664827 0.030698508
0.015894122 0.029697398 -0.11640808 -0.09331176 0.00162925 -0.013705004 -0.070342846 0.001796614
-0.11336132 -0.19900358 -0.019095728 0.06836736 -0.14631012 -0.017284894 0.017910836 -0.107997574
0.003289039 -0.036185946 -0.023538165 -0.029057505 0.03501355 0.011221071 0.13798945 0.036110904
0.220965 0.056494746 -0.2558235 -0.066645585 -0.1664238 -0.046497177 -0.024766918 1.4743373e-05
-0.07633052 -0.2676178 0.0800061 0.008409881 0.013261371 -0.10908305 0.057922266 -0.0015261826
0.027193226 -0.06851228 0.061707415 0.0065501947 0.062132135 -0.18593128 0.0033658165 -0.09664309
0.08430549 -0.056595393 -0.090040065 -0.07811832 0.011019276 -0.03868017 0.05390687 0.020941406
0.17685384 0.0060041933 0.011662647 -0.01976738 -0.038616147 -0.038654577 -0.0246323 -0.047025952
-0.021498367 0.0056276247 -0.14590853 -0.08326991 -0.05954989 0.036986176 -0.14575537 -0.08286232
-0.2262487 -0.0060869576 -0.005492033 0.03170909 0.026352651 -0.023155348 -0.11530891 0.1046762
-0.033210874 0.1269757 0.06388457 0.011694679 0.0131001305 -0.07816205 -0.032999806 0.26922163
0.08404919 -0.11481033 -0.00203068 -0.0875438 0.0062351874 -0.0043074437 -0.06726389 -0.03884505
0.085572004 0.23461969 -0.0644394 -0.0038004273 0.15838963 0.11683288 0.044883538 -0.0076297084
0.007753401 -0.08709741 0.12015136 0.07906948 -0.11022358 -0.19032553 0.02815587 0.18127036
-0.031140242 0.07477338 0.040629152 -0.23667018 0.1590623 0.35174742 0.021815194 -0.007021326
-0.12088181 -0.01885831 -0.026984995 0.014452626 -0.04031544 -0.0251143 0.18450248 0.09453447
-0.0059159473 -0.05125647 0.11153306 0.015884059 -0.022538748 -0.043115612 -0.30296582 -0.007844066
0.033741534 -0.04677849 -0.006732636 0.041235033 0.018002067 0.0133876 0.069008715 0.0061025205
-0.01810417 0.096886806 0.16635768 0.02675469 -0.062447354 0.09433943 -0.016600061 0.027000718
-0.13061753 0.02444847 -0.0906874 -0.2226846 0.12749785 -0.024285076 -0.092174 0.03417134
-0.17518799 -0.029209634 -0.111546814 -0.0077079567 -0.055967167 -0.14447825 0.026712336 0.10689363
-0.05508635 -0.18240386 -0.098740645 0.01740754 0.055437393 0.03395189 -0.18205158 -0.045719128
-0.10596946 -0.05702567 0.02727856 -0.2446149 0.020288607 0.20341 -0.00502844 0.027027875
00000000: 57c4 163d 8dcc 0abd 340a 04bd 8786 9c3c
00000010: bad6 b03d ae2b afbc 03c8 a83d 0d5d 89bd
00000020: c4bd 973c 0c0e d23c 3ebb bbbb b882 023e
00000030: f224 093d a77a e4b9 3d37 85b8 d713 8a3b
00000040: a69f 913d 80d6 17be 22d5 45bb 2eb1 2bbd
00000050: 5bcb 11bd 2f97 643b a372 e5bb 253d 283e
00000060: ec0f 8e3c 2213 143e 37f6 f73c 0593 3c3a
00000070: 3163 62bd 293a 103e b89e 7e3c bc3d 3c3e
00000080: de12 213e 7658 aabd 72bd 023d 0e93 443c
00000090: 7e89 04be 74f2 8bbc 5a8d b0bd 590e be3d
000000a0: e89d 683d dbf2 353e 5866 d6bd 9f81 323b
000000b0: 0c2c 15be 0c3a e93d 1ac5 2f3d 4129 923a
000000c0: 597a 813d d8fd 88b9 0762 173e 0197 0bbd
000000d0: a6ab 823b 8775 d6bc 2a47 443d 7436 e93c
000000e0: f4be 14bd b155 cbbd 6ab8 c83c c676 ecbd
000000f0: 2d1c 923e 5e7e 473e 39e8 163e cbde 9cbd
00000100: 9237 10bb 92b5 da3b 1c7c 053c c415 303b
00000110: d211 dabc 3284 d43d ad84 883c 707b fb3c
00000120: 6434 823c f547 f33c 5c67 eebd 3c1a bfbd
00000130: 8f8c d53a f48a 60bc e90f 90bd 5d7c eb3a
00000140: fb29 e8bd 98c7 4bbe a56e 9cbc 3004 8c3d
00000150: 52d2 15be 0d99 8dbc bfb9 923c d52d ddbd
00000160: eb8c 573b b737 14bd 1cd3 c0bc 010a eebc
00000170: 5e6a 0f3d 95d8 373c 1b4d 0d3e 07e9 133d
00000180: a644 623e 0967 673d 4cfb 82be 7b7d 88bd
00000190: 006b 2abe d373 3ebd fee3 cabc 4e5a 7737
000001a0: 2d53 9cbd 3305 89be 3dda a33d 99c9 093c
000001b0: 3946 593c ef66 dfbd e63f 6d3d 310a c8ba
000001c0: 54c4 de3c 2b50 8cbd eac0 7c3d 04a3 d63b
000001d0: 447e 7e3d c564 3ebe 0895 5c3b d0ec c5bd
000001e0: 5ba8 ac3d 92d0 67bd ed66 b8bd 7ffc 9fbd
000001f0: 328a 343c 196f 1ebd 73cd 5c3d 508d ab3c
00000200: 2c19 353e d3be c43b b014 3f3c 33ef a1bc
00000210: f72b 1ebd 4354 1ebd adc9 c9bc 499e 40bd
00000220: 581d b0bc f067 b83b 0c69 15be 6a89 aabd
00000230: 96ea 73bd d17e 173d e540 15be b8b3 a9bd
00000240: bdad 67be 1a75 c7bb 83f6 b3bb 64e1 013d
00000250: 84e1 d73c 49b0 bdbc 1427 ecbd 7a60 d63d
00000260: 2008 08bd eb05 023e ead5 823d 0a9b 3f3c
00000270: eea1 563c 6d13 a0bd ce2a 07bd 6bd7 893e
00000280: fb21 ac3d ae21 ebbd 2815 05bb 2a4a b3bd
00000290: 8b50 cc3b 7525 8dbb a6c1 89bd fd1b 1fbd
000002a0: 6040 af3d 2540 703e cef8 83bd 9710 79bb
000002b0: e430 223e 1446 ef3d cdd7 373d a202 fabb
000002c0: 3e10 fe3b 2060 b2bd eb11 f63d 2eef a13d
000002d0: e6bc e1bd b2e4 42be 24a7 e63c f09e 393e
000002e0: d219 ffbc c922 993d c16a 263d ab59 72be
000002f0: 3ae1 223e 3d18 b43e c7b5 b23c 2713 e6bb
00000300: e290 f7bd be7c 9abc a30f ddbc b5ca 6c3c
00000310: ce21 25bd 81bc cdbc 38ee 3c3e 4a9b c13d
00000320: 90da c1bb 4ef2 51bd 726b e43d 491f 823c
00000330: 2ea3 b8bc ff99 30bd 561e 9bbe 6684 00bc
00000340: 9034 0a3d cd9a 3fbd 729d dcbb 11e6 283d
00000350: 1279 933c aa57 5b3c 7154 8d3d a7f7 c73b
00000360: 324f 94bc 976c c63d ab59 2a3e a72c db3c
00000370: ccc8 7fbd 0835 c13d dafc 87bc 9c30 dd3c
00000380: 9ac0 05be 2848 c83c 51ba b9bd 6f07 64be
00000390: cc8e 023e 7ff1 c6bc b9c5 bcbd 3ff7 0b3d
000003a0: 7b64 33be 0b49 efbc a872 e4bd 0793 fcbb
000003b0: d43d 65bd 1bf2 13be d4d3 da3c 0ceb da3d
000003c0: 39a2 61bd 14c8 3abe 8938 cabd 429a 8e3c
000003d0: 5212 633d 2311 0b3d bb6b 3abe fb43 3bbd
000003e0: 8406 d9bd c093 69bd 4977 df3c 547c 7abe
000003f0: 4b34 a63c b64a 503e 9dc5 a4bb 9069 dd3c

actor.4.bias f4 [7]
0.051858958 0.20130733 -0.17854062 0.1472489 0.20483923 -0.27874637 0.11276691
00000000: 0f6a 543d 8223 4e3e 5ad3 36be 6ac8 163e
00000010: 60c1 513e d8b7 8ebe 56f2 e63d

critic.0.weight f4 [64, 32]
-0.24360415 -0.013179967 -0.20661135 0.27419955 -0.2043845 0.066893786 -0.28543055 0.12324645
-0.015610388 -0.018286208 0.059930593 0.019172406 -0.008462119 0.015360857 -0.0065632467 -0.033889756
0.09248359 -0.032134224 0.16296116 1.1396155 0.53836477 0.044172157 -0.27283397 -0.578038
-0.12381091 0.08209565 -0.0141268745 -0.09100508 -0.038978845 -0.094041176 -0.019007513 -0.0063833212
-0.039424565 0.102755964 0.15517005 -0.03977531 0.2015401 0.056259137 0.21569464 -0.054364838
-0.029406358 0.0060441117 -0.0118852705 -0.023585118 -0.0077252514 -0.054336227 -0.07467988 0.01031733
-0.011704052 0.2337747 0.036352895 -0.952944 0.0024834534 0.06915417 0.24045675 0.17109662
-0.00956804 -0.046167284 0.062050708 0.04474992 0.0022976347 0.038718414 0.050708696 -0.030101897
-0.029643958 0.13744052 -0.107751004 -0.059661392 0.14156362 -0.07958228 -0.13176048 -0.0382988
0.06444757 -0.116204076 -0.0045403773 -0.05678229 -0.038062625 0.05669294 -0.016026756 0.08099529
0.17033756 0.029385393 -0.21888646 -0.5261189 0.067177355 0.054752752 0.024936887 -0.040774994
-0.08784575 0.051540006 0.051638786 0.005348868 0.11230467 -0.015674707 0.039647285 -0.009963778
-0.21616422 0.057230003 -0.14058755 -0.3369762 0.063320376 0.12115444 0.09519297 0.20778762
0.05071744 -0.047527097 -0.0130793825 -0.061734904 -0.021196797 0.02179486 -0.010173155 -0.016992727
-0.057816267 0.06663033 -0.30247772 -0.69873106 -0.093226396 -0.1239156 -1.0369712 0.21255058
0.16138682 -0.025045628 -0.012372639 0.015303884 -0.09019618 -0.044816088 0.05880033 0.06504008
-0.2925667 -0.07194683 -0.08740839 0.22943413 0.39428535 0.046458177 0.23875882 0.07780067
0.0047462946 -0.031197935 -0.024503674 -0.017681535 0.0046201493 0.0041405624 -0.0003530807 -0.019064542
-0.00929042 0.11587943 0.41436395 0.057453904 -0.07215437 0.04006016 -0.6166359 0.30253658
-0.14187904 0.0070421402 0.0425155 -0.042668417 0.03151869 -0.01396819 -0.02952904 0.056304947
-0.032936554 -0.07191677 -0.07340055 -0.0855294 0.076522075 0.13787532 -0.09080218 -0.07316214
0.10533491 0.045605507 -0.011003746 0.028452478 -0.025597591 -0.01254857 -0.010936023 0.008677247
0.1190501 -0.030667784 -0.46966475 -0.22807166 -0.32615107 -0.15116173 0.57038563 0.41512203
0.071133494 -0.024389226 0.08043306 0.04811328 0.00807259 0.008506163 0.03179643 -0.08843268
0.18371996 0.24508741 0.08940912 -0.12594794 -0.04845523 0.046406265 -0.1845018 -0.17290094
0.015903665 0.04120008 -0.00037838885 0.021444052 -0.033632115 0.008568531 -0.005715693 0.005184182
0.09951927 -0.0012250176 0.28486633 -2.4945774 0.031707786 0.14165713 -0.7696959 0.16680156
-0.03866777 -0.038237724 0.06367789 0.06719828 0.012470213 -0.015201012 0.032042198 -0.04740199
0.038948383 0.104165874 -0.06721491 -0.19681665 -0.1767465 -0.25448373 -0.15612198 0.14361966
0.08156445 -0.05254006 0.021891896 -0.00309995 0.011722505 0.013384294 0.00073513854 -0.00727346
-0.13772339 -0.083144836 0.0359184 0.29569665 -0.09007454 0.12722956 -0.54058355 -0.040825736
0.13271926 -0.08723067 -0.06380082 -0.054161575 0.006537395 -0.03454548 -0.035261232 -0.01924542
00000000: 5e73 79be caf0 57bc ed91 53be e263 8c3e
00000010: 2c4a 51be 9cff 883d f423 92be a368 fc3d
00000020: b6c2 7fbc f5cc 95bc c879 753d 730f 9d3c
00000030: b3a4 0abc 1bac 7b3c 8110 d7bb fccf 0abd
00000040: 0968 bd3d 2d9f 03bd 4adf 263e ecde 913f
00000050: 46d2 093f dded 343d e5b0 8bbe 4cfa 13bf
00000060: 9390 fdbd c421 a83d 6874 67bc df60 babd
00000070: 48a8 1fbd a998 c0bd a5b5 9bbc 2e2b d1bb
00000080: a77b 21bd b871 d23d e6e4 1e3e 6feb 22bd
00000090: 8760 4e3e fb6f 663d 0edf 5c3e aaad 5ebd
000000a0: 9ae5 f0bc af0d c63b 70ba 42bc 9435 c1bc
000000b0: 1b24 fdbb aa8f 5ebd c4f1 98bd 050a 293c
000000c0: 5ac2 3fbc a362 6f3e c6e6 143d 23f4 73bf
000000d0: 6fc1 223b b4a0 8d3d 4b3a 763e f433 2f3e
000000e0: 45c3 1cbc e819 3dbd e228 7e3d b14b 373d
000000f0: ea93 163b 3397 1e3d ecb3 4f3d 4198 f6bc
00000100: e3d7 f2bc 35bd 0c3e 8fac dcbd 815f 74bd
00000110: 0ef6 103e 09fc a2bd 38ec 06be 34df 1cbd
00000120: 16fd 833d 67fc edbd 72c7 94bb 8c94 68bd
00000130: 8ee7 1bbd db36 683d 8b4a 83bc dce0 a53d
00000140: f86c 2e3e a3b9 f03c c623 60be baaf 06bf
00000150: 4894 893d 6c44 603d 7148 cc3c ae03 27bd
00000160: 79e8 b3bd 9d1b 533d 3183 533d 8f45 af3b
00000170: feff e53d 3e68 80bc 3165 223d 1d3f 23bc
00000180: 275a 5dbe 026a 6a3d 2ff6 0fbe 2588 acbe
00000190: 1dae 813d d21f f83d 88f4 c23d 47c6 543e
000001a0: 17bd 4f3d c6ab 42bd e84a 56bc bddd 7cbd
000001b0: e8a4 adbc 228b b23c 4ead 26bc 5534 8bbc
000001c0: c0d0 6cbd 7c75 883d 5cde 9abe 0ae0 32bf
000001d0: 7bed bebd 76c7 fdbd 79bb 84bf dca6 593e
000001e0: 9642 253e 7d2c cdbc 9cb6 4abc 24bd 7a3c
000001f0: c6b8 b8bd 1391 37bd 9dd8 703d bc33 853d
00000200: 4dcb 95be dc58 93bd 2c03 b3bd c8f0 6a3e
00000210: c5df c93e ee4a 3e3d 317d 743e f555 9f3d
00000220: ce86 9b3b d092 ffbc eebb c8bc ded8 90bc
00000230: 9f64 973b 8ead 873b b01d b9b9 3e2d 9cbc
00000240: d936 18bc 3252 ed3d 8327 d43e c954 6b3d
00000250: acc5 93bd 1f16 243d dadb 1dbf 13e6 9a3e
00000260: bd48 11be c1c1 e63b bc24 2e3d 14c5 2ebd
00000270: be19 013d d6da 64bc e3e6 f1bc 04a0 663d
00000280: 7be8 06bd 1949 93bd 0753 96bd 0a2a afbd
00000290: 9bb7 9c3d 302f 0d3e 7ef6 b9bd 08d6 95bd
000002a0: d4b9 d73d d7cc 3a3d 0e49 34bc 2c15 e93c
000002b0: 0ab2 d1bc 8498 4dbc 012d 33bc 032b 0e3c
000002c0: 8ad0 f33d 013b fbbc e677 f0be 9e8b 69be
000002d0: 46fd a6be 24ca 1abe cb04 123f e08a d43e
000002e0: 70ae 913d eacb c7bc 17ba a43d 6e12 453d
000002f0: e642 043c 6f5d 0b3c f93c 023d 311c b5bd
00000300: 1621 3c3e 32f8 7a3e 211c b73d 7ff8 00be
00000310: fe78 46bd 7f14 3e3d 0aee 3cbe f20c 31be
00000320: 6748 823c 6ac1 283d 7e62 c6b9 70ab af3c
00000330: d4c1 09bd 0663 0c3c b54a bbbb 12e0 a93b
00000340: c2d0 cb3d c590 a0ba 00da 913e 28a7 1fc0
00000350: 06e0 013d 910e 113e ca0a 45bf 07ce 2a3e
00000360: 1862 1ebd 299f 1cbd 8e69 823d 409f 893d
00000370: dd4f 4c3c aa0d 79bc ae3e 033d 9728 42bd
00000380: 5788 1f3d eb54 d53d f9a7 89bd 4e8a 49be
00000390: 09fd 34be b14b 82be 71de 1fbe 0811 133e
000003a0: 430b a73d 3f34 57bd a256 b33c 8828 4bbb
000003b0: c00f 403c cc49 5b3c 50b6 403a 3456 eebb
000003c0: 5c07 0dbe d747 aabd 2c1f 133d 8d65 973e
000003d0: 0079 b8bd 7748 023e af63 0abf e338 27bd
000003e0: 8fe7 073e fea5 b2bd 01aa 82bd 87d8 5dbd
000003f0: a537 d63b 907f 0dbd 156e 10bd 92a8 9dbc

critic.0.bias f4 [64]
0.2052208 -0.17179438 -0.06031021 -0.1285212 -0.015713627 -0.13665278 0.0012280156 0.056611694
-0.010177989 0.01986988 0.12608886 0.019892132 -0.08550363 -0.052209917 0.10289242 0.0652137
-0.10486746 0.040074494 0.038835626 0.15648374 0.31563288 -0.1307918 0.12537575 0.004907038
0.03784208 -0.035696357 0.033433393 0.052479837 0.051869266 0.16396323 -0.11030857 0.08732592
-0.11469209 -0.08416535 0.035718743 -0.121787675 -0.03130946 0.2831173 -0.11164853 0.037649274
0.070192195 0.06990738 0.08100249 -0.23087102 -0.23032956 0.16490902 -0.10908445 -0.19674681
0.05559233 -0.047496554 -0.17824258 -0.16415831 0.15143509 -0.1028542 -0.10882563 -0.1374597
0.16611132 -0.058338262 -0.1337116 0.0031107697 -0.026990347 0.093015015 0.11593587 -0.06141639
00000000: 6725 523e deea 2fbe d707 77bd 109b 03be
00000010: ddb9 80bc b5ee 0bbe 5ef5 a03a aae1 673d
00000020: 94c1 26bc 29c6 a23c 701d 013e d3f4 a23c
00000030: 871c afbd 11da 55bd 43b9 d23d c38e 853d
00000040: c0c4 d6bd 2725 243d 1b12 1f3d 463d 203e
00000050: a29a a13e 49ee 05be 8062 003e 38cb a03b
00000060: 4c00 1b3d 5836 12bd 74f1 083d 19f5 563d
00000070: de74 543d fae5 273e 76e9 e1bd efd7 b23d
00000080: b0e3 eabd e25e acbd d14d 123d d16b f9bd
00000090: 593e 00bd c0f4 903e fca7 e4bd 2036 1a3d
000000a0: edc0 8f3d 9a2b 8f3d a2e4 a53d 7469 6cbe
000000b0: 83db 6bbe e9dd 283e ab67 dfbd ff77 49be
000000c0: c8b4 633d bf8b 42bd 3985 36be 1e19 28be
000000d0: cd11 1b3e 39a5 d2bd f9df debd 3cc2 0cbe
000000e0: 1619 2a3e 1af4 6ebd b2eb 08be 0ede 4b3b
000000f0: dc1a ddbc a87e be3d c96f ed3d c18f 7bbd

critic.2.weight f4 [64, 64]
-0.17262854 0.07942129 0.039720394 -0.017654141 -0.020661643 0.06301642 0.119938664 -0.112176396
-0.1272994 -0.35074645 -0.3184353 0.37584415 -0.020189233 0.16231377 -0.2442515 0.071596995
-0.1693184 0.6075439 -0.59209216 -0.35685742 -0.7066008 0.557147 -0.06961734 -0.21972826
-0.06511976 0.25883153 0.16755052 -0.09819777 -0.022942869 0.2281225 0.19938982 -0.24887174
0.0057658865 0.09547597 0.08779451 0.006218582 -0.23851317 -0.40195215 -0.008508286 -0.1426723
0.059936896 0.22478606 -0.23135841 0.1596943 0.09616982 -0.19754277 0.14028321 0.4562013
-0.4238125 0.018461727 0.010303837 0.53674483 -0.20043685 0.0153536005 -0.09507533 0.02025893
-0.26469553 -0.032224294 0.013115881 -0.039540883 -0.20929578 -0.10528664 -0.058335796 -0.12746494
-0.08511587 -0.08561506 0.04174778 0.045841176 -0.011300354 0.06948971 0.013959695 -0.04386868
-0.101708055 0.006708567 0.124335945 0.1359887 0.10230851 -0.009361751 0.0728898 0.02554441
0.13018271 -0.04267982 0.016503528 -0.11972659 0.025540765 0.076524444 -0.047704797 0.021859981
0.121763624 0.09141006 0.06438483 0.05230656 0.12231395 -0.087935135 0.060172953 0.06531603
0.04516344 -0.1563062 0.056922477 -0.14162573 -0.09924309 -0.032088622 0.061293017 0.13141766
0.03950098 0.030002322 0.0070988205 0.13756175 0.063176125 -0.053589877 0.03961009 0.03214245
-0.009653518 0.011505159 0.04794501 -0.023534432 -0.06702095 -0.15294708 -0.0033439593 -0.03250642
0.06211343 0.009986876 -0.0049673677 0.08156736 0.06995307 0.06114978 0.09065319 0.08780047
0.050975494 0.06928774 0.002601873 -0.09513665 0.071288586 0.0042644246 -0.06908258 0.10905118
-0.009555269 0.04466707 -0.066572785 -0.04431409 -0.06814937 0.058255177 -0.014599997 0.09994505
0.06640429 0.14287996 0.048017822 0.042447593 0.047508154 -0.08643528 -0.015669173 -0.07107591
-0.03794679 0.11588609 0.0003186135 -0.06980242 -0.034565765 0.10742465 0.07192765 0.0059399568
-0.0073286975 -0.062586084 0.06534322 -0.027993422 0.099505395 0.06915324 0.04572195 0.009666777
-0.040844195 -0.07678739 0.0048644627 -0.045814373 -0.097198136 -0.020952117 -0.066336885 -0.11028599
-0.034226574 0.103969604 0.10843192 -0.07910385 0.094421 0.071999185 0.13603982 0.022357611
0.04081641 0.019339021 0.030870311 -0.034535803 0.10421598 0.07776849 0.061662607 0.0063224556
0.007856323 -0.041837107 -0.00851566 -0.014061926 -0.024083743 -0.09133839 0.045041703 0.08809746
0.009580341 0.10462798 -0.03587522 0.055413153 -0.047017977 -0.09441737 0.11824594 0.070194475
0.0096030105 -0.012490417 0.008925261 0.12502801 -0.00047142254 0.16558516 0.051358853 0.071277305
-0.0011238018 -0.08955661 0.019267518 -0.08107747 -0.1011008 -0.02148209 -0.04920196 0.09378137
-0.01874402 -0.050752833 -0.0064074774 0.03149199 0.10219883 -0.089042194 -0.016047914 -0.015976796
0.12827139 -0.03877592 -0.010472262 0.032544773 0.013198468 -0.018374106 0.009247798 0.049803566
-0.085263625 0.14909296 0.063938096 0.013581393 -0.10050497 -0.00056059187 -0.038899727 -0.041995235
0.11706235 0.009152141 -0.07171691 0.12379277 0.016114924 -0.0461615 -0.027929466 -0.07396883
00000000: 89c5 30be a1a7 a23d dab1 223d 6b9f 90bc
00000010: 9b42 a9bc c10e 813d 67a2 f53d bdbc e5bd
00000020: c65a 02be 0a95 b3be f409 a3be a56e c03e
00000030: e463 a5bc 9535 263e 111d 7abe 72a1 923d
00000040: cd61 2dbe ff87 1b3f 5a93 17bf 04b6 b6be
00000050: cae3 34bf 30a1 0e3f 8993 8ebd 7200 61be
00000060: 825d 85bd 9185 843e 5d92 2b3e ea1b c9bd
00000070: aff2 bbbc f298 693e d82c 4c3e 3cd8 7ebe
00000080: c3ef bc3b e888 c33d 9ccd b33d 3fc5 cb3b
00000090: cc3c 74be accc cdbe 5766 0bbc b018 12be
000000a0: 6480 753d 512e 663e 38e9 6cbe e786 233e
000000b0: aff4 c43d a748 4abe 67a6 0f3e 3793 e93e
000000c0: f4fd d8be 0c3d 973c 6dd1 283c 1c68 093f
000000d0: 513f 4dbe ab8d 7b3c dbb6 c2bd 0ef6 a53c
000000e0: 2c86 87be 9ffd 03bd fee3 563c 9ff5 21bd
000000f0: a251 56be 86a0 d7bd 84f1 6ebd 2b86 02be
00000100: 3b51 aebd f356 afbd b8ff 2a3d f5c3 3b3d
00000110: 1f25 39bc 9f50 8e3d 34b7 643c a5af 33bd
00000120: 504c d0bd 8ad3 db3b d8a3 fe3d 9f40 0b3e
00000130: 2087 d13d 0862 19bc 3f47 953d 8342 d13c
00000140: 9e4e 053e 09d1 2ebd 6832 873c 3733 f5bd
00000150: de3a d13c d9b8 9c3d 1b66 43bd b413 b33c
00000160: 355f f93d 3335 bb3d 32dc 833d 673f 563d
00000170: bc7f fa3d 5617 b4bd ea77 763d 69c4 853d
00000180: 4dfd 383d bc0e 20be 8b27 693d 5606 11be
00000190: f63f cbbd 5c6f 03bd 630e 7b3d 5a92 063e
000001a0: c8cb 213d 6ec7 f53c 399d e83b fddc 0c3e
000001b0: 7c62 813d 0f81 5bbd 313e 223d cda7 033d
000001c0: ca29 1ebc 2280 3c3c fd61 443d 48cb c0bc
000001d0: 4842 89bd 299e 1cbe 5426 5bbb 7425 05bd
000001e0: a76a 7e3d fe9f 233c 4dc5 a2bb ca0c a73d
000001f0: 8e43 8f3d 3178 7a3d 61a8 b93d bcd0 b33d
00000200: aecb 503d bbe6 8d3d 2f84 2a3b 01d7 c2bd
00000210: c0ff 913d 96bc 8b3b 2b7b 8dbd 3a56 df3d
00000220: b48d 1cbc d1f4 363d 5057 88bd b182 35bd
00000230: e691 8bbd fb9c 6e3d d334 6fbc feaf cc3d
00000240: f9fe 873d 204f 123e 56ae 443d 87dd 2d3d
00000250: e997 423d fb04 b1bd a35c 80bc 3f90 91bd
00000260: 186e 1bbd b055 ed3d 950b a739 92f4 8ebd
00000270: d594 0dbd 7401 dc3d ce4e 933d f8a3 c23b
00000280: 9225 f0bb 222d 80bd abd2 853d 7652 e5bc
00000290: 7cc9 cb3d 37a0 8d3d f046 3b3d 6761 1e3c
000002a0: 3e4c 27bd b542 9dbd 1266 9f3b daa7 3bbd
000002b0: d10f c7bd c6a3 abbc a2db 87bd 9fdd e1bd
000002c0: 2a31 0cbd 04ee d43d 8e11 de3d 3301 a2bd
000002d0: cc5f c13d 4f74 933d 064e 0b3e 4f27 b73c
000002e0: 1c2f 273d de6c 9e3c bce3 fc3c 6a75 0dbd
000002f0: 306f d53d 1645 9f3d ee91 7c3d 9a2c cf3b
00000300: cfb7 003c 635d 2bbd 4485 0bbc fe63 66bc
00000310: 454b c5bc 9f0f bbbd a67d 383d 716c b43d
00000320: ddf6 1c3c 3247 d63d e5f1 12bd e7f8 623d
00000330: ec95 40bd e55d c1bd ed2a f23d 1fc2 8f3d
00000340: f255 1d3c 9ba4 4cbc 423b 123c 5807 003e
00000350: 4329 f7b9 288f 293e a95d 523d d6f9 913d
00000360: 884c 93ba 7569 b7bd ead6 9d3c f20b a6bd
00000370: f00d cfbd 35fb afbc ff87 49bd 7210 c03d
00000380: 0f8d 99bc 34e2 4fbd d1f5 d1bb bffd 003d
00000390: 9f4d d13d c15b b6bd ea76 83bc c5e1 82bc
000003a0: 9359 033e 80d3 1ebd da93 2bbc ab4d 053d
000003b0: 633e 583c 4b85 96bc 1384 173c d3fe 4b3d
000003c0: b29e aebd d3ab 183e faf1 823d 7e84 5e3c
000003d0: 8dd5 cdbd aff4 12ba 5255 1fbd 3203 2cbd
000003e0: 63be ef3d ddf2 153c 51e0 92bd 1087 fd3d
000003f0: 7203 843c d713 3dbd 56cc e4bc f87c 97bd

critic.2.bias f4 [64]
-0.0019331545 -0.066567056 -0.012904186 -0.1253998 0.080835134 -0.030927774 -0.03425986 0.13135296
0.17199855 0.06924698 0.028137064 -0.24601515 -0.09775644 0.032666873 0.019340929 0.12061115
0.08795223 -0.131529 -0.08240373 0.057876237 -0.098745205 -0.08419019 0.011024418 -0.010249687
-0.08809152 0.015682202 -0.18084984 -0.01748867 -0.0859169 -0.00037772133 0.077576995 0.039363883
-0.017412862 0.16435461 0.096258655 0.11165289 -0.015323761 -0.015574683 -0.20971026 -0.09704341
-0.22068614 0.015332033 0.07383575 0.21714528 0.04301146 -0.082010075 0.06629066 0.00013724943
0.12110751 -0.066498734 0.11783957 0.029214391 -0.018776307 -0.07278578 0.031526156 -0.028470872
-0.09723231 -0.08215019 -0.026783042 0.02015498 -0.10849355 -0.04820123 -0.06019291 0.012792209
00000000: e761 fdba 4f54 88bd 146c 53bc ce68 00be
00000010: e48c a53d 3e5c fdbc 1154 0cbd 6481 063e
00000020: 6320 303e 5cd1 8d3d b37f e63c 65eb 7bbe
00000030: 8734 c8bd b3cd 053d de70 9e3c fb02 f73d
00000040: 4c20 b43d 8aaf 06be 49c3 a8bd a20f 6d3d
00000050: ed3a cabd e86b acbd c39f 343c 4eee 27bc
00000060: 5469 b4bd f677 803c b330 39be 6644 8fbc
00000070: 33f5 afbd e608 c6b9 b0e0 9e3d 063c 213d
00000080: 6ba5 8ebc 934c 283e 4223 c53d 45aa e43d
00000090: 8310 7bbc f52c 7fbc 49be 56be b2be c6bd
000000a0: 8cfb 61be 3533 7b3c 3337 973d 555b 5e3e
000000b0: c92c 303d e6f4 a7bd 66c3 873d 9dea 0f39
000000c0: 3707 f83d 7d30 88bd df55 f13d 0553 ef3c
000000d0: c5d0 99bc b610 95bd 9221 013d bf3b e9bc
000000e0: bc21 c7bd 5c3e a8bd 1c68 dbbc 0e1c a53c
000000f0: de31 debd a76e 45bd d78c 76bd 6a96 513c

critic.4.weight f4 [1, 64]
-0.09649309 0.000109399174 0.0028609615 -0.00053112186 0.00015079972 0.00065423024 -0.002258222 -0.0010110369
-0.023222815 -0.0007878302 0.0014853274 0.13503408 -0.00079707685 -0.002236544 0.0012280222 -0.09355559
-1.7539713e-05 0.13490489 -7.201467e-05 0.00050113484 0.0018798938 0.00082780275 0.049166568 -0.0017859845
-0.0022277061 -0.003743162 0.017656786 -0.0010646546 0.00083951745 0.0015705021 0.0013767907 -0.0011036173
-0.0027406132 -0.0964378 -0.001645711 0.0010209577 -0.0037575413 0.001078197 -0.07698384 -0.0006470817
0.05834243 -0.003221537 0.002002326 -0.14771935 0.00026107242 0.121158056 0.0001047483 0.00080595794
-0.020556318 -0.0047471197 0.0010939179 0.0022970405 0.0006805103 -0.00078895036 0.0015510973 -0.0026123964
-0.0004778343 -0.00059879204 -0.0042918683 2.7913653e-05 0.003389678 0.09043594 -0.0009468078 -0.00032649952
00000000: 2b9e c5bd 3c6d e538 f87e 3b3b fc3a 0bba
00000010: fe1f 1e39 a680 2b3a aefe 13bb c584 84ba
00000020: c63d bebc 6486 4eba 51af c23a 6046 0a3e
00000030: ecf2 50ba fb92 12bb 96f5 a03a 139a bfbd
00000040: 3f22 93b7 8224 0a3e 9506 97b8 975e 033a
00000050: c566 f63a e700 593a e262 493d b217 eaba
00000060: b5fe 11bb d64f 75bb f7a4 903c e18b 8bba
00000070: 1013 5c3a 4ed9 cd3a 6e75 b43a 40a7 90ba
00000080: dc9b 33bb 2e81 c5bd e6b4 d7ba a8d1 853a
00000090: 1541 76bb 4a52 8d3a b4a9 9dbd eba0 29ba
000000a0: 79f8 6e3d 6c20 53bb 7539 033b be43 17be
000000b0: 8ce0 8839 b721 f83d 51ac db38 ec46 533a
000000c0: b965 a8bc ba8d 9bbb cb61 8f3a f289 163b
000000d0: 4664 323a 90d1 4eba 304e cb3a bd34 2bbb
000000e0: d685 fab9 41f8 1cba cda2 8cbb 1d28 ea37
000000f0: 5c25 5e3b 7a36 b93d 3233 78ba 062e abb9

exp_avg f4 [7]
0.0020662034 -0.0014195207 -0.008581315 0.0026365172 -0.0025541857 -0.0035003996 -0.008244842
00000000: 2469 073b 360f baba a598 0cbc 6bc9 2c3b
00000010: 2064 27bb f666 65bb 6015 07bc

exp_avg_sq f4 [7]
0.00037376274 0.0005438435 0.0003744143 0.0004591242 0.0005283291 0.00030358133 0.0005175513
00000000: 96f5 c339 b890 0e3a 094d c439 9bb6 f039
00000010: 917f 0a3a ff29 9f39 48ac 073a

exp_avg f4 [64, 32]
-0.0003230484 0.000115170755 -4.017862e-05 0.00031084643 0.00030730863 -0.0004999424 0.0004256471 -2.3550772e-05
-1.3240878e-05 0.00034737287 0.0003301546 -0.0003034033 0.00012117497 0.00064612774 -1.3143441e-06 0.0004405349
3.1450027e-06 -1.1838374e-05 0.0001999687 -3.5249457e-05 0.00015118923 9.139787e-13 -0.0007658945 -2.1007058e-05
-3.3462674e-11 -0.00041995078 -0.00012648295 -0.00043407298 0.0015638052 0.0010296731 -0.0017601226 0.00174123
0.00017959572 -0.0007275123 -0.00011580225 -0.0004205728 -0.00031197572 0.00063821697 -0.0003799526 5.2699954e-05
7.088066e-05 0.0010824836 -0.00021959405 -0.001345892 -0.00019512732 0.00037051906 -0.00021482383 -0.0005615973
5.640817e-06 1.1535031e-05 -0.00066275225 2.7724388e-06 -0.00052789005 2.9606283e-11 0.0005356547 -0.00067760877
2.3398079e-11 0.00033500372 -0.0012465942 -0.00050865783 -0.0023834647 -0.0010658632 0.0014199112 -0.0010078462
-7.213047e-05 -0.0005877314 -0.0001567467 9.309983e-05 -4.874064e-06 3.0816103e-05 -8.836679e-05 4.3068398e-05
5.4536118e-05 1.2780341e-05 2.4524326e-05 0.00017133648 7.708277e-05 -0.0001269986 0.00016817969 -0.0003381005
-1.2187355e-05 7.055872e-06 -0.00047361394 5.9200705e-05 -0.0002987714 2.3878446e-11 0.0006521697 -0.00054647366
2.8473855e-11 0.00013861903 -0.00074154546 -0.00018708374 -0.0009741185 -0.00059427205 0.00075608713 -0.00044417553
-7.3354575e-05 -8.359845e-05 7.4036914e-05 0.0001188186 -6.431176e-05 7.984748e-06 -0.00012262457 2.512837e-05
2.4479506e-05 0.00013519438 -0.00043088954 -0.00041526882 -0.00012864188 0.00027899077 0.0009000044 0.00035508032
3.0890383e-06 6.5290233e-06 -0.00015313362 -5.364438e-05 -8.3878906e-05 1.825397e-11 -4.0777188e-05 -0.00041771037
-1.7782026e-12 -0.0002488122 -0.0002913362 0.00046610454 0.00084213534 -3.509693e-05 -0.00012336942 -0.0005926326
-0.00030450543 0.0013017161 -0.00014620101 0.00045387784 0.0004128557 -0.0008515913 0.00061008584 -9.5297655e-05
-0.00011142972 -0.0015793556 -0.0010081877 0.0012241834 -8.336574e-05 0.0005887534 5.6523873e-05 0.0017519151
1.1881666e-06 1.25154e-08 0.0012230661 -8.7625565e-05 0.0008365224 -5.7435997e-11 -0.001346652 0.0013143681
-5.88373e-11 -0.00076554593 0.0013208026 0.00012762687 0.0030986867 0.001510503 -0.0027040732 0.002434211
-0.00062369916 -0.0014089562 -0.00086767797 0.00017257781 0.00027939718 0.00032769272 0.0003880693 0.00010291565
0.00011983045 0.0012329512 0.0004322692 -0.0015499307 -0.00045367776 -2.1777221e-05 -0.0022533028 0.0006887202
-1.0809601e-05 -1.0902888e-05 -0.0015645528 -6.038234e-05 -0.0008400953 1.10554954e-10 0.0004939032 -0.002528707
2.1616075e-11 -0.0019151891 -0.0011089667 -0.002631243 -0.0013401718 0.0008624453 -0.00040666133 0.0018517468
-0.00016739205 -0.00060909335 -0.00026052352 0.00023133062 0.00015101585 -7.976355e-05 0.00017260572 3.231806e-05
3.491732e-05 0.00053575786 0.00013047371 -0.0006456672 -0.000140591 -0.00033981624 -0.00068712555 0.00018401805
3.332301e-06 4.175622e-06 -0.00054542057 -3.864724e-05 -0.00015576255 3.8588143e-11 0.00032636744 -0.0008828765
1.4259057e-11 -0.00053661846 -0.00058853114 -0.001015572 0.00042195612 0.0004448183 -0.0002711874 0.0005679702
-0.00019844028 -0.0010450062 -0.00055228575 -0.00043478596 0.00013926347 0.0007585479 -4.6302404e-05 8.2404425e-05
0.000110086505 0.0011008988 0.0008016746 -0.0013125512 -6.4308324e-07 -0.0008281954 -0.00074710825 -0.0008717457
-1.4737622e-05 1.1976138e-05 -0.0012046257 4.1221992e-05 -0.0008076893 4.9926938e-11 0.0011127495 -0.001142461
4.861262e-11 -0.00033120645 -0.0011452574 -0.0014090376 -0.0030656355 7.056217e-05 0.0024523335 -0.00053492107
00000000: d35e a9b9 d487 f138 7785 28b8 1af9 a239
00000010: 441e a139 910e 03ba 6329 df39 e68e c5b7
00000020: 2325 5eb7 991f b639 9a18 ad39 1a12 9fb9
00000030: 511f fe38 e660 293a 8568 b0b5 98f7 e639
00000040: bc0e 5336 6e9d 46b7 b0ae 5139 d1d8 13b8
00000050: 8d88 1e39 8ea1 802b 4fc6 48ba 5038 b0b7
00000060: 9f2b 13ae d72c dcb9 82a0 04b9 4a94 e3b9
00000070: 98f8 cc3a 19f6 863a eab3 e6ba fc39 e43a
00000080: dc51 3c39 86b6 3eba dcda f2b8 5380 dcb9
00000090: ac90 a3b9 044e 273a 6034 c7b9 250a 5d38
000000a0: c4a5 9438 1fe2 8d3a d442 66b9 a468 b0ba
000000b0: 179b 4cb9 3a42 c239 5542 61b9 2838 13ba
000000c0: 4046 bd36 9586 4137 8dbc 2dba 230e 3a36
000000d0: 1a62 0aba b635 022e 2e6b 0c3a 8ea1 31ba
000000e0: cacf cd2d 70a3 af39 c364 a3ba 7357 05ba
000000f0: e733 1cbb 6fb4 8bba 501c ba3a b519 84ba
00000100: c044 97b8 fd11 1aba 5f5c 24b9 973e c338
00000110: e48b a3b6 8a40 0138 8f51 b9b8 57a4 3438
00000120: b6bd 6438 266b 5637 97b9 cd37 c9a8 3339
00000130: 7fa7 a138 ed2a 05b9 6459 3039 1543 b1b9
00000140: 4b78 4cb7 7bc1 ec36 634f f8b9 464e 7838
00000150: 6ba4 9cb9 7b09 d22d 5ef6 2a3a 3a41 0fba
00000160: 6c75 fa2d 435a 1139 4664 42ba e92b 44b9
00000170: fc5b 7fba ecc8 1bba 2634 463a 3be0 e8b9
00000180: f0d5 99b8 9351 afb8 4444 9b38 402e f938
00000190: 1ddf 86b8 3bf6 0537 c894 00b9 c4ca d237
000001a0: 5759 cd37 f7c2 0d39 04e9 e1b9 70b8 d9b9
000001b0: 0be4 06b9 8245 9239 46ee 6b3a 132a ba39
000001c0: 464d 4f36 e213 db36 7e92 20b9 3700 61b8
000001d0: 25e8 afb8 4990 a02d 2c08 2bb8 2300 dbb9
000001e0: 8042 faab 0273 82b9 7cbe 98b9 7e5f f439
000001f0: bfc2 5c3a 0b35 13b8 ba5c 01b9 e75a 1bba
00000200: 07a6 9fb9 589e aa3a 894d 19b9 74f6 ed39
00000210: 8e74 d839 533d 5fba 2bee 1f3a 8ada c7b8
00000220: 60af e9b8 6102 cfba 2a25 84ba c774 a03a
00000230: a4d4 aeb8 9256 1a3a 0c14 6d38 84a0 e53a
00000240: 1879 9f35 5003 5732 4a4f a03a 9ec3 b7b8
00000250: 114a 5b3a 2f9b 7cae 2582 b0ba e046 ac3a
00000260: 7562 81ae ebae 48ba c81e ad3a 94d3 0539
00000270: 5613 4b3b 12fc c53a d236 31bb 4987 1f3b
00000280: be7f 23ba baac b8ba e274 63ba 01f6 3439
00000290: 0e7c 9239 2cce ab39 c875 cb39 6bd4 d738
000002a0: 7c4d fb38 fa9a a13a 31a2 e239 0b27 cbba
000002b0: 99db edb9 3aae b6b7 26ac 13bb 3b8b 343a
000002c0: e25a 35b7 8ceb 36b7 ae11 cdba 0b43 7db8
000002d0: d739 5cba e81c f32e 4879 013a aab8 25bb
000002e0: 1323 be2d 1507 fbba bf5a 91ba ef70 2cbb
000002f0: b4a8 afba b915 623a 2935 d5b9 50b6 f23a
00000300: f685 2fb9 90ab 1fba e096 88b9 5791 7239
00000310: 025a 1e39 bb46 a7b8 7ffd 3439 418d 0738
00000320: 3074 1238 1a72 0c3a c5cf 0839 fe41 29ba
00000330: 9c6b 13b9 5d29 b2b9 3720 34ba f8f4 4039
00000340: 7fa0 5f36 521c 8c36 8efa 0eba 2819 22b8
00000350: 3154 23b9 63b6 292e 4c1c ab39 d770 67ba
00000360: 15d9 7a2d dbab 0cba a847 1aba f11c 85ba
00000370: fe39 dd39 8036 e939 282e 8eb9 d6e3 143a
00000380: 6814 50b9 97f8 88ba 45c7 10ba fcf3 e3b9
00000390: 4107 1239 4ad9 463a d434 42b8 8ad0 ac38
000003a0: 3ede e638 094c 903a 7927 523a e909 acba
000003b0: 58a0 2cb5 411b 59ba 96d9 43ba dd85 64ba
000003c0: 9b41 77b7 1fed 4837 88e4 9dba c7e5 2c38
000003d0: 1dbb 53ba bc94 5b2e add9 913a a1be 95ba
000003e0: f2cc 552e c7a5 adb9 761c 96ba 75af b8ba
000003f0: d4e8 48bb c7fa 9338 54b7 203b f239 0cba
