logs/rsl_rl/franka_reach/2025-06-16_20-11-58/model_550.pt (torch, 172795 bytes, 36 tensors)

std f4 [7]
0	0x3e253f76	0.1613749
1	0x3e07b9f1	0.13254525
2	0x3e21b843	0.15792947
3	0x3e2491ae	0.16071197
4	0x3e235bbe	0.15952966
5	0x3e33022e	0.174813
6	0x3e3a9e42	0.18224433

actor.0.weight f4 [64, 32]
0	0xbea7cf92	-0.3277555
1	0x3e68c0fe	0.2272987
2	0xbee05269	-0.43812874
3	0x3ed4ec62	0.41586596
4	0x3d410244	0.0471213
5	0x3e49ab6c	0.19694299
6	0x3df4a083	0.11944678
7	0x3ed37b99	0.41305235
8	0x3f1ba75e	0.6080226
9	0xbcb949f5	-0.022618273
10	0x3e815873	0.25262794
11	0x3e69ce5e	0.22832629
12	0x3e20668d	0.1566412
13	0x3da9f32e	0.08298336
14	0xbdb727cd	-0.08943138
15	0xbdc5a5b4	-0.09650746
16	0xbede7f7f	-0.43456647
17	0x3cdb1f06	0.026748192
18	0xbf371b69	-0.715262
19	0xbd13dfb1	-0.036102
20	0x3f4db755	0.8035787
21	0xbcad4f64	-0.02115602
22	0xbf295f6c	-0.6616123
23	0x3da1382b	0.07872041
24	0xbe107226	-0.14106044
25	0xbd75565e	-0.05989682
26	0xbe924aac	-0.28572595
27	0xbe5d29ca	-0.21597973
28	0x3dfec003	0.12438967
29	0xbeb3863c	-0.3506335
30	0xbc6b3c19	-0.01435759
31	0xbe85a8dc	-0.26105392
32	0x3d0402ee	0.032229356
33	0x3dcb2eb1	0.09921015
34	0xbeae67f1	-0.34063676
35	0x3f5479de	0.82998455
36	0x3f52b1a7	0.82302326
37	0x3e8fb188	0.28065133
38	0x3d83877b	0.06422325
39	0xbe1a6ec3	-0.15081315
40	0x3e6f773a	0.23385325
41	0x3dad6ce6	0.08468036
42	0xbe5b6fb9	-0.21429338
43	0x3f0103ae	0.5039624
44	0xbdbbbfcd	-0.091674425
45	0x3c90973d	0.017650241
46	0x3d6ba950	0.057534516
47	0x3e5290ea	0.20563093
48	0x3e62b237	0.22138296
49	0xbf8dad38	-1.1068487
50	0xbf6fa109	-0.93605095
51	0xc005ce1a	-2.0907044
52	0xbefbedac	-0.49204767
53	0x3e113d57	0.14183556
54	0x3e9d0170	0.3066516
55	0x3ea23703	0.31682596
56	0x3d697d39	0.057004187
57	0x3daaa5e6	0.08332424
58	0x3d5cfac4	0.053950086
59	0xbe2d2389	-0.16908087
60	0x3dcc6443	0.09980061
61	0xbdc9255c	-0.09821579
62	0x3ce8254f	0.028338103
63	0xbcc53355	-0.024072329
64	0x3f32d361	0.6985379
65	0xbe447bad	-0.19187804
66	0x3f51a5f7	0.8189387
67	0xbe811a6b	-0.25215468
68	0x3e573117	0.2101482
69	0xbbd38cae	-0.0064559793
70	0x3e89290b	0.26789126
71	0x3f21aa98	0.6315093
72	0x3f5c4e73	0.86057204
73	0xbe11c012	-0.14233425
74	0xbcf209d1	-0.029545696
75	0xbe0155c9	-0.1263038
76	0x3d902a73	0.070393465
77	0x3cc31e50	0.023818165
78	0x3e11c059	0.14233531
79	0x3dca85ae	0.098887786
80	0xbf19458f	-0.59871763
81	0x3f0e3487	0.555489
82	0x3cf8c6e4	0.030368276
83	0xbfe3be9b	-1.7792543
84	0x3eba770d	0.36418954
85	0xbd266caf	-0.040630993
86	0xbe815181	-0.25257495
87	0x3db402d4	0.08789602
88	0xbdbbc0eb	-0.091676556
89	0xbd1701c4	-0.03686692
90	0x3dcbde79	0.09954543
91	0xbbb4b4c7	-0.0055147144
92	0x3d2b67d1	0.041847054
93	0x3ea42b65	0.32064357
94	0xbefb42e8	-0.49074483
95	0xbefe9354	-0.49721777
96	0xbf8aeddc	-1.0853839
97	0x3c1d8d9d	0.009616283
98	0xbd3d6bf5	-0.046245534
99	0xbf4594d9	-0.7718025
100	0xbd6ec8d7	-0.058297005
101	0xbee4646f	-0.44607875
102	0x3e8b381a	0.2719124
103	0xbd7bb468	-0.061451346
104	0x3e109711	0.14120127
105	0xbe29e2a1	-0.16590358
106	0xbeb7d3b8	-0.35903716
107	0x3bae4e85	0.005319419
108	0x3e89f529	0.26944855
109	0xbe456504	-0.19276816
110	0xbe32252d	-0.17396994
111	0xbd6ddb3c	-0.058070406
112	0x3f155063	0.58325785
113	0x3ed13188	0.40858102
114	0xbdf9a67e	-0.12189959
115	0x3e98df32	0.29857785
116	0x3efca362	0.493434
117	0xbe1f0022	-0.15527394
118	0xbf181621	-0.59408766
119	0xbe29f17a	-0.16596022
120	0xbb2f34c1	-0.0026734325
121	0xbef7e8ea	-0.48419887
122	0xbe7ccdeb	-0.24687926
123	0xbdd41805	-0.10356144
124	0xbebbf8a3	-0.36713132
125	0xbec879c9	-0.39155415
126	0x3e01c9d7	0.12674652
127	0xbea37172	-0.3192249
128	0xbd169300	-0.036761284
129	0xbe0e776d	-0.13912745
130	0x3d8c9034	0.06863442
131	0x3ea08d7a	0.31357938
132	0xbf16f9bf	-0.5897483
133	0x3f780cfb	0.96894807
134	0x3dba70b6	0.09103529
135	0xbe57d940	-0.21078968
136	0xbe5c7667	-0.21529542
137	0xbd50213e	-0.050812952
138	0xbe5fa1ee	-0.21839115
139	0xbd00f168	-0.031480223
140	0x3c9365f7	0.017992957
141	0xbdd3c874	-0.10340968
142	0xbd914698	-0.07093543
143	0xbd8d458d	-0.068980314
144	0xbe5ea700	-0.21743393
145	0xbf030ff2	-0.51196206
146	0xbece6c9d	-0.4031724
147	0x3ff5f5c0	1.9215622
148	0x3f669ca0	0.9008274
149	0xbe0dd3a5	-0.13850267
150	0xbe9912cb	-0.2989715
151	0xbf4442f5	-0.7666467
152	0xbc97685f	-0.018482385
153	0xbf161f45	-0.58641464
154	0x3ca478ec	0.020077191
155	0x3dfa4283	0.12219717
156	0xbe1a86d2	-0.15090492
157	0x3d8887ff	0.06666564
158	0xbea43f40	-0.32079506
159	0xbc82846c	-0.015932284
160	0x3eea6390	0.45779085
161	0xbf0f12b3	-0.5588791
162	0x3eda9ed9	0.42699316
163	0xbe2b48bf	-0.16726969
164	0x3ea7d7fb	0.32781968
165	0x3f9a2bfc	1.2044673
166	0x3cb81bb7	0.022474153
167	0x3eb61b39	0.35567644
168	0x3dda1dcb	0.10650214
169	0xbdb61b0f	-0.0889188
170	0x3dcf34fd	0.101175286
171	0xbe0f19c7	-0.13974677
172	0x3bd35b78	0.006450113
173	0xbc9a0716	-0.018802207
174	0x3c5fd6d6	0.013662061
175	0xbdc49e1b	-0.09600469
176	0x3d832014	0.06402603
177	0xbf384b58	-0.71989965
178	0x3dc2d713	0.095136784
179	0xbfa88c9b	-1.3167909
180	0xbf4ae093	-0.79248923
181	0x3da953bf	0.082679264
182	0x3d3ca02b	0.046051186
183	0x3f6f8236	0.9355806
184	0x3db461b1	0.08807696
185	0x3e728766	0.23684463
186	0x3e7ed88f	0.24887298
187	0x3dbc7bfb	0.09203335
188	0x3da801e4	0.082034856
189	0x3d2d9113	0.04237468
190	0x3dad4069	0.08459551
191	0xbd3b06c2	-0.04566074
192	0x3dd173ba	0.10227151
193	0x3d2df9c1	0.042474512
194	0x3cde75ba	0.027155746
195	0xbf08db50	-0.53459644
196	0xbe0ec086	-0.1394063
197	0xbeeb3db9	-0.45945528
198	0x3dbb2285	0.091374435
199	0x3e8e8538	0.27836013
200	0x3dda750d	0.10666857
201	0xbd2b98e8	-0.04189387
202	0x3dea86b3	0.11451473
203	0xbbc9f66a	-0.006163408
204	0xbe79fd6f	-0.24413083
205	0xbd4eacd3	-0.050457787
206	0x3d9e7e46	0.077389285
207	0xbe4b5655	-0.19857152
208	0x3f8c8be6	1.0980194
209	0x3df73ae9	0.12071783
210	0xbe229e77	-0.15880762
211	0xbe1424ce	-0.14467165
212	0xbcd18db6	-0.025580268
213	0xbddbf08b	-0.10739239
214	0xbee5d5d9	-0.44889715
215	0x3eb46ad7	0.35237762
216	0x3ccc76dd	0.024959022
217	0x3e69f6c8	0.22848046
218	0x3ed4194c	0.4142555
219	0xbdd61697	-0.104535274
220	0xbdb12870	-0.08650291
221	0x3dc979bb	0.09837671
222	0xbd8b5135	-0.068025984
223	0xbdf5537d	-0.11978815
224	0x3f7f2fc9	0.9968229
225	0x3c825587	0.015909923
226	0x3f8f6559	1.1202804
227	0xbe8eda5e	-0.27900976
228	0xbedfd9a2	-0.43720728
229	0xbed99700	-0.42498016
230	0xbf44f3b2	-0.7693435
231	0x3e6ce09e	0.2313256
232	0x3e076bb4	0.13224679
233	0x3d4b5315	0.04963978
234	0xbd851235	-0.06497613
235	0x3e905989	0.2819331
236	0x3eadccfb	0.3394545
237	0x3dc61fd1	0.09674037
238	0xbd1f2cf9	-0.03886125
239	0xbe7b4002	-0.24536136
240	0x3f0d9772	0.5530921
241	0xbe0333ca	-0.12812725
242	0x3cf8de71	0.030379506
243	0xbff27536	-1.894202
244	0xbf15af65	-0.58470756
245	0xbdfa2ced	-0.122156
246	0xbf1347c0	-0.57531357
247	0x3e205410	0.15657067
248	0xbd689040	-0.056778193
249	0xbe3d9c4e	-0.18516657
250	0xbdda1c56	-0.10649936
251	0xbf0f4e62	-0.5597898
252	0x3d1bbd8c	0.038022563
253	0xbe011150	-0.1260426
254	0xbc02620c	-0.0079579465
255	0xbd0ce844	-0.034401193

actor.0.bias f4 [64]
0	0xbe6e594a	-0.23276249
1	0xbe0c213a	-0.1368455
2	0xbf2245c8	-0.6338773
3	0xbbf7cbdb	-0.0075621433
4	0x3dff3ead	0.12463126
5	0xbea2b7d5	-0.31780878
6	0xbecc87a6	-0.39947242
7	0xbccd847a	-0.025087584
8	0x3eca92e5	0.39565197
9	0x3e847a93	0.25874767
10	0xbdd80678	-0.10548109
11	0xbcc4c76c	-0.024020873
12	0xbded1e1d	-0.11578009
13	0xbe75a192	-0.23987415
14	0xbf24d430	-0.6438627
15	0xbe8ef348	-0.27919984
16	0x3f2b0ada	0.66813433
17	0x3e5a6d8e	0.21330854
18	0x3e923500	0.2855606
19	0x3e146537	0.14491735
20	0x3e0668ad	0.13125868
21	0x3e72fd2c	0.2372939
22	0xbea986bc	-0.33110607
23	0x3e0b40d2	0.13598946
24	0xbf2746a3	-0.6534216
25	0x3f35789f	0.7088718
26	0xbd9f1293	-0.077672146
27	0xbed4868b	-0.41508898
28	0xbdd62798	-0.10456771
29	0x3e34155d	0.17586274
30	0xbe4844f5	-0.19557555
31	0x3ee737e4	0.4515983
32	0xbf38ddfd	-0.7221373
33	0xbe63b947	-0.22238646
34	0x3eaa3bcc	0.33248746
35	0xbd80536f	-0.06265914
36	0x3c96e228	0.018418387
37	0x3d3e7a5d	0.046503413
38	0xbf0e3ff6	-0.55566347
39	0xbe935433	-0.28775176
40	0x3dee3f61	0.11633182
41	0xbd3a2eea	-0.045454897
42	0x3f0b2723	0.5435659
43	0xbe3f30fd	-0.18671031
44	0x3db11ce5	0.08648089
45	0x3dc898ba	0.09794755
46	0xbe84b712	-0.25920922
47	0xbcf67be7	-0.030088378
48	0x3ef80059	0.48437765
49	0xbf07fdad	-0.53121454
50	0x3d8dc6b2	0.06922664
51	0xbe5232be	-0.20527169
52	0xbba5c015	-0.0050582984
53	0xbe803951	-0.2504373
54	0xbf126ed3	-0.57200354
55	0xbe9a8a33	-0.30183563
56	0xbed914b0	-0.42398596
57	0x3c7b3179	0.015331619
58	0x3e1bf18b	0.1522886
59	0x3e8ca653	0.27470645
60	0xbd833dd4	-0.06408277
61	0x3e9315a0	0.28727436
62	0x3e932e33	0.28746185
63	0xbd9bf9f1	-0.07616032

actor.2.weight f4 [64, 64]
0	0xbe248c67	-0.16069184
1	0x3e040765	0.12893446
2	0x3ee3cd19	0.44492415
3	0x3e52a1d2	0.20569542
4	0xbe0a81ac	-0.13526028
5	0x3e90e7d9	0.28301886
6	0x3e914d1d	0.28379145
7	0xbdd5effd	-0.10446165
8	0x3e210a1d	0.15726514
9	0xbe15acfb	-0.14616768
10	0x3de535b6	0.11191885
11	0xbd967b1b	-0.07347699
12	0x3cdd17dc	0.026988916
13	0x3e8f278f	0.27959868
14	0x3e35d8b1	0.17758442
15	0xbd24311b	-0.040085893
16	0xbd1990b0	-0.0374915
17	0x3e26c556	0.16286215
18	0x3d5ede96	0.054411493
19	0xbd366fd4	-0.04454024
20	0xbe30680b	-0.17227189
21	0x3e70526a	0.23468938
22	0xbdb83ce4	-0.08995989
23	0xbcd2ff68	-0.025756553
24	0x3dc9fb45	0.09862379
25	0xbf5087a0	-0.8145695
26	0x3d1c40e9	0.03814784
27	0xbea25da0	-0.31712055
28	0xbe67df16	-0.22643694
29	0xbd2a069c	-0.04151021
30	0xbe117e57	-0.14208351
31	0xbe82d51e	-0.2555322
32	0xbe9823ee	-0.29714912
33	0x3e8e09d2	0.27741867
34	0x3e2a570f	0.16634773
35	0xbf01f4ec	-0.50764346
36	0x3d7703ad	0.06030624
37	0xbcf717cf	-0.03016272
38	0x3ebf320c	0.3734287
39	0x3cd84943	0.026402121
40	0x3dba9bf1	0.09111775
41	0x3e174f85	0.14776428
42	0x3e82ee21	0.25572303
43	0xbcb20979	-0.021733033
44	0xbbee8551	-0.007279076
45	0xbac7943d	-0.0015226674
46	0xbe59142d	-0.21199103
47	0x3e451d39	0.19249429
48	0xbe506d95	-0.20354302
49	0xbdd2582d	-0.102707244
50	0xbe4e714d	-0.20160408
51	0xbeeab885	-0.45843902
52	0xbd212786	-0.039344333
53	0xbd16da10	-0.036829054
54	0xbece9f5a	-0.4035595
55	0x3e04da3c	0.12973875
56	0xbc0eb1e3	-0.008709404
57	0xbe4184b0	-0.18898273
58	0x3dd5e00e	0.10443126
59	0xbef81e23	-0.48460492
60	0xbc1d9394	-0.009617705
61	0x3df10a09	0.11769492
62	0x3df70a3f	0.12062501
63	0xbe2a09b0	-0.16605258
64	0x3dec9209	0.115512915
65	0x3ea75700	0.32683563
66	0xb9749871	-0.00023326442
67	0x3e312650	0.17299771
68	0xbe4ba65e	-0.19887683
69	0x3c50c676	0.012742629
70	0x3d2fbcf4	0.04290481
71	0x3deaa988	0.11458117
72	0x3d50ae48	0.050947458
73	0x3e547385	0.20747192
74	0x3d7430ae	0.059616737
75	0xbd5ebc8a	-0.054379024
76	0xbd877bdb	-0.066154204
77	0x3e97f6e8	0.29680562
78	0x3e012723	0.12612586
79	0xbde1ff19	-0.11034984
80	0xbdbbee29	-0.09176285
81	0xbc4edf50	-0.012626484
82	0x3dc50841	0.09620715
83	0xbcb1f6b2	-0.021724079
84	0x3dbfc4df	0.09363722
85	0x3dba29c5	0.09089998
86	0xbc8e294f	-0.017353682
87	0x3d9b6c4a	0.07589014
88	0x3d5a7620	0.05333531
89	0xbc9553f1	-0.018228503
90	0xbd8de32f	-0.069280975
91	0xbd3118de	-0.043236606
92	0xbe3d9134	-0.18512422
93	0xb8015ef8	-3.0844443e-05
94	0xbe160c1a	-0.14653054
95	0x3e54eb08	0.20792782
96	0x3e59f6f8	0.21285617
97	0x3d683416	0.056690298
98	0xbe51f07d	-0.20501895
99	0xbe5b2a6f	-0.21402906
100	0xbc9d2f18	-0.019187495
101	0xbd736b95	-0.05942877
102	0x3dc489df	0.09596609
103	0x3e16a13c	0.14709944
104	0xbe8344e1	-0.25638488
105	0xbe90d832	-0.28289944
106	0x3bbe3b8e	0.0058054393
107	0xbd26ae00	-0.040693283
108	0x3d8297e3	0.06376626
109	0x3d494bcf	0.049144562
110	0x3db0d258	0.0863387
111	0xbe07a606	-0.13246927
112	0xbe9d8ac3	-0.3076993
113	0x3d065c8e	0.03280311
114	0xbdb3fd62	-0.08788563
115	0x3ea08689	0.31352642
116	0xbd45f3f3	-0.04832835
117	0xb8e6fed1	-0.00011014718
118	0x3cba1b68	0.022718146
119	0x3e0c7556	0.13716635
120	0x3c6c0b8e	0.014407052
121	0xbeb1ef11	-0.34752706
122	0x3d00c762	0.031440146
123	0x3e611d3a	0.21983805
124	0x3e248ad5	0.16068585
125	0x3cef1677	0.029185517
126	0x3df38d4e	0.11892186
127	0xbea860dd	-0.328864
128	0x3e93dcab	0.28879294
129	0xbd7e74e7	-0.062123206
130	0xbeea3818	-0.4574592
131	0xbec09226	-0.37611502
132	0x3e8620b4	0.26196826
133	0xbeab33ed	-0.33438054
134	0xbdb50901	-0.08839608
135	0xbdac15cc	-0.08402595
136	0xbc82971c	-0.015941195
137	0xbd24b5f0	-0.04021257
138	0xbe23df29	-0.16003098
139	0x3ddd972a	0.10819848
140	0x3c527786	0.012845879
141	0x3db7bc32	0.08971442
142	0x3e55a4c2	0.20863631
143	0x3e1a8d8c	0.15093058
144	0xbe786bd9	-0.2425989
145	0xbd9d9439	-0.07694287
146	0xbd5ea62d	-0.054357696
147	0xbd5e23f1	-0.054233495
148	0xbdfd88cb	-0.12379607
149	0x3e394272	0.18091753
150	0x3e8a37f9	0.2699583
151	0xbdd5d999	-0.10441894
152	0x3e1fc1e0	0.15601301
153	0xbe796298	-0.24354017
154	0xbeb28008	-0.34863305
155	0xbbdaddd4	-0.006679276
156	0x3d88d850	0.06681883
157	0xbcab526d	-0.020913327
158	0x3d98c17a	0.07458778
159	0xbea41bce	-0.32052463
160	0x3e633482	0.22187999
161	0x3e78812c	0.24268025
162	0x3c804efd	0.015662665
163	0xbe0db361	-0.13837959
164	0xbe99887e	-0.29986948
165	0xbe8b81fa	-0.27247602
166	0xbe1ab04f	-0.15106319
167	0xbdebd6f9	-0.11515612
168	0xbd8d458a	-0.06898029
169	0xbe2125fd	-0.15737148
170	0xbe5905cc	-0.21193618
171	0xbd8a5eed	-0.06756387
172	0x3e87ebf2	0.265472
173	0x3ce488e4	0.027897306
174	0x3e21f34b	0.15815465
175	0xbdf5b534	-0.119974524
176	0x3e52f533	0.20601349
177	0x3dfff2fc	0.124975175
178	0x3cd317dd	0.025768215
179	0x3e5343a3	0.2063127
180	0x3e2d7d5d	0.16942354
181	0xbe512652	-0.20424774
182	0x3dd6372c	0.10459742
183	0xbd686986	-0.05674126
184	0x3da26271	0.079289325
185	0xbcf7715d	-0.030205423
186	0xbed094e0	-0.40738583
187	0xbd7d0306	-0.06177046
188	0x3c253ed1	0.010085777
189	0xbd863d4d	-0.06554661
190	0xbe507951	-0.20358779
191	0x3c1fff5a	0.00976547
192	0x3d3c3a1e	0.045953862
193	0x3d47ec98	0.048809618
194	0xbe477c10	-0.1948092
195	0xbeae8939	-0.34089068
196	0x3e0f9a5e	0.1402373
197	0x3e8bd51d	0.2731103
198	0x3e1d32d1	0.15351416
199	0xbdd81400	-0.1055069
200	0x3daacfc4	0.083404094
201	0x3e8f9dbc	0.2805003
202	0xbdb775bf	-0.08958005
203	0xbd945825	-0.07243375
204	0x3c91190e	0.017712142
205	0xbe0616ff	-0.1309471
206	0xbdcfbf25	-0.1014388
207	0xbd3072e3	-0.043078315
208	0x3c8427be	0.016132232
209	0x3d1f8051	0.03894073
210	0x3e09e4fa	0.13466254
211	0x3e528891	0.20559908
212	0x3e0fffa8	0.14062369
213	0xbc61e836	-0.013788274
214	0xbdb14ff8	-0.08657831
215	0x3de2724b	0.11056956
216	0xbec1a202	-0.37818915
217	0x3e2fb629	0.17159332
218	0xbd248796	-0.040168367
219	0xbe38aef8	-0.18035495
220	0xbc85a248	-0.016312733
221	0x3e1e0e9e	0.15435264
222	0x3dd27bea	0.10277541
223	0xbd028c76	-0.031872235
224	0x3e149ec5	0.14513691
225	0xbe240170	-0.16016173
226	0xbdd8810b	-0.10571488
227	0xbe3884bf	-0.18019389
228	0x3ec7bb7e	0.39010233
229	0x3b9012cc	0.004396772
230	0xbb157045	-0.0022802514
231	0x3c9c63e2	0.019090597
232	0x3ddb34da	0.1070344
233	0xbcea14a1	-0.02857429
234	0x3d479755	0.048728306
235	0x3d1e6e5f	0.038679477
236	0xbe0bbdf2	-0.13646677
237	0x3ca67403	0.02031899
238	0xbd1ed0d9	-0.03877339
239	0x3e5d6712	0.2162135
240	0xbd004169	-0.03131238
241	0x3d318407	0.0433388
242	0xbe322546	-0.17397031
243	0x3def0b41	0.116720684
244	0xbd9350bd	-0.07193134
245	0x3ce7a67f	0.028277634
246	0x3e3d7230	0.1850059
247	0xbbf1a6fd	-0.007374643
248	0x3e44b573	0.19209842
249	0xbde0e249	-0.109806605
250	0x3dabcb26	0.08388357
251	0x3e178b91	0.14799334
252	0x3d44925b	0.047991138
253	0xbb018d30	-0.0019767992
254	0x3e3ff904	0.18747336
255	0x3e04ace5	0.12956579

actor.2.bias f4 [64]
0	0xbed064f1	-0.40702012
1	0xbd41f8ae	-0.0473563
2	0xbe0082ea	-0.1254994
3	0x3dfe1747	0.124067836
4	0xbe83ca29	-0.25740173
5	0xbea0c1f8	-0.31397986
6	0xbe015cd8	-0.12633073
7	0xbec43718	-0.38323283
8	0xbdb4e5c1	-0.088328846
9	0xbe6ad226	-0.22931728
10	0xbebcdaf9	-0.36885813
11	0xbe8eed48	-0.27915406
12	0xbe837738	-0.25676894
13	0xbc4d153c	-0.01251727
14	0xbe2e4276	-0.1701754
15	0xbdadb98a	-0.084826544
16	0xbe9fdfe0	-0.3122549
17	0xbf186f95	-0.5954526
18	0xbe579060	-0.21051168
19	0xbea5fa75	-0.32417646
20	0xbeec9e6c	-0.46214616
21	0xbe84e5b7	-0.2595651
22	0xbe9066db	-0.28203472
23	0xbd907c2a	-0.070549324
24	0xbeb3b023	-0.3509532
25	0xbf0da248	-0.55325747
26	0xbec06ac2	-0.3758145
27	0xbe5d5447	-0.2161418
28	0xbd8a4bdd	-0.06752751
29	0xbe94f59a	-0.2909363
30	0x3e6c928b	0.23102777
31	0xbed0ded6	-0.4079501
32	0xbdf55b64	-0.11980322
33	0xbe3f199d	-0.18662114
34	0xbf0dfe21	-0.55465895
35	0xbee59ff4	-0.44848597
36	0xbf140382	-0.5781785
37	0xbed40b84	-0.41415036
38	0xbe2071bb	-0.15668385
39	0xbe564c46	-0.20927534
40	0xbefa68f6	-0.48908204
41	0xbea69de2	-0.3254233
42	0xbe144118	-0.14477956
43	0xbd3cafe1	-0.04606617
44	0xbe794c80	-0.24345589
45	0xbf006fa9	-0.5017038
46	0xba93af30	-0.001126742
47	0xbe04288b	-0.12906091
48	0xbcdb435b	-0.026765516
49	0xbe999926	-0.29999655
50	0xbe658b56	-0.22416434
51	0xbeec5bbe	-0.46163744
52	0xbeaf9ac8	-0.34297776
53	0xbe694db1	-0.22783543
54	0xbec9d356	-0.3941905
55	0xbebaca91	-0.3648267
56	0xbe15944b	-0.1460735
57	0xbe93b07a	-0.28845578
58	0xbe7bd9b7	-0.2459477
59	0xbee4fb56	-0.44723004
60	0xbeabfd94	-0.33591902
61	0xbe816e62	-0.25279528
62	0xbe6f7565	-0.23384626
63	0x3d17506d	0.036941934

actor.4.weight f4 [7, 64]
0	0x3d96715c	0.0734584
1	0xbb82682b	-0.003979703
2	0xbcfa79ce	-0.03057566
3	0x3c35d5c4	0.011098329
4	0x3da97500	0.08274269
5	0xbd0019ae	-0.03127449
6	0x3b135bd3	0.0022485151
7	0x3b8c4d04	0.004281642
8	0x3d5a49db	0.05329309
9	0x3b98895a	0.0046550455
10	0x3d484160	0.04889047
11	0x3db592ed	0.088659145
12	0xbcd00a99	-0.025395678
13	0x3cff5735	0.031169513
14	0x3c575e7a	0.013145084
15	0xbd289526	-0.041157864
16	0x3db150e2	0.08658005
17	0xbdcb2353	-0.09918847
18	0xbd0a16c7	-0.03371313
19	0xbd7fdf59	-0.06246886
20	0x3c307c15	0.010771771
21	0x3cd35704	0.025798328
22	0x3d22a69e	0.03970968
23	0x3e121437	0.14265524
24	0xbbd6b897	-0.0065527665
25	0x3dec1d5c	0.11529037
26	0x3c6d8506	0.014497047
27	0xbcf10fe3	-0.02942652
28	0xbd52a6f9	-0.05142877
29	0x3d3e547b	0.046467286
30	0xbc35f0ec	-0.0111048035
31	0x3e36ac13	0.17839079
32	0x3e581d6f	0.21104978
33	0xbdaf0686	-0.08546166
34	0x3c84b426	0.016199183
35	0x3bcaace1	0.0061851596
36	0xbda01045	-0.07815603
37	0xbd15578d	-0.036460448
38	0xbdff2f9b	-0.12460252
39	0x3df82ce3	0.121179365
40	0x3dab8402	0.08374788
41	0x3e1b8fe1	0.15191604
42	0xbe04995b	-0.12949125
43	0x3ca32eb5	0.019919733
44	0xbe131a8f	-0.143656
45	0x3dea62aa	0.114446
46	0x3d32c5de	0.043645732
47	0x3c63a750	0.013894871
48	0x3c3e7c0a	0.011626253
49	0xbd146dac	-0.036237404
50	0x3dd6c9f1	0.10487736
51	0xbd59eab1	-0.053202335
52	0x3d9042c0	0.070439816
53	0xbd704c44	-0.058666483
54	0x3d1be456	0.038059555
55	0x3d6b4d66	0.05744686
56	0xbd8407a7	-0.06446772
57	0xbd849efc	-0.06475636
58	0x3d831e70	0.0640229
59	0xbc2ea4f4	-0.010659445
60	0x3e715752	0.23568466
61	0x3e0f81d8	0.14014375
62	0x3dbf18c2	0.09330894
63	0xbd69a9fc	-0.057046875
64	0xbca65077	-0.02030204
65	0xbb56b401	-0.00327611
66	0xbb56147f	-0.0032666025
67	0x3c43db52	0.0119541455
68	0x3d38aba8	0.04508558
69	0x3d9ef204	0.077610046
70	0x3ca58d8d	0.020209098
71	0x3d3c5594	0.04598005
72	0x3cccfacd	0.025021935
73	0x3d6d041f	0.05786526
74	0xbdb4a5ef	-0.08820712
75	0xbd266774	-0.040626004
76	0xbb37d633	-0.0028051257
77	0x3cdf7f61	0.027282419
78	0xbd41f3b2	-0.047351547
79	0xbc35fe0d	-0.011107934
80	0xbd557293	-0.05211122
81	0xbe350d60	-0.17680883
82	0xbd627cbd	-0.05529474
83	0x3d1bf2e2	0.038073428
84	0xbe0a747c	-0.13520998
85	0xbd7c3c14	-0.061580732
86	0xbc00246e	-0.0078211855
87	0xbd2c95fc	-0.042135224
88	0xbbb5299b	-0.0055286414
89	0xbc573f5e	-0.0131376665
90	0xbd6874b3	-0.056751918
91	0x3c23b908	0.009992845
92	0x3d584a62	0.052805312
93	0x3bc9a2d3	0.0061534434
94	0x3d35f06c	0.044418737
95	0x3d40564c	0.0469573
96	0x3e4ee6cf	0.20205234
97	0x382b0633	4.077535e-05
98	0xbe67520c	-0.22589892
99	0xbd632539	-0.05545542
100	0xbd6e7156	-0.058213554
101	0xbd07f6aa	-0.03319422
102	0xbd15b387	-0.036548164
103	0x3d8a3ec9	0.067502566
104	0xbd4e8c13	-0.050426554
105	0xbe32b583	-0.17452054
106	0x3c11c961	0.00889811
107	0x3cd19c53	0.025587237
108	0xbc938d4e	-0.018011715
109	0xbdca272f	-0.09870755
110	0x3c1db3a0	0.0096253455
111	0x3c2f5cd1	0.0107032815
112	0x3d30e43f	0.043186422
113	0xbc76e234	-0.015068579
114	0x3d06faf3	0.032954168
115	0x3c0c537e	0.008564828
116	0x3d49d2ac	0.049273178
117	0xbe14e7d1	-0.14541556
118	0x3d01deb9	0.031706546
119	0xbd9cc138	-0.07654041
120	0x3d92c1d6	0.071658775
121	0xbda898c9	-0.082322665
122	0xbcd9565f	-0.026530443
123	0xbcb86063	-0.022506898
124	0x3d086ac3	0.03330494
125	0xbce74534	-0.02823124
126	0x3cd78b91	0.026311668
127	0x3d57d1db	0.05269037
128	0x3e4febe0	0.20304823
129	0xbbc87258	-0.0061171465
130	0x3c7197e1	0.014745683
131	0xbcb8fe19	-0.0225821
132	0xbd5823c2	-0.052768476
133	0xbcc218aa	-0.023693401
134	0x3c8d6066	0.01725788
135	0xbbd0e57c	-0.006375013
136	0xbb1140e3	-0.002216392
137	0x3be6c284	0.007042231
138	0xbd8546f7	-0.06507676
139	0xbd52673f	-0.051367994
140	0xbd0d16cd	-0.034445573
141	0xbb27e90c	-0.0025621084
142	0xbe2a6c0d	-0.1664278
143	0xbd3335f4	-0.043752626
144	0xbe31d778	-0.17367351
145	0x3c973a4d	0.018460417
146	0xbb0a1441	-0.0021069201
147	0x3d2564ff	0.04037952
148	0x3ca12278	0.019669756
149	0xbdefae77	-0.117031984
150	0xbd6e7307	-0.058215167
151	0x3d7b125d	0.06129681
152	0xbd664a2e	-0.056223087
153	0x3df15718	0.1178419
154	0x3d00284a	0.031288423
155	0x3c843f42	0.016143445
156	0x3bf1c37a	0.007378039
157	0xbde38b2b	-0.111105286
158	0x3d08651f	0.03329956
159	0x3e5d794d	0.21628304
160	0x3c30a514	0.010781545
161	0xbde8a574	-0.11359683
162	0x3cc962f7	0.024583323
163	0xbdc09a6e	-0.09404455
164	0xbc6fe351	-0.014641599
165	0xbda6b430	-0.08139837
166	0xbd997b3f	-0.074942105
167	0x3cd8dc41	0.026472213
168	0x3dbd8aca	0.092549875
169	0x3e495663	0.1966186
170	0xbdd9a96a	-0.10628016
171	0xbc7c1c6c	-0.015387636
172	0x3dd413a4	0.10355309
173	0x3e345a95	0.1761268
174	0x3d8ab375	0.0677251
175	0x3d033071	0.03202862
176	0x3d296309	0.041354213
177	0xbde422da	-0.1113946
178	0x3db97133	0.09054794
179	0x3d597a34	0.053095058
180	0xbdb13b86	-0.08653931
181	0xbe02961a	-0.12752572
182	0x3b388ba6	0.0028159409
183	0x3e3115a6	0.17293414
184	0xbd1b2623	-0.037878167
185	0x3db83c5a	0.08995886
186	0x3cc7cf3e	0.024390813
187	0xbe3e609a	-0.18591538
188	0x3e0fa4a1	0.14027645
189	0x3e9f3674	0.31096232
190	0xbc21eeda	-0.009883607
191	0x3cf40898	0.029789254
192	0xbe1d5ef1	-0.15368249
193	0x3b8b36f4	0.0042484943
194	0x3b4402ab	0.0029908817
195	0x3d05eb24	0.03269495
196	0xbdacd48c	-0.084389776
197	0xbc30471e	-0.010759143
198	0x3e2c4801	0.16824342
199	0x3dac6bd2	0.084190026
200	0x3cef3931	0.029202076
201	0xbd2b1a1e	-0.041772954
202	0x3d360623	0.044439446
203	0x3cfbfa38	0.030758962
204	0x3bf4e088	0.0074730553
205	0x3c1e5c3f	0.009665548
206	0xbeada289	-0.33913067
207	0xbd01ea4f	-0.031717595
208	0x3c46a308	0.012123831
209	0xbd41cda8	-0.04731527
210	0x3c83fdb7	0.016112192
211	0x3df0d70c	0.11759767
212	0xbc988697	-0.018618865
213	0x3cd62403	0.026140219
214	0x3dabc979	0.08388037
215	0x3d969b0c	0.073537916
216	0xbc8bfa71	-0.017087193
217	0x3d6ac7a4	0.0573193
218	0x3e100bff	0.14067076
219	0x3d9d8a5a	0.07692404
220	0xbd956d17	-0.07296198
221	0x3da335bd	0.07969234
222	0x3d11f102	0.035630234
223	0x3ca3da89	0.020001667
224	0xbe198df5	-0.14995559
225	0x3c2e2bcb	0.010630558
226	0xbda3d978	-0.08000463
227	0xbe4232f2	-0.18964747
228	0x3e36ab9d	0.17838903
229	0xbc84a179	-0.016190277
230	0xbdb638d0	-0.08897555
231	0xba93b019	-0.0011267691
232	0xbe09d541	-0.13460256
233	0xbda4fc19	-0.08055896
234	0xbdd95114	-0.106111676
235	0x3cef5c17	0.029218717
236	0xbcbfb7d1	-0.02340308
237	0xbe1dec8d	-0.15422268
238	0xbcd0743b	-0.025446048
239	0x3d7d0780	0.06177473
240	0xbd28208a	-0.041046657
241	0xbde53edf	-0.11193632
242	0xbd8a2413	-0.06745162
243	0x3c811443	0.015756732
244	0x3d4dea57	0.050272312
245	0x3d622c3c	0.055217966
246	0xbe342698	-0.17592847
247	0xbc4533a1	-0.012036235
248	0xbde87986	-0.11351304
249	0x3c92dcf2	0.01792762
250	0xbc587912	-0.013212459
251	0xbe7b9af8	-0.24570835
252	0x3c23e13a	0.010002429
253	0x3e2fe9e0	0.1717906
254	0xbcb85985	-0.022503624
255	0x3c4c3bf1	0.012465463

actor.4.bias f4 [7]
0	0x3d099f60	0.033599257
1	0x3e420432	0.18946913
2	0xbe30dfa8	-0.17272818
3	0x3e251795	0.16122277
4	0x3e589265	0.21149595
5	0xbe9f3d9e	-0.31101698
6	0x3df61e6c	0.12017521

critic.0.weight f4 [64, 32]
0	0xbe5e999f	-0.2173829
1	0xbe371c09	-0.17881788
2	0xbe801234	-0.25013888
3	0x3e931694	0.28728163
4	0xbe2da44c	-0.16957206
5	0x3dbb734d	0.09152851
6	0xbe98c44a	-0.29837257
7	0x3e1a240b	0.15052812
8	0x3d576657	0.052587833
9	0x3cbbe5b2	0.022936676
10	0x3dc045dc	0.093883246
11	0x3c8c4d88	0.017126814
12	0xbd3abba5	-0.045589108
13	0xbc93e14c	-0.018051766
14	0x3bc06ced	0.00587236
15	0xbd82b526	-0.063822076
16	0xbd28b34e	-0.041186623
17	0xbca3478e	-0.01993158
18	0x3e674d9d	0.22588201
19	0x3f81a5d2	1.0128729
20	0x3f31b760	0.69420433
21	0x3d34f424	0.044178143
22	0xbe63ebd6	-0.22257933
23	0xbf273d0b	-0.6532752
24	0xbdfd86fb	-0.12379261
25	0x3d471573	0.04860444
26	0xbe0d9a2d	-0.13828345
27	0xbe14ad65	-0.1451927
28	0xbd5e5da0	-0.054288507
29	0xbdac817a	-0.08423133
30	0x3d109af7	0.035304036
31	0xbcd40802	-0.025882725
32	0xbd9e088d	-0.07716475
33	0x3ea09479	0.31363276
34	0x3d9fc335	0.07800905
35	0x3e0eb3ac	0.13935727
36	0x3e10ca76	0.14139733
37	0xbdb7cec3	-0.089749835
38	0x3dc7a7a0	0.09748769
39	0xbd0f05e7	-0.03491774
40	0xbc6b2059	-0.014350974
41	0x3c65f748	0.014036007
42	0x3dece51e	0.11567138
43	0xba6695f3	-0.0008796148
44	0xbcc65905	-0.02421237
45	0xbd6c4659	-0.057684276
46	0xbb5aaa7c	-0.0033365777
47	0xbc9f648c	-0.019457124
48	0xbf5140a2	-0.81739247
49	0xbf01d0fb	-0.50709504
50	0x3e2cea46	0.16886243
51	0xbf8ef0e4	-1.1167264
52	0xbf0868f3	-0.5328514
53	0x3d8d9eab	0.06915029
54	0x3ed332c0	0.41249657
55	0x3e73ddf9	0.23815145
56	0xbc1c9e2d	-0.009559196
57	0xbd8e3dad	-0.069453575
58	0xbaf8b5a6	-0.0018975034
59	0x3c5030ee	0.012706978
60	0x3bcc4b0c	0.006234532
61	0x3d88a269	0.06671602
62	0xbc2f68b5	-0.010706116
63	0x3c6d7451	0.014493064
64	0xbd83f8a7	-0.06443911
65	0x3db9cc61	0.09072185
66	0xbb695b92	-0.0035607559
67	0xbdb15477	-0.086586885
68	0x3e31c085	0.17358597
69	0xbcfae194	-0.030625142
70	0xbe0ae6e1	-0.13564636
71	0x3cbd3d1d	0.02310043
72	0x3daca88a	0.08430584
73	0xbd820c9d	-0.06350062
74	0xbda259fb	-0.07927319
75	0xbd72a40c	-0.05923848
76	0xbcaea40f	-0.021318464
77	0x3cb1e4dd	0.021715576
78	0x3c8e5e3f	0.017378924
79	0x3d13a977	0.036050286
80	0x3ecbb3e4	0.39785683
81	0x3e3f0afb	0.18656532
82	0xbf1a8cf5	-0.60371333
83	0xbedeacba	-0.43491155
84	0x3e5d3cce	0.21605226
85	0x3d604ad9	0.05475888
86	0x3d64f8a8	0.0559012
87	0xbe52955b	-0.20564787
88	0xbdb3e813	-0.08784499
89	0x3daaf154	0.08346811
90	0x3d47cf7a	0.04878185
91	0x3cca0e75	0.024665097
92	0x3d332175	0.04373308
93	0xbdb669f7	-0.0890693
94	0x3d9a0222	0.07519938
95	0xbb71adaa	-0.0036877193
96	0xbe290f7f	-0.16509818
97	0x3d33fb6d	0.04394095
98	0xbe2e280b	-0.17007463
99	0xbed6add8	-0.41929507
100	0x3bcd104d	0.0062580467
101	0x3e3f2e67	0.18670045
102	0x3d36e0a0	0.044647813
103	0x3e74c4bb	0.23903172
104	0x3dba12e2	0.09085633
105	0xbe193d59	-0.14964809
106	0xbd007368	-0.03136006
107	0xbe24db0a	-0.16099182
108	0xbe2a8d5e	-0.1665549
109	0x3bc415e5	0.0059840553
110	0xbbb151e3	-0.005411373
111	0xbd3b7522	-0.045766003
112	0xbe9c68f9	-0.30548838
113	0xbdb58498	-0.08863181
114	0xbeacbf61	-0.3373976
115	0xbe9bdf9e	-0.30444044
116	0xbdd3e227	-0.103458695
117	0xbdfdc61a	-0.123913005
118	0xbf8989ff	-1.0745238
119	0x3e4c0bff	0.19926451
120	0x3e25409d	0.1613793
121	0x3b549eff	0.0032443402
122	0xbb7db781	-0.0038714113
123	0xbd069ec4	-0.032866254
124	0xbe1201ce	-0.14258501
125	0xbd5cbc70	-0.053890646
126	0x3dad87fc	0.084732026
127	0x3d28424d	0.041078854
128	0xbe9e1f46	-0.30883235
129	0xbd09760a	-0.033559836
130	0xbe4071da	-0.18793431
131	0x3e695f87	0.22790347
132	0x3ec28353	0.37990817
133	0x3dadbad8	0.08482903
134	0x3e707ee6	0.23485908
135	0x3d8b02ba	0.067876294
136	0xb9971eda	-0.0002882395
137	0xbd1529df	-0.036416885
138	0xbd25b8d5	-0.040459473
139	0x3b393b32	0.0028264043
140	0x3c77e77d	0.015130875
141	0x3c583a50	0.0131974965
142	0xbbefcf26	-0.007318395
143	0xbd06ad7e	-0.0328803
144	0xbdaee930	-0.08540571
145	0xbdc44671	-0.09583748
146	0x3ed1887a	0.40924436
147	0xbe18896e	-0.14896175
148	0xbe17c196	-0.14819941
149	0x3d2402fe	0.040041916
150	0xbf233e02	-0.6376649
151	0x3eab8d46	0.3350622
152	0xbe114c84	-0.14189345
153	0xbc8064b8	-0.015673026
154	0x3d803c31	0.062614806
155	0xbdaceeeb	-0.084440075
156	0x3be1ee18	0.006894838
157	0xbcf21d45	-0.029554972
158	0xbcc0dde5	-0.023543308
159	0x3d523d34	0.0513279
160	0xbd9c7f51	-0.07641471
161	0xbd7d215a	-0.061799385
162	0xbe33e5a2	-0.17568067
163	0xbde72377	-0.11286061
164	0x3d5cf1b4	0.053941444
165	0x3e18ab12	0.14909008
166	0xbd82bf6d	-0.06384168
167	0xbd82f986	-0.06395249
168	0x3de04eaa	0.10952504
169	0x3d66fb5e	0.056392066
170	0x3e039909	0.12851347
171	0x3d85dee7	0.06536656
172	0xbdd96d2d	-0.10616527
173	0xbc087bb6	-0.008330276
174	0x3d06c04f	0.032898244
175	0xbcc5e4ef	-0.024157016
176	0xbd2601a6	-0.040528916
177	0xbe87716a	-0.26453716
178	0xbef00e95	-0.46886125
179	0xbed75f22	-0.42064768
180	0xbec02880	-0.375309
181	0xbe1ad1a6	-0.15119037
182	0x3f142f6a	0.5788485
183	0x3ef9f37a	0.4881857
184	0x3d91b087	0.07113748
185	0x3b107252	0.0022040796
186	0x3d42d330	0.047564685
187	0x3d0e7543	0.0347798
188	0x3c92d989	0.017925994
189	0x3c659434	0.014012385
190	0x3ce15dec	0.027510606
191	0xbdb41f47	-0.08795028
192	0x3e2db049	0.16961779
193	0x3eb13795	0.34612718
194	0x3e0fe8a1	0.14053585
195	0xbdbf0980	-0.09327984
196	0xbd04c0f0	-0.032410562
197	0x3d2f5151	0.04280216
198	0xbddf9fab	-0.10919126
199	0xbe1fa512	-0.15590313
200	0x3d057ed3	0.032591652
201	0x3d530e9b	0.0515276
202	0x3c75d024	0.015003238
203	0x3cd9ecd6	0.02660219
204	0xbcf51351	-0.029916437
205	0xbaac0222	-0.0013123194
206	0x3c217f49	0.009857007
207	0xbcab3c56	-0.020902794
208	0x3dac6681	0.084179886
209	0xbe1dfdab	-0.15428798
210	0x3e8e38be	0.27777666
211	0xc03d3e36	-2.956922
212	0xbde85b89	-0.11345584
213	0x3e1100e4	0.14160496
214	0xbf53cfb3	-0.827388
215	0x3e63eb80	0.22257805
216	0xbd1e953b	-0.038716536
217	0xbd97224d	-0.07379589
218	0x3d825185	0.06363205
219	0x3d90fa34	0.070789725
220	0xbab4150f	-0.0013739186
221	0xbb2976e3	-0.0025858216
222	0x3d1dea0e	0.03855329
223	0x3afaac2d	0.0019124799
224	0x3d4167ff	0.04721832
225	0x3db2665b	0.08710929
226	0xbdb0b4be	-0.08628224
227	0xbe88a8e9	-0.26691368
228	0xbe58d14d	-0.21173592
229	0xbe6876ec	-0.22701615
230	0xbe2d54c0	-0.16926861
231	0x3e1e51df	0.15460919
232	0x3dd75c18	0.10515612
233	0xbc0f1858	-0.008733831
234	0x3d298376	0.041385137
235	0xbd30ab5e	-0.04313218
236	0xbd101da1	-0.035184506
237	0xbac3f0c0	-0.0014949068
238	0x3c8bfb25	0.017087528
239	0x3bebf7fd	0.0072011934
240	0xbda99da6	-0.08282022
241	0xbb347a81	-0.0027538838
242	0x3c940966	0.018070888
243	0x3eaa7edc	0.3329991
244	0xbdce2032	-0.100647345
245	0x3e024cc0	0.1272459
246	0xbf0999ee	-0.53750503
247	0xbddf871e	-0.109144434
248	0x3e07e7bc	0.13271993
249	0xbd969bb5	-0.073539175
250	0xbd86f894	-0.06590381
251	0xbde3d67e	-0.111248955
252	0xbcaa3680	-0.02077794
253	0xbd46d0ab	-0.048538845
254	0xbca63852	-0.020290527
255	0xbd575d94	-0.052579477

critic.0.bias f4 [64]
0	0x3df1ab01	0.118001945
1	0xbe9d9929	-0.30780914
2	0x3de3fb27	0.11131888
3	0xbe07b292	-0.13251713
4	0xbb38b66f	-0.002818491
5	0xbe0b0dbd	-0.1357946
6	0xbbacdcc4	-0.0052753408
7	0x3d800adb	0.062520705
8	0x3d499ab5	0.049219806
9	0x3ea74711	0.32671407
10	0x3ed29b4f	0.41134116
11	0xbe02a55f	-0.12758397
12	0xbe2b4f92	-0.16729572
13	0xbdfdfd52	-0.12401833
14	0x3ea2d005	0.3179933
15	0x3e4fb87e	0.20285222
16	0x3b98e0c1	0.0046654646
17	0xbd91570d	-0.07096682
18	0x3da5d57e	0.08097361
19	0x3f055b74	0.5209267
20	0x3f19344f	0.5984544
21	0xbe153517	-0.14571033
22	0x3df6bf2e	0.120481834
23	0x3d06de73	0.032926988
24	0x3e10eef1	0.14153649
25	0xbd8c3640	-0.06846285
26	0x3cc91367	0.024545385
27	0x3e86c522	0.26322275
28	0x3e2adc59	0.16685618
29	0xbd3db955	-0.046319325
30	0xbdeadad8	-0.114675224
31	0x3ebb5de0	0.36595058
32	0xbdad1c61	-0.084526785
33	0xbe0312b8	-0.1280011
34	0xbd47f29f	-0.048815366
35	0xbdbd6a24	-0.0924876
36	0x3e41add2	0.18913963
37	0x3eddf2ee	0.43349403
38	0xbdc2c67a	-0.09510513
39	0x3e12d041	0.14337255
40	0x3d01a4d1	0.03165132
41	0x3d824fac	0.063628525
42	0x3eac6dcd	0.3367752
43	0xbe8225c2	-0.25419432
44	0xbe9e1f31	-0.30883172
45	0x3e934634	0.28764498
46	0xbe8956c4	-0.2682401
47	0xbe5c61d5	-0.21521695
48	0x3e846699	0.25859526
49	0xbd7e33d2	-0.06206114
50	0xbeaa5629	-0.3326886
51	0xbe8329d5	-0.25617853
52	0x3e821a60	0.25410748
53	0xbde469e6	-0.11153011
54	0xbdcb3bc6	-0.0992351
55	0xbeb7a16d	-0.35865346
56	0x3e5231d7	0.20526825
57	0xbdfb2255	-0.12262408
58	0xbe8cfd74	-0.2753712
59	0x3e346b12	0.17618969
60	0x3dbfb9e0	0.09361625
61	0x3da0a124	0.07843235
62	0x3dc4d3c4	0.096107036
63	0xbb92b1c5	-0.004476758

critic.2.weight f4 [64, 64]
0	0xbdb15281	-0.086583145
1	0xbc148986	-0.009065991
2	0xba5345bf	-0.0008059404
3	0xbd4690f1	-0.04847807
4	0xbcbd837b	-0.023133984
5	0x3dbe8825	0.09303311
6	0x3e0e43aa	0.13893
7	0xbdc14799	-0.09437484
8	0xbe15501f	-0.14581345
9	0xbf010fa5	-0.50414497
10	0xbedbb589	-0.42911938
11	0x3ed2b077	0.41150257
12	0x3de280ca	0.11059721
13	0x3ec2a03a	0.38012868
14	0xbead1f25	-0.33812824
15	0x3da8ec9f	0.08248257
16	0xbde46803	-0.11152651
17	0x3f28cee5	0.65940696
18	0xbf2c41a0	-0.67287636
19	0xbf12df37	-0.5737185
20	0xbf8233f0	-1.01721
21	0x3f22df6a	0.6362215
22	0xbd85cba3	-0.06532981
23	0xbe876eeb	-0.2645181
24	0xbdc3bdda	-0.09557696
25	0x3e81a7e8	0.25323415
26	0x3e301ae7	0.17197762
27	0xbe774c81	-0.24150278
28	0xbdfbdab3	-0.12297573
29	0x3e52d0e5	0.205875
30	0x3e6b31e4	0.2296825
31	0xbea47016	-0.32116765
32	0xbb8b8fba	-0.004259077
33	0x3d29d7f7	0.041465726
34	0x3df86489	0.121285506
35	0xbc9d4e8e	-0.019202497
36	0xbe82dd11	-0.25559285
37	0xbf214d60	-0.6300869
38	0x3ab8fd16	0.0014113511
39	0xbe83c7a7	-0.2573826
40	0x3cfb5abc	0.030682914
41	0x3e76c04f	0.24096797
42	0xbe51ffa8	-0.20507681
43	0x3e3a4afa	0.18192664
44	0x3e275912	0.16342571
45	0xbeb3a7eb	-0.3508905
46	0x3e91405a	0.2836941
47	0x3f11538d	0.56768113
48	0xbf074e3e	-0.52853763
49	0x3c5cdb3f	0.013480007
50	0x3c95c3d0	0.018281847
51	0x3f1644d9	0.58698803
52	0xbe603300	-0.21894455
53	0xbc0b1014	-0.00848772
54	0xbdb3d734	-0.08781281
55	0x3e3ad6c5	0.1824599
56	0xbe95d82c	-0.2926649
57	0x3cf54a49	0.029942648
58	0x3dc47fb2	0.095946684
59	0xbd18a222	-0.037263997
60	0xbe4bd9b5	-0.19907267
61	0xbe370c70	-0.17875838
62	0xbddc9540	-0.10770655
63	0xbe049cea	-0.12950483
64	0xbd72059b	-0.059087377
65	0xbd97871e	-0.073988184
66	0x3d2b3617	0.04179963
67	0x3d4feb1d	0.05076133
68	0xbc23084d	-0.0099507095
69	0x3d94a952	0.07258858
70	0x3b9a8090	0.004715033
71	0xbd446050	-0.047943413
72	0xbe330db7	-0.174857
73	0xbcb2ff78	-0.021850333
74	0x3dd47700	0.1037426
75	0x3e012684	0.12612349
76	0x3deb00c9	0.11474759
77	0xbd38bce5	-0.04510202
78	0x3d9f0b73	0.07765856
79	0x3c3276f0	0.010892615
80	0x3ddf6ca8	0.109093964
81	0xbd29d37f	-0.041461464
82	0x3cb9fb46	0.022702824
83	0xbd8bc0f9	-0.06823916
84	0x3c6246c1	0.013810814
85	0x3d9381cb	0.072024904
86	0xbd3182ee	-0.043337755
87	0x3c96aecf	0.018393902
88	0x3dd9e7c6	0.106399104
89	0x3dea9d97	0.11455839
90	0x3d8abd90	0.067744374
91	0x3d04bd13	0.032406878
92	0x3e0506a2	0.12990811
93	0xbdf43ed3	-0.11926045
94	0x3d6699a4	0.056298867
95	0x3dfa79e1	0.12230278
96	0x3d6aa931	0.05729026
97	0xbe1d039c	-0.15333408
98	0x3d674282	0.05645991
99	0xbe0fcecc	-0.1404373
100	0xbdfc731e	-0.12326644
101	0xbd44758f	-0.047963675
102	0x3dbd0326	0.09229116
103	0x3deb6c4e	0.11495267
104	0x3c92a6ba	0.017901767
105	0x3ce46e01	0.027884485
106	0xbc29f2d4	-0.010372836
107	0x3e1c300d	0.15252705
108	0x3cd61476	0.026132803
109	0xbdc2f0ab	-0.0951856
110	0xbc155087	-0.0091134375
111	0x3cfff376	0.03124402
112	0x3cd314eb	0.02576681
113	0x3c95b1b8	0.01827322
114	0x3d8b980f	0.06816112
115	0x3c7eca13	0.015551108
116	0xbd9bcc50	-0.07607329
117	0xbe1bcf12	-0.1521571
118	0x3ba71945	0.005099448
119	0xbd7423dd	-0.059604514
120	0x3d847df6	0.06469338
121	0x3bd50cf4	0.0065017883
122	0x3d92af96	0.071623966
123	0x3d6b5d26	0.05746188
124	0x3d502e21	0.050825242
125	0x3d7a6d29	0.06113926
126	0x3dc7e3d5	0.097602524
127	0x3db255df	0.08707785
128	0x3d816f75	0.06320087
129	0x3d40e8e6	0.04709711
130	0x3c4c037f	0.012452005
131	0xbdb4952b	-0.08817514
132	0x3d8ac0d2	0.06775059
133	0x3a0de283	0.0005412476
134	0xbda6cf89	-0.08145053
135	0x3dce1716	0.10062997
136	0xbab0c95c	-0.0013487744
137	0x3d206c45	0.039165754
138	0xbd79e6b9	-0.06101105
139	0xbc9e34c1	-0.019312264
140	0xbe0d98ae	-0.13827774
141	0x3c9e73e7	0.019342376
142	0xbc3422b0	-0.010994598
143	0x3dc10c47	0.0942617
144	0x3d952ded	0.0728415
145	0x3e2eec2e	0.17082283
146	0x3d13800f	0.036010798
147	0xbd179594	-0.037007883
148	0x3c29da0e	0.01036693
149	0xbdc719c3	-0.097217105
150	0xbc4d62f9	-0.012535804
151	0xbda8822a	-0.08227952
152	0xbcb91e1f	-0.02259737
153	0x3e07e6a4	0.13271576
154	0xbbaf66dc	-0.005352838
155	0xbda0d9d8	-0.078540504
156	0xbcf5692b	-0.029957375
157	0x3e038c86	0.12846574
158	0x3d99830d	0.07495699
159	0xbd90c9cf	-0.07069742
160	0xbbb0a7f0	-0.0053911135
161	0xbd9b6452	-0.07587494
162	0x3db4b289	0.088231154
163	0xbcd30269	-0.025757985
164	0x3da5c41e	0.08094047
165	0x3da2bb57	0.079458885
166	0x3d15cba8	0.036571175
167	0x3c34137a	0.010990972
168	0xbd8f21ec	-0.06988892
169	0xbd84db8d	-0.064871885
170	0x3c174580	0.009232879
171	0xbcf11674	-0.029429652
172	0xbdc7410a	-0.09729202
173	0xbce30ec9	-0.027717011
174	0xbe09a166	-0.13440475
175	0xbd9a7755	-0.07542292
176	0xbd719fe6	-0.05899038
177	0x3de1ae90	0.11019623
178	0x3df9a1f5	0.12189094
179	0xbdaaff53	-0.083494805
180	0x3db5b163	0.088717245
181	0x3daad405	0.08341221
182	0x3e0673f0	0.13130164
183	0x3da95a1e	0.082691416
184	0x3d5924f3	0.053013753
185	0x3cf634ca	0.030054469
186	0x3d1d667f	0.038427826
187	0x3c70c5d4	0.014695603
188	0x3e05521a	0.130196
189	0x3da708c1	0.081559666
190	0x3d87aca2	0.06624724
191	0x397a51f2	0.00023872385
192	0x3c67020f	0.014099612
193	0x3cb0ec7d	0.021597141
194	0xbcd88e51	-0.02643505
195	0xbcce234b	-0.025163313
196	0xbcdb0c0a	-0.02673914
197	0xbddb1689	-0.106976576
198	0x3d4f2018	0.050567716
199	0x3db07e4c	0.08617839
200	0xbd19181c	-0.037376508
201	0x3dcc6367	0.09979897
202	0xbd33c2c5	-0.04388692
203	0x3d859c79	0.065239854
204	0xbceacb1c	-0.028661303
205	0xbd9ad215	-0.07559601
206	0x3db4d952	0.08830513
207	0x3d9311c9	0.071811266
208	0xbc535f7f	-0.012901186
209	0x3aa5f78b	0.0012662275
210	0xbc80521d	-0.015664155
211	0x3e4f62e1	0.20252563
212	0xbc9d13a9	-0.019174414
213	0x3e354e3f	0.1770563
214	0x3d765afa	0.060145356
215	0x3d8e633a	0.0695252
216	0xbc5ae8f9	-0.013361209
217	0xbe2e63b3	-0.1703022
218	0x3c8a599d	0.016888434
219	0xbdb140e3	-0.08654954
220	0xbda717d7	-0.08158844
221	0xbb4330f1	-0.002978381
222	0xbd88a71a	-0.06672497
223	0x3e175831	0.14779736
224	0xbca60e54	-0.020270504
225	0xbd159303	-0.036517154
226	0xbc3c5676	-0.011495223
227	0x3c93a25e	0.018021759
228	0x3d58f263	0.052965533
229	0xbd96580f	-0.073410146
230	0xbc387389	-0.0112580145
231	0xbc9df201	-0.019280436
232	0x3e3c4ce2	0.18388703
233	0xbcc58562	-0.024111453
234	0x3d2b1641	0.04176927
235	0x3d596fb2	0.053085037
236	0x3c84928a	0.016183157
237	0xbcacb0ed	-0.021080459
238	0xbd103975	-0.035211045
239	0x3d87c94a	0.0663019
240	0xbdcfa163	-0.10138204
241	0x3e12a6ec	0.14321488
242	0x3d8d4a47	0.06898933
243	0xbb1da9ca	-0.00240575
244	0xbe00f77c	-0.12594408
245	0xbce85720	-0.028361857
246	0xbcf23f34	-0.029571153
247	0xbd39d66d	-0.045370508
248	0x3dd2bd9a	0.1029007
249	0x3c59f0f5	0.013302078
250	0xbc9f3d6f	-0.019438474
251	0x3de3088d	0.11085615
252	0x3c5af290	0.0133634955
253	0xbd33bd39	-0.04388163
254	0xbd0c5093	-0.03425653
255	0xbdabc01c	-0.08386251

critic.2.bias f4 [64]
0	0x3c51878c	0.012788665
1	0xbda7beae	-0.08190666
2	0xbbca64d3	-0.00617657
3	0xbe18de0c	-0.14928454
4	0x3d5c8867	0.05384102
5	0xbbe86bcc	-0.0070929285
6	0xbc9711fc	-0.018441193
7	0x3e014a8a	0.1262609
8	0x3dff79a1	0.12474371
9	0x3dae8c83	0.08522894
10	0x3d7556a9	0.0598971
11	0xbe95cebe	-0.29259294
12	0xbdb497b8	-0.088180006
13	0x3d3a6d8f	0.04551464
14	0x3c92a950	0.017903
15	0x3e368db7	0.17827497
16	0x3ded8e79	0.1159944
17	0xbe22225e	-0.15833423
18	0xbdc2aa99	-0.09505195
19	0x3d614ebb	0.055006724
20	0xbdab6561	-0.08368946
21	0xbdc110aa	-0.094270065
22	0x3d66e375	0.056369264
23	0xbd18b275	-0.037279565
24	0xbdacdfb3	-0.08441105
25	0x3c51e21f	0.012810259
26	0xbe43dde4	-0.19127613
27	0xbcce4513	-0.025179422
28	0xbdb44e8c	-0.08804044
29	0xbbc735eb	-0.0060794256
30	0x3dad72bc	0.084691495
31	0x3d109a72	0.03530354
32	0xbd020f3d	-0.031752814
33	0x3e41cc88	0.18925679
34	0x3de98272	0.114018336
35	0x3dddf967	0.10838585
36	0xbccbf120	-0.02489525
37	0xbca3a262	-0.019974891
38	0xbe32ea51	-0.17472197
39	0xbdcfbc3a	-0.10143323
40	0xbe8eab18	-0.2786491
41	0x3c8fa107	0.017532839
42	0x3d8c8c3a	0.068626836
43	0x3e859ded	0.2609705
44	0x3ce31a2b	0.027722439
45	0xbde5a401	-0.11212922
46	0x3d725285	0.059160728
47	0xbc89fe0b	-0.01684477
48	0x3d4769b0	0.048684776
49	0xbd210532	-0.039311595
50	0x3e2da860	0.16958761
51	0x3c47e101	0.012199641
52	0xbcbfb05c	-0.023399524
53	0xbd9c2219	-0.07623691
54	0x3d857a55	0.065174736
55	0xbc631adb	-0.013861383
56	0xbdbf05bd	-0.09327266
57	0xbdb96175	-0.090517916
58	0xbd1a7578	-0.037709683
59	0x3d215df0	0.039396226
60	0xbe0e9b0d	-0.13926335
61	0xbdbff401	-0.09372712
62	0xbd2ecf53	-0.04267819
63	0x3ca13bd4	0.019681849

critic.4.weight f4 [1, 64]
0	0xbe015c57	-0.12632881
1	0x3ba741dd	0.005104287
2	0x3c52fdf0	0.012877926
3	0xb9ca38e3	-0.00038570826
4	0xbae0f8e3	-0.0017164018
5	0x3c1b37d3	0.009473759
6	0x3a97aa94	0.0011571222
7	0xbd040bd0	-0.032237828
8	0x3a556923	0.0008140972
9	0xbc5a4be5	-0.013323759
10	0x3b5b8a41	0.0033499154
11	0x3dee24d3	0.116281174
12	0xbbc554bb	-0.0060220635
13	0xbbac4be8	-0.005258072
14	0x3c08d161	0.008350701
15	0xbdd2b3e1	-0.102882154
16	0xbaf6243a	-0.0018779107
17	0x3e0fb0c0	0.14032269
18	0x3add3fa6	0.0016879931
19	0xbc065a85	-0.0082002925
20	0x3b6d2324	0.0036184276
21	0x3808424c	3.248667e-05
22	0x3d8cc71d	0.06873915
23	0xbb6f5c67	-0.0036523582
24	0xbb8d10d7	-0.004304986
25	0xba138ab5	-0.0005628274
26	0x3d94737d	0.0724859
27	0xbb3c3038	-0.0028715264
28	0x3aee7829	0.001819377
29	0x3a843871	0.0010087622
30	0x3ba3ed19	0.0050026295
31	0x3a9a4f5b	0.0011772917
32	0xbba7159b	-0.005099011
33	0xbda55652	-0.08073105
34	0xbbab67c6	-0.0052308766
35	0xbb58ad1a	-0.003306216
36	0xbb6e01a5	-0.0036316898
37	0xbb3b36a1	-0.0028566497
38	0xbdbaf590	-0.091288686
39	0xbb8abf3e	-0.0042342236
40	0x3d4c699e	0.049905412
41	0xbe1a2f02	-0.15056995
42	0x3c2716c4	0.010198299
43	0xbe21c110	-0.15796304
44	0x3bee2989	0.007268135
45	0x3df80beb	0.12111648
46	0x3a85b287	0.00102003
47	0x3bbeb815	0.005820284
48	0xba888487	-0.0010415473
49	0x3b4e1fc9	0.003145205
50	0xbd8aa2d9	-0.06769342
51	0xba846e53	-0.001010368
52	0xbc50c180	-0.0127414465
53	0x3b009cab	0.0019624631
54	0x3b4d48fe	0.0031324024
55	0x3ac6f435	0.001517898
56	0xbba2339f	-0.0049500014
57	0x3bac2aa4	0.0052541066
58	0x3aa4540c	0.0012537255
59	0xb94d323e	-0.0001956904
60	0x3bc772d6	0.0060866876
61	0x3d8a8a9e	0.067647204
62	0xbb44c405	-0.0030024063
63	0x3b7c0d8b	0.003846022

exp_avg f4 [7]
0	0x3c2d8c1f	0.0105924895
1	0xbb722cdf	-0.0036953015
2	0xb8a8b2e3	-8.0441845e-05
3	0x3bb69436	0.0055718673
4	0x39957ffe	0.00028514856
5	0x3b2bec24	0.002623328
6	0xbacafd89	-0.0015486936

exp_avg_sq f4 [7]
0	0x3ad4bac7	0.001622998
1	0x3b07c6c1	0.0020717832
2	0x3abd0f17	0.0014424053
3	0x3ab7ecb2	0.0014032333
4	0x3ac8c857	0.0015318495
5	0x3a8b9e71	0.0010652078
6	0x3a7b6a25	0.0009590707
