logs/rsl_rl/franka_reach/2025-06-16_20-11-58/model_400.pt (torch, 172795 bytes, 36 tensors)

std f4 [7]
0.2332071 0.18075413 0.20097926 0.20277998 0.21225652 0.24880104 0.21616085
00000000: d8cd 6e3e 9c17 393e 82cd 4d3e 8ea5 4f3e
00000010: c659 593e b3c5 7e3e 4559 5d3e

actor.0.weight f4 [64, 32]
-0.2974138 0.29332742 -0.49565107 0.42173868 0.06487758 0.20530815 0.12931702 0.39681122
0.6343503 -0.008020292 0.36285737 0.124692984 0.18747827 0.080696695 -0.1847603 -0.12485507
-0.64891666 0.054129977 -0.7025979 -0.13024712 0.7440377 -0.02034992 -0.671706 0.035012126
-0.14131944 -0.069922075 -0.21483563 -0.2869381 0.085484676 -0.3146907 0.007402869 -0.22565429
0.08065813 0.075111665 -0.3075233 0.8120546 0.82034004 0.32188338 0.0595851 -0.13555755
0.25143746 0.09368398 -0.19510227 0.45916107 -0.05569417 0.06210803 0.1324856 0.19762462
0.3562184 -0.6915201 -0.921881 -1.9758933 -0.48574507 0.14365342 0.3055833 0.21995945
0.0570385 0.08366983 0.047739975 -0.16467698 0.112837486 -0.12726691 0.09027696 -0.03495622
0.7108787 -0.1827624 0.8562622 -0.24366076 0.24989904 -0.015725771 0.30870116 0.60744464
0.881778 -0.09867596 0.023104023 -0.19208267 0.09824813 0.10117848 0.026348887 0.12973484
-0.41383806 0.90360284 0.027256252 -1.7264652 0.3456074 -0.040686335 -0.23843183 0.089915745
-0.09120248 -0.06704738 0.08254193 0.025596928 0.043888617 0.3529336 -0.48620206 -0.463443
-1.0531301 0.0030076674 -0.03627187 -0.795039 -0.07483406 -0.45036516 0.25207293 -0.049069364
0.15564543 -0.18180023 -0.52651346 -0.005036767 0.31089863 -0.2609787 -0.092881344 -0.01179605
0.8299101 0.4334677 -0.18976746 0.31137362 0.47664887 -0.1553675 -0.5102852 -0.16164385
-0.0013254335 -0.47369492 -0.32937375 -0.109876 -0.37336728 -0.39236623 0.14125867 -0.31567007
-0.027880428 -0.15550838 0.060665023 0.34018686 -0.6155722 0.971449 0.08425513 -0.17808999
-0.18062957 -0.14180814 -0.23812445 0.0024768033 0.04275345 -0.087299965 0.0027579903 -0.13412254
-0.1991575 -0.7640639 -0.39177853 1.9276807 0.87080353 -0.13746451 -0.2871583 -0.8008319
-0.017917534 -0.5894038 -0.0012429658 0.10125577 -0.16651347 0.08740681 -0.31170008 -0.0048781796
0.4667954 -0.5560166 0.41812012 -0.18095748 0.32030082 1.2457099 0.0027315782 0.3673628
0.110728696 -0.119196825 0.09315882 -0.08386748 -0.080272324 0.022201804 0.047799416 -0.157429
-0.045862902 -0.67067236 0.057233628 -1.2287837 -0.7932603 0.083492905 0.08990576 0.92106885
0.089462556 0.21728042 0.26525173 0.08755983 0.074674 0.031950273 0.09234626 -0.065184146
0.11260939 0.038109444 0.06222115 -0.53764707 -0.11293569 -0.45460147 0.09690894 0.23482911
0.14598161 -0.03627169 0.04932862 0.019512933 -0.25238442 -0.072449915 0.104609266 -0.13899821
1.0086368 0.15219723 -0.17869608 -0.16219673 -0.018689573 -0.1077016 -0.45487967 0.36617947
0.024849512 0.21721049 0.38409138 -0.10752632 -0.12263558 0.10295579 -0.065758616 -0.121392176
0.9936467 0.008894403 1.110037 -0.28560582 -0.43985194 -0.42760924 -0.7947778 0.21597385
0.096659824 0.10246101 0.017839534 0.265717 0.38903862 0.17229572 -0.008318254 -0.20812726
0.65997595 0.3004543 0.02713318 -1.8009751 -0.5808877 -0.12225164 -0.54337573 0.15938051
-0.05534922 -0.19289352 -0.067658655 -0.55650955 0.064962536 -0.12906428 -0.019380685 -0.033409037
00000000: 9f46 98be 032f 963e fac5 fdbe 22ee d73e
00000010: 89de 843d 4d3c 523e ae6b 043e d72a cb3e
00000020: c864 223f 8b67 03bc 71c8 b93e 095f ff3d
00000030: 4efa 3f3e 4f44 a53d ce31 3dbe 04b4 ffbd
00000040: 671f 26bf 65b7 5d3d 75dd 33bf 805f 05be
00000050: 4179 3e3f e0b4 a6bc edf4 2bbf e068 0f3d
00000060: 0bb6 10be 4e33 8fbd dffd 5bbe 8de9 92be
00000070: 9712 af3d 241f a1be c493 f23b eb11 67be
00000080: 1730 a53d 25d4 993d b273 9dbe cfe2 4f3f
00000090: ce01 523f e6cd a43e 810f 743d 99cf 0abe
000000a0: 69bc 803e 63dd bf3d e4c8 47be 2917 eb3e
000000b0: 921f 64bd fd64 7e3d 4eaa 073e 1c5e 4a3e
000000c0: 4262 b63e 7607 31bf 6500 6cbf 12ea fcbf
000000d0: 94b3 f8be e219 133e 6a75 9c3e 0d3d 613e
000000e0: 34a1 693d 165b ab3d fe8a 433d 15a1 28be
000000f0: 5717 e73d 4252 02be 20e3 b83d 412e 0fbd
00000100: 25fc 353f 1126 3bbe 0034 5b3f 3582 79be
00000110: 89e5 7f3e 55d3 80bc 140e 9e3e 7e81 1b3f
00000120: 34bc 613f 9f16 cabd a644 bd3c 52b1 44be
00000130: 5136 c93d aa36 cf3d 9fd9 d73c 36d9 043e
00000140: 95e2 d3be 8452 673f 8148 df3c d0fc dcbf
00000150: 74f3 b03e b7a6 26bd 7927 74be bf25 b83d
00000160: 5ec8 babd 2350 89bd be0b a93d a6b0 d13c
00000170: 8dc4 333d b6b3 b43e 7aef f8be 6748 edbe
00000180: f8cc 86bf 491c 453b d091 14bd ad87 4bbf
00000190: 9a42 99bd 4396 e6be b40f 813e f5fc 48bd
000001a0: 8461 1f3e d729 3abe 96c9 06bf 770b a5bb
000001b0: 1b2e 9f3e 009f 85be 9338 bebd 3844 41bc
000001c0: fd74 543f 7aef dd3e 6752 42be 5d6c 9f3e
000001d0: 520b f43e a818 1fbe 0da2 02bf f785 25be
000001e0: 2bba adba 2488 f2be ada3 a8be ab06 e1bd
000001f0: ff29 bfbe 3ae4 c8be 1da6 103e 829f a1be
00000200: 7f65 e4bc 973d 1fbe e37b 783d f92c ae3e
00000210: 2496 1dbf e2b0 783f f48d ac3d 395d 36be
00000220: f5f6 38be 2736 11be e5d6 73be dd51 223b
00000230: 3e1e 2f3d 53ca b2bd 66bf 343b 6b57 09be
00000240: f2ef 4bbe b199 43bf 3297 c8be 3ebe f63f
00000250: fbec 5e3f 7fc3 0cbe 6a06 93be 5203 4dbf
00000260: cbc7 92bc 2be3 16bf 03eb a2ba 2f5f cf3d
00000270: 8282 2abe 5702 b33d 2797 9fbe 23d9 9fbb
00000280: cfff ee3e 1b57 0ebf d713 d63e eb4c 39be
00000290: 78fe a33e 6c73 9f3f 4704 333b fa16 bc3e
000002a0: bac5 e23d 771d f4bd 0dca be3d b7c2 abbd
000002b0: d165 a4bd 8fe0 b53c 52c9 433d 1135 21be
000002c0: bdda 3bbd 2fb1 2bbf cf6d 6a3d c948 9dbf
000002d0: 1b13 4bbf 54fe aa3d 8320 b83d 2bcb 6b3f
000002e0: 2538 b73d c27e 5e3e 13cf 873e 9152 b33d
000002f0: afee 983d 4ade 023d 0920 bd3d 447f 85bd
00000300: c09f e63d a618 1c3d 9bdb 7e3d 3da3 09bf
00000310: d44a e7bd 86c1 e8be 3278 c63d 0b77 703e
00000320: 347c 153e a091 14bd cf0c 4a3d 96d9 9f3c
00000330: 8838 81be 9f60 94bd 623d d63d 8c55 0ebe
00000340: 031b 813f 97d9 1b3e 1bfc 36be e616 26be
00000350: e01a 99bc a892 dcbd fde5 e8be e07b bb3e
00000360: 3491 cb3c 6d6c 5e3e a0a7 c43e c236 dcbd
00000370: 5d28 fbbd 7cda d23d 74ac 86bd 769c f8bd
00000380: a15f 7e3f d5b9 113c b115 8e3f ed3a 92be
00000390: 4634 e1be 99ef dabe 8f76 4bbf 4028 5d3e
000003a0: 96f5 c53d 14d7 d13d 3724 923c 0f0c 883e
000003b0: 1230 c73e 4a6e 303e 4949 08bc 501f 55be
000003c0: 2ff4 283f 25d5 993e 6746 de3c 5a86 e6bf
000003d0: 0eb5 14bf 115f fabd ac1a 0bbf a534 233e
000003e0: ddb5 62bd e185 45be 9f90 8abd 6977 0ebf
000003f0: 140b 853d 6d29 04be 3ec4 9ebc ead7 08bd

actor.0.bias f4 [64]
-0.23471084 -0.16856343 -0.63469166 -0.004776639 0.097370185 -0.3222408 -0.39722946 -0.02169286
0.35640305 0.23902361 -0.10785211 -0.014841736 -0.12259572 -0.25000516 -0.6222362 -0.2958552
0.6690679 0.21319966 0.26119265 0.15580836 0.14644596 0.22159651 -0.30235073 0.15189771
-0.6497619 0.68796253 -0.071117535 -0.41074577 -0.09728571 0.17383887 -0.1637274 0.44819495
-0.7054436 -0.20198953 0.31775096 -0.049890433 0.026690507 0.051319387 -0.5396785 -0.2951259
0.08040281 -0.043218672 0.5434093 -0.17063159 0.06745209 0.098539054 -0.24957795 -0.007118576
0.47280496 -0.52622396 0.043340627 -0.21707563 0.00014765306 -0.23663653 -0.5647227 -0.29691222
-0.4135845 0.006928114 0.15367243 0.26675755 -0.064659156 0.29057387 0.28002945 -0.086397305
00000000: 0a58 70be e49b 2cbe 277b 22bf 5a85 9cbb
00000010: 056a c73d bffc a4be a961 cbbe 3ab5 b1bc
00000020: 767a b63e 9bc2 743e 91e1 dcbd c12a 73bc
00000030: 7713 fbbd ad00 80be df4a 1fbf 557a 97be
00000040: 0948 2b3f 0351 5a3e 0bbb 853e 3a8c 1f3e
00000050: eef5 153e 32ea 623e b7cd 9abe 138b 1b3e
00000060: cc56 26bf 501e 303f 12a6 91bd 454d d2be
00000070: bb3d c7bd d102 323e 28a8 27be cf79 e53e
00000080: f497 34bf 58d6 4ebe 41b0 a23e e959 4cbd
00000090: 0da6 da3c 4734 523d 5f28 0abf be1a 97be
000000a0: 3aaa a43d 1006 31bd df1c 0b3f 0cba 2ebe
000000b0: 5224 8a3d d8ce c93d 5d91 7fbe f242 e9bb
000000c0: 7e13 f23e 9db6 06bf f185 313d 1349 5ebe
000000d0: 51d3 1a39 d950 72be ab91 10bf e104 98be
000000e0: 59c1 d3be 3c05 e33b 4e5c 1d3e 7294 883e
000000f0: 056c 84bd 19c6 943e 0560 8f3e 12f1 b0bd

actor.2.weight f4 [64, 64]
-0.12746127 0.12502058 0.4485705 0.22311597 -0.08876478 0.26801082 0.2727912 -0.090392716
0.19997394 -0.117510445 0.17282058 -0.07318577 0.020061428 0.2974128 0.19308215 -0.04754417
-0.04756987 0.16859286 0.07687554 -0.034177717 -0.17099641 0.29374155 -0.0755599 -0.031958755
0.03153747 -0.7633791 0.009320977 -0.30030748 -0.28645363 -0.039885942 -0.1160143 -0.29367235
-0.30150017 0.2652053 0.18155849 -0.5071491 0.068951 -0.018990343 0.38016313 0.05608446
0.07561872 0.15322918 0.2536126 -0.011160853 0.015211448 0.017801652 -0.12325329 0.20988077
-0.13184579 -0.006402192 -0.19192205 -0.43176246 0.015599414 -0.01044941 -0.39716852 0.14603959
0.023064727 -0.19119222 0.09117156 -0.43543562 -0.057629358 0.07840344 0.15601693 -0.15013601
0.071565084 0.23908311 0.0043019066 0.17184499 -0.1753496 0.0013615576 -0.05139352 0.04225972
0.074802354 0.25379497 0.056807164 -0.04541253 -0.09029779 0.27060792 0.12644877 -0.09651788
-0.08787147 -0.054323804 0.08266522 0.0122677 0.076418154 0.03530657 0.0082614 0.07470823
0.05725104 -0.015092469 -0.07972136 -0.022214374 -0.18304689 0.04398372 -0.14673121 0.18935186
0.1868839 0.059338454 -0.17676523 -0.20977436 0.0040230458 -0.07121438 0.059277076 0.15059635
-0.2780132 -0.22434153 0.010393545 -0.038599007 0.07232642 0.05520103 0.048912436 -0.14843956
-0.29539853 -0.02746221 -0.116339475 0.28309584 -0.05914177 -0.017999217 0.047729287 0.14042458
-0.025880283 -0.32242563 0.03469751 0.22581053 0.161737 -0.016561883 0.08971972 -0.28875282
0.41905278 -0.13034289 -0.3366106 -0.3547059 0.32351735 -0.33297533 -0.11661705 -0.018625809
-0.025338938 -0.077403754 -0.17261125 0.087795615 0.03607641 0.100562766 0.19726124 0.11816404
-0.30595326 -0.0978485 -0.059864827 -0.07541143 -0.09622056 0.25377306 0.246544 -0.09456088
0.19538185 -0.2339883 -0.26220256 0.04214632 0.1479516 0.023889389 0.0648985 -0.275724
0.25439617 0.25635153 -0.0033031076 -0.171942 -0.29566413 -0.24318509 -0.12176752 -0.10093
-0.05596371 -0.13831133 -0.17793414 -0.05168055 0.27484253 0.038842138 0.13875297 -0.12326077
0.1614738 0.13027604 -0.027399482 0.22380745 0.1767766 -0.19781756 0.106547065 -0.030157939
0.12894967 0.010624258 -0.3471768 -0.0090083 0.03709523 -0.06596834 -0.19608237 0.009393525
0.05251803 0.03852759 -0.18588841 -0.30720285 0.13809481 0.25114003 0.11565341 -0.04030526
0.10699863 0.32837564 -0.13038076 -0.09549451 0.005919519 -0.14439818 -0.10053696 -0.030430613
0.03493189 0.037133012 0.11561189 0.21125446 0.15344042 0.045334376 -0.09794626 0.108825214
-0.37833652 0.17483437 -0.08027218 -0.20288724 0.012179099 0.1559311 0.11385764 0.021624798
0.12263743 -0.12852421 -0.13574553 -0.13979372 0.37801734 -0.028656248 0.0059636934 0.042039707
0.09770348 -0.061500307 0.030060263 0.038449757 -0.11537054 0.019036395 -0.026520532 0.19300486
-0.05620164 0.04154117 -0.17519282 0.1235848 -0.05010529 0.016702995 0.18058349 -0.00529974
0.16607036 -0.094569996 0.10980815 0.1782761 0.031034872 -0.007821698 0.16790986 0.17711651
00000000: 3585 02be 6505 003e 08ab e53e 8378 643e
00000010: 4fca b5bd b738 893e 4aab 8b3e d11f b9bd
00000020: f8c5 4c3e 51a9 f0bd e1f7 303e 6ce2 95bd
00000030: dd57 a43c 7e46 983e 54b7 453e adbd 42bd
00000040: a0d8 42bd 9ba3 2c3e ec70 9d3d effd 0bbd
00000050: af19 2fbe 4b65 963e 26bf 9abd 2fe7 02bd
00000060: 6f2d 013d d06c 43bf 03b7 183c e7c1 99be
00000070: 0daa 92be 715f 23bd e898 edbd 395c 96be
00000080: 3b5e 9abe fdc8 873e 78ea 393e 86d4 01bf
00000090: 2f36 8d3d a391 9bbc bea4 c23e d2b8 653d
000000a0: fddd 9a3d 1ce8 1c3e 83d9 813e 03dc 36bc
000000b0: 7039 793c c5d4 913c 396c fcbd fcea 563e
000000c0: 9502 07be 7bc9 d1bb 3787 44be f80f ddbe
000000d0: af94 7f3c 0134 2bbc ac59 cbbe 678b 153e
000000e0: 3df2 bc3c e5c7 43be 28b8 ba3d 6bf1 debe
000000f0: c30c 6cbd fc91 a03d e7c2 1f3e 41bd 19be
00000100: b790 923d 34d2 743e 02f7 8c3b 22f8 2f3e
00000110: d88e 33be 4b76 b23a 0382 52bd 8718 2d3d
00000120: fa31 993d 6af1 813e a1ae 683d 7d02 3abd
00000130: 0cee b8bd 1f8d 8a3e c97b 013e 2bab c5bd
00000140: f5f5 b3bd a382 5ebd 624c a93d 77fe 483c
00000150: 1f81 9c3d 9f9d 103d d35a 073c a100 993d
00000160: 1180 6a3d 6746 77bc f444 a3bd ebfa b5bc
00000170: a570 3bbe 4628 343d b540 16be 74e5 413e
00000180: 7e5e 3f3e e10c 733d f201 35be 17cf 56be
00000190: c1d3 833b d8d8 91bd 85cc 723d ee35 1a3e
000001a0: bf57 8ebe c9b9 65be b049 2a3c fe19 1ebd
000001b0: e01f 943d 7a1a 623d 6858 483d 8a00 18be
000001c0: 7a3e 97be 6ef8 e0bc 6443 eebd f0f1 903e
000001d0: a43e 72bd 1873 93bc c97f 433d 76cb 0f3e
000001e0: e302 d4bc f914 a5be fa1e 0e3d e03a 673e
000001f0: 629e 253e c9ac 87bc f9be b73d 69d7 93be
00000200: 168e d63e 9b78 05be 3958 acbe 039c b5be
00000210: 11a4 a53e be7b aabe ebd4 eebd 2795 98bc
00000220: 9b93 cfbc dc85 9ebd 01c1 30be 30ce b33d
00000230: dcc4 133d daf3 cd3d dafe 493e fdff f13d
00000240: e8a5 9cbe cb64 c8bd d234 75bd 4f71 9abd
00000250: 490f c5bd 8bee 813e 0876 7c3e 22a9 c1bd
00000260: 2e12 483e a19a 6fbe 6a3f 86be 9fa1 2c3d
00000270: a080 173e aeb3 c33c 81e9 843d b22b 8dbe
00000280: 3740 823e 8240 833e f378 58bb 9011 30be
00000290: 4a61 97be 8305 79be 4061 f9bd 63b4 cebd
000002a0: 343a 65bd 7ca1 0dbe 5e34 36be fcae 53bd
000002b0: 29b8 8c3e ef18 1f3d 4215 0e3e 2570 fcbd
000002c0: 6359 253e 1567 053e e174 e0bc c82d 653e
000002d0: ed04 353e b090 4abe 5935 da3d c80d f7bc
000002e0: 620b 043e 5e11 2e3c 28c1 b1be 8c97 13bc
000002f0: 2bf1 173d 691a 87bd d1c9 48be 4de7 193c
00000300: 251d 573d 1bcf 1d3d 8859 3ebe b149 9dbe
00000310: ba68 0d3e 6d95 803e b2db ec3d 2117 25bd
00000320: 1922 db3d da20 a83e 8982 05be a092 c3bd
00000330: 86f8 c13b 1edd 13be 52e6 cdbd 9f49 f9bc
00000340: be14 0f3d c918 183d edc5 ec3d 1753 583e
00000350: 7c1f 1d3e 8ab0 393d 0c98 c8bd c1df de3d
00000360: 53b5 c1be c807 333e be65 a4bd acc1 4fbe
00000370: d88a 473c 67ac 1f3e 322e e93d 7d26 b13c
00000380: 5529 fb3d da9b 03be e000 0bbe 1626 0fbe
00000390: 7d8b c13e 82c0 eabc 166b c33b d431 2c3d
000003a0: c318 c83d bfe7 7bbd f140 f63c 7e7d 1d3d
000003b0: 6447 ecbd 37f2 9b3c 9641 d9bc 11a3 453e
000003c0: b133 66bd 1327 2a3d bf65 33be 071a fd3d
000003d0: 343b 4dbd b8d4 883c e1ea 383e 71a9 adbb
000003e0: 590e 2a3e eaad c1bd 18e3 e03d 038e 363e
000003f0: d83c fe3c 9426 00bc 90f0 2b3e 085e 353e

actor.2.bias f4 [64]
-0.41510454 -0.056803524 -0.14500053 0.13312212 -0.25229204 -0.2763311 -0.10747759 -0.35997185
-0.08132793 -0.25253972 -0.35492894 -0.26036984 -0.22630174 -0.012384189 -0.1422436 -0.0951829
-0.2766534 -0.57563025 -0.22502385 -0.3196445 -0.4753196 -0.26580325 -0.26107806 -0.05575166
-0.34402806 -0.55080765 -0.3752602 -0.21127997 -0.06497262 -0.29278523 0.21412408 -0.40625578
-0.11737245 -0.1701212 -0.5554327 -0.460162 -0.56861085 -0.38069904 -0.16387786 -0.22196303
-0.46756986 -0.3195869 -0.13419062 -0.029807106 -0.25044695 -0.49266666 -0.0076292735 -0.15038736
-0.028186955 -0.29841825 -0.2161628 -0.4420775 -0.3243663 -0.23003425 -0.3566823 -0.36062092
-0.14768767 -0.2984553 -0.21648493 -0.43177614 -0.33243513 -0.26318493 -0.2296416 0.038743027
00000000: 9588 d4be d0aa 68bd 057b 14be 2a51 083e
00000010: 6c2c 81be 457b 8dbe 361d dcbd 3b4e b8be
00000020: 428f a6bd e34c 81be 3fb9 b5be 324f 85be
00000030: a5bb 67be 0ee7 4abc 4ea8 11be 41ef c2bd
00000040: 84a5 8dbe 815c 13bf a76c 66be 72a8 a3be
00000050: 175d f3be 5d17 88be 06ac 85be da5b 64bd
00000060: 7224 b0be bb01 0dbf 1b22 c0be c759 58be
00000070: 5d10 85bd f2e7 95be 5843 5b3e c200 d0be
00000080: f860 f0bd 4034 2ebe d630 0ebf 5b9a ebbe
00000090: 7b90 11bf fcea c2be 99cf 27be 474a 63be
000000a0: 5165 efbe e5a0 a3be 4469 09be 082e f4bc
000000b0: 953a 80be ce3e fcbe fcfe f9bb 25ff 19be
000000c0: 54e8 e6bc 47ca 98be c859 5dbe fb57 e2be
000000d0: 5713 a6be 198e 6bbe 109f b6be 4ea3 b8be
000000e0: 703b 17be 22cf 98be 3aae 5dbe c311 ddbe
000000f0: f034 aabe 2dc0 86be 2b27 6bbe 02b1 1e3d

actor.4.weight f4 [7, 64]
0.06135521 -0.006278679 -0.028935239 0.027814828 0.095172316 -0.017943464 -0.0012491666 0.002243909
-0.027369753 0.011469204 0.05078259 0.04573782 0.020618862 0.025650697 0.017131628 -0.037584696
0.08074276 -0.13224909 -0.02052287 -0.06159824 -0.03584772 0.021865878 0.01057017 0.14986083
0.013201595 0.12940957 0.032167803 -0.021667251 -0.04878414 0.060824055 -0.027643386 0.17990695
0.18833248 -0.08553 0.010699005 0.0033735468 -0.07955241 -0.055013902 -0.12221872 0.13118468
0.08142352 0.16912304 -0.09856112 -0.033814225 -0.1264353 0.11773928 0.047292363 -0.003659562
0.013737969 -0.027894726 0.115135916 -0.04903788 0.0071987314 -0.041990582 0.04314548 0.058352515
-0.05572801 -0.06852898 0.04689334 -0.08370796 0.25602692 0.16412458 0.09948 -0.0401552
0.0032532339 0.018759571 -0.026499402 0.0034892834 0.009665338 0.095795475 0.016757138 0.019203065
0.0119527485 0.046668697 -0.0714922 -0.09056941 -0.00022252799 0.0073446855 -0.056301463 0.018138405
-0.0666811 -0.18825698 -0.022345336 0.01961983 -0.10663608 -0.035286363 -0.004596846 -0.05274927
0.025150076 -0.025973389 -0.044513263 0.024772018 0.04942612 -0.00029099028 0.05792746 0.040929556
0.20900284 0.013007686 -0.22785519 -0.06687328 -0.093799375 -0.04777616 -0.041982014 0.045915194
-0.06405737 -0.21771076 0.03767021 0.03711162 -0.004872747 -0.09980246 0.017193861 0.030952856
0.061187897 -0.04452125 0.039241962 0.00030765732 0.052403413 -0.17476413 0.024899738 -0.05870693
0.0885511 -0.0646043 -0.05687686 -0.038084123 0.023502132 -0.031307243 0.047597352 0.021376163
0.21220222 -0.0113083245 -0.0017585105 -0.03363988 -0.05788305 -0.0042444183 0.021191739 -0.009053542
0.013114169 -0.00068473304 -0.09535721 -0.04045393 -0.025732987 0.043770954 -0.15377454 -0.040477753
-0.19195215 0.023247186 0.013668299 0.060921565 0.018308444 -0.10421852 -0.08733324 0.07843956
-0.04301368 0.1214367 0.051125377 0.01811408 0.019062644 -0.08845011 0.0032250513 0.24297579
0.015645383 -0.115884304 0.0072206235 -0.08147029 -0.028780073 -0.03583825 -0.06613201 -0.010107723
0.0915212 0.19198127 -0.1114974 0.009681567 0.116434686 0.13939491 0.077566236 0.015864674
0.032122593 -0.12572894 0.11279964 0.07065037 -0.093215056 -0.15814598 0.017912092 0.1770745
-0.047136445 0.102287665 0.03392828 -0.20287459 0.16111231 0.3192085 -0.0149864955 0.01687993
-0.14036623 -0.010526049 0.007875378 0.024290962 -0.0899032 -0.016227674 0.15810397 0.07442106
-0.03556892 -0.07370337 0.080788754 0.028815867 -0.008951507 -0.020223139 -0.33328378 0.030573787
0.037202146 -0.046271242 -0.036050934 0.08499546 -0.0011005495 -0.0041193534 0.057486698 0.044689644
0.0014454069 0.087837845 0.1474941 0.0723183 -0.058515437 0.06645649 0.009808623 0.006785644
-0.14641674 0.008149393 -0.102615885 -0.20012729 0.14811839 -0.027985197 -0.065338515 0.03205643
-0.15254192 -0.06337586 -0.10864943 -0.00081274234 -0.02684872 -0.13999632 0.008891747 0.07370043
-0.04399441 -0.11913192 -0.05221889 -0.0041853446 0.063775785 0.05243831 -0.18338381 -0.013588118
-0.10073095 -0.023406006 -0.015802972 -0.23135684 -0.0007511979 0.1878629 -0.0018367544 0.040540494
00000000: 9a4f 7b3d 60bd cdbb 9809 edbc ecdb e33c
00000010: b4e9 c23d 2cfe 92bc 13bb a3ba 8c0e 133b
00000020: 8836 e0bc 54e9 3b3c 6801 503d 9557 3b3d
00000030: e3e8 a83c 6921 d23c a157 8c3c 69f2 19bd
00000040: 765c a53d 4e6c 07be 941f a8bc 704e 7cbd
00000050: 0fd5 12bd 1220 b33c 822e 2d3c 1e75 193e
00000060: 814b 583c f183 043e 63c2 033d 857f b1bc
00000070: e1d1 47bd a522 793d 6274 e2bc 8739 383e
00000080: 3bda 403e 5a2a afbd e14a 2f3c b916 5d3b
00000090: 60ec a2bd 4256 61bd cf4d fabd 4755 063e
000000a0: 60c1 a63d 972e 2d3e 6ada c9bd c980 0abd
000000b0: 4178 01be 4b21 f13d a3b5 413d 43d5 6fbb
000000c0: 3815 613c 7b83 e4bc 61cc eb3d f2db 48bd
000000d0: 56e3 eb3b 51fe 2bbd 51b9 303d 0c03 6f3d
000000e0: 0e43 64bd ec58 8cbd 3b13 403d 146f abbd
000000f0: f615 833e 4610 283e 2cbc cb3d c779 24bd
00000100: 3534 553b acad 993c 4615 d9bc 76ac 643b
00000110: 5e5b 1e3c 6b30 c43d 4446 893c bf4f 9d3c
00000120: 76d5 433c ad27 3f3d 816a 92bd 747c b9bd
00000130: 6756 69b9 b0ab f03b 5d9c 66bd fe96 943c
00000140: 1a90 88bd 70c6 40be 910d b7bc c4b9 a03c
00000150: 0464 dabd 6f88 10bd 24a1 96bb 9e0f 58bd
00000160: 8807 ce3c 25c6 d4bc 8a53 36bd b0ee ca3c
00000170: 0b73 4a3d 0e90 98b9 5845 6d3d c0a5 273d
00000180: d704 563e 301e 553c df52 69be dcf4 88bd
00000190: e319 c0bd efb0 43bd 55f5 2bbd 9211 3c3d
000001a0: 8330 83bd 92ef 5ebe 144c 1a3d 5b02 183d
000001b0: 91ab 9fbb 3b65 ccbd 24da 8c3c d890 fd3c
000001c0: 29a0 7a3d ea5b 36bd 2ebc 203d 114d a139
000001d0: f6a4 563d 5ef5 32be 89fa cb3c ae76 70bd
000001e0: 475a b53d 424f 84bd b6f7 68bd 19fe 1bbd
000001f0: 8b87 c03c 063c 00bd 71f5 423d 101d af3c
00000200: 8a4b 593e 8d46 39bc d27d e6ba f9c9 09bd
00000210: c716 6dbd c314 8bbb 4c9a ad3c 4f55 14bc
00000220: d0dc 563c a87f 33ba a44a c3bd 05b3 25bd
00000230: fccd d2bc 2c49 333d 1377 1dbe 00cc 25bd
00000240: 1b8f 44be e270 be3c 00f1 5f3c e488 793d
00000250: 97fb 953c 8570 d5bd c5db b2bd eca4 a03d
00000260: 1d2f 30bd ceb3 f83d d868 513d fb63 943c
00000270: 4329 9c3c 5525 b5bd 625b 533b a5ce 783e
00000280: bf2a 803c c054 edbd fb9a ec3b e5d9 a6bd
00000290: 30c4 ebbc 21cb 12bd 3870 87bd dd9a 25bc
000002a0: 786f bb3d bd96 443e c058 e4bd 6f9f 1e3c
000002b0: 4f75 ee3d 8abd 0e3e 0cdb 9e3d a2f6 813c
000002c0: fb92 033d 16bf 00be 7f03 e73d 24b1 903d
000002d0: 89e7 bebd 05f1 21be 61bc 923c 0553 353e
000002e0: 2512 41bd 327c d13d 61f8 0a3d 5bbe 4fbe
000002f0: a0fa 243e 4c6f a33e eb89 75bc c747 8a3c
00000300: 2abc 0fbe 7375 2cbc bb07 013c d7fd c63c
00000310: 2b1f b8bd e6ef 84bc 02e6 213e 126a 983d
00000320: b7b0 11bd cbf1 96bd 9374 a53d 410f ec3c
00000330: 57a9 12bc ffaa a5bc 2ca4 aabe e175 fa3c
00000340: 4761 183d ea86 3dbd 25aa 13bd 1a12 ae3d
00000350: 5040 90ba a4fb 86bb 2c77 6b3d 7d0c 373d
00000360: cf73 bd3a 54e4 b33d b108 173e 9e1b 943d
00000370: e2ad 6fbd 571a 883d 59b4 203c 1c5a de3b
00000380: 45ee 15be 0885 053c 4728 d2bd 2bee 4cbe
00000390: 59ac 173e 3641 e5bc 33d0 85bd 9a4d 033d
000003a0: f333 1cbe 34cb 81bd 9883 debd 370e 55ba
000003b0: d9f1 dbbc 325b 0fbe b1ae 113c 40f0 963d
000003c0: 7c33 34bd 70fb f3bd 7ae3 55bd 3725 89bb
000003d0: e19c 823d 8ec9 563d f7c8 3bbe b3a0 5ebc
000003e0: 074c cebd f4bd bfbc 3c75 81bc cfe8 6cbe
000003f0: 0aec 44ba 225f 403e 40bf f0ba ca0d 263d

actor.4.bias f4 [7]
0.04768568 0.19729185 -0.1822056 0.16592726 0.21921243 -0.30222234 0.11348482
00000000: 0f52 433d e006 4a3e 1b94 3abe d6e8 293e
00000010: 3979 603e e3bc 9abe bb6a e83d

critic.0.weight f4 [64, 32]
-0.19383585 -0.12647283 -0.28736567 0.29114246 -0.19949178 0.11066981 -0.27680314 0.17109554
0.07037982 -0.031513978 0.09204551 -0.0035916294 -0.031635277 0.016699014 0.0052208374 -0.019750753
-0.06304126 -0.035034284 0.23179881 0.73514444 0.5683158 0.044180658 -0.25621936 -0.66645616
-0.12380181 0.08314916 -0.13678056 -0.12630251 -0.062070888 -0.09504859 0.043806247 -0.022648009
-0.08736212 0.1660022 0.08496021 0.03410209 0.22211687 -0.045014545 0.13513531 -0.07732361
-0.040969502 0.02118344 0.10930737 -0.0008924912 0.0020455983 -0.016743032 -0.013055293 -0.0070171
-0.2356181 0.09241986 0.0898242 -1.0414664 -0.17507197 0.06915378 0.31980926 0.18012924
-0.0095641855 -0.052371215 0.04466027 0.023197986 0.051530607 0.03071468 0.028210932 -0.014307995
-0.045204896 0.09305418 -0.07529284 -0.04835787 0.18560717 -0.05286581 -0.11758425 0.027312834
0.09716855 -0.037610613 -0.08833291 -0.03149773 0.014512218 -0.00095028215 0.015592087 0.007606169
0.39344934 0.24010718 -0.49204293 -0.36481 0.11555653 0.054759916 0.0009276648 -0.22923513
-0.087846905 0.09131375 0.07017829 -0.038837176 0.084504716 -0.040939763 0.03711097 -0.02162025
-0.18121247 0.054011654 -0.14152145 -0.39737839 0.029069534 0.1549895 0.06541946 0.21505824
0.06640391 -0.12077775 0.005073573 -0.14234026 -0.069083735 0.014493087 -0.028083585 -0.0353563
-0.23311077 -0.051568702 -0.31615594 -0.39528152 -0.08229817 -0.12391712 -1.0715936 0.22041066
0.16137972 -0.011239849 -0.011155857 -0.0150180105 -0.11717394 -0.04633838 0.06349387 0.05767855
-0.29184765 -0.049553845 -0.14295368 0.21445711 0.38072988 0.0714367 0.23478937 0.07148779
0.003377123 -0.033380296 -0.049490172 0.0049131773 0.0065625035 0.0030758537 -0.011292639 -0.027928317
-0.019503545 0.06658334 0.41928422 -0.12466526 -0.1310753 0.040046528 -0.64401346 0.32581916
-0.14189628 -0.0033831568 0.051916096 -0.06329826 0.0099688275 -0.02821019 -0.015618442 0.04633722
-0.073202305 -0.0327991 -0.12943903 -0.08191332 0.06305305 0.12412699 -0.07654793 -0.072936654
0.09997242 0.04494866 0.039283656 0.06082077 -0.046785407 -0.0029558842 0.013724324 -0.009062506
0.011558343 -0.24651848 -0.46643624 -0.2907691 -0.32464063 -0.15118629 0.58243746 0.4750359
0.071138695 -0.015634539 0.08061252 0.055357207 0.030880835 0.016589263 0.019234141 -0.074281186
0.17597641 0.31791753 0.14905345 -0.09320686 -0.04190179 0.050807472 -0.13507514 -0.1652773
0.024891766 0.05206701 -0.0121189905 0.026222138 -0.031013822 0.0018767354 -0.0078083547 -0.011715678
0.12776121 -0.057429712 0.30086917 -2.7932746 -0.06582976 0.14161536 -0.81777835 0.21263069
-0.038706537 -0.06494974 0.079256795 0.08494389 0.010145039 -0.0067483857 0.046553187 -0.013140054
0.05228693 0.08361376 -0.0704352 -0.24711348 -0.19199955 -0.24854274 -0.16215612 0.15128365
0.096615255 -0.025281193 0.019662624 -0.012984573 -0.029115824 -0.00723452 0.0021454042 0.009988594
-0.029164057 0.0041198637 0.0078206705 0.3493737 -0.09160196 0.12724008 -0.54235053 -0.08182601
0.13271883 -0.08561495 -0.07177582 -0.08483844 -0.011361675 -0.03541089 -0.030250417 -0.031893596
00000000: e87c 46be 1882 01be 9821 93be a010 953e
00000010: 9347 4cbe daa6 e23d 24b9 8dbe ab33 2f3e
00000020: 4c23 903d cd14 01bd 5b82 bc3d 8b61 6bbb
00000030: fe93 01bd 5fcc 883c 8f13 ab3b 55cc a1bc
00000040: c71b 81bd 1c80 0fbd ab5c 6d3e 6d32 3c3f
00000050: 257d 113f c7f6 343d 2f2f 83be df9c 2abf
00000060: ce8b fdbd 1b4a aa3d 3410 0cbe 7255 01be
00000070: 0b3e 7ebd d6a8 c2bd 2e6e 333d 5188 b9bc
00000080: e9ea b2bd 7bfc 293e 9eff ad3d a2ae 0b3d
00000090: 9b72 633e 2c61 38bd e960 0a3e d75b 9ebd
000000a0: a3cf 27bd e588 ad3c 8bdc df3d 12f6 69ba
000000b0: 720f 063b af28 89bc dee5 55bc b4ef e5bb
000000c0: df45 71be a046 bd3d c0f5 b73d c54e 85bf
000000d0: 1146 33be 7fa0 8d3d 0abe a33e cd73 383e
000000e0: 1ab3 1cbc 3383 56bd b0ed 363d b409 be3c
000000f0: c211 533d 5a9d fb3c 9d1a e73c 156c 6abc
00000100: c528 39bd 3193 be3d 2233 9abd e712 46bd
00000110: ce0f 3e3e d289 58bd 03d0 f0bd 2abf df3c
00000120: 4e00 c73d 960d 1abd e2e7 b4bd c403 01bd
00000130: a7c4 6d3c 5b1c 79ba f475 7f3c 2c3d f93b
00000140: 3172 c93e a8de 753e 0ded fbbe 60c8 babe
00000150: e7a8 ec3d ef4b 603d 882e 733a 9dbc 6abe
00000160: 14e9 b3bd b402 bb3d a3b9 8f3d bb13 1fbd
00000170: cf10 ad3d 74b0 27bd ac01 183d f31c b1bc
00000180: c38f 39be 533b 5d3d 00eb 10be 2e75 cbbe
00000190: 3b23 ee3c 91b5 1e3e a3fa 853d 3a38 5c3e
000001a0: c6fe 873d 535a f7bd 3740 a63b a5c1 11be
000001b0: c67b 8dbd 6a74 6d3c 8c0f e6bc c5d1 10bd
000001c0: 97b4 6ebe b439 53bd 31df a1be 5762 cabe
000001d0: f18b a8bd 42c8 fdbd fb29 89bf 55b3 613e
000001e0: ba40 253e 5827 38bc 0ec7 36bc 1a0e 76bc
000001f0: e4f8 efbd 50cd 3dbd 1309 823d 5840 6c3d
00000200: 0e6d 95be f9f8 4abd 7362 12be a59a 5b3e
00000210: 07ef c23e 684d 923d a06c 703e 3168 923d
00000220: b952 5d3b c7b9 08bd 35b6 4abd b8fe a03b
00000230: 450a d73b 4394 493b c304 39bc edc9 e4bc
00000240: e6c5 9fbc d95c 883d 6cac d63e 8050 ffbd
00000250: 9a38 06be d407 243d 11de 24bf c5d1 a63e
00000260: 424d 11be f4b7 5dbb f9a5 543d 85a2 81bd
00000270: 4b54 233c 0e19 e7bc 7ee4 7fbc 19cc 3d3d
00000280: 17eb 95bd 5958 06bd aa8b 04be 2cc2 a7bd
00000290: f521 813d 4b36 fe3d 29c5 9cbd d05f 95bd
000002a0: 57be cc3d 161c 383d e6e7 203d 331f 793d
000002b0: 0ea2 3fbd 82b7 41bb fddb 603c e87a 14bc
000002c0: 345f 3d3c 576f 7cbe bbd0 eebe b0df 94be
000002d0: 4c37 a6be 94d0 1abe 9f1a 153f e837 f33e
000002e0: 2ab1 913d 0114 80bc 2d18 a53d 3dbe 623d
000002f0: cef9 fc3c 35e6 873c eb90 9d3c bc20 98bd
00000300: 2933 343e 16c6 a23e 78a1 183e 3de3 bebd
00000310: 36a1 2bbd 7f1b 503d 2351 0abe 743e 29be
00000320: d1e9 cb3c 3844 553d bb8e 46bc cfcf d63c
00000330: b310 febc cafc f53a 3add ffbb 1df3 3fbc
00000340: d6d3 023e 6b3b 6bbd 860b 9a3e 03c5 32c0
00000350: c1d1 86bd 9e03 113e ec59 51bf dcbb 593e
00000360: bf8a 1ebd 5f04 85bd 6351 a23d 10f7 ad3d
00000370: 6137 263c 9021 ddbb 8eae 3e3d 6249 57bc
00000380: d22a 563d b13d ab3d 5540 90bd 510b 7dbe
00000390: 889b 44be fd81 7ebe 410c 26be 1aea 1a3e
000003a0: 38de c53d 811a cfbc 8313 a13c 3fbd 54bc
000003b0: 4f84 eebc 8d0f edbb e999 0c3b 33a7 233c
000003c0: 76e9 eebc ecff 863b 4522 003c 1ce1 b23e
000003d0: cf99 bbbd 394b 023e 7cd7 0abf 6594 a7bd
000003e0: 72e7 073e e456 afbd 33ff 92bd c7bf adbd
000003f0: 5226 3abc 020b 11bd b9cf f7bc dca2 02bd

critic.0.bias f4 [64]
0.09187275 -0.2896944 0.07028466 -0.11840906 -0.004840646 -0.12722465 -0.00039052503 0.05971185
0.060918212 0.30041537 0.37174776 -0.11656677 -0.1396142 -0.10933248 0.27964926 0.17464344
0.043816857 -0.07188367 0.06436189 0.4909155 0.5770888 -0.14762561 0.12478434 0.024005072
0.15368076 -0.06861225 0.020484349 0.2594041 0.115833655 -0.0366168 -0.11499315 0.30910322
-0.085700035 -0.09493823 -0.054095175 -0.0966832 0.18745293 0.39781457 -0.09586149 0.13248034
0.047055017 0.06511004 0.3263021 -0.22854999 -0.28589222 0.24437225 -0.2582989 -0.21192364
0.26946005 -0.05138431 -0.2644053 -0.230683 0.24771208 -0.119600944 -0.10016849 -0.3055781
0.18566747 -0.097156286 -0.2639819 0.02927308 0.12173822 0.075797066 0.09651248 -0.01809321
00000000: c827 bc3d d352 94be 67f1 8f3d 7380 f2bd
00000010: 489e 9ebb 2e47 02be 62bf ccb9 6a94 743d
00000020: 6085 793d 0bd0 993e b955 be3e 8fba eebd
00000030: 06f7 0ebe b5e9 dfbd 302e 8f3e bbd5 323e
00000040: 4e79 333d bf37 93bd 2bd0 833d 4759 fb3e
00000050: 17bc 133f 2b2b 17be ef8e ff3d 49a6 c43c
00000060: 7d5e 1d3e 9484 8cbd cbce a73c 9dd0 843e
00000070: 323a ed3d 7ffb 15bd 8781 ebbd c742 9e3e
00000080: 8083 afbd fa6e c2bd e792 5dbd d701 c6bd
00000090: a9f3 3f3e 5aae cb3e 0753 c4bd eda8 073e
000000a0: c3bc 403d 6a58 853d 1211 a73e 0209 6abe
000000b0: 7760 92be b83c 7a3e c13f 84be 8302 59be
000000c0: abf6 893e 5b78 52bd 2260 87be 2a38 6cbe
000000d0: 3ca8 7d3e 57f1 f4bd 2325 cdbd bc74 9cbe
000000e0: 9d1f 3e3e e0f9 c6bd a328 87be 19ce ef3c
000000f0: e351 f93d 7e3b 9b3d 56a8 c53d 3638 94bc

critic.2.weight f4 [64, 64]
-0.092495486 0.021544052 -0.02553246 -0.04830611 -0.014502019 0.07666131 0.14348073 -0.0988734
-0.1521262 -0.49033612 -0.43074325 0.43165195 0.104700774 0.35819432 -0.3460261 0.07361977
-0.13614234 0.67289937 -0.67007446 -0.5567973 -0.9752351 0.6394326 -0.058876067 -0.26200202
-0.10665141 0.20434873 0.16825323 -0.21624996 -0.12270253 0.20327474 0.21765156 -0.3248492
-0.0037019034 0.033000305 0.12643534 -0.013317269 -0.2670638 -0.606501 0.013686317 -0.25196955
0.018617107 0.24608088 -0.27117112 0.18773226 0.1606149 -0.3770026 0.22506148 0.5675343
-0.4958889 0.025932873 0.035602596 0.54239625 -0.22284669 0.029250843 -0.08193764 0.14442596
-0.27163482 0.0138520645 0.089700535 -0.04693397 -0.2222471 -0.17561354 -0.10595121 -0.12812787
-0.06914976 -0.06777973 0.03305965 0.054770168 -0.0078674685 0.06777633 0.0047609718 -0.04648756
-0.13458344 -0.005197864 0.11676895 0.124709606 0.10907494 -0.019441433 0.063311405 0.03009352
0.10100713 -0.046678115 0.019649222 -0.08514475 0.018603561 0.09203019 -0.044433452 0.024612634
0.12108431 0.110811874 0.063976474 0.030057978 0.12759809 -0.11578696 0.0558832 0.09657522
0.05479868 -0.14648809 0.056896023 -0.13460705 -0.10251194 -0.043511607 0.08019996 0.1102768
0.030846572 0.023039674 0.0109561235 0.14810291 0.028341807 -0.08405591 0.012047961 0.04516498
0.008383667 0.012709887 0.05587634 -0.016828826 -0.067539275 -0.15772471 -0.00039612938 -0.05536609
0.06667848 -0.00036798578 0.055335738 0.055555332 0.06643046 0.067042395 0.102523886 0.090807416
0.061229914 0.05521528 0.02013519 -0.0894854 0.07217 0.0004960283 -0.0722758 0.109406665
-0.004045446 0.036064617 -0.061831314 -0.014705011 -0.083133966 0.036631685 -0.0031493185 0.0975225
0.07487634 0.15769874 0.043361552 -0.018136753 0.029689144 -0.08745812 -0.010171798 -0.07335746
-0.028056482 0.13386047 -0.00621463 -0.069724776 -0.034383807 0.109629855 0.07350047 -0.042428672
-0.0024304138 -0.06389615 0.0897717 -0.025562098 0.101913646 0.06990593 0.04017039 0.007584427
-0.060191467 -0.07017345 0.01964477 -0.033911668 -0.09653136 -0.021666607 -0.086178005 -0.074667744
-0.059229616 0.10714432 0.10842114 -0.07658532 0.09639131 0.07618852 0.13740462 0.06803194
0.055301283 0.027953602 0.01968019 0.017478522 0.12707952 0.07965017 0.064315595 0.0058336556
0.01534705 0.022633698 -0.02037396 -0.022576032 -0.026142275 -0.09843466 0.049959004 0.088197716
-0.026710704 0.096845396 -0.043429323 0.05852581 -0.04417646 -0.09503918 0.09611422 0.06685555
0.004271075 0.0040665474 -0.012901432 0.17973128 -0.013413428 0.16388221 0.05950699 0.0649899
-0.0104408255 -0.13945366 0.017086966 -0.07590134 -0.08294708 -0.011125574 -0.06074289 0.11293795
-0.0185154 -0.047414023 -0.009368858 0.018909212 0.06444821 -0.073106855 -0.008183681 -0.021169087
0.16476227 -0.025995081 0.032693457 0.059662554 0.011635471 -0.009668461 -0.036676243 0.06625608
-0.086706206 0.15299915 0.07570844 0.0039880574 -0.11436198 -0.02298376 -0.03972971 -0.057415657
0.115628354 0.013272976 -0.049524307 0.11879893 0.008544317 -0.05019587 -0.034555513 -0.08051012
00000000: 466e bdbd 277d b03c 7329 d1bc a1dc 45bd
00000010: e099 6dbc 9b00 9d3d 9dec 123e 237e cabd
00000020: f8c6 1bbe 560d fbbe 618a dcbe 7c01 dd3e
00000030: 5c6d d63d 3f65 b73e 552a b1be f6c5 963d
00000040: e668 0bbe 2243 2c3f 008a 2bbf 458a 0ebf
00000050: 02a9 79bf dbb1 233f 0828 71bd 2125 86be
00000060: 0e6c dabd cb40 513e 934a 2c3e a170 5dbe
00000070: 774b fbbd 4127 503e 0de0 5e3e a252 a6be
00000080: a29b 72bb 542b 073d 4478 013e ad30 5abc
00000090: 96bc 88be a643 1bbf 933c 603c 2702 81be
000000a0: e782 983c a0fc 7b3e f1d6 8abe e33c 403e
000000b0: 3b78 243e 7c06 c1be 8476 663e ee49 113f
000000c0: 26e5 fdbe 2d71 d43c 07d4 113d 7bda 0a3f
000000d0: ec31 64be 779f ef3c ecce a7bd 66e4 133e
000000e0: b813 8bbe c5f3 623c eab4 b73d d63d 40bd
000000f0: be94 63be 09d4 33be f3fc d8bd f433 03be
00000100: 649e 8dbd 19d0 8abd 8e69 073d af56 603d
00000110: 8ee6 00bc 51ce 8a3d ed01 9c3b bd69 3ebd
00000120: 3ed0 09be d852 aabb 8f24 ef3d c067 ff3d
00000130: af62 df3d a443 9fbc 69a9 813d b086 f63c
00000140: d4dc ce3d 8d31 3fbd 68f7 a03c 5f60 aebd
00000150: 7f66 983c 537a bc3d daff 35bd 6fa0 c93c
00000160: 0dfb f73d 56f1 e23d 1906 833d 263c f63c
00000170: 13a9 023e b721 edbd c8e5 643d 3bc9 c53d
00000180: 9574 603d f900 16be ce0b 693d 6ed6 09be
00000190: c8f1 d1bd 3a39 32bd e03f a43d ced8 e13d
000001a0: f3b1 fc3c b3bd bc3c 5081 333c 4aa8 173e
000001b0: 142d e83c 8125 acbd d064 453c eafe 383d
000001c0: a65b 093c 213d 503c 97de 643d 9bdc 89bc
000001d0: 0852 8abd 9682 21be 96af cfb9 8ec7 62bd
000001e0: ba8e 883d 37ee c0b9 baa7 623d fd8d 633d
000001f0: b10c 883d 864d 893d 0bf8 d13d 3df9 b93d
00000200: 38cc 7a3d 6b29 623d 8ef2 a43c 1f44 b7bd
00000210: ddcd 933d e507 023a 5605 94bd 9a10 e03d
00000220: a98f 84bb 7eb8 133d d542 7dbd 49ed 70bc
00000230: 2442 aabd 1b0b 163d cc64 4ebb e0b9 c73d
00000240: c458 993d c77b 213e e29b 313d 8793 94bc
00000250: a636 f33c 3e1d b3bd 9da7 26bc 703c 96bd
00000260: b5d6 e5bc b812 093e 18a4 cbbb ddcb 8ebd
00000270: 09d6 0cbd 9e85 e03d 6a87 963d b0c9 2dbd
00000280: 9447 1fbb fcdb 82bd 3ada b73d 9b67 d1bc
00000290: 1ab8 d03d d72a 8f3d b589 243d c986 f83b
000002a0: 548b 76bd 19b7 8fbd 12ee a03c f6e6 0abd
000002b0: 3cb2 c5bd 2b7e b1bc 187e b0bd 67eb 98bd
000002c0: c19a 72bd 7b6e db3d e70b de3d c4d8 9cbd
000002d0: cf68 c53d ba08 9c3d ccb3 0c3e 5454 8b3d
000002e0: 9983 623d f4fe e43c 5a38 a13c 1e2f 8f3c
000002f0: 2221 023e a11f a33d e5b7 833d 4028 bf3b
00000300: 3172 7b3c 4e6a b93c 4ae7 a6bc 5ff1 b8bc
00000310: 5328 d6bc 1c98 c9bd d0a1 4c3d 01a1 b43d
00000320: 68d0 dabc e156 c63d f2e2 31bd c2b8 6f3d
00000330: 60f2 34bd e7a3 c2bd 88d7 c43d 90eb 883d
00000340: 60f4 8b3b ac40 853b 8760 53bc 7a0b 383e
00000350: ffc3 5bbc bdd0 273e 9abd 733d 6d19 853d
00000360: ff0f 2bbc f1cc 0ebe f7f9 8b3c 2972 9bbd
00000370: 29e0 a9bd 0a48 36bc 89cd 78bd 034c e73d
00000380: 9cad 97bc 3535 42bd d77f 19bc 7ee7 9a3c
00000390: 6cfd 833d 0cb9 95bd d914 06bc cb6a adbc
000003a0: 71b7 283e a3f3 d4bc 93e9 053d b960 743d
000003b0: b4a2 3e3c 7768 1ebc d439 16bd 45b1 873d
000003c0: 0693 b1bd cfab 1c3e 070d 9b3d 40ae 823b
000003d0: 9d36 eabd 7048 bcbc 9fbb 22bd ae2c 6bbd
000003e0: 8fce ec3d e576 593c 00da 4abd da4c f33d
000003f0: 77fd 0b3c 2f9a 4dbd 158a 0dbd 7de2 a4bd

critic.2.bias f4 [64]
0.012269169 -0.07825798 -0.006432784 -0.13399692 0.053868655 0.0022075532 -0.031820502 0.14338546
0.13920237 0.07716795 0.05497562 -0.27842942 -0.092851676 0.04001558 0.018287404 0.1857027
0.113937005 -0.15070431 -0.08806569 0.055466536 -0.08824481 -0.09918707 0.033329844 -0.031658273
-0.08761434 0.014341355 -0.17542073 -0.020722894 -0.09155316 -0.005977825 0.08403383 0.03740633
-0.034715705 0.1865392 0.11509102 0.099768296 -0.021313578 -0.027848432 -0.18098217 -0.10340275
-0.2496418 0.018644165 0.06619389 0.24737698 0.025061052 -0.10328718 0.064116016 -0.0051793335
0.06537377 -0.05108699 0.17286636 0.022590382 -0.02048554 -0.082565464 0.046207123 -0.009624287
-0.096589364 -0.09024726 -0.038742848 0.040331498 -0.13145795 -0.07388404 -0.053861022 0.021210182
00000000: a004 493c b845 a0bd 1aca d2bb 7d36 09be
00000010: 61a5 5c3d 99ac 103b 3756 02bd a3d3 123e
00000020: 118b 0e3e 3b0a 9e3d 1e2e 613d 4d8e 8ebe
00000030: 0529 bebd 60e7 233d 77cf 953c d928 3e3e
00000040: ce57 e93d 3b52 1abe c95b b4bd e130 633d
00000050: b2b9 b4bd 9722 cbbd e084 083d 1bac 01bd
00000060: 266f b3bd 01f8 6a3c 7ea1 33be 0fc3 a9bc
00000070: 3980 bbbd a1e1 c3bb ee19 ac3d 6137 193d
00000080: 0e32 0ebd 2204 3f3e d7b4 eb3d 5253 cc3d
00000090: d099 aebc 6522 e4bc 6453 39be d2c4 d3bd
000000a0: 1aa2 7fbe a6bb 983c aa90 873d 6450 7d3e
000000b0: d64c cd3c 3b88 d3bd 424f 833d 66b7 a9bb
000000c0: afe2 853d 9740 51bd e103 313e 770f b93c
000000d0: 4bd1 a7bc 1518 a9bd ae43 3d3d 2faf 1dbc
000000e0: a5d0 c5bd 8ed3 b8bd d2b0 1ebd a432 253d
000000f0: ea9c 06be 8450 97bd 609d 5cbd fac0 ad3c

critic.4.weight f4 [1, 64]
-0.13418806 -0.0005736 0.00020207971 0.0009869798 -0.0006442321 0.0010430841 0.00018161298 0.00055260304
-0.003515732 -0.0003540585 -0.00017262172 0.12346202 -0.00070413796 0.0009969071 0.00013134768 -0.1465527
-0.00018914434 0.13893493 0.0009535938 0.0014895323 0.00064257125 0.0005766916 0.061249435 -0.0003184312
0.00035705295 -0.0011395329 0.042899672 -3.177093e-05 9.995076e-05 -0.0001535178 0.00010592881 0.00071744487
0.00021311236 -0.086391255 0.0018310046 -4.9324823e-05 -0.0005179151 0.00035375793 -0.09483728 -0.00043742475
0.052505147 -0.15993762 -0.00014811209 -0.15595722 -0.00023662495 0.123156466 0.0006091667 -2.337504e-05
0.0006223264 0.0008890559 -0.030828554 -0.0013175794 0.0005229907 -0.0005001127 -0.0004102278 -0.00018212598
0.00017148434 -7.625157e-05 4.2439915e-05 -7.87538e-05 -0.0010731082 0.07686361 1.38485275e-05 0.0014148989
00000000: 9868 09be a55d 16ba 5ce5 5339 8c5d 813a
00000010: afe1 28ba 18b8 883a 5d6f 3e39 90dc 103a
00000020: 3268 66bb eda0 b9b9 ca01 35b9 a8d9 fc3d
00000030: e695 38ba a7aa 823a 60ba 0939 e911 16be
00000040: 0c55 46b9 f544 0e3e 99fa 793a 693c c33a
00000050: 3a72 283a 1e2d 173a b0e0 7a3d 1df3 a6b9
00000060: d632 bb39 615c 95ba 91b7 2f3d c741 05b8
00000070: a89c d138 9ff9 20b9 1926 de38 e912 3c3a
00000080: ea76 5f39 e6ed b0bd 52fe ef3a 20e2 4eb8
00000090: b2c4 07ba 9678 b939 0c3a c2bd 2856 e5b9
000000a0: a30f 573d b0c6 23be 894e 1bb9 40b3 1fbe
000000b0: 871e 78b9 7539 fc3d 7cb0 1f3a 8415 c4b7
000000c0: 9e23 233a 880f 693a 2a8c fcbc a1b2 acba
000000d0: 5019 093a ff19 03ba d813 d7b9 12f9 3eb9
000000e0: 7ad0 3339 40e9 9fb8 8301 3238 a028 a5b8
000000f0: 89a7 8cba ab6a 9d3d f956 6837 2174 b93a

exp_avg f4 [7]
0.0034014266 -0.0016649702 0.00411428 0.010050036 0.0038170696 0.006706696 -0.0008635613
00000000: 78ea 5e3b 213b daba 15d1 863b e8a8 243c
00000010: cd27 7a3b d8c3 db3b 9e60 62ba

exp_avg_sq f4 [7]
0.0007858587 0.0012641943 0.0012941926 0.001184133 0.0012271103 0.0008414601 0.0010092163
00000000: 1602 4e3a 52b3 a53a e6a1 a93a e934 9b3a
00000010: fdd6 a03a 6e95 5c3a ae47 843a

exp_avg f4 [64, 32]
2.6738953e-05 -0.00023380824 6.2724546e-05 -0.00020301159 0.00014348801 0.00030915422 -6.8776295e-05 1.9597483e-05
2.2902099e-05 0.0005203474 0.000515335 -0.0003723891 -5.646906e-06 0.00052327465 -0.0006734129 5.981624e-05
9.6369e-06 -1.2379819e-05 -0.00030115366 -4.2677704e-05 -0.00021571439 -4.3466346e-12 0.0004601491 9.940552e-05
2.0097373e-11 3.3070824e-05 -0.00020831684 0.000111825524 -0.0012876703 0.00039274062 0.000753379 0.00030466332
-0.00013889816 0.00044556192 0.00015584928 0.00022454189 0.00030207512 -0.00018244235 0.00039122105 -2.651811e-05
-3.1995136e-05 -0.0007829238 -5.3632477e-05 0.00067786383 7.2385706e-07 -8.442846e-05 0.00047303148 -0.00026409837
-1.3088751e-05 2.2427483e-05 0.00041837693 -0.00013060699 0.0003032278 -1.0898067e-11 -0.0010535964 0.0002494578
-4.603421e-11 1.9717047e-05 0.00024377054 0.0007591519 0.0017757823 0.0002868502 -0.00022602969 0.0015778058
8.742224e-05 0.00023317429 -8.0839e-05 -9.8037955e-05 0.0001693974 2.370851e-05 0.00017005336 -4.028659e-06
-3.1423133e-05 0.0004213104 -0.00015089357 -0.00028239118 -3.8346367e-05 -0.0002809852 -0.00055432896 -0.00026961567
-2.0565378e-05 -1.3474453e-05 -6.0667757e-05 -0.00023702461 -0.0001099093 -1.43999075e-11 1.6562162e-05 0.00033028846
7.5920395e-13 0.000108810484 0.00034905414 -0.0004535535 -0.0005755288 0.0007560101 4.86025e-05 -8.4327236e-05
0.00048800866 -0.00023640995 0.0004774096 -0.00014736816 -0.00023916527 0.0003099354 -0.00036825027 1.6618642e-05
3.2774293e-05 9.101432e-05 0.00055302016 0.00022166618 0.00021322562 0.00047179186 0.00025114472 -0.00032956334
-1.9783423e-05 8.770852e-06 -0.0002605321 -0.000100282865 -0.00014413543 1.2078932e-11 0.00051953935 -0.000276376
2.2732812e-11 0.00110934 -0.00013418644 0.0021749027 -0.00090707926 -0.0012996643 0.00077900547 -0.0014107791
0.000121904886 -0.0009354971 -0.00070690224 -0.00048498128 -0.00023568503 0.0008280315 -0.00035158242 5.7226447e-05
7.9384845e-05 0.00033751372 0.0012255581 -8.819739e-05 9.8179145e-05 -0.00035404888 6.2814834e-05 0.0011074266
1.801006e-05 -1.2550151e-05 -0.00079477014 -0.00013998055 -0.00057599583 3.4328713e-11 0.0008281244 -0.0007858167
3.619209e-11 -0.00013215977 -0.0007241479 -0.0012724944 -0.0037601653 0.00022144325 0.00222882 -0.00026732744
0.00031526695 0.0011091816 0.0008369028 7.16785e-05 -0.0007310491 -0.0004768323 -0.00061009085 -0.000107369604
-9.62299e-05 -0.00055729196 -0.00034663547 0.00069138187 -0.00018845264 -0.0005528806 0.0025012207 -0.0007766304
2.764767e-07 1.6424035e-06 0.0013385091 0.00024327445 0.0008649942 -1.0566712e-10 0.0006132193 0.0024179039
2.6815402e-11 0.0021108114 0.0015223976 0.0024960437 0.0018609902 -0.0031874387 -0.0008036459 -0.0026593353
0.00034989312 -1.0933183e-05 0.0003231005 -4.4240966e-05 -0.0002995569 9.54227e-05 -0.00039048892 -1.2241773e-05
-1.3247791e-05 0.0004997266 -0.0003444408 -0.00030553617 -0.00013204492 -8.754942e-05 -6.0447524e-05 8.9240806e-05
-3.6727718e-06 -7.673329e-06 7.167806e-05 -2.9958415e-05 0.00017199977 -1.801304e-11 0.00018956412 0.0004121677
8.276773e-12 0.0012067683 0.0001384219 0.0010304848 -0.00021286834 -0.0011044819 -3.909546e-05 -0.0015410786
-0.00023382754 0.00044929612 0.000117531585 0.00019529498 0.00044502737 -0.0005061295 0.00039767395 -5.0046743e-05
-4.9278962e-05 -0.00020678589 -0.00023367205 0.00046399486 0.00026977208 -1.7585597e-05 -0.00023344783 -0.0011963818
-3.955543e-05 2.4351035e-05 0.00053963327 -7.012233e-05 0.00045109124 -1.4615736e-11 -0.0008390482 0.00033425135
-3.6602454e-11 -0.0006422577 0.0007125056 -0.00023385904 0.0019310958 0.00074633904 -0.0016780255 0.000757937
00000000: 774d e037 6c2a 75b9 fc8a 8338 82df 54b9
00000010: 4575 1639 fa15 a239 fe3b 90b8 4665 a437
00000020: e21d c037 ec67 083a 8c17 073a 383d c3b9
00000030: 8e7a bdb6 5e2c 093a fa87 30ba 33e3 7a38
00000040: 2cae 2137 ebb2 4fb7 29e4 9db9 d600 33b8
00000050: 6431 62b9 01ef 98ac 2b40 f139 ef77 d038
00000060: 43c7 b02d 87b5 0a38 a06f 5ab9 df83 ea38
00000070: 0cc7 a8ba c1e8 cd39 697e 453a 38bb 9f39
00000080: 31a5 11b9 4f9a e939 796b 2339 0173 6b39
00000090: d65f 9e39 ff4d 3fb9 cd1c cd39 3573 deb7
000000a0: 8432 06b8 203d 4dba 6ff3 60b8 acb2 313a
000000b0: 144f 4235 2f0f b1b8 3601 f839 af76 8ab9
000000c0: c297 5bb7 a722 bc37 9a59 db39 8cf3 08b9
000000d0: 8cfa 9e39 88b8 3fad d418 8aba a9c9 8239
000000e0: ea75 4aae 0966 a537 a89c 7f39 d201 473a
000000f0: 5ec1 e83a 6264 9639 6202 6db9 61ce ce3a
00000100: 7556 b738 3f80 7439 1c88 a9b8 ba99 cdb8
00000110: 45a0 3139 a3e1 c637 5a50 3239 eb2d 87b6
00000120: 55cc 03b8 53e3 dc39 2f39 1eb9 e70d 94b9
00000130: 19d6 20b8 3251 93b9 6350 11ba 345b 8db9
00000140: d083 acb7 5610 62b7 8275 7eb8 cf89 78b9
00000150: 1b7f e6b8 6b53 7dad f9ee 8a37 912a ad39
00000160: 69b2 552b 2f31 e438 4101 b739 ecca edb9
00000170: 15df 16ba fb2e 463a 89da 4b38 d7d8 b0b8
00000180: 6adb ff39 d0e4 77b9 d54c fa39 d786 1ab9
00000190: 70c8 7ab9 d37e a239 b711 c1b9 4368 8b37
000001a0: 2177 0938 f1de be38 8ef8 103a 106f 6839
000001b0: 5195 5f39 d55a f739 13ac 8339 3ec9 acb9
000001c0: 94f4 a5b7 8626 1337 0798 88b9 f44e d2b8
000001d0: 0f23 17b9 ac7e 542d b231 083a 8fe6 90b9
000001e0: bef5 c72d 4667 913a 66b4 0cb9 d088 0e3b
000001f0: 0fc9 6dba 7f59 aaba 2c36 4c3a e4e9 b8ba
00000200: 30a7 ff38 263c 75ba 684f 39ba 1645 feb9
00000210: 3822 77b9 4110 593a 9854 b8b9 6e06 7038
00000220: 6a7b a638 53f4 b039 e8a2 a03a 9df6 b8b8
00000230: 87e5 cd38 a39f b9b9 75bb 8338 1227 913a
00000240: 4f14 9737 7d8e 52b7 1f58 50ba bec7 12b9
00000250: 6dfe 16ba b2fa 162e 7d16 593a 44ff 4dba
00000260: ac2c 1f2e 5e94 0ab9 bed4 3dba d4c9 a6ba
00000270: 1b6d 76bb 3833 6839 6511 123b 1528 8cb9
00000280: 6a4a a539 f561 913a 9963 5b3a 1a52 9638
00000290: e0a3 3fba 59ff f9b9 81ee 1fba 9e2b e1b8
000002a0: 09cf c9b8 3b17 12ba a0bc b5b9 da3d 353a
000002b0: 5f9b 45b9 30ef 10ba 85eb 233b c996 4bba
000002c0: ab6e 9434 8e70 dc35 ea70 af3a 7d17 7f39
000002d0: c7c0 623a 4d5d e8ae 73c0 203a b275 1e3b
000002e0: ebde eb2d 8a55 0a3b 308b c73a aa94 233b
000002f0: 78ec f33a 59e4 50bb c3ab 52ba 3e48 2ebb
00000300: dc71 b739 aa6d 37b7 d165 a939 608f 39b8
00000310: d90d 9db9 ac1d c838 89ba ccb9 0462 4db7
00000320: d442 5eb7 1600 033a 1096 b4b9 5f30 a0b9
00000330: 8a75 0ab9 bd9a b7b8 0989 7db8 cb26 bb38
00000340: bd79 76b6 b2bc 00b7 de51 9638 354f fbb7
00000350: d65a 3439 c371 9ead bbc5 4639 3618 d839
00000360: 469b 112d 6d2c 9e3a 5925 1139 5511 873a
00000370: 6935 5fb9 43c4 90ba 6efa 23b8 04fe c9ba
00000380: 9a2f 75b9 818f eb39 4a7b f638 19c8 4c39
00000390: 9052 e939 c7ad 04ba e57e d039 48e9 51b8
000003a0: e2b0 4eb8 aad4 58b9 dd05 75b9 5644 f339
000003b0: 3270 8d39 c884 93b7 adc9 74b9 e9cf 9cba
000003c0: 52e8 25b8 7345 cc37 2d76 0d3a a40e 93b8
000003d0: 7180 ec39 b68f 80ad 92f3 5bba 753e af39
000003e0: b3fa 20ae 2f5d 28ba 71c7 3a3a 0f38 75b9
000003f0: d31c fd3a f7a5 433a 31f1 dbba 4bb0 463a
