logs/rsl_rl/franka_reach/2025-06-16_20-11-58/model_350.pt (torch, 172795 bytes, 36 tensors)

std f4 [7]
000000 52 be 89 3e a1 2e 5d 3e 5b 2e 6c 3e 03 c3 72 3e
       0.26903015 0.21599819 0.23064558 0.23707204
000010 48 e5 6c 3e f3 75 8e 3e b1 72 7c 3e
       0.23134339 0.27824363 0.24653126

actor.0.weight f4 [64, 32]
000000 36 31 8e be e7 4d 91 3e d0 f1 04 bf 0b 63 dd 3e
       -0.2777192 0.28379747 -0.51931477 0.43239626
000010 80 89 99 3d e6 42 44 3e 4e 96 ef 3d 75 e9 db 3e
       0.07496929 0.19166145 0.1169859 0.4295155
000020 9a 84 26 3f f0 bf 6a 3c 97 ec a8 3e 0c f0 c9 3d
       0.65046084 0.014327988 0.32993004 0.098602384
000030 18 c4 2b 3e 2f 38 b5 3d 57 7b 18 be b0 d0 00 be
       0.16774023 0.08848607 -0.148908 -0.12579608
000040 59 c1 2c bf df 01 62 bd 33 8f 36 bf 86 66 0e be
       -0.67482525 -0.055177566 -0.71312255 -0.13906297
000050 75 61 3c 3f 5e 21 a4 bc 47 db 2d bf 27 dd ac 3c
       0.7358621 -0.020035442 -0.67912716 0.021101547
000060 84 ea 10 be 93 04 68 bd 34 2b 83 be 8b 87 91 be
       -0.1415196 -0.056644987 -0.256189 -0.28423724
000070 26 f1 a9 3d 08 4f a0 be 2b 68 d4 3b f2 cd 5b be
       0.082979485 -0.31310296 0.0064821444 -0.2146528
000080 d3 df c7 3d 1a db 58 3d a9 37 9c be ce c6 48 3f
       0.09759488 0.052943327 -0.30511215 0.7842835
000090 e4 a7 4c 3f 39 48 b1 3e 6b 01 5f 3d 1c aa fd bd
       0.7994368 0.34625414 0.05444471 -0.123859614
0000a0 4d c6 88 3e 6f 61 b7 3d 1d 70 14 be ba 97 e5 3e
       0.2671379 0.08954131 -0.14495893 0.4484232
0000b0 a2 d8 7c bc 86 bc 9d bd 6b 24 38 3e da 7d 89 3e
       -0.015432509 -0.077019736 0.17982642 0.2685383
0000c0 20 42 3f 3e 04 6e f2 be e2 99 65 bf ad 6d f2 bf
       0.18677568 -0.4734956 -0.8968793 -1.893972
0000d0 0b ac f9 be 48 16 13 3e d0 72 94 3e 98 17 61 3e
       -0.4876407 0.14363968 0.28993845 0.21981657
0000e0 c1 e0 67 3d 93 f1 81 3d 3d 85 62 3c 61 1f 48 be
       0.056610826 0.06344905 0.013825712 -0.1954322
0000f0 c9 1d c0 3d d9 4e 1b be a8 2e e9 3d eb d3 41 bd
       0.09380681 -0.15166797 0.11385852 -0.04732124
000100 56 e1 3c 3f cf af 22 be 25 6b 5e 3f 86 fe 7b be
       0.73781335 -0.15887378 0.8688224 -0.24608812
000110 8a d0 87 3e a0 04 80 3a 81 9c ab 3e e0 1d 1a 3f
       0.2652629 0.0009767003 0.3351784 0.60201836
000120 a8 95 5e 3f 68 6f d5 bd e9 02 c1 ba 54 03 60 be
       0.8694711 -0.1042164 -0.0014725599 -0.2187627
000130 61 f1 55 3d 32 17 de 3d d2 d2 8f 3d a7 bd 1d 3e
       0.05223215 0.10844268 0.07022633 0.15404378
000140 fe 14 95 be 13 e4 52 3f 30 a8 bd 3c 02 f6 dd bf
       -0.29117578 0.82379264 0.023151487 -1.7340701
000150 b2 76 aa 3e 6e e8 28 bd b6 1e 8b be 7d ab e2 3d
       0.33293682 -0.041237287 -0.27171868 0.11067865
000160 0a 19 bd bd 1a 79 83 bd 05 d0 ae 3d b9 fa 7d 3c
       -0.092332914 -0.06419583 0.0853577 0.0155016715
000170 98 eb 30 3d 30 ad ba 3e 75 d7 ec be a9 5c e0 be
       0.04319343 0.36460257 -0.4625813 -0.43820694
000180 c9 6e 84 bf dd eb e4 3c aa 7c 25 bd cd 25 50 bf
       -1.0346309 0.0279445 -0.040402092 -0.8130768
000190 12 82 96 bd ff 78 c8 be 67 23 82 3e 99 b2 8b bd
       -0.07349028 -0.39154813 0.25417635 -0.06821174
0001a0 7c dc 0e 3e e8 a2 26 be 37 04 d0 be e7 47 26 bd
       0.13951296 -0.16273081 -0.40628216 -0.040595915
0001b0 d1 80 3c 3e f7 03 c9 be 5d ac 6d bd 5c d3 00 bd
       0.18408515 -0.39260837 -0.058025707 -0.031451568
0001c0 dc 7e 2e 3f 83 ed b0 3e ce b6 57 be 95 bf 82 3e
       0.6816232 0.34556207 -0.21065828 0.2553679
0001d0 0f 06 f0 3e 8c 52 1f be 47 5c fd be e5 4e 1b be
       0.46879622 -0.15558833 -0.49484465 -0.15166815
0001e0 8d c2 93 ba 5c e5 e9 be e3 40 8d be 8e b5 ef bd
       -0.0011273191 -0.456828 -0.27588567 -0.11704551
0001f0 3c c9 d6 be 4f 54 cc be 60 ce 38 3e 27 41 a2 be
       -0.41950405 -0.39908072 0.18047476 -0.31690332
000200 bd dc 30 bc 6e bd 17 be aa 5a 56 3d 29 f2 ab 3e
       -0.010794816 -0.14818355 0.052332558 0.3358319
000210 12 16 1f bf a7 3c 78 3f f0 c9 8c 3d e1 07 26 be
       -0.6214305 0.9696755 0.06874454 -0.16213943
000220 a8 9a 39 be 24 4e 19 be 13 5f 31 be 83 41 e5 bb
       -0.18125403 -0.14971215 -0.17321424 -0.006996335
000230 0a 0e 37 3d 14 58 21 be 40 8b 10 bd 09 ef ae bd
       0.044691123 -0.15756255 -0.03528905 -0.08541686
000240 01 fc a2 3d 8a ca 42 bf b8 ce ce be 03 dd f4 3f
       0.07958222 -0.760903 -0.4039209 1.9129947
000250 ef b2 5a 3f 54 87 0c be 5e fd 92 be 71 10 4f bf
       0.8542928 -0.13723499 -0.2870893 -0.8088446
000260 61 f5 92 bc 22 b7 1a bf e7 72 a3 3c 84 4a ad 3d
       -0.017939271 -0.6043569 0.01995225 0.08461478
000270 ab 5f 2e be 98 ec b8 3d 3c 28 9a be 91 fd b5 bb
       -0.17028682 0.09029502 -0.3010882 -0.005553909
000280 ba 94 ee 3e 77 23 0f bf e6 47 d8 3e 0f 3d 40 be
       0.46597844 -0.5591349 0.42242354 -0.18773292
000290 ac 2b a4 3e 47 86 a0 3f 8e 83 8e 3a b5 c0 c3 3e
       0.3206457 1.2540978 0.0010872947 0.3823296
0002a0 28 d2 00 3e 10 5c b9 bd ff 18 0a 3e be 78 a1 bd
       0.12580168 -0.09050763 0.13486098 -0.07884358
0002b0 09 24 07 be b0 4e 7c 3d 21 ef 58 3d 13 d5 3f be
       -0.1319734 0.06159848 0.052962426 -0.18733625
0002c0 28 76 cc bb a2 f4 2c bf 40 5f 25 3d 16 d3 9f bf
       -0.0062396713 -0.6756078 0.04037404 -1.2486293
0002d0 32 ac 4f bf df ad ac 3d 2c e6 e1 3d 78 4e 68 3f
       -0.81122124 0.08431601 0.1103023 0.90744734
0002e0 6a 99 b8 3d dd cd 59 3e aa fc 86 3e aa 14 a6 3d
       0.090136364 0.21269937 0.26364642 0.0810941
0002f0 d9 4b a7 3d 97 50 da 3c 23 18 c1 3d 4b 4d 85 bd
       0.08168764 0.026649756 0.09428432 -0.06508883
000300 71 30 f7 3d ca f5 ce 3c 49 17 8c 3d ef 49 09 bf
       0.12069786 0.025263686 0.06840379 -0.5362844
000310 1d a9 cb bd a2 39 ea be 87 0f d8 3d 41 73 76 3e
       -0.09944365 -0.45747095 0.105498366 0.24067403
000320 25 24 15 3e fc 0a 10 3d 9d 6e aa 3b bf 81 9e 3d
       0.1456457 0.035166726 0.0052011744 0.07739591
000330 82 d8 76 be 03 76 50 be 57 ee 9f 3d cf a9 a5 bd
       -0.24106029 -0.20357518 0.078091316 -0.08089029
000340 16 66 32 3f c6 ce 04 3e 56 b9 3d be 16 9b 6b be
       0.6968702 0.12969503 -0.18527731 -0.2300838
000350 0c 07 83 bc 79 84 dc bd 28 87 f2 be 1b ba ba 3e
       -0.015994571 -0.10767455 -0.4736874 0.36470112
000360 58 69 c9 3c b8 74 70 3e ce 78 d5 3e 9e 23 da bd
       0.024586365 0.23482025 0.4169373 -0.10651325
000370 a7 62 f0 bd 58 d8 c6 3d 46 84 6e bd f7 24 e3 bd
       -0.117375664 0.09709233 -0.058231615 -0.11091035
000380 93 b5 77 3f d7 d9 25 3c be 3b 8e 3f 3a c9 94 be
       0.96761435 0.010122738 1.1111982 -0.29059774
000390 69 44 e3 be 50 3b d5 be 59 1d 46 bf f7 c1 46 3e
       -0.4438813 -0.41646814 -0.7738853 0.19409929
0003a0 fe 4a b3 3d a3 8d bb 3d 54 57 af 3c 63 b1 8b 3e
       0.08754538 0.091578744 0.021403946 0.27283773
0003b0 30 80 ad 3e 54 9b 1f 3e 17 43 8a 3d 1d 7a 2d be
       0.33886862 0.15586597 0.067510776 -0.16941114
0003c0 b7 c1 d8 3e a7 ab 0e 3f 37 86 2a 3d f2 a1 e8 bf
       0.42335293 0.5573067 0.041631903 -1.8174422
0003d0 6f a5 12 bf fa d4 fb bd 38 44 0d bf 7d e4 3a 3e
       -0.5728368 -0.122964814 -0.5518222 0.18251224
0003e0 da 46 64 bd 38 65 53 be 12 c5 42 bd d6 ae 0b bf
       -0.05573163 -0.2064408 -0.047551222 -0.54563653
0003f0 83 30 7b 3d 59 d5 06 be dd 2f 32 bc 64 0d d1 bc
       0.06132556 -0.13167323 -0.010875669 -0.02551908

actor.0.bias f4 [64]
000000 98 45 73 be 10 01 41 be 06 aa 1f bf 34 a7 27 3b
       -0.23757017 -0.18848062 -0.6236881 0.0025581839
000010 c6 82 bb 3d be 2a ab be 59 72 cc be fd 90 bb bc
       0.091558024 -0.33431047 -0.3993099 -0.022896284
000020 67 e1 a8 3e d3 74 6c 3e 78 6f d3 bd 9a 3c a8 bc
       0.32984468 0.2309144 -0.10323995 -0.02053671
000030 6b cd 00 be 79 fe 7f be ec 11 19 bf 81 14 94 be
       -0.1257836 -0.24999417 -0.5979297 -0.28921893
000040 cd dc 28 3f 4c 1f 5d 3e a6 a3 79 3e a6 b3 0c 3e
       0.65961915 0.2159397 0.24378833 0.13740405
000050 18 ca 0f 3e 2e 85 5d 3e 53 1b 9f be 73 99 0f 3e
       0.14041936 0.21632835 -0.31075534 0.1402338
000060 1a ea 25 bf 80 d0 30 3f 28 cf 92 bd cb 1f cd be
       -0.64810336 0.69068146 -0.07168418 -0.4006332
000070 82 96 cd bd e5 4c 2f 3e b0 b6 21 be ec 00 e2 3e
       -0.10038473 0.17119177 -0.15792346 0.44141328
000080 b1 8f 32 bf 2b 55 41 be dd ed a0 3e 71 04 4a bd
       -0.69750506 -0.18880145 0.31431475 -0.049320642
000090 16 a2 49 3c 9d 8e 4a 3d 5f b5 0b bf 8a 5f 95 be
       0.012306711 0.049452413 -0.54573625 -0.29174453
0000a0 f0 c1 62 3d 0b 7e 41 bd 59 6b 0c 3f 49 f4 29 be
       0.055360734 -0.047239345 0.548513 -0.16597094
0000b0 70 0e 3d 3d f5 06 d3 3d c5 2b 75 be 9d 25 e3 bc
       0.046156347 0.10304061 -0.23942478 -0.027727896
0000c0 b4 72 eb 3e 0a 9a 02 bf 77 29 eb 3c 79 d0 5b be
       0.4598595 -0.51016295 0.028706295 -0.21466245
0000d0 53 9f 16 3c 95 78 77 be 25 9e 0d bf 8f b0 9a be
       0.009193259 -0.24167092 -0.55319434 -0.3021283
0000e0 f1 1f d1 be c4 43 1c 3b f7 35 17 3e a3 d8 87 3e
       -0.40844682 0.0023844102 0.1476668 0.26532468
0000f0 10 6b 9c bd fe be 92 3e 95 86 8e 3e 5a 9f c6 bd
       -0.07637608 0.2866134 0.27837053 -0.09698363

actor.2.weight f4 [64, 64]
000000 2d f4 fb bd 9c 44 d7 3d 71 6f f6 3e 5e 44 3c 3e
       -0.12302432 0.10511133 0.48131898 0.18385455
000010 f2 fc c1 bd 63 95 8a 3e 0e a7 9b 3e 57 21 81 bd
       -0.094720736 0.27067098 0.3040089 -0.06305187
000020 ed a2 3c 3e 61 8f b1 bd 74 50 6a 3e a1 be 7e bd
       0.18421526 -0.086699255 0.22882253 -0.062193517
000030 19 2a 9f 3c 96 95 a1 3e a8 05 2e 3e a4 d5 ad bd
       0.019429253 0.31559438 0.16994345 -0.08488014
000040 70 3d 44 bd 3f 18 2d 3e b9 07 a2 3d 64 2d fb bc
       -0.047910154 0.1690378 0.07911629 -0.030661292
000050 41 97 13 be e6 1c 84 3e 37 53 9b bd a4 ed 25 bc
       -0.14413168 0.25803298 -0.07584231 -0.010127459
000060 01 e7 5e bc af 39 42 bf 38 27 6f 3c 0a bd 92 be
       -0.01360488 -0.7586927 0.014596753 -0.2865985
000070 ce 9d 87 be a8 09 db bc 19 88 0d be af af 50 be
       -0.26487583 -0.026738003 -0.13821448 -0.20379518
000080 a5 2f 9f be b7 95 6d 3e 56 e4 28 3e 44 50 05 bf
       -0.31091037 0.23201643 0.16493353 -0.520756
000090 dc 0c c7 3d 7f 0e 28 3c 76 3c b8 3e 5b 58 6f 3d
       0.097192496 0.010257362 0.35983628 0.05843387
0000a0 d7 ad 6d 3d 22 be 2c 3e a7 7f 6e 3e fd 93 28 3c
       0.058027115 0.16869405 0.23290883 0.010289189
0000b0 5e 20 f7 bb bb 4e e5 3c d1 b6 00 be ea e0 5d 3e
       -0.0075417003 0.027991643 -0.12569739 0.21667829
0000c0 4c 46 d5 bd 82 c0 21 3d d1 4b 42 be 04 69 ef be
       -0.10413799 0.03949023 -0.18974234 -0.46759808
0000d0 a3 fb 5c 3c 6d dd 7d 3b bd b4 ce be b1 1e fa 3d
       0.013487729 0.0038736716 -0.40372267 0.12212885
0000e0 1c 14 09 3d 5d db 40 be 11 d5 ac 3d 1c 0a d8 be
       0.033466443 -0.1883368 0.08439077 -0.42195213
0000f0 e6 92 c1 bd 55 20 69 3d 42 13 19 3e 94 e2 21 be
       -0.09451847 0.0569156 0.14948753 -0.15809089
000100 da e4 a7 3d 6a 26 76 3e 83 9a 23 3d 0b db 22 3e
       0.08197947 0.24038091 0.039942276 0.15903871
000110 13 1c 22 be 43 4d ad bb f6 d0 6d bd 26 0e 12 3d
       -0.15831022 -0.0052887513 -0.05806061 0.035658024
000120 07 86 89 3d 4e f2 9a 3e 03 c4 48 3d 30 24 13 bd
       0.06715017 0.3026299 0.049015056 -0.035923183
000130 0b f0 ac bd b7 74 8e 3e 57 c0 f3 3d 4e 0e e3 bd
       -0.08444222 0.2782342 0.1190192 -0.11086713
000140 ea 33 c3 bd 95 a7 34 bd a0 ae 93 3d 21 b8 7f 3c
       -0.09531386 -0.04410513 0.072110415 0.015607865
000150 3c 31 b7 3d 11 ce 4d 3d 44 7c 90 3c 08 ae a3 3d
       0.089449376 0.05024535 0.01763738 0.07992178
000160 69 b4 85 3d cd 21 69 bc 72 16 ce bd d6 62 07 bd
       0.06528551 -0.01422925 -0.10062875 -0.03305324
000170 9d cc 26 be e2 c2 47 3d 22 f8 19 be 09 25 38 3e
       -0.16288991 0.04876984 -0.15036061 0.17982878
000180 86 63 25 3e dc cd f9 3c 6d c3 29 be 23 ee 45 be
       0.16151246 0.03049367 -0.16578455 -0.19329123
000190 0e 6d 3f bd 33 6f b2 bd ea 40 56 3d ae c7 0f 3e
       -0.046734862 -0.08712616 0.052308 0.14041016
0001a0 05 61 87 be ac be 6d be ee 63 1d 3c 8d 01 1e bd
       -0.26441208 -0.23217267 0.009606345 -0.038575698
0001b0 ac fb c2 3d b6 2d 9d 3d a8 1e 4d 3d 83 51 1d be
       0.09520659 0.07674734 0.050078064 -0.15363126
0001c0 11 b7 83 be 8a f7 2a bd fd 18 db bd d0 8a 95 3e
       -0.25725606 -0.041739978 -0.106981255 0.29207468
0001d0 05 e2 86 bd 33 72 ad 3b 7a 15 d7 3c 12 55 25 3e
       -0.065860786 0.0052931546 0.026255358 0.16145733
0001e0 86 2f 80 bd 6d 48 91 be 3d 74 07 3d d0 25 61 3e
       -0.062590644 -0.2837557 0.033069838 0.2198708
0001f0 f5 04 14 3e 7b ae 31 3c 5b 71 b9 3d 49 59 99 be
       0.14455016 0.010844822 0.09054824 -0.29950932
000200 13 76 df 3e 17 30 2c be ac e3 9c be 17 53 a6 be
       0.4364477 -0.1681522 -0.3064245 -0.32485268
000210 92 c5 b1 3e f2 4a b4 be fd 0d d1 bd d7 59 6c bc
       0.34721047 -0.3521343 -0.10207746 -0.014425716
000220 de 89 f2 bc e9 45 1e be f2 da 35 be 32 0d bb 3d
       -0.029606756 -0.15456356 -0.17759302 0.09133376
000230 f8 67 0a 3d c8 a3 c3 3d b8 68 45 3e 5e eb d7 3d
       0.03379056 0.09552723 0.19278228 0.105429396
000240 c8 e7 9b be 21 ad bd bd 03 ac 9b bd 54 1e d1 bd
       -0.30450273 -0.09261537 -0.07601168 -0.10210863
000250 0f 3f c3 bd 3f 34 93 3e d1 51 65 3e 5f e2 cd bd
       -0.09533512 0.28750798 0.22394492 -0.100529425
000260 f3 af 36 3e 19 b3 5e be ad 46 35 be 54 54 77 3d
       0.17840557 -0.21748008 -0.17702742 0.060383156
000270 c8 4d 3a 3e 34 2a 7a 3c 91 c6 58 3d 56 cc 82 be
       0.18193734 0.015268851 0.052923743 -0.2554652
000280 e5 be 83 3e 4e 8e 92 3e f9 79 ae bc 4f 88 48 be
       0.25731578 0.28624195 -0.021298395 -0.19583248
000290 56 d9 a4 be 13 99 6c be 47 1e 01 be 5c 24 c9 bd
       -0.32197064 -0.23105268 -0.12609206 -0.09821388
0002a0 e2 30 bb bd 7f ef 14 be bd 86 35 be fe 6d 54 bd
       -0.09140183 -0.14544486 -0.1772718 -0.05186271
0002b0 69 dd 8f 3e 1b 94 8e 3c 7a b1 11 3e 4f 67 f8 bd
       0.2809861 0.017404607 0.14227858 -0.121290796
0002c0 a2 fd 00 3e 14 0b 0a 3e 46 a3 6b bd f3 e0 4a 3e
       0.12596753 0.13480788 -0.057528757 0.19812374
0002d0 4c 3a 2d 3e a5 b7 60 be fa 93 fb 3d 3a 86 92 bb
       0.1691677 -0.21945055 0.12284084 -0.0044715675
0002e0 06 04 6e 3e e3 da a7 bc 3d 24 ab be d8 25 8f 3c
       0.23243722 -0.020490116 -0.33426085 0.0174741
0002f0 43 fc f5 3c 6e 09 c2 bc 91 68 41 be 13 fb a0 3c
       0.030027514 -0.023686137 -0.18887545 0.019650972
000300 63 52 c8 3d 14 d0 b5 3c e2 76 28 be 38 b6 9b be
       0.09781339 0.022193946 -0.164516 -0.3041246
000310 9d ca 21 3e c2 98 71 3e dc 70 e9 3d 0a 31 01 bd
       0.15799947 0.23593429 0.11398479 -0.031540908
000320 84 fd b7 3d 38 bb b5 3e c9 ff 20 be 48 83 ea bd
       0.08983901 0.354944 -0.15722574 -0.11450821
000330 b2 92 1d 3c 72 59 2f be 73 6f cb bd f8 8a cc bc
       0.009617494 -0.17123964 -0.099333666 -0.02496861
000340 67 f9 96 3c 81 2d 1b 3d f1 ae 08 3e 8f 56 65 3e
       0.018429471 0.037885193 0.13347985 0.223963
000350 42 c3 24 3e 1b f1 b2 3c e8 79 eb bd 68 ec e2 3d
       0.1609011 0.021843484 -0.11497861 0.11080247
000360 d1 23 bd be 4b 64 22 3e 1a e1 c8 bd 03 38 6b be
       -0.36941388 0.15858571 -0.0980856 -0.22970586
000370 9a d6 36 3b 5f cc 0d 3e c3 bb 04 3e bd 28 f9 3b
       0.0027898909 0.13847493 0.1296225 0.0076037333
000380 ad c2 d6 3d 01 c8 25 be 99 6d 15 be 04 bc de bd
       0.1048635 -0.16189577 -0.1459259 -0.10875705
000390 79 22 a1 3e 4e e5 42 bd c8 f3 24 3c 61 76 ad 3c
       0.31471613 -0.047581963 0.010067888 0.021174612
0003a0 68 24 df 3d 3d e5 ba bd 1d 12 1c 3d 3c 14 3d 3d
       0.10895616 -0.09125755 0.03810321 0.046161875
0003b0 42 c8 bd bd 53 90 ee 3c 16 29 14 bd 6f 67 2d 3e
       -0.09266712 0.029121554 -0.036171995 0.16933988
0003c0 e9 5a 87 bd d9 67 02 3d 1c 4a 23 be a6 52 15 3e
       -0.066091366 0.031837318 -0.15946239 0.14582309
0003d0 ee 93 6a bc f4 7a e8 37 2a f9 2e 3e 43 0d 4c 3c
       -0.014317496 2.771381e-05 0.17087236 0.012454334
0003e0 be a3 30 3e b2 82 55 bd 64 f6 af 3d 2d 52 44 3e
       0.17249963 -0.052126594 0.08591917 0.19171973
0003f0 63 a3 12 bc fc a6 a1 bb f6 22 2a 3e 14 c8 2b 3e
       -0.008950087 -0.004933236 0.16614899 0.16775542

actor.2.bias f4 [64]
000000 da a9 cc be e7 2f 7e bd ac e9 19 be f0 23 07 3e
       -0.39973336 -0.062057402 -0.15030545 0.13197303
000010 ba 76 80 be eb 94 93 be c5 b1 e5 bd e8 4c bc be
       -0.2509058 -0.28824553 -0.112155475 -0.36777425
000020 64 90 ad bd 91 98 74 be 2c 09 ad be 24 3f 87 be
       -0.08474806 -0.23886324 -0.3379606 -0.2641536
000030 7e cc 64 be 5d f5 83 bb 9f d4 0b be e5 50 be bd
       -0.22343633 -0.0040270523 -0.13655327 -0.09292773
000040 e4 43 86 be d8 33 0a bf f8 fe 68 be b3 a5 a3 be
       -0.2622367 -0.5398536 -0.22753513 -0.31962356
000050 20 7d ef be 0a 6c 8f be 68 d7 80 be d3 b1 2a bd
       -0.4677515 -0.28012115 -0.25164342 -0.041673493
000060 89 af b4 be 56 f9 0b bf a5 b5 b9 be 5f f6 56 be
       -0.35290173 -0.5467733 -0.36271396 -0.2099242
000070 2c 43 91 bd b7 a8 a1 be 64 51 56 3e d4 4b d1 be
       -0.0709289 -0.31574032 0.20929486 -0.40878165
000080 16 63 f2 bd 4b ef 32 be 79 d9 0e bf 03 59 e5 be
       -0.118353054 -0.17474096 -0.55800587 -0.44794473
000090 65 a2 0d bf b2 83 b8 be 30 5e 38 be 12 a9 49 be
       -0.5532592 -0.36037976 -0.1800468 -0.19693401
0000a0 d3 4a f5 be 78 5c a1 be 09 da 15 be 8d 50 de bc
       -0.4790865 -0.3151586 -0.14633955 -0.027138019
0000b0 6b 2c 80 be 65 71 f9 be 8e f1 44 3c 7f 5b 2e be
       -0.25033888 -0.48719326 0.012020482 -0.1702709
0000c0 86 7c 0a bd 28 fe 8e be d3 a4 62 be 10 a2 d7 be
       -0.03381016 -0.2792828 -0.22133188 -0.4211583
0000d0 32 f7 a6 be 07 81 6a be 09 8c a3 be 4b df b8 be
       -0.3261047 -0.22900783 -0.31942776 -0.3610786
0000e0 99 d1 19 be 5d f3 92 be c3 8f 5f be 77 ec df be
       -0.15021361 -0.28701296 -0.21832184 -0.43735096
0000f0 aa 8b a7 be 45 4e 84 be 49 65 6f be 24 56 5a 3d
       -0.32723743 -0.25840965 -0.23378481 0.053304806

actor.4.weight f4 [7, 64]
000000 c4 58 81 3d aa dc 6c bb 52 6a 12 bd e8 bf 53 3d
       0.06315759 -0.0036142268 -0.035745926 0.051696688
000010 57 8b da 3d 59 2d 53 bc 8d c9 74 3c 82 fb 09 3c
       0.10671108 -0.01288923 0.014940632 0.008421781
000020 07 79 23 bc 94 a4 a3 3c 26 1b 54 3d 03 36 cc 3d
       -0.009977586 0.019975938 0.051783703 0.099712394
000030 1b f7 05 3c 90 ec f1 3c 9e b8 45 3c cf 3a 29 bd
       0.00817659 0.029531747 0.012067942 -0.04131585
000040 c8 27 b0 3d 8c c0 16 be 74 f8 3b bd 9c bc 71 bd
       0.08601338 -0.14721888 -0.04589124 -0.059017763
000050 4d c9 fc bc 83 df 39 3c 13 e4 ff 3c d9 8e 07 3e
       -0.030857706 0.011344793 0.031236684 0.13238086
000060 8f 88 55 3b c7 8e 00 3e 54 91 32 3c 7c 80 56 bd
       0.0032582616 0.12554465 0.010898907 -0.052368626
000070 b8 d0 5c bd ae 53 96 3d 28 9a bb 3b 14 78 35 3e
       -0.053909987 0.073401794 0.005725164 0.17721587
000080 49 59 2f 3e 01 95 c1 bd 0c e8 cf 3c 4a b4 50 bb
       0.17123903 -0.09452248 0.025379203 -0.0031845742
000090 20 ea b5 bd 9c db 4f bd 29 3a dd bd 64 8a e9 3d
       -0.088825464 -0.050746545 -0.10802109 0.11403349
0000a0 9a 49 92 3d be 22 28 3e 72 23 9a bd 2a 47 f6 bc
       0.07142945 0.16419503 -0.07526292 -0.03006323
0000b0 26 b2 fd bd 9e aa f2 3d d8 a6 59 3d e5 bb 8d 3b
       -0.12387495 0.11848949 0.05313763 0.0043253773
0000c0 26 e9 15 3c 4f cc 33 bc 05 53 06 3e 32 a0 8a bd
       0.009149825 -0.010974004 0.13117607 -0.06768836
0000d0 d1 89 b6 bb cf d6 12 bd bc 42 43 3d b9 d6 34 3d
       -0.005570628 -0.03584939 0.047671065 0.044150088
0000e0 d8 43 32 bd 37 e5 dc bd 4a 6f 6e 3d b7 bf cc bd
       -0.043521732 -0.10785907 0.058211602 -0.09997504
0000f0 63 4b 84 3e b8 3c 30 3e bf be 03 3e 55 17 1b bd
       0.25838766 0.17210662 0.12865733 -0.037864048
000100 00 29 7a 3c 99 4b 9d 3c 8d d8 98 bc 20 b7 20 3c
       0.015268564 0.019201087 -0.018657947 0.009809285
000110 76 c7 1f bb 47 31 9a 3d 81 04 fc 3c 82 f6 59 3c
       -0.0024380363 0.0752893 0.030763866 0.013303401
000120 8f 55 5a 3c de cb 28 3d 93 c6 2e bd 6a c9 c8 bd
       0.013326063 0.041210048 -0.042669844 -0.09804042
000130 bc 2d cc 3c 2e 6a b0 bb 8d 15 8c bd 73 aa 23 3c
       0.024924152 -0.0053837514 -0.06840048 0.009989369
000140 da 8d bd bd d0 95 43 be 13 b9 4b 3c 4e 41 32 3d
       -0.09255572 -0.19100118 0.012434262 0.04351931
000150 46 bd f3 bd 9d 3a 96 bc 14 29 71 bc 08 a5 8d bd
       -0.119013354 -0.018338496 -0.014719266 -0.06916243
000160 ce 60 e7 3c 56 10 2a bd 59 e2 29 bd fc 7f 3e 3c
       0.028244402 -0.041519485 -0.041475628 0.011627194
000170 78 f6 61 3c 4a f3 16 bc 11 84 b0 3d 8e cc 18 3d
       0.013791673 -0.009213278 0.0861894 0.037304454
000180 20 0e 66 3e a0 42 8c 3c cb be 6f be cc 2c a8 bd
       0.22466326 0.017121613 -0.23412625 -0.08211669
000190 1d 6a 03 be 62 12 44 bd af 7e 6d bd 61 10 c8 3c
       -0.12833448 -0.047869094 -0.057982143 0.024421873
0001a0 5e c2 4f bd 96 4e 7b be 97 6f 38 3d d4 cb d9 bc
       -0.050722472 -0.24541697 0.045028295 -0.02658645
0001b0 01 09 01 3c 2d ef ec bd a1 2f cf 3c e1 8e d5 3c
       0.007875682 -0.11569057 0.025291266 0.026069107
0001c0 35 68 25 3d 8d d2 04 bd a0 c2 bf 3c 32 35 5e 3a
       0.040382583 -0.03242736 0.023408234 0.00084765546
0001d0 87 2b 42 3d a3 29 44 be b1 94 4f 3c 66 bb 6c bd
       0.047404792 -0.19156508 0.012669728 -0.057795905
0001e0 f4 e0 8c 3d 86 92 4c bd 98 5c 11 bd a0 83 37 bd
       0.06878844 -0.049944423 -0.035488695 -0.04480326
0001f0 4b 0e 73 3c ba 64 c5 bc af 20 25 3d 42 11 0d 3c
       0.014834951 -0.024095882 0.040314373 0.008610072
000200 09 cd 58 3e d4 fe 6a 3c f0 0c 73 3c 8c 47 15 bd
       0.21171965 0.014342982 0.0148346275 -0.036445186
000210 a3 36 76 bd e8 66 e9 bc 61 7d e9 3b 1d 20 14 3c
       -0.0601107 -0.028491452 0.007125542 0.0090408595
000220 d7 ce b5 bb 72 57 e1 bb d3 61 ea bd 22 1b de bc
       -0.005548339 -0.0068768794 -0.1144444 -0.027112547
000230 c9 6d 6f bd e2 3e f8 3c 3d ae 20 be 1c c7 0b bd
       -0.05845431 0.030303422 -0.15691467 -0.034125432
000240 31 c7 4b be 58 ef 89 3c 72 89 e3 3c 8d 26 70 3d
       -0.19900204 0.01683776 0.0277755 0.058630515
000250 2a 90 18 3d 31 3e 73 bd 5f 0c cc bd cb 8f b1 3d
       0.03724686 -0.059385482 -0.09963297 0.086700045
000260 07 df 53 bd 49 61 f6 3d de ea 81 3d 43 3c 6a 3d
       -0.051726367 0.120302744 0.063436255 0.057186376
000270 96 1d 49 3b ee 93 c4 bd b6 c6 93 3a ee 6b 81 3e
       0.00306878 -0.09598528 0.001127443 0.25277656
000280 22 c9 8c 3c bd c6 dd bd 11 45 28 ba 02 df a9 bd
       0.017185751 -0.10828922 -0.0006418983 -0.082944885
000290 17 64 81 bc 0c 40 91 bb 80 00 88 bd 14 b8 c6 bc
       -0.015794797 -0.004432684 -0.0664072 -0.024257697
0002a0 e4 8b a5 3d dd 3d 4d 3e 93 61 dc bd 46 c1 b2 bc
       0.08083323 0.2004313 -0.10760798 -0.021820676
0002b0 22 0d 0c 3e 08 06 14 3e 18 48 9f 3d 0f 6c b9 3c
       0.13676885 0.14455426 0.07777423 0.022634534
0002c0 95 05 25 3d 27 ac 03 be 34 59 fe 3d 08 7c 88 3d
       0.040288527 -0.1285864 0.12419358 0.06664282
0002d0 1b c2 b5 bd 52 74 32 be 9d 56 9e 3c 76 a5 49 3e
       -0.08874913 -0.17427185 0.01932841 0.19692025
0002e0 2b a5 f9 bc 7b 77 cb 3d 51 8f cb 3c 5d 18 5c be
       -0.030474266 0.099348985 0.024848612 -0.21493669
0002f0 13 87 2a 3e 3b c2 a6 3e 46 03 3b bc c1 e4 d7 3c
       0.16653089 0.3257006 -0.011414355 0.026354196
000300 23 b0 03 be 2b 70 e0 3b c4 c1 bc 3c d9 7f a9 3c
       -0.1286016 0.006849309 0.023041613 0.020690845
000310 52 41 81 bd 15 01 ed bc 93 05 26 3e 64 fb b5 3d
       -0.06311287 -0.02893118 0.16213064 0.088858396
000320 c6 7c ef 3b d5 25 c5 bd a1 87 a8 3d 01 7a 96 3b
       0.0073085753 -0.096263565 0.08228994 0.0045921807
000330 5a 70 29 bc 41 8e 08 bd 0d 95 a7 be c4 e7 28 3d
       -0.010341728 -0.03333879 -0.32730904 0.041236654
000340 30 5b 17 3d d0 ef 45 bd ab f9 ee 3b f9 22 8d 3d
       0.036952198 -0.048324406 0.0072929463 0.06891436
000350 0f 7e b6 3b 48 65 eb 3b 56 b7 9e 3d 2a 13 f6 3c
       0.0055692266 0.0071837045 0.07749812 0.030038435
000360 77 74 1a 3c 9d d9 ce 3d 0a da 27 3e 1d 9d dd 3c
       0.009427181 0.101001 0.16391769 0.027052457
000370 eb 46 89 bd 98 45 86 3d 36 db 9f bc 7a 88 30 3c
       -0.0670298 0.06556243 -0.019513708 0.010774726
000380 3d 77 e5 bd c6 a9 55 bb 90 6b db bd 80 ab 53 be
       -0.112043835 -0.0032602414 -0.10713875 -0.20670891
000390 41 bf 1b 3e 3a 53 81 bc 3e a5 7f bd 7a fb 65 3c
       0.15209676 -0.015786756 -0.062413447 0.0140370075
0003a0 a2 8e 0b be e5 4e 3f bd 5c ff d4 bd 1b e8 fc 3c
       -0.13628629 -0.0467061 -0.104002684 0.030872395
0003b0 7e 51 ac bc 24 ff 12 be a4 32 d0 3b c2 88 b1 3d
       -0.021034952 -0.14355141 0.006353693 0.086686626
0003c0 d4 3c 66 bd 2e e0 15 be b5 31 48 bd 21 a6 cb b9
       -0.056210354 -0.14636299 -0.04887553 -0.00038842953
0003d0 4d bc 5d 3d 4d eb 80 3d 4a 67 48 be c3 1e c3 bb
       0.054134656 0.0629488 -0.19570652 -0.005954595
0003e0 f9 ad c9 bd e3 60 71 bd c4 7f d2 bc 23 fa 62 be
       -0.09847636 -0.05893029 -0.025695689 -0.22165732
0003f0 39 59 1e 3b 0e d6 43 3e 80 b4 f1 ba 4d 17 f9 3c
       0.0024162068 0.19124624 -0.0018440634 0.030406618

actor.4.bias f4 [7]
000000 12 d0 67 3d ce b9 4e 3e cf 3e 35 be 30 df 2c 3e
       0.056594916 0.20188066 -0.17699741 0.16882014
000010 4b df 5a 3e 19 71 97 be b4 72 e0 3d
       0.21374242 -0.29578474 0.10959378

critic.0.weight f4 [64, 32]
000000 01 9c 6b be b4 4e b7 bd a2 c2 8d be 2e e8 97 3e
       -0.2300873 -0.08950558 -0.27687556 0.29669327
000010 3d 64 47 be 5f 35 c7 3d dc 4f 80 be 73 dd 28 3e
       -0.19471832 0.097269766 -0.25060928 0.16490726
000020 de 55 7d 3d 2b a8 ff bc 38 28 8e 3d 44 5a fd bb
       0.061849467 -0.031208118 0.06941265 -0.0077317078
000030 ee ee 09 bd 5b 81 d7 3c 8c 48 a9 3b 15 0a fc bc
       -0.033675127 0.026306799 0.005166119 -0.030766526
000040 f1 b9 8c bd a9 ee b7 bd 66 68 84 3e 15 7a 27 3f
       -0.06871403 -0.08981068 0.258609 0.6542066
000050 ed bb 0c 3f bf f2 34 3d b6 d6 9b be 67 88 23 bf
       0.5497425 0.044176813 -0.3043725 -0.6388001
000060 93 90 fd bd 0b b9 a7 3d 73 24 ce bd 98 94 e2 bd
       -0.12381091 0.08189591 -0.10065546 -0.11063498
000070 a0 30 5d bd 7b 25 b1 bd 16 d6 ec 3c 4c ad a0 ba
       -0.05400145 -0.08649727 0.028910678 -0.0012258678
000080 3e 81 8b bd c0 75 0d 3e 90 19 0a 3e 58 3e ae 3c
       -0.0681176 0.1381445 0.13486314 0.021269962
000090 70 86 65 3e 17 e3 43 bd 36 f0 24 3e 30 7a 9e bd
       0.22414565 -0.04782399 0.16107258 -0.07738149
0000a0 ee e7 03 bd 22 ae 86 3d 57 e2 b5 3d 63 57 5b 39
       -0.032203607 0.06576182 0.088810615 0.00020918022
0000b0 18 04 a5 3c b9 72 cd bc c9 13 84 bd f4 1b 26 bd
       0.020143554 -0.025079118 -0.06449086 -0.040554002
0000c0 ec 02 1f bd a2 6f 66 3e f2 fa ab 3d 94 7a 4c bf
       -0.038821146 0.22503522 0.083974734 -0.7987454
0000d0 28 db aa bd f2 9f 8d 3d 54 9f 81 3e a9 53 4a 3e
       -0.08342582 0.06915273 0.2531687 0.19758476
0000e0 b3 c2 1c bc 0e 9b 25 bd 1a 21 60 3d 11 0a 18 3d
       -0.009567904 -0.040431075 0.054719068 0.037118975
0000f0 92 d6 45 3d 93 90 d4 3c 89 8f 4a 3c b0 c1 a7 bc
       0.048300333 0.025947845 0.012363323 -0.0204781
000100 53 9f 14 bd ee 0b b8 3d 35 70 71 bd 52 b7 9e bd
       -0.036284756 0.089866504 -0.0589449 -0.07749809
000110 1a ee 30 3e 8a 93 18 bd b7 61 04 be 3f 11 9a 3c
       0.17278329 -0.03725008 -0.129279 0.018807052
000120 c3 3e b3 3d 63 ae 9e bd 78 69 b9 bd e7 f4 64 bd
       0.08752205 -0.077481054 -0.0905332 -0.05589762
000130 c3 29 d7 3c 92 4e 21 3b 9c 44 c9 3c 33 33 80 3c
       0.02626503 0.0024613482 0.024568848 0.015649414
000140 cf 2b a3 3e ba 43 51 3e 1a 38 e2 be db a4 eb be
       0.3186936 0.20435992 -0.44183427 -0.46024212
000150 8a 9e 99 3d db 4b 60 3d 78 cb 88 bb 24 e9 68 be
       0.07500942 0.05475984 -0.004174646 -0.22745186
000160 38 e9 b3 bd 92 06 9a 3d 3f 8c 55 3d e8 94 a2 3c
       -0.08784717 0.075207844 0.052135702 0.019846395
000170 4f 0d b8 3d f0 94 08 bd df 9d 42 3d 42 34 07 bd
       0.089869134 -0.033345163 0.04751384 -0.03300882
000180 62 56 37 be e0 13 39 3d d0 2a 06 be 36 3b c2 be
       -0.17904046 0.04518497 -0.13102269 -0.379358
000190 ee 10 22 3d 69 85 19 3e fb 01 9c 3d d0 e8 59 3e
       0.039566927 0.14992298 0.07617565 0.21280217
0001a0 71 34 81 3d 34 e8 b6 bd 88 91 5b 3b f9 a6 e6 bd
       0.063088305 -0.08931008 0.0033503491 -0.11262316
0001b0 14 3b 8e bd 90 ac e5 3c 47 3e ac bc ae f8 be bc
       -0.06944862 0.028036386 -0.02102579 -0.02331194
0001c0 df f4 5d be ee 6a 1f bd 8e cd a5 be 51 9d dd be
       -0.21675442 -0.038920335 -0.32383388 -0.43284085
0001d0 34 79 98 bd 25 c7 fd bd 8b 24 88 bf 32 3e 58 3e
       -0.07444993 -0.123914994 -1.0636152 0.21117476
0001e0 2e 41 25 3e 3e 65 85 bc 66 36 69 bc e3 7f 0d bc
       0.16138145 -0.016283628 -0.014234161 -0.008636448
0001f0 05 88 d7 bd 1e 3d 30 bd ed 0e 6e 3d 75 a3 89 3d
       -0.105239905 -0.043027036 0.058119703 0.0672063
000200 0e b3 93 be fa 09 72 bd fc a5 05 be fc 4a 61 3e
       -0.28847545 -0.059091546 -0.130516 0.2200126
000210 e2 30 c4 3e b6 9a 83 3d d4 93 6a 3e 83 af 95 3d
       0.38318545 0.06425993 0.22907954 0.07308867
000220 e6 61 f1 3a 93 56 f7 bc 1e c4 11 bd 4c ba b6 ba
       0.0018416017 -0.030192649 -0.035587423 -0.0013941019
000230 09 46 00 3c b1 f8 69 3c cd dc 65 bb 84 af 1d bc
       0.007829198 0.014280484 -0.0035074234 -0.009624366
000240 e8 63 08 b9 47 39 b5 3d ec f0 d9 3e d2 da 91 bd
       -0.00013007189 0.088488154 0.4256662 -0.07121815
000250 a5 51 f1 bd e8 0e 24 3d 13 d1 23 bf 75 11 a1 3e
       -0.117831506 0.04005328 -0.63990897 0.3145863
000260 93 4c 11 be 96 8a 87 3a 4b 72 4b 3d 99 1d 7b bd
       -0.14189367 0.0010340984 0.049669545 -0.061307523
000270 ea 0c 6a 3c 1d bf f1 bc dd b8 b2 bc 27 f9 26 3d
       0.0142853055 -0.029510075 -0.021816665 0.040764954
000280 5d e6 90 bd d8 0e 12 bd 13 0e de bd bd c5 a1 bd
       -0.07075188 -0.035658687 -0.10842528 -0.07899044
000290 c0 c7 79 3d 6a 63 fc 3d d6 d0 aa bd 81 d9 90 bd
       0.060981512 0.12323649 -0.083406135 -0.070727356
0002a0 62 80 d0 3d f1 49 31 3d 37 40 31 3c 39 df 63 3d
       0.10180737 0.043283407 0.010818533 0.055632804
0002b0 b3 8a e1 bc 9e bd d7 bb 74 8f c3 bb 08 1a da ba
       -0.027531957 -0.0065838834 -0.0059680287 -0.0016639838
0002c0 9c 63 04 3d 31 05 48 be 14 60 ee be 62 8a 4b be
       0.032321557 -0.1953323 -0.46557677 -0.19877008
0002d0 8d 8a a2 be 82 cf 1a be 3e df 14 3f 5e e4 ed 3e
       -0.3174633 -0.1511822 0.5815314 0.46463293
0002e0 f8 b0 91 3d 47 3d cc bc a8 d1 a3 3d d7 bd 7a 3d
       0.07113832 -0.024931563 0.07998973 0.0612162
0002f0 d1 4e df 3c f7 59 24 3c 0f a4 ba 3c 82 f4 a3 bd
       0.027259262 0.010031215 0.022783307 -0.080056205
000300 bf 65 3f 3e a1 d6 99 3e 5e eb 17 3e 21 a2 cf bd
       0.18691157 0.3004656 0.14835879 -0.101383455
000310 68 7a 53 bd 37 3c 71 3d 6f 82 26 be 8d 05 28 be
       -0.051630408 0.058895316 -0.16260694 -0.16408367
000320 80 dc bd 3c 88 32 45 3d 23 23 5e bc ec 32 ad 3c
       0.023176432 0.048143893 -0.013558182 0.021142446
000330 2e 5f f2 bc 66 f3 13 3b 82 f2 5b bb 9b 85 5a bb
       -0.0295864 0.0022575497 -0.0033561294 -0.0033343795
000340 44 40 30 3e 39 e7 84 3c c8 0e 9b 3e b9 f6 2d c0
       0.17212015 0.016223537 0.30284715 -2.7181838
000350 65 7d 37 bd 6e 07 11 3e 45 92 4f bf 71 d7 4b 3e
       -0.04479732 0.1416299 -0.81082565 0.19906403
000360 2c 83 1e bd fe 97 58 bd a6 e4 8d 3d 4c 59 b5 3d
       -0.038699314 -0.052879326 0.06928377 0.08854923
000370 79 9b b5 3b 01 0f 7a bc d3 50 4b 3d 50 07 00 bd
       0.0055422154 -0.015262366 0.049637627 -0.031256974
000380 fc e5 58 3d ed 81 a6 3d 9e a3 79 bd 90 38 71 be
       0.052953705 0.0813025 -0.060947053 -0.23556733
000390 f4 e9 3b be 93 1f 80 be 80 00 21 be ec b7 12 3e
       -0.18350965 -0.2502409 -0.15722847 0.14327973
0003a0 b5 a8 b1 3d 82 b3 08 bd 4a c7 97 3c 02 7c fd ba
       0.086747564 -0.033374317 0.018527646 -0.0019339325
0003b0 37 75 c0 bc cf 31 6a bb ec 9e e5 bb c5 8a d9 3c
       -0.023493392 -0.0035735255 -0.0070074704 0.026555428
0003c0 f4 9e 18 bd 62 f3 4e 3c 6b e8 c7 3b cc df 88 3e
       -0.037260965 0.012631269 0.0061007044 0.26733243
0003d0 4e 2a a1 bd 5d 4a 02 3e af c3 0a bf d5 2d 8f bd
       -0.07869397 0.1272368 -0.5420484 -0.06991164
0003e0 73 e7 07 3e 0d 27 bc bd 5c 23 8e bd 03 6a 9d bd
       0.13271885 -0.09187136 -0.06940338 -0.07686236
0003f0 54 4e 8b bb a1 e6 ed bc 19 36 0a bd a2 1d a1 bc
       -0.004251281 -0.029040636 -0.033742998 -0.01966745

critic.0.bias f4 [64]
000000 d1 31 c3 3d b7 22 81 be 70 d0 03 3d 1b fa fe bd
       0.09530986 -0.25221798 0.032181203 -0.124500476
000010 3f 07 c7 bb 3e 8c 02 be 2e 9e 07 bb 3a 21 7a 3d
       -0.006073862 -0.1274881 -0.0020693648 0.061066844
000020 76 9d 90 3d 46 f6 99 3e 0f 1c ba 3e 31 bb d6 bd
       0.07061283 0.30070704 0.36349532 -0.10484923
000030 79 dc f8 bd d9 06 e3 bd 52 cb 87 3e 29 60 20 3e
       -0.12151427 -0.110852905 0.2652231 0.15661682
000040 df 70 15 3d b9 b7 88 bd 50 5c 81 3d 12 ea f3 3e
       0.036484595 -0.06675667 0.06316435 0.4763952
000050 17 1f 12 3f 3e e0 1b be ab 5a fb 3d 7b a0 aa 3c
       0.5707869 -0.1522226 0.12273153 0.020828476
000060 e5 c4 1f 3e a3 d9 65 bd 05 af 39 3c 6d 03 86 3e
       0.15602453 -0.056115758 0.011333232 0.2617449
000070 d6 89 d5 3d c4 80 40 bc 75 3e ed bd 1c fd 93 3e
       0.10426681 -0.01174945 -0.11584178 0.28904045
000080 07 0a c5 bd 27 64 ca bd 5e 2e 07 bd 89 bc d1 bd
       -0.09621053 -0.09882384 -0.033003204 -0.10241038
000090 6c 40 4e 3e f0 84 c8 3e 2a 2b ca bd ff 86 06 3e
       0.20141762 0.39163923 -0.09871514 0.13137434
0000a0 f6 da 65 3d b4 fe 81 3d 69 a7 a2 3e fc 53 6c be
       0.05611702 0.06347409 0.3176835 -0.23078912
0000b0 2e bc 8d be ac c1 69 3e b3 cf 72 be 0f c5 5a be
       -0.27682632 0.22827786 -0.23712043 -0.21364234
0000c0 02 71 8d 3e 3a 9a 43 bd d5 e6 71 be 77 c2 5f be
       0.2762528 -0.047754504 -0.23623212 -0.21851526
0000d0 cc b9 72 3e a1 97 f3 bd 10 5b cf bd 09 c0 93 be
       0.23703688 -0.11894155 -0.10124791 -0.2885745
0000e0 ed 74 43 3e 21 38 a7 bd 73 77 75 be d8 2e ba bb
       0.19087572 -0.081650026 -0.23971348 -0.0056818537
0000f0 c6 f3 fe 3d 77 00 9b 3d 0d 0a c2 3d 6a 87 d4 bc
       0.1244884 0.07568448 0.09474573 -0.025943477

critic.2.weight f4 [64, 64]
000000 36 f7 f1 bd 93 dd 90 3d cc 81 c9 bc 99 97 53 bd
       -0.1181473 0.07073512 -0.024598025 -0.051658247
000010 ba 6c 79 bc 1c a5 94 3d cf 46 15 3e f8 c9 da bd
       -0.015223676 0.072580546 0.14577793 -0.10683054
000020 b1 03 15 be 9f d6 f3 be ba e4 dd be 41 02 e4 3e
       -0.1455219 -0.4762468 -0.43338567 0.4453297
000030 1d ad ae 3d 85 b6 a0 3e b1 2e ae be 37 7a 89 3d
       0.085291125 0.3138925 -0.34019998 0.06712764
000040 85 12 1d be ae f7 2d 3f 86 24 29 bf 15 e2 0b bf
       -0.15339096 0.67956054 -0.66071355 -0.5464185
000050 a6 19 70 bf 3e 2f 22 3f 6f 98 7f bd e8 ea 84 be
       -0.93789136 0.63353336 -0.06240123 -0.2596047
000060 76 97 eb bd f1 fe 42 3e dd 2b 2b 3e 5f 79 47 be
       -0.11503498 0.19042565 0.16715951 -0.19479893
000070 4e ec d4 bd ec c5 5b 3e d5 aa 5a 3e b7 54 af be
       -0.10396634 0.2146222 0.2135423 -0.3424432
000080 1a 69 0e bc 4e ff 13 3d 49 80 0b 3e 71 35 8e bc
       -0.00869205 0.03613215 0.13623156 -0.017359467
000090 e3 52 8b be e0 aa 14 bf db 6f 28 3c d5 2c 6e be
       -0.27211675 -0.58073235 0.010280575 -0.2325929
0000a0 73 b4 fc 3c eb bf 79 3e 39 ef a9 be aa 01 41 3e
       0.030847764 0.24389617 -0.33190325 0.18848291
0000b0 66 85 22 3e 59 2a bc be 0c 07 4f 3e b3 e0 0d 3f
       0.158712 -0.3675106 0.20217532 0.5542099
0000c0 15 67 ff be 62 07 e4 3c d8 59 45 3d e0 c9 07 3f
       -0.49883333 0.027835552 0.048181385 0.5304241
0000d0 06 c9 6d be 79 e3 d0 3c e1 76 a9 bd b1 45 03 3e
       -0.23221216 0.025499092 -0.082746275 0.12819554
0000e0 b6 e3 88 be 28 3a 68 3c 90 ea 9c 3d d9 81 5b bd
       -0.2673623 0.014174022 0.07661927 -0.05359063
0000f0 01 d1 70 be b1 a3 2c be 1b 51 dc bd 28 93 08 be
       -0.23517229 -0.16859318 -0.10757657 -0.13337386
000100 43 eb 96 bd f6 94 44 bd dc f9 fc 3c d4 26 51 3d
       -0.07369091 -0.047993623 0.030880861 0.05106242
000110 76 88 45 bc 8a 4e 95 3d 2b d4 ab 3b 99 18 3f bd
       -0.012056461 0.07290371 0.0052437983 -0.046654318
000120 7f e5 f8 bd e8 b8 1f 3b aa 89 e6 3d 87 88 02 3e
       -0.12153148 0.0024371687 0.11256726 0.12747394
000130 29 b1 cf 3d 54 06 75 bc 6a af 79 3d 6f 18 09 3d
       0.101412125 -0.014955122 0.060958304 0.033470567
000140 c7 e2 e8 3d 18 18 2d bd 2f 41 b5 3c bd e8 bd bd
       0.11371379 -0.042259306 0.022125809 -0.09272907
000150 b6 e2 c6 3c cd 9e 9f 3d ff 7b 4c bd c0 e5 b4 3c
       0.024278026 0.07793961 -0.04992294 0.02208221
000160 ce 17 fd 3d 36 16 de 3d 1b 18 87 3d 53 8e 22 3d
       0.12358056 0.1084408 0.06596395 0.039686512
000170 0f eb 0a 3e cb 11 f7 bd ef 7c 78 3d 8c f6 b6 3d
       0.1356623 -0.120639406 0.06066602 0.08933744
000180 f8 3b 45 3d 26 e5 1c be f9 f9 6e 3d 2c f6 0d be
       0.048152894 -0.15321788 0.05834386 -0.13863438
000190 30 8b c7 bd 9e 22 1f bd 3c 8d 97 3d dc 47 ef 3d
       -0.09743345 -0.038851373 0.07399985 0.11683628
0001a0 f0 a3 e4 3c 4f 88 c6 3c f8 5a 9e 3b 4a bc 16 3e
       0.027910203 0.024234919 0.0048326217 0.14720264
0001b0 0c 64 24 3d ff 31 9c bd b7 03 74 3c b4 26 05 3d
       0.040134475 -0.076267235 0.014893464 0.032507613
0001c0 9f b7 b4 3a 9c 2a 34 3c 8b 74 77 3d 4a b9 90 bc
       0.0013787634 0.010996487 0.06041388 -0.017666478
0001d0 c6 9d 88 bd 72 e0 1e be 51 2c 92 bb f0 23 5b bd
       -0.06670718 -0.15515307 -0.0044608493 -0.05350107
0001e0 c3 c9 7a 3d 2e 07 90 ba 5c 87 56 3d 53 60 5b 3d
       0.06122757 -0.0010988468 0.052375183 0.05355866
0001f0 27 b7 85 3d cb 73 80 3d f8 b6 c4 3d a3 39 b0 3d
       0.06529074 0.06272086 0.09605211 0.08604743
000200 18 b6 81 3d 97 b9 53 3d 40 51 bd 3c 62 76 b6 bd
       0.0633356 0.051690664 0.023110032 -0.089092985
000210 cc 8e 90 3d 5e 77 99 3b c9 6d 90 bd 4c f9 de 3d
       0.07058486 0.004683419 -0.0705219 0.10887393
000220 db 9d 8a 39 63 d0 19 3d 9d 8f 89 bd 78 e4 eb bc
       0.00026439023 0.03755225 -0.06716845 -0.028795466
000230 bb 40 8e bd ff 68 5d 3d 2d 5d b6 ba c1 b1 c6 3d
       -0.0694594 0.05405521 -0.0013913267 0.097018726
000240 1d a5 a8 3d c2 1f 18 3e 42 9f 35 3d 21 27 f7 bb
       0.08234618 0.14855865 0.044341333 -0.0075425063
000250 b1 44 0e 3d f0 8f b4 bd 6a 69 61 bc 13 a5 93 bd
       0.034733478 -0.088165164 -0.013758043 -0.0720922
000260 cd 8a da bc 06 58 1b 3e b7 db 27 bb 60 d1 7d bd
       -0.026677513 0.15170297 -0.0025613138 -0.061967254
000270 e7 f7 37 bd 8f 0f dd 3d 0d 7f 9a 3d 56 be 14 bd
       -0.044914152 0.10793983 0.07543764 -0.03631433
000280 82 4e a5 bb 20 6e 8e bd 25 b9 a1 3d 22 76 db bc
       -0.0050447593 -0.069545984 0.07896642 -0.026789729
000290 69 34 e1 3d 9f ea 8d 3d 4b f2 22 3d d2 7e fb 3b
       0.109963246 0.06929516 0.03978185 0.0076750303
0002a0 e5 c7 5a bd 73 e0 9a bd ae 68 5e 3c 39 72 1d bd
       -0.05341329 -0.075623415 0.013574762 -0.03843901
0002b0 67 15 bf bd 15 c8 ab bc d5 a0 a6 bd 0d 4d be bd
       -0.09330254 -0.02096943 -0.08136145 -0.0929204
0002c0 ce 8b 47 bd 96 1b d8 3d 03 a2 d8 3d 93 58 73 bd
       -0.048717313 0.105521366 0.10577776 -0.059410643
0002d0 55 91 d3 3d 7e a4 b3 3d 40 a6 0b 3e f0 ee 88 3d
       0.10330454 0.08771609 0.13637638 0.06686199
0002e0 71 18 82 3d ff 92 8b 3c f1 45 b7 3c 82 53 db 3b
       0.06352318 0.017037867 0.022372218 0.0066933045
0002f0 39 c1 00 3e 41 24 a1 3d a4 16 81 3d 4e d9 ba 3b
       0.12573709 0.07868243 0.063031465 0.0057021743
000300 e2 2a 7d 3a ae 96 66 3d 56 50 8d bc a9 94 a4 bc
       0.0009657574 0.056296043 -0.017250221 -0.020090418
000310 6d 8c ce bc 76 f8 ba bd ef dd 54 3d 77 77 ad 3d
       -0.025213445 -0.091294214 0.051969465 0.08470052
000320 33 4d 6d bc 45 ec b1 3d 4d 25 61 bd 14 01 5e 3d
       -0.014483738 0.08687643 -0.054967213 0.054200247
000330 26 1a 28 bd 81 76 c8 bd 21 1f c8 3d 0a c6 6e 3d
       -0.041040562 -0.09788228 0.09771562 0.058294334
000340 7a 33 2d bb 34 b2 9b b9 8e b4 87 bb ff 44 2d 3e
       -0.0026428388 -0.00029696675 -0.004141397 0.16920851
000350 b1 dd 73 bc c8 ce 25 3e 1c c5 62 3d 2c 6f 8b 3d
       -0.014884398 0.16192162 0.05536376 0.06808314
000360 ff ad 33 bc 6b 88 11 be e5 9c 92 3c 30 3a 96 bd
       -0.010966777 -0.14212196 0.017897079 -0.07335317
000370 a0 38 a8 bd b0 37 1d bc a4 08 50 bd 99 a9 d5 3d
       -0.08213925 -0.0095957965 -0.05078949 0.10432739
000380 b2 8e 93 bc 88 4e 51 bd ca 12 ae bb c1 c8 c5 3c
       -0.018012378 -0.051100284 -0.0053122984 0.024143578
000390 bd c6 93 3d ba c6 a4 bd 57 c4 1a bc 8a 33 a8 bc
       0.07215641 -0.080457166 -0.009446225 -0.020532388
0003a0 6c ac 19 3e 7d 07 e0 bc 77 28 98 3c 44 68 5f 3d
       0.1500718 -0.02734732 0.018573983 0.054542795
0003b0 e0 42 de 3c 2c c5 42 bc fe ee 43 bc a8 f0 53 3d
       0.027131498 -0.01188783 -0.011958836 0.05174318
0003c0 f1 e6 b2 bd 16 07 1e 3e 49 c7 aa 3d e3 3a 71 bb
       -0.08735455 0.1543239 0.08338792 -0.003680878
0003d0 c8 90 e1 bd a7 46 51 bc 2e eb 2e bd bf ec 3d bd
       -0.11013943 -0.0127731925 -0.042704754 -0.046368357
0003e0 fb c8 dd 3d 3e 68 46 bc 21 f3 1c bd fa f7 f9 3d
       0.108293496 -0.012109814 -0.038317803 0.12205501
0003f0 9f 00 da 3a a4 66 4a bd 74 83 f2 bc 1e ba 9b bd
       0.0016632265 -0.049414292 -0.029603697 -0.076038584

critic.2.bias f4 [64]
000000 d4 2f a0 3b 37 ea 9c bd 35 7d 1d bc 68 0e 06 be
       0.004888514 -0.076618604 -0.009612371 -0.13091433
000010 97 50 80 3d 4b f0 94 3a 84 1f 19 bd 6a 7c 10 3e
       0.06265371 0.0011363117 -0.03738357 0.1410996
000020 9c 32 19 3e a5 8c 9f 3d f6 85 42 3d a9 4d 8a be
       0.14960712 0.07790498 0.047491036 -0.27012375
000030 69 dd be bd f2 36 1b 3d a4 ca ae 3c 72 9f 33 3e
       -0.093195744 0.037894197 0.021336861 0.17541292
000040 79 60 db 3d dc fa 15 be b1 bd b1 bd 47 d0 74 3d
       0.1071176 -0.14646477 -0.08678759 0.05976894
000050 89 9a c6 bd 80 d1 d0 bd 28 02 b0 3c 0f e0 c6 bc
       -0.09697444 -0.10196209 0.021485403 -0.024276761
000060 72 c6 bc bd d2 63 98 3c e9 89 28 be d2 e2 d2 bc
       -0.09217538 0.018602286 -0.16458859 -0.025742922
000070 e5 89 b6 bd 47 7e a1 ba 3f ef ae 3d be 27 35 3d
       -0.0891302 -0.0012320959 0.08541726 0.044227354
000080 04 dc 09 bd 62 9b 39 3e 25 2e de 3d bc cb cc 3d
       -0.03365709 0.1812568 0.10848645 0.09999797
000090 dd cb 98 bc 21 b4 f6 bc 62 2a 3c be 8e 86 d0 bd
       -0.018651897 -0.030115189 -0.18375543 -0.10181914
0000a0 20 45 76 be 51 b4 cd 3c a8 7f 77 3d 02 be 79 3e
       -0.24049807 0.025110396 0.060424477 0.24388888
0000b0 8e 54 da 3c af c4 c8 bd 7b 54 87 3d b7 0c 38 bc
       0.026651647 -0.098031394 0.0660791 -0.0112335
0000c0 7b 6f b6 3d 5b 65 6b bd 64 f0 24 3e 7f 89 ed 3c
       0.08907982 -0.057469707 0.16107327 0.028996227
0000d0 22 95 9b bc 56 51 aa bd 40 5a 2a 3d e1 f3 1a bc
       -0.01899201 -0.08316295 0.041589975 -0.009457559
0000e0 71 96 c8 bd 8d e8 ac bd 58 7f 0b bd 96 91 1c 3d
       -0.097943194 -0.08442793 -0.03405699 0.03822478
0000f0 eb 72 ff bd 33 24 8a bd 73 33 62 bd f3 35 82 3c
       -0.12473091 -0.06745186 -0.055224847 0.015894866

critic.4.weight f4 [1, 64]
000000 42 d7 0d be ba 45 9a 38 10 b4 7c 39 1b 44 2c 3b
       -0.13851646 7.35628e-05 0.00024099671 0.0026285711
000010 63 09 12 3a 25 38 85 bb 60 2a 7d ba c7 d2 42 bb
       0.0005570857 -0.004065531 -0.00096574984 -0.0029727684
000020 1b a7 e8 bb 96 a0 96 3a 5e 0a b4 ba ff 9c 03 3e
       -0.0070999986 0.001149195 -0.0013736 0.12852858
000030 81 b7 25 3b f5 6c 16 b7 f8 30 e1 b9 81 5c 26 be
       0.0025286379 -8.966065e-06 -0.0004295183 -0.16246225
000040 bf 39 bf b7 d0 40 0f 3e 84 93 64 3a 9d 96 33 bb
       -2.2795864e-05 0.13989568 0.00087194913 -0.0027403005
000050 11 c2 90 ba 0b d2 48 3a 63 b1 6c 3d a5 d4 a3 b9
       -0.0011044164 0.00076606934 0.057786357 -0.00031248215
000060 b5 25 62 3a 0b 9e 0a 3b ea b1 ce 3c b8 37 31 3b
       0.00086268346 0.002115133 0.02523132 0.0027041268
000070 86 cc be b9 8c 0c 96 39 41 f2 51 bb 54 c4 3b 39
       -0.00036392006 0.00028619578 -0.0032035264 0.00017906848
000080 21 a7 bc 39 6f 2f b8 bd 41 bf c6 ba cb 0b 83 b9
       0.00035982675 -0.08993422 -0.0015163199 -0.00024995054
000090 3b e9 0a 3b b6 91 20 ba 26 c2 c8 bd d9 5c 3c b9
       0.0021196145 -0.0006125228 -0.09802656 -0.00017963666
0000a0 bb 95 59 3d cc e8 14 be cd 75 fe ba 23 b1 1c be
       0.05312131 -0.1454193 -0.001941377 -0.15301947
0000b0 36 69 ba ba b9 d1 ff 3d 48 1f e7 ba 68 a4 f9 39
       -0.0014222029 0.12491173 -0.0017633224 0.00047615473
0000c0 ab 76 9d 39 0d db b5 3a 32 8e 5e bc 3f 4e ed b9
       0.00030033788 0.0013874486 -0.013583707 -0.0004526246
0000d0 85 9f 27 3a ab 2c 0f 38 14 9c 2d bb ac 11 03 39
       0.00063943147 3.4135457e-05 -0.0026490735 0.00012499717
0000e0 16 26 a5 39 14 b0 b6 3a a1 32 37 ba d9 f9 a4 ba
       0.0003149963 0.0013937973 -0.000698844 -0.0012586667
0000f0 f0 54 ee 3a 0b 28 a8 3d 88 4f a8 39 d3 83 32 b8
       0.0018183272 0.082107626 0.00032102712 -4.2561278e-05

exp_avg f4 [7]
000000 0b cd 01 bb 21 34 6d bb 6a d0 bb 39 10 81 59 ba
       -0.0019806053 -0.0036194401 0.000358227 -0.0008297125
000010 7f 6c b3 3a a9 c2 30 3b 33 d4 bc ba
       0.001368895 0.0026971495 -0.0014406502

exp_avg_sq f4 [7]
000000 5e 28 3c 3a 61 bf 74 3a b2 9d 6c 3a c2 5c 7c 3a
       0.0007177646 0.0009336379 0.0009026184 0.0009626859
000010 4e 5d 88 3a b7 89 22 3a 40 a7 58 3a
       0.0010403784 0.00062003307 0.0008264668
