logs/rsl_rl/franka_reach/2025-06-16_20-11-58/model_700.pt (torch, 172795 bytes, 36 tensors)

std f4 [7]
00000000: 0c60 003e f068 e63d 78b7 ec3d 5a74 0d3e
00000010: 07ed fc3d a933 093e 9bde 213e
0.12536639 0.11250484 0.115584314 0.13813916 0.12349897 0.13398613 0.15807573

actor.0.weight f4 [64, 32]
00000000: ad0d b6be 3b9a 513e 1530 e5be 41cb be3e
00000010: d417 c43d e956 653e 6f0d 093e 11c6 e73e
00000020: 4850 223f 7905 813d 7828 bd3e 15c4 283e
00000030: d499 8a3e dd10 d33d 41f8 58bd 4ee3 b6bd
00000040: f882 0fbf 0dc2 a9bc f40e 45bf 9f47 b0bd
00000050: 3e53 3b3f f79f acbc 1b73 2ebf 61e8 973d
00000060: cadf 10be 0282 a8bd f01a 8abe f2c5 76be
00000070: c0ac a53d 0959 acbe d658 8d3b 01dc 7fbe
00000080: be9f 3b3d da53 c93d 9a9a a5be 14a2 583f
00000090: 98d8 523f 9c1f 893e 86aa 8a3d 611d 23be
000000a0: 5b81 663e 6877 da3d 02db 3ebe d7f0 fd3e
000000b0: 77f9 e4bd a2d9 613d 1a11 a93d d05a 543e
000000c0: c300 b63e ba55 88bf e241 7bbf fd65 03c0
000000d0: bb2a 05bf e46d 113e 5388 9f3e 40c1 9d3e
000000e0: 8bf2 693d 4da9 f23d 46f8 973d 60bd 0fbe
000000f0: bec4 c93d e5be d4bd 23db 283a df4a 84bc
00000100: ef47 2e3f 034a 4abe 1941 453f a532 83be
00000110: 8fd4 6a3e 6c59 5e3a 6e44 7d3e 7a6c 233f
00000120: 6136 5b3f 3e1c e6bd 09ee d03b 743e 04be
00000130: df4c 033e ebf2 cf3d d92f 3e3e 175c 933d
00000140: dec7 59bf 84d7 1b3f 0f54 bd3c 8682 e4bf
00000150: e271 b53e 39a2 22bd cf4a 60be 8c30 643d
00000160: 43c5 b9bd 5532 2fbd 0237 ea3d 8b0b 37bd
00000170: 4ecb 2a3d 4d49 af3e 7825 f7be 2ff8 00bf
00000180: 8d2c 8cbf 7753 87bb 7f4e 673b dc04 42bf
00000190: 65ff bdbd 11df f5be 8cbe 873e f6cf 93bd
000001a0: 375b 1b3e adad 4cbe da26 99be c82d a13d
000001b0: 2bc8 9b3e 04d4 75be 7992 36be d3ae 22bd
000001c0: cea6 083f 93bc 763e c803 dbbd 493e a13e
000001d0: 1ea2 013f d8ed 1ebe 51a3 11bf d88b 2dbe
000001e0: a458 10bb b4e0 fbbe 3256 70be a21a 8fbd
000001f0: 4f42 aebe 5341 d5be 1a1a fa3d 9230 a5be
00000200: 600b 2bbd 5afc 0ebe 0ec2 9b3d 8bb1 8d3e
00000210: fb8c 0bbf c7a6 793f 69e0 993d fe17 41be
00000220: 180f 51be 10c5 2d3b 04cd 43be 29e9 5cbd
00000230: 5e0b 653d fca9 b7bd 1e3f e9bd 1260 c5bd
00000240: 30e8 58be 3ded e2be 0e17 dabe a1b5 f33f
00000250: b6b5 643f 2f70 0dbe cbbf 96be 3479 47bf
00000260: 24d3 95bc 1260 15bf 394e ff3b c37c e93d
00000270: 21d5 29be 2baf 5c3d 29d6 a5be 9894 0abd
00000280: dc17 e83e 7879 16bf 63b0 ce3e 8577 2bbe
00000290: f557 a93e a652 973f 6095 093d 0d14 c13e
000002a0: 0174 0f3e 2052 b3bd 11aa 173d 5934 a8bd
000002b0: bea6 babc 3d7d 83bc 99a0 85bc e533 28bd
000002c0: 9692 783d 0863 33bf 4741 bd3d 18ca aabf
000002d0: 140c 49bf cb10 a93d f5e9 663d 76f9 6f3f
000002e0: 250f b53d c33e 673e 1cf7 6d3e 2f95 ae3d
000002f0: 1a82 a63d e74d 883d 894b 8e3d 2bd4 29bd
00000300: 75b2 c23d 955f 323d 67dd 923a 791a 0bbf
00000310: d761 dcbd 4664 f5be b3be b53d 03fb 933e
00000320: bfb9 ea3d 54ad a43c 9f74 ba3d c850 003d
00000330: 069b a7be 0513 9dbd 78e6 883d 181d 54be
00000340: 8859 b63f f1a1 cb3e 409f 3dbe 4f40 c2bd
00000350: 17c1 05bd bf62 dbbd 986d dcbe ca36 ae3e
00000360: bdbd ce3c 4120 5f3e 2dd6 c53e a357 f6bd
00000370: 63f7 a4bd cfac d43d bb1e a9bd 4ea2 fbbd
00000380: f2e4 793f 90d7 97ba 8463 903f 4631 96be
00000390: 2452 d6be ccce d2be 6ae5 3dbf 16ba 693e
000003a0: d9f4 023e cc56 923d 0df8 20bd 0106 7d3e
000003b0: e425 c73e 0664 153e 5a7e 30bd 35cc 91be
000003c0: 7f45 293f 1726 003d 41cc f03c 5c27 fcbf
000003d0: b6bf 15bf 03e5 f9bd a18b 12bf 06ec 1b3e
000003e0: f71b 68bd f4c2 4dbe fb44 e5bd 22f1 0ebf
000003f0: 3ed7 d03c 087a b1bd 5456 783c 2dea afbb
-0.3555731 0.2046899 -0.44763246 0.37264445 0.09574857 0.22396435 0.13384031 0.452683
0.6340375 0.06299872 0.36944938 0.1648105 0.27070487 0.10305951 -0.05297113 -0.08930074
-0.5605922 -0.020722413 -0.7697594 -0.08607411 0.7317389 -0.021072371 -0.68144387 0.0741737
-0.14147869 -0.08227922 -0.26973677 -0.24098948 0.0808959 -0.33661678 0.0043135686 -0.24986269
0.04580664 0.098304465 -0.32344514 0.8462231 0.82361746 0.2678193 0.06770806 -0.15929176
0.22510283 0.10667306 -0.18638232 0.4959781 -0.11180394 0.05513919 0.08255215 0.20737767
0.35547456 -1.0651162 -0.98147404 -2.0530999 -0.52018327 0.14202076 0.31158695 0.308115
0.057116073 0.11848698 0.07420401 -0.14037085 0.09851979 -0.10387973 0.00064413453 -0.016148983
0.6807851 -0.19754796 0.77052456 -0.25624576 0.22932647 0.0008481953 0.24733135 0.638374
0.8562985 -0.112358555 0.0063760323 -0.12914449 0.12822293 0.10153755 0.1857294 0.07195299
-0.850706 0.60875726 0.023111371 -1.7852333 0.35438448 -0.03970549 -0.21903537 0.05571036
-0.09070828 -0.04277261 0.11436273 -0.044688743 0.041697793 0.34235612 -0.48270774 -0.503787
-1.0951096 -0.004129823 0.003529459 -0.75788665 -0.09277228 -0.4802175 0.26512563 -0.072174
0.15171514 -0.19988127 -0.29912454 0.0787006 0.30426154 -0.24006659 -0.17829312 -0.039717507
0.53379524 0.24095373 -0.106940806 0.31492832 0.50637996 -0.15520418 -0.56889826 -0.16947877
-0.002202549 -0.49194872 -0.23470381 -0.06987502 -0.34034964 -0.416514 0.1221201 -0.3226362
-0.041758895 -0.13963452 0.07605372 0.27674517 -0.54511994 0.9752011 0.07513506 -0.18856809
-0.20415914 0.0026515163 -0.19121176 -0.053933296 0.055919044 -0.08967969 -0.11388992 -0.096374646
-0.21182323 -0.44321623 -0.42595714 1.9039804 0.8933977 -0.13812326 -0.294432 -0.77919316
-0.018289156 -0.58349717 0.0077913073 0.114007495 -0.16585208 0.05387799 -0.32389954 -0.033833116
0.45330703 -0.58779097 0.40368947 -0.16744812 0.33074918 1.1822097 0.03358972 0.3771061
0.14009096 -0.087558985 0.037027422 -0.082131095 -0.022784587 -0.01605093 -0.01631193 -0.041065115
0.06068667 -0.70072985 0.09240966 -1.3342924 -0.78534055 0.08255156 0.056375463 0.9374002
0.08840779 0.22582535 0.23238796 0.08524548 0.08130284 0.06655484 0.06948001 -0.041462105
0.09506694 0.043548185 0.0011204899 -0.5433727 -0.10760849 -0.47928065 0.088742636 0.28902444
0.114612095 0.02010218 0.09104275 0.03132704 -0.3273546 -0.07669643 0.066845834 -0.20714223
1.4246073 0.3977199 -0.1851778 -0.09484922 -0.032654848 -0.10712194 -0.43052363 0.34026176
0.025236959 0.21789648 0.38639966 -0.12028434 -0.08054998 0.10384523 -0.082578145 -0.122868165
0.9761497 -0.0011584628 1.128037 -0.29334468 -0.41859543 -0.41173398 -0.74178183 0.22824892
0.12788714 0.071454614 -0.03929906 0.24709322 0.38896096 0.14588937 -0.04308925 -0.2847611
0.6612167 0.031286325 0.02939427 -1.9699512 -0.5849565 -0.12201884 -0.57244307 0.15226755
-0.056667294 -0.200939 -0.111947976 -0.5583669 0.02549326 -0.08665854 0.015157301 -0.005368492

actor.0.bias f4 [64]
00000000: a3df 8abe 1770 0fbe dfe5 25bf 144f a33b
00000010: 2053 fb3d 8a55 a3be fe2e cbbe 6589 f9bc
00000020: d443 c63e 87e3 8a3e 747b f3bd 62a9 b3bc
00000030: 2e3a f3bd 3a4a 7dbe 2899 28bf 448c 91be
00000040: 2f53 2c3f 1edc 523e 732f 8d3e 5fef 513e
00000050: 6850 0e3e 4f92 753e 5e53 acbe 3a5e 163e
00000060: 559b 2bbf 355d 353f 1276 a5bd ddf9 dbbe
00000070: 5ee3 e4bd 4b3b 3a3e 0191 56be 1016 e33e
00000080: 6287 38bf 2779 66be ebd9 b23e 1099 77bd
00000090: 2173 063d d99b 2e3d 7989 11bf 7ec6 8bbe
000000a0: 91f2 073e ee11 8ebd 0aed 0c3f 2c4d 3dbe
000000b0: 0115 df3d 0100 be3d eec7 7bbe 10f3 edbc
000000c0: 5380 013f 2daa 08bf 2872 5e3d 137c 50be
000000d0: c4bb 67bc d1da 82be 2a6f 15bf 3b3f 98be
000000e0: 3132 d7be daf3 273d 45cc 113e e8ad 883e
000000f0: 8ff9 74bd 25e9 923e 3378 953e 7371 bfbd
-0.27123746 -0.14007603 -0.6480388 0.004983792 0.12271714 -0.319012 -0.3968429 -0.030461023
0.38723624 0.27126715 -0.11888781 -0.021931354 -0.11876331 -0.24735346 -0.658587 -0.28427327
0.6731443 0.2059178 0.27575263 0.20501469 0.1389786 0.23981594 -0.33657354 0.14684382
-0.6703389 0.7084535 -0.08079161 -0.42964068 -0.11176179 0.18186681 -0.20953752 0.4435277
-0.7208158 -0.22507153 0.34931883 -0.060448706 0.03282464 0.042629097 -0.5685039 -0.27299875
0.13276125 -0.069370136 0.5504919 -0.1848647 0.10892678 0.092773445 -0.24587986 -0.029046565
0.5058643 -0.5338467 0.054308087 -0.2035983 -0.014143888 -0.2555757 -0.5837275 -0.2973574
-0.4203048 0.04100404 0.14238079 0.2669518 -0.05980831 0.286935 0.29193267 -0.093478106

actor.2.weight f4 [64, 64]
00000000: 78c9 15be a56d 1f3e 9cf9 003f 8e77 703e
00000010: 294e 00be 614f 883e 928b 8c3e e83a bbbd
00000020: c3b0 3a3e 4d4c f5bd 8ee3 b73d 34a6 92bd
00000030: 4c62 873c 2aaf 6c3e 3e58 353e 9f07 e7bc
00000040: e96c 6dbb 173d 183e 905d d23d d9bc 59bd
00000050: 85a6 34be 4793 5e3e 17c1 c3bd 388a 18bd
00000060: 951a aa3d aec8 4abf b6b4 f03c aa5c a5be
00000070: c3b1 74be d863 f2bc 67ec 09be 240b 62be
00000080: f15e 94be 343f a93e 9160 1c3e 0cee 00bf
00000090: be7e c83d 6788 4cbd 55c4 c03e 3c7f 033d
000000a0: 5291 803d 8067 153e a073 803e 3b80 c8bc
000000b0: 6e39 71bc dbc7 ddbb b36b 1bbe 30b1 523e
000000c0: d64d 56be 3ac4 bbbd 7456 4cbe 2498 eabe
000000d0: 203b d0bb f56f c1bc 49a1 cdbe f454 413e
000000e0: 31ca a33c 62ba 38be 9ff2 063e a30c efbe
000000f0: 9067 64bc 33f7 b63d 50bd 033e 1fcd 2bbe
00000100: 4870 0e3e b12a b03e 6945 bdb6 e1cb 1c3e
00000110: c476 46be fe80 5ebc c4fb 373d 7d47 013e
00000120: d9ff cd3c 9921 543e f457 253d f52c 7ebd
00000130: 5ab0 a2bd 41d8 8b3e ed42 f23d 0ed8 e2bd
00000140: 6aa5 c2bd 2b66 1dbb 06af af3d 0cd5 33bd
00000150: e95f bf3d d8bb d53d da87 e1bc 2033 8e3d
00000160: f642 2e3d 69d5 13bc 92a0 90bd 54f5 11bd
00000170: 074b 0fbe 582d 02bd ec89 2cbe 4818 3f3e
00000180: 7f23 6d3e f458 603d cbbf 76be a212 3dbe
00000190: 9fdc 9abc bf94 d7bc acac 8a3d c8f3 fd3d
000001a0: 0e15 85be 4710 a8be b22d b5bc 3df5 2ebd
000001b0: 12ce 9e3d e7bd 293d 84f3 b73d e121 1dbe
000001c0: 9831 a7be 2e32 813d 42d7 09be beb9 b63e
000001d0: 3aa1 c4bc 4ade 3bbb 8a14 ea3c c6c0 1b3e
000001e0: c917 873d 8c52 a0be 97aa ddbb 1744 833e
000001f0: fc23 363e 069f 48bc 8e1b 073e 04fa a7be
00000200: e3d7 903e d7bf 3dbd 0938 e0be 912d bcbe
00000210: bd32 673e 46e8 a8be 2c14 93bd b184 b2bd
00000220: b32c bebb 39ac 4ebc 1307 16be 0d55 d33d
00000230: f87a 5cbb 09de cd3d c0c8 5f3e b2ac 323e
00000240: 38ed 7ebe 836b afbd 0c55 34bc 425b 4dbd
00000250: 6c92 f8bd f663 4e3e 19e3 813e 039a c2bd
00000260: 4181 2b3e 26b0 8abe 540f a3be 4291 03bc
00000270: c1c4 023d 7f09 003c 8ba7 ca3d 38b1 8dbe
00000280: ff63 4f3e e4b4 773e 2c22 8b3c 453b 2bbe
00000290: 0fd0 99be 0aa4 9abe 6453 07be 54a0 f2bd
000002a0: d9fa 9cbd 0f10 19be 54c9 6cbe 2215 71bd
000002b0: 14b9 683e 5ee2 be3c dacf 353e ab70 f9bd
000002c0: 2f8b 6c3e 2ef9 f43d b0f8 0a3d d269 3d3e
000002d0: 803f 273e 4095 56be dd65 d33d 32f6 61bd
000002e0: e5af 303e 43f8 8bbd be55 dcbe 1627 34bd
000002f0: e9aa b53c 88c5 78bd 74da 4ebe 46b7 ef3b
00000300: d378 e93c 7af9 523d 4f2c 62be 3ae2 bbbe
00000310: 3bd0 253e 3792 8a3e b3d2 333e a6cd abbd
00000320: bac4 223d a634 8a3e 71d6 63bd 8edc 86bd
00000330: 129d 013d 3330 b0bd b351 efbd 83dd 7abd
00000340: 0ccd 2e3a 186a 353d 1804 1c3e 09dc 483e
00000350: 7431 193e 5302 7539 0d0b bbbd 02a0 003e
00000360: aad4 c2be cb98 273e 00ba 27bd c6b2 3dbe
00000370: ea06 363c 5c36 163e 6467 bb3d 3fba 7abc
00000380: 5887 0d3e 4a9b 35be 7b21 cfbd 3379 39be
00000390: 2b63 d93e 47da 583d 3078 51bc eaa9 6bbb
000003a0: fdb2 e23d 623a d8bc bdd4 343d 223d 463d
000003b0: 9e4f f9bd a010 003d f473 7abd 08e1 493e
000003c0: 336f 10bd 4002 b93d 18db 19be bbab ef3d
000003d0: d9fd 79bd f490 f13c b93a 283e 54c0 44bc
000003e0: c0e2 343e 2cf7 eebd 65ed 1b3d 6e2d 193e
000003f0: 8643 733d d7de dfbc a48a 2c3e c65b f03d
-0.14627635 0.1556917 0.50380874 0.23483106 -0.12529816 0.2662306 0.27450234 -0.09142095
0.18231492 -0.11977444 0.089789495 -0.07160607 0.016526364 0.23113695 0.17709443 -0.028201876
-0.0036228246 0.14867054 0.10271752 -0.053158615 -0.17641647 0.2173587 -0.09558313 -0.03724119
0.08305851 -0.7921246 0.029383045 -0.3229726 -0.23895936 -0.029588625 -0.13469087 -0.22074562
-0.28978685 0.33056033 0.15271212 -0.5036323 0.09789799 -0.04993477 0.3764979 0.032103762
0.06277718 0.14590263 0.25088215 -0.024475208 -0.014723165 -0.0067682094 -0.15177803 0.20575404
-0.2092813 -0.091682866 -0.19954854 -0.458192 -0.0063547045 -0.023612956 -0.40162113 0.18880063
0.019993873 -0.1803985 0.1317849 -0.4668933 -0.013940707 0.08933868 0.12865186 -0.16777466
0.1391002 0.3440757 -5.6407193e-06 0.15312149 -0.19381243 -0.013580559 0.044917837 0.12624927
0.025146412 0.20715941 0.04036708 -0.062054593 -0.07943793 0.27313426 0.11829171 -0.110763654
-0.095042065 -0.0024017196 0.08578305 -0.04390435 0.09344465 0.10436219 -0.0275306 0.06943345
0.042544328 -0.009023049 -0.07061876 -0.035634354 -0.13993464 -0.031781524 -0.16849488 0.18661606
0.23158072 0.054772332 -0.240966 -0.18464139 -0.018904028 -0.026316045 0.06771216 0.12400013
-0.25992626 -0.3282492 -0.022116516 -0.042714346 0.077541485 0.04144087 0.08981994 -0.15344955
-0.32655025 0.06308399 -0.1346102 0.35688585 -0.02400266 -0.002866643 0.028574247 0.15210256
0.065963335 -0.31312978 -0.0067647207 0.25637886 0.17787164 -0.012244945 0.13194105 -0.32807934
0.28289708 -0.04632553 -0.4379275 -0.36753514 0.22577949 -0.3298971 -0.07181582 -0.08716715
-0.0058036684 -0.012614303 -0.14651136 0.103189565 -0.003364263 0.100521155 0.21853924 0.1744869
-0.2489518 -0.08565428 -0.011006605 -0.05013586 -0.12137303 0.2015532 0.25368574 -0.09502032
0.16748525 -0.27087516 -0.31847632 -0.008030238 0.03192592 0.007814764 0.098952375 -0.2767427
0.20252989 0.24190098 0.016984068 -0.16721828 -0.3004155 -0.30203277 -0.13215405 -0.118469864
-0.07665033 -0.14947532 -0.23123676 -0.058858044 0.22726852 0.0233013 0.1775507 -0.12179693
0.2309997 0.1196159 0.033928573 0.18497398 0.16332817 -0.20955372 0.10322163 -0.05516643
0.17254598 -0.068344615 -0.43034166 -0.043982588 0.022176223 -0.060735255 -0.20200521 0.007315549
0.028499996 0.05150745 -0.22087215 -0.36696035 0.16192715 0.27064678 0.17560844 -0.08388834
0.039738394 0.26993293 -0.05562443 -0.06585036 0.031643935 -0.08602943 -0.11685505 -0.061246406
0.00066681276 0.044290632 0.15235937 0.19615187 0.14960271 0.00023365887 -0.09132967 0.12561038
-0.38052875 0.1636688 -0.040948868 -0.18525228 0.011110047 0.14669174 0.091505796 -0.015303194
0.13821161 -0.1773502 -0.10113808 -0.1811264 0.42458472 0.05294254 -0.012785003 -0.003595943
0.110692956 -0.026395027 0.044148196 0.048398145 -0.12173389 0.031265855 -0.061145738 0.19714749
-0.035262298 0.09033632 -0.15024984 0.11702677 -0.061033104 0.029488064 0.16428651 -0.012008745
0.17664623 -0.11668238 0.038068194 0.14958736 0.059390567 -0.027327938 0.16849762 0.117362544

actor.2.bias f4 [64]
00000000: e954 d3be b6bf 1ebd 709f fbbd c7e8 0c3e
00000010: 44ad 8abe 5389 abbe 8e9f f8bd dd7a cbbe
00000020: 02a1 b1bd 1730 66be a6ad bbbe 28b4 89be
00000030: ac1f 84be bbbb 6fbc 6e8c 41be b95e adbd
00000040: 3997 9cbe 6be4 15bf dcc6 5dbe b21d a8be
00000050: 725e f7be fe7c 81be d7fc 97be 2a71 60bd
00000060: c1c2 b9be 0314 13bf eb69 c7be 278e 52be
00000070: 82c5 8fbd 7a12 96be 793b 653e 3945 ccbe
00000080: 3eec 0dbe 6ed8 36be 8b2c 0abf a8e0 ecbe
00000090: d5fb 15bf 5be9 debe 679b 1cbe 0486 58be
000000a0: afc0 f8be 9e99 a8be 7ca7 0cbe 9062 17bd
000000b0: 1ba5 77be 4bd8 04bf 344b 04bc c773 f5bd
000000c0: b40b c2bc aff9 9fbe a600 68be b71d eebe
000000d0: af4c acbe 1a3f 80be 9d70 cabe 1387 bebe
000000e0: 4827 0bbe 924f 96be 1827 76be 502e e0be
000000f0: d2eb abbe c54c 78be 6971 78be 26d7 653d
-0.4127572 -0.03875705 -0.1228627 0.13760673 -0.27085316 -0.33503208 -0.12139808 -0.39742175
-0.08673288 -0.22479282 -0.3665592 -0.2689526 -0.25805414 -0.014632161 -0.18901226 -0.084653325
-0.30584124 -0.58551663 -0.2165789 -0.32835156 -0.48314244 -0.25290674 -0.2968509 -0.05479542
-0.36281398 -0.5745241 -0.38947996 -0.2056204 -0.070200935 -0.29310971 0.22385968 -0.39896563
-0.1385965 -0.17855999 -0.5397422 -0.4626515 -0.5858739 -0.4353741 -0.15293656 -0.21144873
-0.48584506 -0.329297 -0.13735765 -0.03695923 -0.24184076 -0.51892537 -0.00807457 -0.119849734
-0.023687221 -0.3124518 -0.22656497 -0.46507046 -0.33652255 -0.25048143 -0.39539042 -0.37212428
-0.13589203 -0.29357582 -0.2403835 -0.43785334 -0.33578354 -0.24248035 -0.24262013 0.056113385

actor.4.weight f4 [7, 64]
00000000: ad32 903d 0494 c1b9 a202 6fbd 1aae 4c3c
00000010: 4b4b 993d 8dba e4bc 4829 11bc adf8 66bc
00000020: 6702 e13c c4bd edbb abc2 423d cade ae3d
00000030: 5458 05bd fd37 ba3c dbb2 6b3c fe14 d3bc
00000040: 92c2 a93d 3f62 c2bd 9ac3 d6bc 373c 76bd
00000050: 1c6d 11bc f0be 303d 91a9 423c e524 113e
00000060: 234d a7bc f5a5 f33d 4f30 0e3d 0ec9 f2bc
00000070: f225 6fbd 6262 5a3d 3c04 03bd e1bc 2d3e
00000080: 302c 513e 63a2 9dbd 0a61 213b 0f5f 913c
00000090: 103a a1bd 792c edbc 6922 05be eb8d e73d
000000a0: 68e4 d13d 832a 063e 7db7 f7bd 7b93 303c
000000b0: 14af e4bd a942 fe3d c7de 503d 798a c63a
000000c0: 5acc 483d a4ee f0bc c700 b53d 8d2b 5fbd
000000d0: 6b0f b23d 98f8 90bd 2e94 413d 5608 563d
000000e0: 0592 a6bd f186 67bd cff1 713d 1604 6dbc
000000f0: 7483 6b3e e509 0f3e 9d70 bd3d 1c3e c7bd
00000100: ac00 c5bc c066 e9bc 902f 7b3c 62a4 253c
00000110: 98a6 823d dacd 693d ca84 b63b 9b4d 3f3d
00000120: 5747 a3bb 2a5f 703d 0071 b4bd 1e0a 21bd
00000130: 8971 33bc 0bb8 c93c 2230 5fbd 82f8 18bd
00000140: 4e84 22bd 6c1d 36be bfd8 9cbd 49ab 023d
00000150: 1874 ffbd f70b afbd 8ca5 883a c4bb 1bbd
00000160: ac19 843b 8975 cd3b 628d a2bd d208 863c
00000170: 6b4d 343d 5a50 51bc f149 143d ba8c 173d
00000180: 3dd9 413e 8147 9cbc d2d3 5abe 9344 12bd
00000190: d64a 14bd 21b9 0ebd 01e6 27bd 4643 203d
000001a0: 672d 13bd 56da 1abe ebe3 503b 6135 673d
000001b0: 79b3 33bc 6571 c9bd b306 213c 5649 553a
000001c0: 2581 3f3d 7a83 26bc 6983 e53c 17d0 313c
000001d0: 00d2 633d e994 05be fa92 2b3d fc9a c0bd
000001e0: 7f7f 663d 3e50 51bd a8a4 dbbc 9a88 5b3a
000001f0: 2452 b83c 1205 fdbc 60f0 0e3c 17aa ed3c
00000200: d406 5c3e 2a2d 07bd c4b4 d43c 2fc3 f4bc
00000210: 419e 3fbd bedb 0fbd 0065 e43c a9b9 9bbb
00000220: 4072 aebb 05a6 033d 7c3d 56bd 6003 35bd
00000230: 0828 68bd ab25 bc3b 753a 41be afa5 1cbd
00000240: e92d 30be c079 833c 27a4 313c 4dc1 183d
00000250: 7851 c53c 3594 f4bd 5311 a0bd 4095 9a3d
00000260: efef 43bd 41d8 023e e391 b83c 16ed ce3c
00000270: d918 113d a0f9 f3bd dfa8 093d b5fb 573e
00000280: e3e8 22bc cde7 f6bd 96f8 c03c 0bcd cbbd
00000290: 2005 60bd 894c b7bd 4e85 86bd d112 643d
000002a0: 5552 953d 9283 4b3e e994 ddbd 2776 edbb
000002b0: 3672 be3d 5cac 263e 86aa 703d e90b fc3c
000002c0: ae1a 123d b0da edbd 9be9 8b3d 4d2e 753d
000002d0: 9919 a4bd b203 20be e3be 7ebc 9bd6 3d3e
000002e0: bc3f 08bd 6f0d a73d 2b9f 593d fa59 1abe
000002f0: 6b20 0a3e d5ab 9c3e debb d3bc 3cb2 113d
00000300: 53e9 13be 014d 493d 4132 a5bc 455e 2b3d
00000310: be27 bebd a957 bfbc 5b38 163e 94bd a23d
00000320: 22a4 043d 9a31 48bd 5f0c 3a3d 596b a43c
00000330: fb6f 733c 15a9 513b 5704 a9be 27ab f33b
00000340: 906d f4b9 b111 3fbd f5b3 bbbc 4b14 e83d
00000350: 2d98 703c 0ce3 0db9 11ac d83d 31d6 5e3d
00000360: 1ba0 07bd 8baf 323d b6e6 113e d97e 923d
00000370: fbf7 b8bd 2004 b53d c661 413d 7974 d83c
00000380: d5bd 1abe e38c 32ba 2648 99bd cd66 44be
00000390: ecc8 4a3e bbdd fdbc 1f16 a6bd d49a d6bb
000003a0: d2e3 0ebe 3465 8ebd 2e20 c6bd 3a4f 0abc
000003b0: 0d3b 3ebd 9096 25be d68e f5bc 8d9a 823d
000003c0: d2bc 22bd aac7 b1bd c319 87bd 18ec ac3c
000003d0: 80dd 273d 9577 343d aaea 3abe c755 a5bb
000003e0: f1e6 b8bd c617 6b3b c2e6 55bc 4cce 58be
000003f0: 5853 5c3c 0543 313e f9c6 05bd 0761 393d
0.07040916 -0.0003692211 -0.05835212 0.012492681 0.07485064 -0.027920986 -0.00885994 -0.014097375
0.027466966 -0.007255288 0.04754893 0.085385874 -0.03255494 0.022731775 0.014385904 -0.025766846
0.082890645 -0.09491395 -0.026216317 -0.06011602 -0.008876111 0.043150842 0.011881248 0.1417423
-0.020422524 0.11896888 0.03471404 -0.029636886 -0.058385797 0.05331648 -0.03198646 0.16966583
0.20427012 -0.076969884 0.002462449 0.017745523 -0.07872403 -0.02895187 -0.13001408 0.113063656
0.10248643 0.13102154 -0.120955445 0.01077735 -0.11166206 0.12415058 0.050993707 0.0015147469
0.04902301 -0.029410668 0.08838039 -0.054484893 0.08694347 -0.070786655 0.047260456 0.052254044
-0.0813332 -0.056525175 0.059068497 -0.014466306 0.22999364 0.13968618 0.09249995 -0.09728643
-0.024048172 -0.028491378 0.015331164 0.010109993 0.063794315 0.05708108 0.005570029 0.04670487
-0.0049828696 0.058684506 -0.088106155 -0.03931629 -0.010952362 0.024623891 -0.054489262 -0.03734637
-0.039676957 -0.17784661 -0.076585285 0.03190163 -0.12473315 -0.08547204 0.0010425313 -0.038020864
0.0040313806 0.006270115 -0.07937123 0.016361628 0.044019144 -0.012775505 0.03620333 0.03699944
0.18930526 -0.019077064 -0.21369866 -0.03570993 -0.03620418 -0.03484452 -0.040990833 0.039126657
-0.03593197 -0.15122351 0.003187413 0.05644739 -0.010968083 -0.098360814 0.009828257 0.0008136233
0.04675402 -0.010163182 0.028016763 0.010852835 0.055620193 -0.13045086 0.041888215 -0.09404561
0.056273934 -0.051101916 -0.026811913 0.0008374542 0.022500105 -0.030886207 0.008724302 0.02901177
0.2148698 -0.033002056 0.025965102 -0.029878227 -0.046781782 -0.03512167 0.027880192 -0.004752357
-0.0053236783 0.03214075 -0.05230473 -0.04419267 -0.0566788 0.005741795 -0.18869956 -0.038243946
-0.17205013 0.016049266 0.01084236 0.03729372 0.024086699 -0.11942331 -0.07815804 0.075479984
-0.04783624 0.12777807 0.022530502 0.025259536 0.035424087 -0.119128466 0.033608314 0.21092112
-0.00994322 -0.12055931 0.023556035 -0.09951218 -0.054692388 -0.08950145 -0.065683946 0.055682007
0.07291094 0.19874409 -0.10819418 -0.007246751 0.09299128 0.16276687 0.058756374 0.030767398
0.035669975 -0.11613977 0.06831666 0.05985861 -0.08012695 -0.1562641 -0.015548441 0.18538897
-0.033263907 0.08156859 0.05313031 -0.15073386 0.13488929 0.30599847 -0.025846418 0.03557037
-0.14444475 0.049145702 -0.020165564 0.04183795 -0.09284924 -0.02335723 0.14669935 0.079463154
0.03238309 -0.04887543 0.045421954 0.020070719 0.014858241 0.003199165 -0.33011124 0.0074361744
-0.00046620937 -0.04664773 -0.022912959 0.113319956 0.014684719 -0.0001353139 0.10579694 0.054403488
-0.033111673 0.043624442 0.14248165 0.071531005 -0.090316735 0.088386774 0.047212385 0.026422726
-0.15111478 -0.0006811155 -0.07484464 -0.1917984 0.19803208 -0.030989518 -0.08109688 -0.0065492187
-0.13954094 -0.06952897 -0.096741065 -0.008441741 -0.046443034 -0.16170716 -0.029975336 0.063771345
-0.039730854 -0.08680661 -0.065967105 0.021108672 0.040982723 0.044059355 -0.1825358 -0.005045626
-0.090284236 0.0035872324 -0.013055505 -0.21172446 0.013447605 0.17310722 -0.03266046 0.045258548

actor.4.bias f4 [7]
00000000: 632c b03c 6372 3f3e fa54 2abe 3349 2b3e
00000010: c92d 583e 2eb4 a4be 3445 033e
0.02150554 0.18695979 -0.16633978 0.16727142 0.21111216 -0.32168716 0.12819368

critic.0.weight f4 [64, 32]
00000000: a64c 66be 3059 39be 1760 50be cf13 a23e
00000010: e766 19be c185 9a3d 6a67 98be ec08 ff3d
00000020: db64 0f3d 5018 143d 93e8 963d 1075 1f3d
00000030: ae04 4bbc f01d a0bc 8f7b 963b f8f0 1dbd
00000040: e519 f0bd 3e5a e0bd 7cb9 6a3e ba31 8e3f
00000050: 9f95 593f abee 343d d453 50be 7eaf 1fbf
00000060: 7784 fdbd 9831 753c 0be3 f1bd c34a 23be
00000070: 9c57 4dbd bbc6 b8bd 4b14 ab3c 3027 f4bc
00000080: 2954 aebd c8e9 cf3e 320c 22bd a997 383e
00000090: 8c8f 323a aa7d 36be fb50 d33d f907 fe3b
000000a0: 0a57 ae3b 7e90 f63c 7e70 f63d 63b2 003d
000000b0: 4fb3 d4bc bb73 f2bc 0536 c23c f3ce 92bc
000000c0: f8ed 3cbf 53de 00bf 1ab1 843e 5c25 98bf
000000d0: 06e1 96bf 9ea3 8d3d da0b b43e d589 013d
000000e0: 2fb1 1cbc 4c2f b8bd 58c8 b0bd 874b b6bc
000000f0: 2371 463d ba02 393d b2ee 01be 8ec7 d13b
00000100: 7299 ffbb fad2 0e3e 8f8a 7fbd d9dc 7ebd
00000110: 3e13 2d3e e71a 4abd 7436 05be 835d 41bb
00000120: 5f05 873d 3a84 a1bd f38f 72bd a08c aabd
00000130: 49bd 03bd ac74 923d 211f 393c 62d0 e93c
00000140: 7a3b 223e 2b56 6bbd a539 24bf f213 d5be
00000150: da7d bc3e 964b 603d 62c9 103b f849 62be
00000160: f7e8 b3bd d856 a73d bcff 993d 02f3 8cbb
00000170: aac3 993d 5946 dcbd d0da 2e3d 91ff 2cbb
00000180: a5d3 2fbe 2964 0f3d adce 36be 3b31 d3be
00000190: 1747 11bc e60f 3d3e 2da2 153d 39eb 833e
000001a0: d4e3 ce3d d45f 1ebe e8bd 1cbd 3031 0dbe
000001b0: c1b5 05be d7ae 383b 6782 31bc ba18 9dbd
000001c0: 0ee0 99be 9170 a0bd 631a afbe b2a0 03be
000001d0: 20ff 1ebe 3ac4 fdbd 20c0 8bbf fa66 2b3e
000001e0: 0f40 253e 5fbb 12bc d909 063d 5cd4 30bd
000001f0: b06f 06be 365e 63bd 77fc bf3d 5e35 433d
00000200: d516 9abe 7f68 15bd 8400 52be 2d77 6b3e
00000210: 5301 c43e 4d51 d33d 7c83 763e 6812 8c3d
00000220: b493 8eb9 85d6 0ebd 5703 50bb 0657 5fbc
00000230: 2a80 cdbc 55ae 753c 294e 44bc 2ca4 f5bc
00000240: 30d2 19be 7639 45be ac4c d13e 89b1 84bd
00000250: 0804 48be d005 243d 5f87 22bf 12eb a63e
00000260: 374c 11be 420a 22bc c1ab 8d3d d410 b4bd
00000270: f385 08bb 3359 b6bc 7638 e6bc 9428 823d
00000280: 81d1 92bd bd09 bdbd b6c8 48be cfc4 cbbd
00000290: c632 813d 8a69 2c3e f153 3fbd 5ba9 4cbd
000002a0: 675e fb3d c245 9e3d d852 4b3e c7a8 d93d
000002b0: 134d 2abe be8b 2ebc c1f5 b83c e78d 1bbd
000002c0: 0201 4fbc c021 87be 01a1 edbe 421d 13bf
000002d0: 7611 e6be 98d1 1abe 20f8 143f 72bc fb3e
000002e0: a8b0 913d 183d a73c b574 463d 5b78 843d
000002f0: 08ae ab3c 9b05 8a3c 088a 2c3d e78c b5bd
00000300: 53bb 453e bbe1 ac3e f987 e23d e623 bcbd
00000310: 92a2 0abd f5cd 3f3d e983 d6bd 1bcb 12be
00000320: 0266 313d eab7 523d d1a3 c93c 18a1 2c3d
00000330: 95ef 24bd 1d07 a4bb f481 c33b 4d8e 8ebc
00000340: e2f6 6b3d 5778 40be 22fd 863e f821 42c0
00000350: ca6c 19be ff01 113e faa8 53bf bd8a 5d3e
00000360: 9c94 1ebd b8e3 60bd 9634 523d 9b47 623d
00000370: 431d 19ba 96a8 45bb 82f3 223d db4c 813b
00000380: 7ad9 693d b962 9b3d 563f debd ba06 85be
00000390: 53d2 6dbe 9380 67be 22a8 2dbe e58d 213e
000003a0: baa8 c93d 8cca d03a d9b2 713d 4e62 71bb
000003b0: 635b 0ebd 3927 e1ba cdac 893c 19bd 553b
000003c0: 6d80 843c 9e6f bf3d 46e8 1a3d 0103 b43e
000003d0: dc5c 1bbe 354d 023e d4cf 08bf 031c 02be
000003e0: d7e7 073e 0a43 82bd 8159 16bd 5974 0abe
000003f0: 40a1 e0bb 7083 4ebd ae77 88bc a49e 6cbd
-0.22490177 -0.18100429 -0.20349155 0.31655738 -0.1498066 0.07545043 -0.297664 0.124528736
0.035008293 0.036156 0.07368579 0.03893 -0.012391252 -0.019545525 0.004592366 -0.038559884
-0.11723689 -0.10954712 0.22922319 1.1108925 0.8499393 0.044172924 -0.20344478 -0.62377155
-0.12378781 0.014965437 -0.11810883 -0.15946488 -0.05013238 -0.0902228 0.0208837 -0.029803842
-0.08512146 0.40608048 -0.03956241 0.18026604 0.0006811551 -0.17821375 0.1031818 0.0077524153
0.0053204345 0.030098196 0.12033175 0.031420123 -0.025964407 -0.0295962 0.0237074 -0.017920947
-0.7380061 -0.5033924 0.25916368 -1.1886401 -1.1787422 0.06915973 0.35165292 0.031625587
-0.009563728 -0.08993396 -0.086319625 -0.022252811 0.04844774 0.045168616 -0.12688711 0.0064019626
-0.0078002745 0.13947669 -0.062388 -0.062222335 0.16901872 -0.049342062 -0.13009053 -0.00295052
0.06592821 -0.07886548 -0.059219312 -0.08327603 -0.03216294 0.0715116 0.011298926 0.028541747
0.15843001 -0.057455223 -0.6415046 -0.4161678 0.36814767 0.054759584 0.002209269 -0.2209853
-0.08784669 0.08170861 0.075194806 -0.0043014297 0.07508023 -0.10755605 0.042689145 -0.0026397447
-0.1717058 0.03500763 -0.17852278 -0.41248497 -0.008867047 0.18463096 0.036531616 0.25765398
0.101020485 -0.15466243 -0.038267046 -0.13788295 -0.13057615 0.0028180385 -0.010834313 -0.07670732
-0.30053753 -0.0783397 -0.3419982 -0.12854269 -0.1552701 -0.12390943 -1.0918007 0.16738501
0.16137718 -0.008955806 0.032724235 -0.04317127 -0.13128543 -0.05550977 0.09374326 0.047658317
-0.30095544 -0.03647661 -0.20508009 0.2299468 0.3828226 0.10318241 0.24073595 0.06839448
-0.00027194398 -0.03487255 -0.0031740272 -0.013631588 -0.025085527 0.014995177 -0.011981525 -0.02998551
-0.15021586 -0.19260201 0.40878808 -0.06479175 -0.19532788 0.040044606 -0.6348781 0.3260122
-0.1418923 -0.009890141 0.06917525 -0.08792272 -0.0020831793 -0.02225933 -0.028103095 0.06355396
-0.07168866 -0.09230373 -0.19607815 -0.09949648 0.063085124 0.16837135 -0.046710912 -0.049966197
0.12273865 0.07728149 0.19855821 0.10627895 -0.16630964 -0.010653434 0.022578122 -0.037977125
-0.012634518 -0.26392937 -0.464119 -0.5746652 -0.44935197 -0.15119016 0.5819111 0.4916721
0.07113773 0.020414874 0.048451144 0.064682685 0.020957008 0.016848376 0.042123824 -0.088647656
0.1930974 0.3376597 0.11061091 -0.091865346 -0.033846445 0.046827275 -0.104743786 -0.14335291
0.043310173 0.051444925 0.024614247 0.04214582 -0.040267546 -0.005005731 0.0059664194 -0.017401839
0.057608493 -0.18795906 0.26365 -3.0333233 -0.14982906 0.14160918 -0.8267971 0.21634956
-0.038715944 -0.05490467 0.05131968 0.05524407 -0.0005840847 -0.00301603 0.03978301 0.0039459295
0.057092167 0.07587189 -0.10851924 -0.25981694 -0.23224764 -0.22607641 -0.16958669 0.15776785
0.09846635 0.0015929504 0.059008453 -0.0036832276 -0.034755122 -0.0017177827 0.01680603 0.0032613932
0.01617452 0.09347461 0.03781917 0.35158542 -0.15172142 0.12724765 -0.5344212 -0.12705998
0.13272034 -0.06360443 -0.03670645 -0.13520946 -0.00685516 -0.050418317 -0.01665863 -0.05776848

critic.0.bias f4 [64]
00000000: 47c0 013e 1ccf 88be 5a57 073e cf2b 1cbe
00000010: f5f8 aebb 8e6f 05be ed4e 31bc ce41 873d
00000020: c14c 653d 141d b63e 633b d83e ca43 25be
00000030: ad42 30be 2a6e 1abe 7446 a73e f20d 323e
00000040: f5ad e7bc 7cae c5bd 3aa9 cb3d a345 073f
00000050: 7830 1d3f e6ce 16be f59b df3d 7374 1f3d
00000060: 53f8 393e fd0b 96bd 027f 1c3d 975f 913e
00000070: cbb4 2c3e 9827 c1bd a4c4 c8bd 6985 c13e
00000080: 03bf c6bd 4d15 2dbe e7fe 94bd 7fca d2bd
00000090: 28ea 3d3e f512 eb3e a292 cdbd a6f2 2d3e
000000a0: 05d8 5a3c 3dd5 6c3d d8ab a53e db7b 8abe
000000b0: 67af 9ebe 1bc0 9a3e cbc2 8bbe dad0 62be
000000c0: a7a6 833e 3406 65bd fa46 a2be 4bf9 8bbe
000000d0: e020 803e 381c c5bd 44e5 cbbd c5a7 adbe
000000e0: d242 6c3e 9945 17be 6901 83be f6a4 453e
000000f0: b8d6 a03d a31f 9a3d b9dc cb3d fd02 68bc
0.12671004 -0.26720512 0.13216916 -0.15251087 -0.0053397366 -0.13030836 -0.01082204 0.06604348
0.0559814 0.3556906 0.42232808 -0.1613914 -0.17212935 -0.15081087 0.3267094 0.17388132
-0.028281191 -0.09652421 0.09944387 0.5284063 0.6140208 -0.14727363 0.10918418 0.038929414
0.18161134 -0.07326505 0.03820706 0.28393242 0.16865842 -0.0943138 -0.09803131 0.37797096
-0.09704401 -0.16902657 -0.07275181 -0.10292529 0.18546355 0.459129 -0.100377336 0.16987094
0.013357167 0.057820547 0.3235767 -0.2704762 -0.30993196 0.3022469 -0.27297053 -0.22149983
0.25713083 -0.05591412 -0.31694776 -0.27338633 0.25025082 -0.09624523 -0.09955838 -0.3391706
0.23072365 -0.14772643 -0.25587013 0.19301209 0.07853454 0.075255655 0.09954209 -0.014160869

critic.2.weight f4 [64, 64]
00000000: c7e1 82bd a25f 17bd cf7b 183d d1ce 2cbd
00000010: b445 c3bc 069c ce3d f697 0c3e 665d adbd
00000020: 59c3 2abe a998 01bf b96f d4be b01b d63e
00000030: 3fec ce3d 15d2 c13e 0f8f 9bbe 2248 b43d
00000040: 4f9a fcbd b43b 273f 67f0 2abf 0da4 15bf
00000050: 9deb 86bf 4436 243f 24d0 8bbd 775e 84be
00000060: 08b4 b8bd 1891 973e 2776 2f3e 2f64 8abe
00000070: 790a dbbd ca91 713e 3586 693e 5573 98be
00000080: dc50 29b9 25c8 833d c1fb f23d 1836 b0bc
00000090: ce8c 97be c062 24bf 3ab9 cfbb e1df 80be
000000a0: 95dd 3d3d 4994 713e 8569 edbd 5dad 413e
000000b0: 1a75 253e 33f1 a4be 6b60 8b3e 84e4 153f
000000c0: 6b70 12bf 0371 10bc ac55 e5bc 138c 233f
000000d0: 6e29 5ebe 6788 82bd db35 a2bd 209a 2f3e
000000e0: 6848 a9be bd37 d63c ff78 bb3d d628 89bc
000000f0: dc9f 46be 2fad 2dbe 94ee c2bd a213 06be
00000100: 848c 82bd eb57 2dbd e269 323d b112 483d
00000110: b224 2ebc a3de 923d d19d 943b a1a3 6ebd
00000120: 18fb 3cbe 7263 5fbc 4069 dc3d 830f f93d
00000130: 603d 043e b48c 37bd 2567 bc3d 8e05 ee3b
00000140: b387 e03d 9454 3bbd 05f5 133d 6100 87bd
00000150: 351a b43c 14ce 8b3d 877c 32bd 331d c13c
00000160: c8d6 c23d 56d0 013e d6d1 703d b979 1c3d
00000170: 1df9 013e 924c 00be 9da7 4f3d 00c8 033e
00000180: 8a90 813d fbf7 17be 78f3 723d abc6 0abe
00000190: c409 ecbd 33fe 25bd 5bc4 b63d 2e58 043e
000001a0: aec3 323c 222f d93c b88e 18bc 5de8 053e
000001b0: 170e 9f3c 6a41 b7bd 48b4 0bbd 2f9c bb3c
000001c0: fe39 b23c a172 933c 6144 993d 2df4 843c
000001d0: e0c6 adbd 45c1 13be a88a 853b c2ad 6dbd
000001e0: 688f 843d cdfc 083c 3700 5b3d 259f 863d
000001f0: 3792 173d 9516 773d a351 d03d 6968 bd3d
00000200: fcf2 8e3d 8f9a 043d 1d59 d43c add4 c9bd
00000210: b4e0 813d 035a 1bbb ee7e 9fbd 9034 dc3d
00000220: 9289 0fba d3ba aa3c 5464 96bd f47d 75bc
00000230: 5cb8 1dbe 07af 2b3b 3be5 94bc 23b3 b13d
00000240: cded 7e3d 7ec9 383e e7d5 323d b0bc 1dbd
00000250: 1b5a 9dba 3ecc cabd 230d 0dbc d78d b1bd
00000260: bdc2 c5bc c854 0a3e 1107 b9ba 7817 a3bd
00000270: 5f10 01bd 3609 003e b701 953d 3922 87bd
00000280: a739 30bc 5892 b4bd e959 c23d 709d 07bd
00000290: aa50 803d 87ec 933d 6534 203d 6078 723b
000002a0: 9e38 34bd 0317 55bd 6cf0 243c c870 0fbd
000002b0: 6f94 bbbd 67d6 f5bc 97af 08be 1039 80bd
000002c0: fcac 68bd bbf7 e53d 814d ec3d bbf2 b5bd
000002d0: 947b 9e3d ce55 a83d d5ca 0c3e 593b b33d
000002e0: 5135 6c3d 5f1d ee3c d77a f53c 237c 3c3c
000002f0: bb6d 013e 79a2 983d 5fde 6c3d 3ce9 2dbb
00000300: b070 3a3b d52c 333d b56e 4cbd 5deb 76bc
00000310: fe25 95bc 326f e2bd 9cd4 6e3d 2351 ab3d
00000320: a80a 12bd 7282 e33d 8562 1ebd 1a61 8d3d
00000330: 7bc7 42bd a760 a2bd 481b a33d 0ae3 833d
00000340: 8c7d 34bc d709 3d3b ac57 4dbc 698c 433e
00000350: 4618 d4bc f96c 303e 919f 7e3d 4e9a 923d
00000360: 5111 a6bc a673 3cbe 232a a43b 6447 acbd
00000370: 08d1 a1bd 86f7 9abb 0fa6 96bd 2087 073e
00000380: 1086 76bc 6fba 22bd 0fe2 debb 51fb cf3c
00000390: 0c4d 303d 41b7 a0bd 727d e1bb 553b b4bc
000003a0: 92a7 3b3e 653b debc 8528 803c e93d 3a3d
000003b0: 60e6 4d3c 1cf5 08bd 8d11 24bd bab8 7c3d
000003c0: c300 c0bd 3069 173e 4850 9d3d 0b95 a8bb
000003d0: 7524 f7bd 748b a1bc 87e3 a2bc 47f9 64bd
000003e0: d803 cb3d 6f37 6f3b 07a0 74bc bd17 e63d
000003f0: 9203 d63b c221 29bd c0ad e4bc ca0c a3bd
-0.0639072 -0.036956437 0.037227448 -0.042189423 -0.023836948 0.10088353 0.13729843 -0.0846508
-0.16676082 -0.50623566 -0.41491488 0.41818 0.10103654 0.37855592 -0.30382583 0.08802821
-0.123341195 0.65325475 -0.66773075 -0.58453447 -1.0540653 0.641453 -0.06826809 -0.2585332
-0.09018713 0.29602885 0.17134915 -0.2702956 -0.10695357 0.2359077 0.22805102 -0.2977549
-0.00016147218 0.06434659 0.118644245 -0.021510169 -0.29599613 -0.6421318 -0.0063392194 -0.25170806
0.046353895 0.23591723 -0.11592392 0.18913789 0.16157952 -0.3221527 0.27222 0.5855181
-0.57202786 -0.008816007 -0.027994953 0.6388561 -0.21695492 -0.06373673 -0.07920428 0.17148638
-0.33063054 0.026149625 0.091539375 -0.016743105 -0.19396919 -0.16960596 -0.095181614 -0.13093427
-0.063744575 -0.042320173 0.04355801 0.04884595 -0.010628866 0.07171371 0.0045354147 -0.058261517
-0.1845516 -0.013634549 0.10762262 0.12161162 0.12914038 -0.04481192 0.09199361 0.0072638458
0.109633826 -0.045734957 0.03612234 -0.06591869 0.021985153 0.06826416 -0.04357579 0.023573494
0.095136225 0.1267713 0.058793865 0.03820202 0.12692685 -0.1252921 0.050696958 0.12869263
0.06326397 -0.14840691 0.05931422 -0.13552348 -0.115253 -0.040525626 0.089241706 0.12924263
0.0109109115 0.026511732 -0.009311371 0.13076921 0.019415898 -0.089480236 -0.034107476 0.022901623
0.021756168 0.017998995 0.07483745 0.016229713 -0.08485198 -0.14429195 0.004075367 -0.058027036
0.06472665 0.008361054 0.053467 0.06573323 0.037004676 0.06032427 0.10171821 0.0924843
0.06979939 0.03237396 0.025921399 -0.09855018 0.06341687 -0.0023704774 -0.07787882 0.10752213
-0.00054755167 0.020841038 -0.07343355 -0.014983643 -0.15402359 0.0026196854 -0.018175712 0.08676746
0.062238503 0.18045613 0.043661024 -0.038510025 -0.0012005003 -0.09902237 -0.008609089 -0.08669632
-0.02414071 0.13508904 -0.0014116486 -0.07963461 -0.031509753 0.12503514 0.07275718 -0.06598324
-0.010755933 -0.08816975 0.09489805 -0.03310913 0.062653854 0.072228484 0.039112467 0.0036998019
-0.043999307 -0.0520239 0.010067087 -0.035019666 -0.09159171 -0.030009462 -0.13348232 -0.06260884
-0.056805596 0.112288915 0.1153822 -0.08884188 0.077384144 0.08219491 0.1374925 0.08751554
0.057668034 0.02906674 0.029965801 0.011504206 0.12639515 0.07452864 0.057829257 -0.0026536724
0.0028448515 0.043743927 -0.049910266 -0.015070763 -0.018206593 -0.11056365 0.05830823 0.08365085
-0.035654694 0.11108865 -0.038668174 0.06903286 -0.04755352 -0.07928591 0.07964188 0.06439789
-0.011016261 0.0028844976 -0.01253311 0.19096531 -0.02589048 0.1722907 0.062163893 0.071583375
-0.020271929 -0.18403491 0.005009906 -0.08412054 -0.07901198 -0.004729214 -0.07355892 0.1323514
-0.015046611 -0.03972858 -0.0068018506 0.025388392 0.043042228 -0.07847453 -0.0068814093 -0.022000948
0.18325642 -0.02712793 0.015644321 0.0454692 0.012567133 -0.03343688 -0.0400558 0.061699606
-0.09375145 0.1478622 0.07681328 -0.0051447204 -0.120675005 -0.019719817 -0.019883884 -0.055901792
0.099128425 0.0036501547 -0.014930732 0.112349965 0.0065311873 -0.04129196 -0.027914882 -0.07961424

critic.2.bias f4 [64]
00000000: ec09 0c3c 2081 afbd cedb ac3b b693 1bbe
00000010: 03c3 663d 4837 3bbc 17cd c5bc 2f06 ee3d
00000020: 2b40 f93d 6168 a63d 1c74 793d 364f 95be
00000030: a5fe adbd d223 083d d20b 9d3c db37 203e
00000040: 3a18 e03d 6570 1dbe e87d c1bd 1f54 453d
00000050: c45f a1bd 7308 babd b54a 8c3d 48ad 06bd
00000060: b948 b0bd 1833 ba3c cce5 55be cba1 30bd
00000070: eba5 9ebd d92c e4bb ea28 a13d f81c 273d
00000080: 68ff bbbc c81b 4f3e 9f2e eb3d dd72 d83d
00000090: e11a 98bc 2dab 18bc 04ca 30be 2b82 cebd
000000a0: 60fc 94be db82 a13b c82c 993d 6fee 863e
000000b0: 8564 b43c 7dd3 dabd 0fff 6d3d 31e9 abbc
000000c0: f621 173d a3fb 1ebd aa7b 2f3e f2bf 723c
000000d0: 2f0d d9bc 12af a3bd 23ea 843d 9886 9abc
000000e0: 9203 afbd ee8d b3bd 6e37 29bd fce8 173d
000000f0: 95a6 0cbe 36de d1bd f717 24bd fb1e 5f3c
0.008547287 -0.085695505 0.005275226 -0.15193066 0.05633832 -0.011426754 -0.024145646 0.11622273
0.12170442 0.081253774 0.060901746 -0.29161996 -0.08495835 0.033237286 0.019170675 0.15646307
0.10942121 -0.15374906 -0.09447843 0.048175927 -0.07879594 -0.09083643 0.06850187 -0.032880098
-0.08607621 0.022729442 -0.20888442 -0.043123048 -0.0774649 -0.006963354 0.07869132 0.04079911
-0.022948936 0.20225441 0.11483502 0.105687834 -0.018567504 -0.009318155 -0.17264563 -0.10083421
-0.29098797 0.0049289293 0.074792445 0.26353785 0.022020588 -0.106848694 0.05810457 -0.020985218
0.036897622 -0.0388142 0.17137018 0.014816271 -0.026495544 -0.079923764 0.064899705 -0.018863007
-0.08545603 -0.08767305 -0.041312627 0.037087426 -0.13735421 -0.102474615 -0.040061917 0.013618226

critic.4.weight f4 [1, 64]
00000000: 7b83 01be 1a0e 3d3b 5876 35bb ee4e 3dbb
00000010: 241d 09bb babd 813a 8b6e 533a 0f96 0bbe
00000020: dfb6 86ba 67fc ba3a 8d53 3b3b 9f3a f83d
00000030: 6869 44ba 32fe 8d3b dfe4 6bbb 8c67 9fbd
00000040: 8b98 a3b9 eb36 0f3e b9b5 953b 9fff 36bb
00000050: db1d 2438 8b86 103b 0aa6 973d 9255 a0b9
00000060: d61c be3b 470d 8dbb 1565 d43d b443 a6bc
00000070: a862 c8bb 775e 36bb c8fa 19bb eb6e 0fbb
00000080: 57e6 563b 7266 adbd e6a9 663b 37bb a737
00000090: a15a 813b 8ea7 893a 566a b8bd 4323 853a
000000a0: 7371 713d c37e 07be 6620 9ebb 2990 22be
000000b0: d58c 2c3a 7350 f03d ce26 dfba 6bfb 90bb
000000c0: c722 4fba dfd0 543b daf9 dbbd 6872 c3bb
000000d0: 4b2c b13b 53a6 a43b bd16 0e3b fac5 033a
000000e0: fc22 8a3b 15cb 1dba 348a 3e3b 09ee babb
000000f0: 1563 25bb 9491 7f3d cc21 d7bb 71d0 e1b9
-0.12647812 0.0028847517 -0.0027688947 -0.0028886157 -0.002092191 0.0009898462 0.00080654834 -0.13631462
-0.0010277889 0.0014265896 0.0028583736 0.12120556 -0.00074925134 0.004333281 -0.0035994572 -0.07783422
-0.00031203436 0.13985793 0.004568782 -0.0027923358 3.9128452e-05 0.002205285 0.07404716 -0.00030581333
0.0058017774 -0.0043045613 0.10370842 -0.020295955 -0.0061152764 -0.0027827302 -0.0023495425 -0.002188618
0.0032791102 -0.084668055 0.0035196482 1.999513e-05 0.0039475714 0.0010502206 -0.09004657 0.0010157604
0.058946084 -0.1323195 -0.0048256395 -0.15875305 0.0006582265 0.117340945 -0.0017025115 -0.0044245026
-0.00079016056 0.003247313 -0.10741015 -0.005964566 0.0054068915 0.00502471 0.0021681034 0.0005026754
0.0042155962 -0.0006019336 0.0029074075 -0.0057046455 -0.002523606 0.062394693 -0.006565308 -0.00043070645

exp_avg f4 [7]
00000000: be03 03ba cba0 bc3b e985 573b 4a90 21bb
00000010: 8052 02bc 710c 77bb b090 88bb
-0.0004997811 0.0057564727 0.0032886213 -0.0024652653 -0.00795424 -0.0037696625 -0.0041676387

exp_avg_sq f4 [7]
00000000: 6b02 de3a 017a ee3a 6f82 033b 8623 ca3a
00000010: 60f0 013b 5a29 c63a 257f 973a
0.0016937976 0.0018194319 0.0020066758 0.0015421964 0.0019827113 0.0015118525 0.0011558278

exp_avg f4 [64, 32]
00000000: 57cf 3db9 dfbf e939 3437 2539 9992 0639
00000010: 63ce 21b9 6398 23b9 8c5d 9f37 bddb a1b7
00000020: f1f2 a8b7 07e7 6eb8 3039 8839 312f a336
00000030: d8bf 6939 5304 07b8 751a a4b9 a0c9 ab39
00000040: 8c5b c736 e6a5 d436 4b43 ae39 448e d938
00000050: eeee 57b7 2309 70ad 1391 19b9 5ad8 a339
00000060: d54f e1ac 0d46 5bba b54a 083a 561c fdb8
00000070: d1a4 693a 478c 3d39 fc1d 48ba ff0d 0d3a
00000080: 4503 e237 c91c f839 0542 0d3a 5381 6c39
00000090: d37e 1eb8 5f3a 55b9 018f d637 0990 06b8
000000a0: 4789 a6b6 9804 3e3a 0d3a 4e39 2680 b0b9
000000b0: b3ac 9538 f2f2 4fb9 3a65 61b9 aef5 f4b9
000000c0: fd58 48b7 c339 bcb7 0d30 033a 2568 e338
000000d0: e444 a039 fb26 b0ad 1821 13ba 3185 f039
000000e0: 0be1 d7ad 6239 0a3a 1eb5 4e3a e0fb b33a
000000f0: d496 8d3a ac41 13b9 1d12 beb9 d740 d5b8
00000100: 0d84 e3b8 10cf 81b9 7854 5b38 588f 9439
00000110: 1055 99b8 88d0 14b9 abe7 8eb8 47b0 3a38
00000120: 236c 4a38 24f7 f9b9 6e4d 46b9 0469 f539
00000130: 394a bb39 ed76 71b8 a345 35ba 25a6 e438
00000140: 69f4 23b6 d33a 3038 1d1a 0dba c4ba 0b39
00000150: bae3 f3b9 c1ad 1e2e f655 e3b9 6d62 58ba
00000160: 4d75 a6ad f5df 02ba 09a1 25b9 8672 74b9
00000170: e55d fa39 f66a 28ba eb36 ebb7 0d97 aa39
00000180: ba1b b1b9 6524 7138 d822 cdb9 fddf 83b9
00000190: 48ca 063a a2e5 25b9 98cd de39 a928 03b8
000001a0: 7c2b 05b8 992b 54b9 fbeb 37b9 3873 0f39
000001b0: 96eb 8439 676c 9139 81fd 5f39 1acb 4338
000001c0: 83c9 a7b7 867f 98b7 9e94 2b3a 018f a5b8
000001d0: 6595 d839 d2f3 4eae be2e 87b9 011b 8d3a
000001e0: 7b40 46ad a860 abba f284 5137 af7d d0ba
000001f0: 682c 84b8 f369 183b 91ed 39ba e1be e33a
00000200: 0545 da39 8c08 0e39 ee3d 57b8 2d84 31b6
00000210: 78c2 49ba d95c 6cb9 8cb0 2eba acfc 30b8
00000220: 2a08 20b8 0595 3fba 165a a1b9 533a 263a
00000230: e320 30b9 9b28 073a deaf 75b9 a541 27b9
00000240: 3c8a 0c38 d855 1038 49dd 9339 6a68 a038
00000250: 4587 d739 5e55 b9ad 6832 533a cc72 fc39
00000260: b6da 1a2e 042e 633a 74b3 8fb8 a8bd 2cba
00000270: bec0 1fb9 3d56 a1ba 173b e2b9 02d8 27bb
00000280: becc 37b9 0488 48ba c837 81ba 0ef8 82b9
00000290: eaec 9939 b6f3 153a 0a1f 9239 ccee 8a38
000002a0: d125 ac38 ff32 1bb9 c789 56b8 f971 cc38
000002b0: 4af8 0cba 8a28 9f37 31bf 033b 62dc fb39
000002c0: 2e9c 5ab7 58a2 19b6 528b 5cba aa2d 06b9
000002d0: 309c 34ba 388e 5d2e 7ea8 1ab9 c61b 97ba
000002e0: 787d e2ac 7ff4 74ba a940 38ba 9b78 34bb
000002f0: ceac cfba 3dc8 4039 d07d e13a 2f50 8d3a
00000300: 6a40 40b9 4dc4 76b9 c5f7 adb9 d2a9 8338
00000310: fb6b ee38 4adf f037 81c8 5139 58b6 9637
00000320: c779 2438 3ada 1dba e407 9e38 ab1a a239
00000330: cc5c a139 01cd 71b9 e85c 8ab9 885a 2ab9
00000340: e54a 46b6 d1a2 13b6 f16a 34b9 5aa5 5a38
00000350: e4e7 57b9 0b6a aa2d 0a9a bab8 037e e8b9
00000360: cbd5 88ac 42d7 8fba b8fd 85b9 1236 daba
00000370: e682 d438 7ec7 063a aa38 d539 ad76 033a
00000380: 9a4d 00b7 fded 0f3a ba78 623a 9179 193a
00000390: c2e6 c8b9 1c77 3bba c263 eab9 d7c3 3cb8
000003a0: aaf1 9fb7 25a6 343a 1d0c e937 8e33 1a37
000003b0: c1d2 323a 7706 4dba 0816 443a dc8d a7b9
000003c0: d2bf d7b7 85e6 96b7 6d44 453a 1716 5538
000003d0: 0c0a 063a 2c09 16ae 7976 f938 9ea4 4c3a
000003e0: b9a6 b62c b2fd f039 a604 423a fa7d 4f3b
000003f0: 6e40 6f3b 2f31 c5ba 5a39 3fbb 3c52 95ba
-0.00018101685 0.00044584178 0.00015756191 0.00012833848 -0.00015431042 -0.0001560166 1.8997838e-05 -1.929502e-05
-2.0140289e-05 -5.6958783e-05 0.0002598255 4.8632724e-06 0.00022292079 -3.2190535e-05 -0.0003130023 0.00032765884
5.9413196e-06 6.3374055e-06 0.00033238003 0.000103738654 -1.2870629e-05 -1.3644449e-11 -0.00014645261 0.00031250977
-6.4037478e-12 -0.00083646254 0.00051991205 -0.00012069258 0.0008912804 0.00018076702 -0.00076338626 0.0005380809
2.6942822e-05 0.00047323693 0.0005388561 0.00022554891 -3.778825e-05 -0.00020335008 2.557738e-05 -3.2082233e-05
-4.9631667e-06 0.00072486093 0.00019667317 -0.00033664814 7.1370414e-05 -0.00019831563 -0.00021495382 -0.00046722352
-1.1941648e-05 -2.2438244e-05 0.00050044135 0.00010843602 0.00030568906 -2.0026194e-11 -0.00056125363 0.00045875603
-2.454261e-11 0.0005272833 0.0007885265 0.0013731681 0.0010802397 -0.00014043477 -0.0003625312 -0.00010168709
-0.000108488 -0.0002475907 5.2292336e-05 0.0002833556 -7.311453e-05 -0.00014192064 -6.814239e-05 4.4510027e-05
4.8261263e-05 -0.00047677115 -0.00018911596 0.00046808284 0.0003572272 -5.7569636e-05 -0.0006914979 0.00010902834
-2.4431158e-06 4.2016454e-05 -0.00053826143 0.00013325649 -0.0004651824 3.6079365e-11 -0.0004336086 -0.00082544127
-1.8924107e-11 -0.00049924786 -0.00015795616 -0.00023312317 0.00047753673 -0.000642463 -2.8039756e-05 0.00032537468
-0.0003378073 5.7492773e-05 -0.00039126608 -0.0002515315 0.00051418366 -0.00015821171 0.0004249632 -3.12707e-05
-3.175017e-05 -0.00020234137 -0.0001754015 0.00013680465 0.00025352527 0.0002773732 0.00021361375 4.6680776e-05
-2.0001788e-05 -1.8179195e-05 0.0006545278 -7.89445e-05 0.00041310038 -4.7055533e-11 -0.00025784032 0.0010765494
-1.12693145e-11 -0.001307507 1.24883245e-05 -0.0015906597 -6.302522e-05 0.002325651 -0.000709259 0.0017375612
0.00041631624 0.00013545359 -5.131767e-05 -2.6451992e-06 -0.00076965196 -0.00022541302 -0.0006663881 -4.219699e-05
-3.8154576e-05 -0.00073082774 -0.00030775432 0.00063410884 -0.00016796919 0.0005155892 -0.00023430536 -0.00015950816
3.3507342e-05 3.4412224e-05 0.00028202895 7.648843e-05 0.0004110878 -2.1069976e-11 0.00080565223 0.00048150716
3.52098e-11 0.00086662197 -6.852197e-05 -0.000658954 -0.00015235224 -0.0012309026 -0.00043150104 -0.0025610928
-0.00017528512 -0.00076496624 -0.0009858543 -0.00024980347 0.0002935895 0.00057202147 0.00027870416 6.624832e-05
8.208643e-05 -0.0001480095 -5.114989e-05 9.748707e-05 -0.0005377574 1.8973155e-05 0.0020102973 0.0004803865
-1.3030176e-05 -2.2893273e-06 -0.00084130943 -0.00012796247 -0.0006889729 5.0375898e-11 -0.00014749353 -0.0011528663
-6.437236e-12 -0.0009344294 -0.0007028678 -0.0027537707 -0.0015844346 0.00018385141 0.0017203633 0.0010781343
-0.00018334543 -0.00023533516 -0.00033181734 6.278198e-05 0.00011368837 2.8714207e-05 0.00020006487 1.7966304e-05
3.921406e-05 -0.0006021593 7.535497e-05 0.00030918917 0.00030777452 -0.00023059921 -0.00026390632 -0.00016246189
-2.9547894e-06 -2.1999479e-06 -0.00017205976 5.2129246e-05 -0.00020590384 1.9373855e-11 -8.897863e-05 -0.00044344374
-3.8890883e-12 -0.0010974186 -0.00025556772 -0.0016648194 0.000101333295 0.0005141421 0.00040668744 0.00050149375
-7.647463e-06 0.000549048 0.00086392055 0.00058546016 -0.000383189 -0.00071512326 -0.00044706283 -4.5005083e-05
-1.906681e-05 0.00068912125 2.7781405e-05 9.191119e-06 0.0006821566 -0.0007821093 0.00074800896 -0.00031958416
-2.571932e-05 -1.7988737e-05 0.000752515 5.080373e-05 0.00051131914 -3.4114198e-11 0.000118953125 0.00078065123
5.191261e-12 0.00045965385 0.00074012054 0.0031660781 0.003650691 -0.0015044565 -0.0029178471 -0.0011392306
