logs/rsl_rl/franka_reach/2025-06-16_20-11-58/model_950.pt (torch, 172795 bytes, 36 tensors)

std f4 [7]
000000 bc e4 b2 3d f9 14 96 3d 6b fe bc 3d 57 de ea 3d
       0.08735034 0.07328219 0.09228214 0.11468189
000010 fa 40 bf 3d 96 96 c8 3d e8 b1 ea 3d
       0.09338565 0.09794347 0.11459714

actor.0.weight f4 [64, 32]
000000 03 b5 c2 be 23 10 6f 3e df 46 e0 be 3c 18 cb 3e
       -0.38028726 0.23346 -0.4380407 0.39666927
000010 61 0f b8 3d 12 73 5c 3e 81 77 24 3e d6 43 db 3e
       0.08987308 0.21528271 0.16061212 0.42825192
000020 80 4a 18 3f fe 16 b3 3a 10 6b b0 3e 01 4a 85 3e
       0.5948868 0.0013663468 0.34456682 0.26033023
000030 8d 06 a0 3e dc 26 0c 3d ad 08 bf 3b 98 c7 07 be
       0.31254998 0.034216747 0.0058298917 -0.13259733
000040 53 d6 1e bf 14 ba b2 3d ed f6 40 bf cc a4 8c bd
       -0.6204578 0.08726898 -0.7537678 -0.0686737
000050 8b 9f 46 3f 8f b4 b0 bc 54 80 33 bf 10 df cc 3d
       0.77587193 -0.021570472 -0.7011769 0.10003483
000060 8a 4e 11 be fd d8 f6 bd 7d b9 7d be 30 bb 82 be
       -0.14190117 -0.12053106 -0.2477779 -0.25533438
000070 c6 01 e1 3d 3d 94 ac be 06 3d fa bb 22 a5 77 be
       0.109866664 -0.33706847 -0.007636669 -0.24184087
000080 99 fe b2 3c 76 c5 09 3e 10 c5 86 be 30 a6 5c 3f
       0.021849917 0.13454232 -0.26322222 0.8619108
000090 de c7 5e 3f 7e b1 7d 3e 1b d5 dd 3d b2 3a 38 be
       0.87023723 0.24774739 0.10831662 -0.1799114
0000a0 5c 3d 4e 3e 4d f3 bd 3d 7d 6e 50 be 3e a4 16 3f
       0.20140594 0.092749216 -0.20354648 0.58844364
0000b0 91 23 22 be 7b 31 81 3d df ce 09 3e 4d 80 28 3e
       -0.1583388 0.06308266 0.13457821 0.16455193
0000c0 88 bc b5 3e f2 de 9d bf 05 db 7f bf e1 30 01 c0
       0.354954 -1.2333663 -0.9994357 -2.0186083
0000d0 7b 17 04 bf be 3f 10 3e f0 90 90 3e 90 53 b3 3e
       -0.5159833 0.14086816 0.2823558 0.3502469
0000e0 ed 74 66 3d 97 e3 ac 3d 6e ce ed 3d cf d1 eb bd
       0.056263853 0.08441847 0.11611639 -0.11514627
0000f0 ef a9 d1 3d c4 10 c8 bd 1e a4 bd bb 78 aa 1d 3c
       0.102374904 -0.09768823 -0.0057873866 0.009623162
000100 69 02 2e 3f da 70 33 be 6d 83 48 3f ee 3f 7d be
       0.6797243 -0.17523518 0.7832554 -0.24731418
000110 7e b3 6a 3e a9 b3 a0 3c 7f cd 70 3e e0 08 1f 3f
       0.22920033 0.019616919 0.2351589 0.6212292
000120 05 8c 55 3f 43 3c 10 be 41 10 8b 3c e4 f0 05 be
       0.8341678 -0.14085488 0.016975524 -0.13080174
000130 02 e7 bd 3d 89 1c e0 3d 80 79 8a 3e 43 2e 13 3e
       0.09272577 0.10942943 0.27045822 0.14373116
000140 0e 02 5c bf 1b 58 2b 3f 05 38 e5 3c 36 1b de bf
       -0.85940635 0.66931313 0.027980814 -1.7352054
000150 ed cc ba 3e 4e a5 1e bd 48 a8 61 be d5 6b c4 3c
       0.3648447 -0.038731866 -0.2203685 0.0239772
000160 1f d9 b9 bd 77 a4 08 bd 66 6e 0a 3e d5 4b 2d bd
       -0.09074616 -0.03335997 0.13518676 -0.042308647
000170 4c 03 60 3d af 16 97 3e 73 23 00 bf 61 4c 04 bf
       0.054690644 0.29509494 -0.5005409 -0.51679045
000180 41 48 8a bf 87 26 c3 bb 2a 74 ae bb 8b 24 41 bf
       -1.08033 -0.0059555206 -0.0053239064 -0.75446385
000190 66 ab c7 bd 6a 09 ed be 74 19 82 3e 91 08 50 bd
       -0.097494885 -0.46296245 0.25410044 -0.05078942
0001a0 93 6e 15 3e 44 1f 2a be bd 2e a9 be de 9c e2 3d
       0.14592962 -0.1661349 -0.3304347 0.11065076
0001b0 f8 bd 55 3e 0f e7 8c be fe 2b 0f be 16 8c 85 3d
       0.20873249 -0.27520034 -0.13981625 0.0652086
0001c0 da 4a 0d 3f 4d 66 72 3e 4f 41 d8 bd 59 63 9a 3e
       0.5519234 0.23671837 -0.105593316 0.3015392
0001d0 58 e1 05 3f 3c f0 1e be 5e 43 10 bf 85 39 2d be
       0.5229697 -0.1552133 -0.56352794 -0.16916473
0001e0 64 fc 04 bb 4e 79 f6 be 8c 45 77 be 33 49 a2 bd
       -0.0020292038 -0.48139423 -0.24147624 -0.07924118
0001f0 1f 0e a8 be f4 9b dd be 82 f4 03 3e d9 3b b3 be
       -0.32823274 -0.43283045 0.12886241 -0.35006598
000200 6a 47 32 bd 7b 8f 01 be 52 dc aa 3d 78 cb 8b 3e
       -0.043525137 -0.1265239 0.08342804 0.27303672
000210 90 25 0d bf 98 ca 76 3f 0d 26 a2 3d b8 63 5f be
       -0.5513544 0.96402884 0.07917414 -0.21815383
000220 58 82 60 be 6f f3 11 3d 7e 2b 2a be e5 a6 23 be
       -0.21924722 0.035632547 -0.16618153 -0.15981634
000230 e8 e3 b4 3c bf 9e e7 bd 16 04 d0 bd 8c 4c d4 bd
       0.02208133 -0.11309575 -0.10157029 -0.10366163
000240 b8 ae 92 be 59 c5 cb be e4 42 d8 be 8c 34 fd 3f
       -0.28648925 -0.39799002 -0.42238533 1.9781661
000250 7a 01 6d 3f 59 8c 0e be 1a 9f 92 be 8d 84 3e bf
       0.9258038 -0.13920726 -0.2863701 -0.74421006
000260 99 fa 92 bc e4 5f 1a bf 1a 22 fa 3c df 3e e0 3d
       -0.01794176 -0.6030257 0.030533839 0.10949492
000270 99 89 1c be da 25 31 3d 5c db ab be af 21 10 bd
       -0.15286864 0.04324899 -0.33565795 -0.035188373
000280 2a 37 e7 3e 45 97 1d bf e1 dd d1 3e 89 0c 42 be
       0.45159274 -0.61558944 0.40989593 -0.18950094
000290 45 89 b2 3e ef a5 95 3f 26 85 44 3d 13 8f c0 3e
       0.34870353 1.1691264 0.047978543 0.37609157
0002a0 1e 62 09 3e 81 1e 8f bd cf 74 11 3c 60 6f a5 bd
       0.13416335 -0.0698824 0.008877947 -0.08077884
0002b0 9d 24 a9 bd 8d f6 12 3b 96 5c 80 ba b0 d1 46 bd
       -0.082589366 0.0022424788 -0.0009793218 -0.048539817
0002c0 56 8f 7c 3d 58 1f 2e bf 3e af b5 3d ab e5 aa bf
       0.061660133 -0.68016577 0.088713154 -1.3351339
0002d0 62 0e 48 bf bf 3c a9 3d e7 4e bb 3d 8e 95 6f 3f
       -0.78146946 0.082635395 0.09145909 0.9358758
0002e0 76 09 b7 3d 1f a8 6b 3e f2 87 51 3e 0a 82 a3 3d
       0.089373514 0.23013352 0.20462015 0.07983787
0002f0 24 c9 4b 3d d4 fe 9e 3d ca 5f 90 3d 30 2c 25 bd
       0.04975237 0.07763448 0.0704952 -0.040325344
000300 c9 73 d8 3d 92 ee 6e 3d e4 81 a0 bb 63 d0 10 bf
       0.10568959 0.058332987 -0.0048982967 -0.5656797
000310 3f 69 ba bd 1f fb fd be 27 8b b6 3d 62 41 84 3e
       -0.09102105 -0.49605653 0.0891326 0.25831133
000320 0a a8 b7 3d 11 ce 15 3e 99 91 a7 3e 3c 7f 14 3d
       0.08967598 0.1462939 0.3272827 0.036254153
000330 90 f8 9e be 1e a6 74 3b d0 00 a1 3d 5f 2f 5a be
       -0.31049013 0.003733046 0.07861483 -0.21307133
000340 17 11 97 3f d8 12 08 3f 7c 6b 40 be 97 b1 5c bd
       1.180209 0.53153753 -0.18791002 -0.0538803
000350 9c d8 61 bc d3 0e dc bd f1 a0 e4 be 9a 81 b5 3e
       -0.013784554 -0.10745015 -0.4465404 0.3545044
000360 95 e6 cc 3c 18 99 60 3e 63 63 eb 3e 05 2a ff bd
       0.025012294 0.219334 0.45974264 -0.124591865
000370 eb 55 60 bd 9b fd ef 3d fc 66 b0 bd e3 3d fd bd
       -0.054769438 0.11718293 -0.08613393 -0.123653196
000380 2c f3 79 3f e6 ed 60 3b 31 d3 94 3f 7f 36 95 be
       0.97636676 0.0034321486 1.162695 -0.2914314
000390 29 82 c9 be 46 93 d0 be 06 c0 3e bf d1 71 7c 3e
       -0.39357117 -0.4073736 -0.74511755 0.24652793
0003a0 96 0a ed 3d d1 51 9f 3d bb 97 a1 bb cc de 6b 3e
       0.11574285 0.07779277 -0.0049314178 0.23034209
0003b0 4a 03 d3 3e f4 cf 39 3e 6c d6 68 3c 98 46 8b be
       0.41213447 0.18145734 0.014211278 -0.27202296
0003c0 fb c1 69 3f ce 0e d3 bc de b2 20 3d 4f 20 fe bf
       0.91311616 -0.025763895 0.03923308 -1.985361
0003d0 20 f4 17 bf 40 04 fa bd 76 f5 12 bf 79 54 1d 3e
       -0.5935688 -0.12207842 -0.57405794 0.15364255
0003e0 31 78 68 bd a7 81 44 be b5 1a e3 bd c5 f7 08 bf
       -0.05675525 -0.19190083 -0.11089078 -0.53503066
0003f0 6e e3 d9 3c 32 c0 99 bd f1 25 8d 3c da 78 6d bc
       0.026597705 -0.075073615 0.017230006 -0.014494145

actor.0.bias f4 [64]
000000 b8 41 81 be f7 88 f8 bd 02 41 24 bf c0 85 51 3a
       -0.25245452 -0.12135499 -0.64161694 0.00079926476
000010 45 52 17 3e 49 e6 a5 be 10 6b c0 be 2f 8b 03 bd
       0.14777477 -0.32402256 -0.37581682 -0.032115158
000020 d6 09 c7 3e 99 1e 8b 3e d5 14 de bd 43 92 ac bc
       0.38874692 0.27171782 -0.10843817 -0.021065837
000030 27 ff fe bd 9b b4 7c be f0 d1 28 bf bd 01 90 be
       -0.1245101 -0.2467827 -0.6594534 -0.28126326
000040 86 5e 29 3f b7 df 54 3e 9d 90 8f 3e 81 1e 41 3e
       0.66159856 0.20788465 0.2804002 0.18859293
000050 21 96 13 3e b8 a5 71 3e 97 e2 b3 be 93 cc 25 3e
       0.14412738 0.23598373 -0.35133812 0.1619132
000060 14 0f 2d bf 9d cf 34 3f 8e 4c a0 bd 77 e7 e5 be
       -0.6760113 0.7062929 -0.07827102 -0.44903156
000070 ff b1 d4 bd fe 8d 3c 3e 1d 06 59 be 33 57 e6 3e
       -0.103855126 0.1841354 -0.21193738 0.44988403
000080 dc 4d 37 bf ad 7a 52 be 4c fb b2 3e ef b1 86 bd
       -0.7160318 -0.2055461 0.3495735 -0.06576907
000090 2d f9 6c 3d 37 d3 19 3d 35 d9 11 bf 2e ec a2 be
       0.05785482 0.037554946 -0.56972057 -0.31820816
0000a0 42 03 0e 3e 3f fc 88 bd 6a d4 0b 3f f8 f4 42 be
       0.1386843 -0.06688737 0.54620993 -0.1903876
0000b0 80 6c fb 3d 2f f2 ba 3d 9a 01 7d be 7e b8 0b bd
       0.12276554 0.09128224 -0.24707642 -0.034111492
0000c0 0c 44 00 3f 85 e8 05 bf 2c 0b a8 3d 41 f4 4e be
       0.5010383 -0.5230792 0.08205256 -0.20210363
0000d0 0c 54 c6 ba 5f 6b 79 be 38 a7 12 bf 1a 7a 97 be
       -0.0015131249 -0.24357365 -0.57286406 -0.29585344
0000e0 cc 58 d2 be 42 02 0b 3d 6a 38 0e 3e 0d 1a 99 3e
       -0.41083372 0.0339377 0.13888708 0.29902688
0000f0 c5 d5 65 bd 09 ea 93 3e 2f 8c 93 3e 0d 61 aa bd
       -0.05611207 0.28889492 0.2881789 -0.08319292

actor.2.weight f4 [64, 64]
000000 a0 16 08 be 63 60 1b 3e 3b 95 fb 3e d8 c9 64 3e
       -0.13289881 0.15173487 0.4913729 0.22342622
000010 67 d9 ee bd 96 cf 87 3e 97 a4 96 3e cb a6 ec bd
       -0.1166256 0.26525563 0.29422447 -0.11555251
000020 da 66 37 3e 3e d1 31 be 2e e8 fa 3d eb 67 35 bd
       0.17910329 -0.17364976 0.12251316 -0.044288557
000030 85 b3 c4 3c 9d 4f 3f 3e 26 c6 3a 3e 19 e3 5c bd
       0.024011383 0.18682714 0.1823965 -0.053927515
000040 8f 74 92 3c af 01 1d 3e 11 d9 0e 3d 51 ff 17 bd
       0.017877845 0.15332673 0.03487498 -0.037108723
000050 b5 58 17 be 30 3b 06 3e a4 ff ae bd 4c db df bc
       -0.14779933 0.13108516 -0.08544853 -0.027326249
000060 ac ac 81 3d 17 43 46 bf 6b 4e 95 3c cf 08 ad be
       0.06331763 -0.7744612 0.01822587 -0.33795783
000070 29 af 7c be 19 ad 74 bc 42 03 12 be 54 5a 9c be
       -0.24676193 -0.014933848 -0.14259055 -0.30537665
000080 14 38 93 be 54 c0 bd 3e fc 7e 19 3e 06 ec 02 bf
       -0.28753722 0.37060797 0.14989847 -0.51141393
000090 04 d6 9b 3d 7a 34 8a bd 0a 1e ba 3e 2b a9 8f 3c
       0.076091796 -0.0674829 0.36351043 0.01753672
0000a0 77 f7 de 3d 1d f9 1a 3e 42 c4 84 3e fc af 45 bc
       0.10887044 0.15134092 0.25930983 -0.012065884
0000b0 22 7f 91 bc 43 25 12 3c a9 6c 41 be dd f6 47 3e
       -0.017760817 0.008920017 -0.18889107 0.19527765
0000c0 96 cc 60 be 6f ab a4 bd ea 61 58 be ff 83 fd be
       -0.21953043 -0.08040511 -0.21131101 -0.49514768
0000d0 79 80 1b bb 80 1f 2f bb ab 71 cb be 42 04 4b 3e
       -0.0023727699 -0.0026721656 -0.3973516 0.19825843
0000e0 9f 23 bf 3c 86 ef 1c be 31 99 10 3e 6b b2 f0 be
       0.023332415 -0.15325746 0.14120938 -0.47011122
0000f0 e2 e8 88 ba 21 09 c4 3d 49 f3 08 3e 2d 37 43 be
       -0.0010445381 0.09572054 0.13374056 -0.19064017
000100 2d 4f 12 3e 83 26 b4 3e 42 1a 59 bd de 9c 14 3e
       0.14288016 0.35185632 -0.053003557 0.14512965
000110 7a 7f 6f be 77 73 99 bc 3c b2 84 3d 3a 86 d6 3d
       -0.23388472 -0.018731816 0.06479308 0.104748204
000120 52 44 a2 3c 31 32 1a 3e 80 2a 25 3d 40 a2 4e bd
       0.019807968 0.15058209 0.040323734 -0.050447702
000130 4c a9 c3 bd 39 4f 8e 3e a9 ba fb 3d c7 ad d5 bd
       -0.09553775 0.27794817 0.12291462 -0.10433536
000140 f9 91 c6 bd 49 04 cd bc 60 30 f1 3d eb 96 49 bd
       -0.09695811 -0.025026457 0.11776805 -0.049216192
000150 c5 c5 b8 3d 1f 00 d4 3d fd 12 8a bc 2c 6d 98 3d
       0.090220965 0.103515856 -0.016854757 0.07442698
000160 84 84 9a 3d 8c 66 0a bd 8b 16 80 bd 63 7e bf bc
       0.075448066 -0.033789203 -0.062543 -0.023375696
000170 ca 16 37 be 60 ff f9 bc b1 42 1a be 32 4f 2f 3e
       -0.17879787 -0.03051728 -0.15064503 0.17120054
000180 e5 25 60 3e 2a 5e 8b 3d dc d7 88 be 49 98 41 be
       0.21889456 0.0680507 -0.26727188 -0.18905748
000190 00 65 97 bc ad 59 ce bc 32 44 56 3d 9e d7 ea 3d
       -0.018480778 -0.025189245 0.05231113 0.11466907
0001a0 0c 0e 87 be 67 32 b9 be ef f8 fb bc a9 82 15 bd
       -0.26377904 -0.36171266 -0.03075835 -0.03650156
0001b0 31 2d c5 3d ad 73 18 3d 7f 07 cb 3d 88 56 20 be
       0.0962776 0.037219692 0.09913539 -0.15658009
0001c0 42 bb b1 be c3 bd 8c 3d 65 26 0d be fe dc af 3e
       -0.3471318 0.06872132 -0.13784178 0.3434829
0001d0 e2 a2 ae bc 90 36 2a 3c 14 ba 03 3d f4 45 1d 3e
       -0.021317903 0.010388985 0.03215988 0.15358716
0001e0 ae e6 13 3e a4 fb a3 be d6 7d 0a bd 3b a6 7c 3e
       0.14443466 -0.32027924 -0.033811413 0.24672787
0001f0 96 04 41 3e e7 90 34 bc 4e 18 e1 3d 67 2a a5 be
       0.18849406 -0.011020876 0.10990964 -0.32258913
000200 af cc 88 3e 56 33 ce bd 01 76 d6 be 03 5a b1 be
       0.2671866 -0.10068385 -0.41886905 -0.34638986
000210 55 9a 89 3e 4b a7 b0 be 7c 96 7c bd ef ac 86 bd
       0.26875558 -0.34502634 -0.06166695 -0.06575953
000220 53 22 3b 3c b2 01 6d bd 53 96 b6 bd 2c 38 cf 3d
       0.011421758 -0.057862945 -0.08915391 0.10118136
000230 38 47 0a 3c 61 c6 e1 3d 97 e4 6f 3e 04 79 42 3e
       0.008439831 0.11024166 0.23427044 0.18991476
000240 e2 43 6a be cd 70 e6 bd 1b 4c a9 bc c9 72 8d ba
       -0.22877458 -0.11251984 -0.020666173 -0.0010791655
000250 c5 5c 0d be ae 5a 34 3e e8 13 87 3e 7d 5a e0 bd
       -0.1380492 0.17612717 0.26382375 -0.10954759
000260 10 09 3a 3e 05 f8 7e be de 0a c0 be 2a b6 1d bb
       0.1816752 -0.248993 -0.3750829 -0.0024064877
000270 e8 e2 14 3d 37 9e 2f 3c 1a c0 d4 3d fd 46 95 be
       0.036349207 0.010718874 0.10388203 -0.29155722
000280 a7 1b 5e 3e 8c 4a 84 3e c7 ae ee 3b 48 37 17 be
       0.21690236 0.25838125 0.0072840187 -0.14767182
000290 4b 63 a5 be 9b 81 a0 be 37 6b 0d be 80 3e f0 bd
       -0.32302317 -0.3134888 -0.1381043 -0.11730671
0002a0 7c 30 ca bd ba 79 1d be fb 74 4c be bb d0 91 bd
       -0.09872529 -0.15378466 -0.199665 -0.0711989
0002b0 32 be 63 3e b4 86 46 3c ca 01 29 3e 31 88 e1 bd
       0.22240523 0.012117077 0.16504589 -0.110123046
0002c0 ec e1 7c 3e 20 16 17 3e bb 07 04 3d 39 c1 60 3e
       0.24695557 0.14754534 0.032233935 0.21948709
0002d0 fe d6 3e 3e 07 b7 64 be e5 ea 20 3e 49 6d 25 bd
       0.186367 -0.22335444 0.15714605 -0.040387426
0002e0 01 5e 15 3e cc 1d 85 bc 58 8f e5 be d8 86 e9 bd
       0.14586641 -0.01624956 -0.44835925 -0.114026725
0002f0 26 9a 16 3d be 4a 9a bd 5e fd 58 be 71 3d 84 3c
       0.0367681 -0.07533787 -0.21190402 0.016142579
000300 50 31 d5 3c ec d4 47 3d 66 e6 8b be 3f 2b c1 be
       0.02602449 0.048787042 -0.27324218 -0.37728307
000310 72 94 13 3e 64 cb 84 3e bb 6f 3c 3e 6a c8 af bd
       0.14412096 0.25936425 0.18401997 -0.08583148
000320 ac bc 71 3d 2c d1 84 3e 69 65 48 bc ec a2 60 bd
       0.059017822 0.25940835 -0.012231209 -0.054842874
000330 a8 bd d0 3c a4 c5 3b bd 71 45 f4 bd 45 b2 97 bd
       0.02548106 -0.04584278 -0.119273074 -0.07407049
000340 46 b2 7c 3b 6a 7d 0a 3d 4e 48 27 3e 2f 1b 40 3e
       0.0038558408 0.03381101 0.16336176 0.1876037
000350 cf 23 17 3e b8 8f 53 3d 5b d3 b6 bd 0f 66 f1 3d
       0.14759754 0.051650733 -0.089270316 0.11787044
000360 45 eb c2 be a7 00 2e 3e ce c0 ac bd 93 d1 22 be
       -0.3807012 0.16992436 -0.08435212 -0.15900259
000370 e7 8e 17 bd 8e 7d 2a 3e 9f 48 db 3d 2b b1 10 bd
       -0.037001517 0.16649458 0.10707211 -0.03532521
000380 8a 51 00 3e 9e dd 29 be 5c 47 d2 bd 95 0d 44 be
       0.12531105 -0.16588446 -0.10267517 -0.19145806
000390 0f af db 3e 52 63 c1 3d 22 97 78 bc fe ed fe 3a
       0.42906997 0.09442772 -0.015172752 0.0019449589
0003a0 07 bd ea 3d 09 e4 86 bd 7b 02 3c 3d 7d 44 34 3d
       0.11461835 -0.06586463 0.045900803 0.044010628
0003b0 db 22 e0 bd f2 0d 07 3d d6 39 53 bd 86 8f 42 3e
       -0.10944148 0.032972284 -0.05156883 0.19000062
0003c0 98 e6 1e bc c8 11 c8 3d 7f 6b 19 be ab 90 0b 3e
       -0.0096985325 0.097690165 -0.14982413 0.13629405
0003d0 ed ce 89 bd 71 95 ef 3c db b3 21 3e 17 12 c5 bc
       -0.06728921 0.029246064 0.15791266 -0.024056477
0003e0 d9 83 4d 3e 26 b1 01 be 56 31 17 3c 72 ec 13 3e
       0.20069827 -0.12665233 0.009228071 0.14445665
0003f0 fe f9 83 3d 25 db 25 bd 13 86 21 3e e9 7b f6 3d
       0.064441666 -0.040492196 0.15773802 0.12035353

actor.2.bias f4 [64]
000000 13 65 d7 be b1 bf 02 bd a8 da 06 be de 3a 0b 3e
       -0.420693 -0.031921092 -0.13169348 0.13596675
000010 32 f4 78 be 11 67 ab be 92 c2 fa bd b3 60 c1 be
       -0.24311903 -0.3347707 -0.122441426 -0.37769088
000020 ba 3d be bd e3 a9 53 be 70 32 bf be 9c 68 8d be
       -0.09289117 -0.20670275 -0.37343168 -0.27618873
000030 4e 5c 8e be d9 dc b3 bc be 5e 46 be 53 df b3 bd
       -0.27804798 -0.021955894 -0.19372079 -0.0878283
000040 a5 1a 92 be 6f ec 16 bf da 8f 54 be c4 12 ac be
       -0.28535953 -0.5895452 -0.20758 -0.33608067
000050 7b 14 fa be 48 5a 87 be b0 b4 96 be a7 56 72 bd
       -0.4884375 -0.26436067 -0.2943473 -0.05916467
000060 40 06 b7 be 30 be 13 bf 78 9e cd be f5 d6 62 be
       -0.35746956 -0.5771208 -0.40159965 -0.22152312
000070 2c a0 87 bd 5b 43 91 be d6 c6 45 3e d9 22 cc be
       -0.06622347 -0.283717 0.19314131 -0.39870337
000080 d6 1b 0a be 00 36 41 be 99 6f 08 bf ab 31 f6 be
       -0.13487181 -0.18868256 -0.53295285 -0.4808477
000090 e8 84 16 bf 05 b9 e1 be f2 7e 19 be 34 9d 4d be
       -0.5879655 -0.4408647 -0.14989832 -0.200795
0000a0 2b b2 ea be 17 55 ab be db c2 15 be c0 73 3e bd
       -0.45839056 -0.33463356 -0.14625113 -0.046497107
0000b0 ad ef 74 be 10 8e 09 bf 43 e2 26 bc cb 93 02 be
       -0.23919554 -0.53732395 -0.010185781 -0.12751691
0000c0 fb f9 20 bc 38 69 a6 be ae bf 78 be f4 04 f9 be
       -0.009825225 -0.3250215 -0.2429187 -0.4863659
0000d0 0f e2 af be e9 bf 83 be e4 9c d1 be dd f5 bd be
       -0.34352157 -0.25732353 -0.4094001 -0.3710164
0000e0 37 de 13 be 84 8f 92 be f7 81 89 be 1a a0 e5 be
       -0.14440237 -0.2862512 -0.26856968 -0.4484871
0000f0 8c c7 aa be eb a1 6b be 89 33 7b be 3c d6 2c 3d
       -0.33355367 -0.23010986 -0.24531378 0.042196497

actor.4.weight f4 [7, 64]
000000 c0 dc a6 3d e1 d9 d3 3b e5 63 82 bd 38 be bc 3c
       0.081475735 0.006465182 -0.063667096 0.023039922
000010 ac 34 9a 3d 16 2d b7 bc f0 0f 59 bb e1 dd 56 bd
       0.075295776 -0.022360366 -0.0033121072 -0.052457694
000020 b8 0a fb 3a c2 a8 2b 3b 7b e1 ac 3d b3 41 e4 3d
       0.0019152975 0.0026193117 0.084414445 0.11145344
000030 cc 3c 2a bc 03 fc 98 3c 8d 9a a4 3c 06 60 70 bd
       -0.010390472 0.018674856 0.020093227 -0.058685325
000040 aa 04 d3 3d 1f d3 a9 bd ad f2 02 bc bc 2a 9f bd
       0.10303624 -0.08292221 -0.007992429 -0.07771823
000050 d6 12 b2 bb 66 74 7b 3d 7d 12 14 bc 57 97 0c 3e
       -0.0054343743 0.061390303 -0.009037611 0.13729607
000060 c9 a5 20 bd 48 68 06 3e 25 74 3d 3d c8 6e ab bc
       -0.039220605 0.13125718 0.046253342 -0.020926848
000070 6b a8 3c bd d4 87 37 3d b5 58 9f bc dd 6f 2b 3e
       -0.046059053 0.04480727 -0.019451478 0.16741891
000080 42 5c 5c 3e 18 49 b6 bd 6b c4 db 3a 68 66 c8 3c
       0.21519569 -0.0890066 0.0016766911 0.024462894
000090 fc 7c 8f bd 78 0b 9d bc 11 d9 06 be 0f 6e f1 3d
       -0.07006261 -0.019170508 -0.13168742 0.1178857
0000a0 49 66 c5 3d dd 60 d9 3d 75 cb c7 bd b2 f6 75 3d
       0.0963865 0.10614178 -0.09755603 0.06004972
0000b0 72 bd f0 bd df c4 10 3e 45 cb 65 3d 3a 39 b4 bb
       -0.11754884 0.141376 0.056102056 -0.005499986
0000c0 d4 fe 8d 3d 61 10 52 bd e6 75 ad 3d c0 12 70 bd
       0.0693337 -0.05128515 0.08469753 -0.05861163
0000d0 71 07 3a 3d 47 31 8b bd ef 1a 4c 3d a7 ad 5c 3d
       0.045417253 -0.06796508 0.049830373 0.053876545
0000e0 24 f7 40 bd 94 d0 32 bd 8c 05 73 3d 60 61 b5 bc
       -0.04711069 -0.043655947 0.05933146 -0.022141159
0000f0 c3 87 6f 3e db ea f5 3d f6 2f 8b 3d a6 38 80 bd
       0.23391633 0.12007686 0.06796257 -0.06260805
000100 08 9a ff bc ad e3 25 bb 6f 50 12 3d 7c 31 03 3d
       -0.031201378 -0.0025312707 0.03572124 0.032029614
000110 ab 83 6f 3d af 85 21 3d 86 b6 ab 3c fb 80 2c 3d
       0.058475178 0.03943413 0.020961057 0.042115193
000120 bc 74 5e 3c 73 2f 8b 3d 98 0c 99 bd 25 15 8f bc
       0.013577636 0.067961596 -0.07473105 -0.017466137
000130 63 d7 07 bd 44 b8 6d 3c fe 8a 82 bd 67 f8 02 bd
       -0.033164393 0.014509264 -0.06374167 -0.031975176
000140 79 e1 9c bc 5a d0 38 be 83 3c b0 bd f3 2c 8f 3c
       -0.019150482 -0.1804823 -0.08605292 0.017477488
000150 ff 2e ec bd 33 19 d0 bd a5 69 cd 3b fb 9e 22 bd
       -0.11532401 -0.10161056 0.0062686973 -0.039702397
000160 ab 58 8b 3c 5f 81 b0 39 e9 e6 a6 bd 7b 20 af 3c
       0.017010054 0.00033665725 -0.08149511 0.021377793
000170 ed ed 17 3d 4c 50 d6 bc 7c b6 20 3d 94 bf eb 3c
       0.037092138 -0.026161335 0.03923653 0.028777875
000180 35 a9 3b 3e ff 77 2c bd 8b 5c 5a be f2 22 b3 bc
       0.18326266 -0.042106625 -0.21324365 -0.02186725
000190 37 9e a6 bb 62 e6 35 bd 2c e7 e7 bc d0 ec 2f 3d
       -0.0050847786 -0.044409163 -0.028308474 0.04295045
0001a0 fe 7b fd bc 1b 1c 0e be a8 8e 45 bc ab 09 cb 3d
       -0.030942913 -0.13877909 -0.012057938 0.099139534
0001b0 0e a0 fd ba a6 96 cc bd 25 b0 bf 3c 34 d9 a7 bb
       -0.0019350068 -0.099896714 0.023399422 -0.005122328
0001c0 99 80 d9 3c 8b b1 1d bc 8a 70 ea 3c a2 db 2e bc
       0.026550578 -0.009624849 0.028618116 -0.010672482
0001d0 bd 4d 34 3d de aa 01 be a3 f1 21 3d a4 a3 eb bd
       0.04401945 -0.12662837 0.039537083 -0.11505821
0001e0 77 11 0c 3d af a0 40 bd d1 32 29 bd 16 d6 2c 3d
       0.034196343 -0.04702824 -0.041308228 0.042196356
0001f0 2f d5 56 3c 00 e2 cd bc 5c be 99 3c 93 b0 b8 bc
       0.01311235 -0.02513218 0.018767528 -0.022545135
000200 4f f6 57 3e 39 ac fc bc 31 21 25 3d dd 6a b8 bc
       0.21090053 -0.03084384 0.040314857 -0.022511894
000210 f6 54 22 bd de f4 39 bd dc 57 e6 3c bb a9 27 3b
       -0.039631806 -0.04539954 0.028118066 0.0025583345
000220 e0 2e e3 bc 38 90 19 3d fe af 97 bd 0c 54 2b bd
       -0.027732313 0.037491053 -0.07406615 -0.0418282
000230 cd 58 97 bd 6f 9e 4b bc 5e 9e 4a be 91 39 83 bd
       -0.07389984 -0.01242791 -0.19786975 -0.06407464
000240 6a f0 3e be 44 47 55 3c 30 cf c7 3b da 79 40 3d
       -0.18646398 0.013017479 0.0060976967 0.046991207
000250 49 82 39 3d b5 ad 08 be f2 02 a6 bd 5a 06 15 3d
       0.045290265 -0.13347514 -0.081060305 0.03638301
000260 03 9d 7b bd 9c 3d fc 3d a1 82 0c bc 3b f3 a7 3c
       -0.061429035 0.123164386 -0.008576066 0.020501724
000270 d0 9e d5 3c f1 c1 eb bd 51 cf 2b 3d e0 98 5c 3e
       0.026076704 -0.11511601 0.04194576 0.21542692
000280 54 84 21 bd e1 cf c4 bd 23 46 fb 3c 97 47 c1 bd
       -0.03943284 -0.09609962 0.030673092 -0.09437483
000290 88 11 84 bd 50 47 bf bd e6 46 a1 bd 3f 46 59 3d
       -0.06448656 -0.09339774 -0.07874851 0.053045508
0002a0 4b 45 76 3d 8c 54 3e 3e f3 c0 10 be 17 2e e7 bc
       0.060124677 0.1858694 -0.14136104 -0.02822022
0002b0 7a 22 aa 3d b2 5d 24 3e ca 79 94 3d 16 9a 30 3d
       0.08307357 0.16051367 0.07249792 0.043115698
0002c0 5d 47 63 3d 6b fa f3 bd f7 1a 70 3d 2c 86 8b 3d
       0.05548798 -0.11912998 0.058619466 0.06812701
0002d0 69 ac 77 bd 40 a0 08 be 3a df b8 bc 5e 3e 44 3e
       -0.060467158 -0.1334238 -0.02256738 0.19164416
0002e0 be ee 13 bd 78 2e bc 3d 07 9f 2a 3d a6 2a 07 be
       -0.036116354 0.09188551 0.041655567 -0.13199863
0002f0 85 5e 0c 3e a5 7c 9f 3e 81 14 87 bd 80 73 27 3d
       0.13707931 0.31149784 -0.06595708 0.040881634
000300 26 1d 0e be 79 d5 a7 3d 31 a5 17 bc fe 6e 44 3c
       -0.13878307 0.081950136 -0.009255693 0.011989353
000310 2e 94 a6 bd 38 e8 2a bd 6a dc 19 3e 2d 0a b4 3d
       -0.08133732 -0.041725367 0.15025488 0.087910034
000320 50 65 79 3d d6 4e 4d bd 8a f5 80 3d 92 7b 46 bb
       0.060887635 -0.050124012 0.06296833 -0.0030286056
000330 20 07 bc 3c 28 e4 41 3b 03 b6 a1 be e1 38 d2 ba
       0.022952616 0.0029585455 -0.31584176 -0.001603868
000340 e7 6b aa 3c 32 0b 28 bd 20 8b 08 bd df 1a e5 3d
       0.020803405 -0.0410263 -0.033335805 0.11186766
000350 26 64 88 bc aa ef ee 3b 95 b2 cb 3d 89 4e 85 3d
       -0.016649317 0.007291754 0.09946171 0.0650912
000360 68 46 9a bc c7 93 43 3d 8c f1 20 3e 44 c3 d1 3d
       -0.0188324 0.047748353 0.15717143 0.10242322
000370 1b 9b 62 bd 27 08 84 3d 36 21 bc 3c 90 56 9e 3c
       -0.0553237 0.064468674 0.022965055 0.019328386
000380 93 7a 11 be 54 ba 0b bb a0 90 a6 bd 4b 73 3c be
       -0.14206915 -0.0021320777 -0.08133054 -0.18403356
000390 58 a5 59 3e d6 c7 1e bd 75 e0 7f bd 35 be 2a 3c
       0.2125448 -0.038764797 -0.06246992 0.010421325
0003a0 87 18 1b be 06 e6 38 bd 57 a2 a5 bd 80 b4 80 bc
       -0.15146075 -0.045141242 -0.080876045 -0.01571107
0003b0 73 63 13 bd a3 6f 28 be 13 dc c8 bc d6 09 44 3d
       -0.035983514 -0.16448836 -0.024519002 0.047860943
0003c0 a0 8a 3c bd 53 8a d3 bd ab 3a 83 bd a3 d7 e0 bb
       -0.04603064 -0.103291176 -0.064076744 -0.0068616434
0003d0 65 34 1d 3d 45 66 3c 3d 7e cf 31 be ca 50 14 bc
       0.038380045 0.04599597 -0.17364308 -0.009052465
0003e0 84 c9 d3 bd 49 ff 95 bc 78 c6 1a bd c3 c7 55 be
       -0.103411704 -0.018310206 -0.03778693 -0.20876984
0003f0 cc ce d6 3b f3 7e 2e 3e 98 de 31 bd f4 cf 11 3d
       0.006555414 0.17040615 -0.043425173 0.03559871

actor.4.bias f4 [7]
000000 b8 7a 8c 3c 00 a1 40 3e 9c 26 25 be 8a 9c 21 3e
       0.01714836 0.18811417 -0.1612801 0.15782371
000010 25 08 5b 3e 89 76 a3 be 2a ff 07 3e
       0.21389826 -0.31926373 0.13280931

critic.0.weight f4 [64, 32]
000000 2a e2 74 be 1b e1 17 be 78 66 60 be 56 0f a2 3e
       -0.239144 -0.14831965 -0.21914089 0.31652325
000010 bb 65 28 be 48 8f b8 3d 0f e7 91 be a1 dd 08 3e
       -0.16445057 0.09011704 -0.28496596 0.13365795
000020 c0 1f 49 3d 71 14 dc 3b a4 4b 8f 3d e9 42 35 3c
       0.049102545 0.006716304 0.06996849 0.011063316
000030 a0 6e a0 bc 96 6f 2f bd 74 66 09 bc 54 55 07 bd
       -0.019584 -0.042831026 -0.008386243 -0.03304036
000040 fd 64 80 bd 0d 7a 54 bd 5f 5e 49 3e b2 98 91 3f
       -0.06269262 -0.05187421 0.19664906 1.1374724
000050 87 14 74 3f 64 ef 34 3d ca ea 50 be 77 77 20 bf
       0.9534382 0.044173613 -0.20402065 -0.6268229
000060 a9 84 fd bd 03 cb 13 bc 13 fe c5 bd 6a fc 22 be
       -0.123788185 -0.00902057 -0.096676014 -0.15916601
000070 fb 43 5d bd 20 7f ba bd 95 b8 02 3d 05 7f bb bc
       -0.05401991 -0.091062784 0.031914312 -0.022887716
000080 d8 e5 48 be b0 7d 35 3e d2 33 7c bd de 61 82 3e
       -0.19618928 0.17723727 -0.061572857 0.25465292
000090 e0 18 83 3d a2 a4 ef bd 6b 63 01 3e c5 1a 34 bc
       0.06401229 -0.11701323 0.12635581 -0.0109927105
0000a0 2c c6 50 bc dd eb ac bc 3a c4 c5 3d 8d ed 93 bc
       -0.01274256 -0.021108562 0.09656568 -0.018057609
0000b0 9b 4d 10 3d 3e 9a 36 bb aa 98 e4 bb 25 71 2a 3c
       0.03523026 -0.0027862932 -0.006976207 0.010402952
0000c0 b4 f0 e4 be ee 7f a3 be 31 00 b2 3e ca aa 9b bf
       -0.44714892 -0.3193354 0.3476577 -1.2161496
0000d0 e1 24 d6 bf 63 a9 8d 3d a1 f0 9b 3e 3d 49 59 be
       -1.6730005 0.069170736 0.30457023 -0.21219344
0000e0 9e bc 1c bc 5b 06 27 bd 0b c8 8d bd d5 b2 38 3b
       -0.009566454 -0.040777545 -0.06922921 0.0028182764
0000f0 25 31 16 3d de 25 65 bc a4 b8 d1 bd ef 5d 76 bc
       0.03666796 -0.013986079 -0.102402955 -0.015037044
000100 b4 4b 86 3d a2 70 92 3e 38 76 a0 bc 90 45 06 be
       0.06557408 0.28601557 -0.019587621 -0.13112473
000110 29 c2 52 3e 2e 9b 04 bd 12 0b 3d bd fb 79 b2 bc
       0.20581879 -0.032374553 -0.046153136 -0.02178668
000120 24 a7 38 3d b2 d6 b7 bd 1f 87 85 3c 4e 03 e6 bd
       0.045081273 -0.08976497 0.016299782 -0.11231099
000130 28 25 f5 bc d3 ae 22 3d b3 16 da 3c 35 62 8a b9
       -0.029924944 0.039717507 0.026622152 -0.0002639458
000140 4f 3b 40 3e b8 b2 44 bd 44 23 3b bf d7 4e a6 be
       0.18772624 -0.048022002 -0.73100686 -0.32482025
000150 9f e7 04 3f 43 4a 60 3d a6 8e 98 bd 1f 77 2f be
       0.51915926 0.05475832 -0.07449083 -0.17135285
000160 21 ea b3 bd a4 77 ad 3d 88 42 a1 3d a7 6c 0a 3e
       -0.08784891 0.08470085 0.07874018 0.1351801
000170 b6 1a 43 3d ad ae b5 bd cb d9 4f 3d ec 5b 1d 3c
       0.047632895 -0.088712074 0.050744813 0.009604435
000180 19 92 45 be fe 0a 9c 3d 5f ba 0e be d7 1a d3 be
       -0.19294013 0.07619284 -0.13938282 -0.41231415
000190 7c c4 3d bd 47 2a 3a 3e 08 a7 4e 3c 32 4c 81 3e
       -0.04632996 0.1818019 0.012613066 0.25253445
0001a0 eb a6 af 3d 95 12 88 be fc 0e c8 bd eb e5 7d be
       0.08576759 -0.26576677 -0.09768483 -0.24794738
0001b0 c4 d3 f4 bd 2b 38 eb bc 25 7d ff bb 30 cc cb bc
       -0.119544536 -0.028713306 -0.007796901 -0.024877638
0001c0 b8 d5 fe bd ef ab 85 3d 6e e5 a8 be 8e 19 85 3e
       -0.12443107 0.06526934 -0.3298754 0.2599606
0001d0 41 70 7e be a9 c3 fd bd d6 85 96 bf d1 e2 22 3e
       -0.24847509 -0.12390835 -1.1759593 0.15906836
0001e0 af 3f 25 3e 38 3b df bb 68 89 ae 3d 88 aa e9 bb
       0.16137575 -0.0068124793 0.08522302 -0.0071309246
0001f0 e3 d6 f2 bd 1f 3d bb bd ba 25 dd 3d dd 51 5e 3d
       -0.11857393 -0.09142517 0.107982114 0.05427729
000200 a4 19 b5 be 05 0c 7d bd cf 5d 70 be 93 2e 8a 3e
       -0.35371125 -0.06177904 -0.23473285 0.26988658
000210 62 80 c5 3e 3d f1 0b 3e 14 34 76 3e aa 95 89 3d
       0.3857451 0.13666244 0.24043304 0.06717999
000220 36 d7 c1 ba d0 11 a9 bc 6d aa b7 3b 3e 5a 1f bc
       -0.0014788869 -0.020638376 0.005605033 -0.009726105
000230 12 b7 b7 bd fc 6a 92 3c 3b 64 81 bc 51 08 9e bc
       -0.08970465 0.01787328 -0.015794864 -0.019291075
000240 73 7a 3d be ad 07 5d be b4 52 d7 3e 94 a2 c6 3c
       -0.18503742 -0.2158496 0.42055285 0.024247445
000250 2e b8 85 be 67 07 24 3d 74 99 20 bf 2d 34 a3 3e
       -0.2611708 0.040046122 -0.6273415 0.31875744
000260 bd 4b 11 be f7 ff e7 ba a5 04 a3 3d 5c 30 c4 bd
       -0.14189048 -0.0017700185 0.0795987 -0.09579536
000270 44 d0 fe bc 68 da f6 bc c5 56 27 bc 94 b7 5d 3d
       -0.031105168 -0.030133441 -0.010213559 0.054130152
000280 55 7e 45 bd 2b e9 ba bd 4d 5e 36 be 81 c2 cc bd
       -0.048216183 -0.091265045 -0.1780941 -0.09998036
000290 f8 0f c6 3d 13 29 45 3e 45 78 ec bc 74 23 57 bd
       0.096710145 0.1925395 -0.028865943 -0.052524045
0002a0 40 7f ee 3d 17 c2 13 3e 35 22 28 3e d8 09 1f 3e
       0.11645365 0.14429508 0.16419299 0.15531099
0002b0 23 11 2e be c8 c6 1c bd 51 b8 8c bc ee ac 14 bc
       -0.16998725 -0.03827551 -0.017177733 -0.009074433
0002c0 71 65 dc 3d 67 f4 16 bd 24 14 ef be 6f 00 39 bf
       0.10761536 -0.036854174 -0.46695054 -0.72266287
0002d0 a1 1c fc be 12 d1 1a be b3 5f 19 3f 54 68 e9 3e
       -0.49240592 -0.15118816 0.5991165 0.4558741
0002e0 18 b1 91 3d 0b e4 ed 3c 05 23 ac 3d 85 58 91 3d
       0.07113856 0.029039403 0.08405117 0.07096962
0002f0 26 6b 8d 3c b1 a9 c5 3c 52 98 83 3d c2 d7 9e bd
       0.017263006 0.024128767 0.06425537 -0.07755996
000300 c9 91 3c 3e 56 f1 a1 3e ab 21 d3 3d d4 0c fa bd
       0.18414988 0.31629437 0.10309156 -0.12209478
000310 d8 27 93 bc c2 7c 43 3d 9d 7e c6 bd 68 2a 09 be
       -0.017963335 0.0477264 -0.09692118 -0.13395083
000320 98 89 3a 3d 19 eb 66 3d 02 1c 4c bc c9 1d 44 3d
       0.045541376 0.05637655 -0.012457849 0.047879968
000330 56 df 89 bd 18 ff fc bb b5 16 31 3c 11 8d a2 bb
       -0.06732051 -0.007720839 0.010808636 -0.004960664
000340 4f df 8f 3d 52 fb dd bd ff 4d 7e 3e 21 7e 43 c0
       0.070250146 -0.10838951 0.2483444 -3.0545733
000350 14 a8 36 be e6 00 11 3e 1a a6 56 bf 95 36 67 3e
       -0.17837554 0.14160499 -0.838472 0.22579415
000360 83 98 1e bd a1 51 36 bd 7f ff 31 3d 37 25 6f 3d
       -0.038719665 -0.04451144 0.04345655 0.0583851
000370 a8 d3 37 bc ef 72 d4 3a 48 1d 1f 3d 2a 5a 1d bb
       -0.011219896 0.0016208569 0.038846284 -0.002401004
000380 43 e7 77 3d c1 43 01 3d f4 c5 1a be e3 15 8f be
       0.060523283 0.031558756 -0.15114576 -0.27946386
000390 88 41 76 be 78 71 67 be 68 54 43 be 08 3e 0d 3e
       -0.24048436 -0.22601879 -0.19075167 0.13793194
0003a0 90 7a 91 3d 69 03 77 3d 55 0b 38 3e 13 b4 81 3c
       0.07103455 0.060305987 0.17973073 0.015832936
0003b0 8c 2e 9c 3c 21 d0 14 bd c8 b8 92 bc a7 fc 18 bc
       0.019065164 -0.0363313 -0.017910376 -0.009337581
0003c0 0e 65 2b 3d 92 1d 25 3e 0d 3a 5d 3d fa 5f 08 3f
       0.04184442 0.16124561 0.05401044 0.5327145
0003d0 3f b2 93 be 0b 4d 02 3e 2e b1 15 bf 86 68 05 be
       -0.28846928 0.12724702 -0.5847348 -0.13028154
0003e0 5e e7 07 3e 8b 91 21 bd 65 1f 04 bd 00 12 1e be
       0.13271853 -0.03944544 -0.032256503 -0.15436554
0003f0 fe 77 a2 bc ab 88 a3 bd 24 ca 0c bd d2 f0 89 bd
       -0.019832607 -0.07985052 -0.034372464 -0.06735386

critic.0.bias f4 [64]
000000 19 56 94 3d 2b 29 9b bd d2 e7 a8 3d bd 6e 02 be
       0.07242984 -0.075762115 0.08247341 -0.12737556
000010 fc 24 14 3c cd 4d 0b be 2f ff 76 bc c9 4f 06 3e
       0.009042021 -0.13603897 -0.015075489 0.13116373
000020 97 f9 b4 3d 24 6c d4 3e f4 36 d7 3e 2b cb 71 be
       0.08836668 0.41488755 0.42034113 -0.23612659
000030 dd 77 47 be 87 f6 64 be 73 df 92 3e 3b 9d 23 3e
       -0.19479318 -0.22359668 0.28686103 0.15977947
000040 e2 f3 b0 bc f9 04 19 be 65 68 fd 3d e2 6b 0b 3f
       -0.021600667 -0.14943303 0.12373427 0.5446149
000050 4a 7b 29 3f c5 39 49 be 23 da 22 3d ed d5 21 3d
       0.6620375 -0.19650944 0.039758813 0.039510656
000060 3f 49 a4 3e 78 61 d2 bd 3a 39 e5 3d 64 3b ce 3e
       0.32087132 -0.10272497 0.11192556 0.40279686
000070 2f 9f 26 3e 1f e4 21 be 7e 22 5e bd b6 92 d8 3e
       0.16271661 -0.15809678 -0.054232113 0.42299432
000080 7e b2 d9 bd 36 63 75 be f9 b0 ea bd 36 77 b0 bd
       -0.10629748 -0.23963627 -0.11459536 -0.08616488
000090 da 4b 85 3e 79 01 0c 3f 4d 50 8e be 8a 31 7e 3e
       0.26034433 0.5468975 -0.2779564 0.24823585
0000a0 9e 15 b1 bc 44 17 20 3d eb f8 8b 3e cc 34 ae be
       -0.021616753 0.039084688 0.27338347 -0.34024656
0000b0 d9 93 b4 be 19 93 bb 3e 1a ff 2d be 65 2c 80 be
       -0.3526905 0.36635664 -0.16991845 -0.2503387
0000c0 79 39 62 3e 2d 86 51 3d fe ba 7a be ca 09 96 be
       0.22092237 0.05115335 -0.24485394 -0.29304343
0000d0 ae 9d a6 3e f8 cb 97 bd 56 e3 e2 bd 49 db b2 be
       0.32542175 -0.07411951 -0.11078517 -0.34932926
0000e0 da ff 96 3e a5 16 16 be d9 ce 50 be 40 b1 65 3e
       0.29492074 -0.14657076 -0.20391406 0.22430897
0000f0 89 4e de 3d 60 c6 9b 3d 85 d1 c5 3d a3 a7 8f bc
       0.10854823 0.076061964 0.09659103 -0.01753599

critic.2.weight f4 [64, 64]
000000 f5 e8 70 bd e1 6a 67 bd 99 e6 92 3d 43 a2 31 bd
       -0.058815915 -0.056498412 0.07172889 -0.043367635
000010 da 2f e7 bc f4 00 e5 3d 1c 8c 06 3e 3c a7 f2 bd
       -0.02822106 0.111818224 0.13139385 -0.11848304
000020 c4 b8 31 be ae 88 fd be fb e8 d1 be b7 ee e1 3e
       -0.17355639 -0.4951834 -0.40998062 0.44127437
000030 48 db de 3d bf 7c d5 3e f5 8b 6e be b3 eb b2 3d
       0.10881668 0.41696736 -0.23295577 0.08736362
000040 9b 67 f7 bd 10 ea 25 3f 89 60 28 bf 62 64 19 bf
       -0.12080308 0.64810276 -0.657723 -0.59918797
000050 9b 74 89 bf 85 34 23 3f f7 17 97 bd 5a 52 86 be
       -1.073871 0.63752013 -0.07377618 -0.26234704
000060 5b c6 d0 bd a2 dd 96 3e f0 77 28 3e e3 25 90 be
       -0.10194083 0.29465967 0.16452003 -0.28153905
000070 8e f3 d6 bd aa 78 82 3e 7a ab 6b 3e 98 b6 95 be
       -0.10495673 0.25482684 0.23014632 -0.2924087
000080 82 de 22 bb a2 3f a7 3d e8 a5 da 3d d1 84 0a bd
       -0.0024851863 0.08166434 0.10676175 -0.03381807
000090 a3 58 aa be 90 c4 27 bf df 82 13 bc 71 93 7b be
       -0.3327075 -0.65534306 -0.00900337 -0.24567963
0000a0 d6 02 e3 3c db ae 68 3e 09 12 34 bd e0 c1 52 3e
       0.027711313 0.22722952 -0.043962512 0.2058177
0000b0 4c 47 3c 3e e0 f8 a7 be df c1 5c 3e 84 c4 19 3f
       0.18386573 -0.32807064 0.21558331 0.60065484
0000c0 a4 fb 06 bf 84 84 71 bd f6 f6 e6 bc d1 7c 2b 3f
       -0.52727723 -0.058964267 -0.028193932 0.6698733
0000d0 9c 88 65 be cc ec 9a bd a3 cf a3 bd 16 e3 5c 3e
       -0.22415394 -0.07564697 -0.07998588 0.21571001
0000e0 1e d6 ae be c6 e7 93 3c 7c a3 ff 3d 0d 7e ea bc
       -0.34147733 0.018054854 0.12482354 -0.028624559
0000f0 b8 5c 49 be e8 d8 30 be 3e 09 c0 bd c2 2f 10 be
       -0.19664276 -0.17270243 -0.09376763 -0.14080718
000100 d8 04 4c bd 39 56 9b bc 34 32 04 3d 07 9d 4c 3d
       -0.049809307 -0.018962013 0.03227444 0.04995444
000110 48 2c 5e bc 98 35 9a 3d 4a 4f 08 bc 29 07 3b bd
       -0.013560362 0.075297534 -0.008319685 -0.045661125
000120 be 5b 3a be c6 79 5a bc 89 6a dc 3d 6b f1 04 3e
       -0.1819906 -0.013334697 0.107625075 0.12982719
000130 d5 d7 09 3e be b5 23 bd c0 2c bf 3d 69 bd 41 3c
       0.1346124 -0.039968245 0.09334707 0.011824944
000140 a6 5c fd 3d 8f 71 6e bd 5c bb 0d 3d 93 cb 4c bd
       0.12371187 -0.058213767 0.034602508 -0.04999883
000150 76 48 08 3d bd b2 94 3d 72 f9 5a bd 1a 35 fa 3c
       0.03327223 0.07260654 -0.053460546 0.030542899
000160 8e 3a d7 3d 63 3c 13 3e 1e 48 82 3d d4 9a 26 3d
       0.10509215 0.14378504 0.063614115 0.040675
000170 26 39 f3 3d 7e 5d 05 be 19 cd 47 3d 3e 5a ef 3d
       0.118761346 -0.13023946 0.04877958 0.11687134
000180 c3 49 69 3d 5a 03 1a be a6 e9 82 3d b5 78 0c be
       0.05695511 -0.15040341 0.06392221 -0.13717921
000190 ac 36 a8 bd 48 f1 e9 bc 69 dc 9e 3d a8 a3 08 3e
       -0.08213553 -0.028557435 0.07756884 0.1334368
0001a0 49 40 22 bc 52 47 47 3c e1 50 25 bb fa c9 02 3e
       -0.009903022 0.012163 -0.002522521 0.1277236
0001b0 7a c3 98 3c 33 01 ab bd 70 2f c9 bc ef e4 6d 3b
       0.018647898 -0.08349838 -0.024558753 0.0036299785
0001c0 21 58 17 3d 14 ea 2a 3c 34 54 9c 3d 1c a8 85 3c
       0.03694928 0.010431785 0.07633248 0.016315512
0001d0 79 35 7e bd d8 c5 14 be 89 d8 d8 bb f5 9e 1c bd
       -0.062062714 -0.14528596 -0.00661761 -0.03823753
0001e0 58 03 80 3d 73 4d 6d 3c a5 39 26 3d ea 13 3a 3d
       0.06250638 0.014483797 0.040582318 0.045429148
0001f0 87 d3 5f 3d 7c 23 6e 3d 24 33 d0 3d ff 4e b6 3d
       0.054645088 0.05813931 0.10166004 0.08901786
000200 21 24 75 3d 50 ef 95 3c c9 2e 08 3d 28 4f d0 bd
       0.05984891 0.01830259 0.033247743 -0.10171348
000210 82 63 7e 3d 4d a5 e1 bb 3b 1c 9d bd 86 d3 d8 3d
       0.062106617 -0.0068861605 -0.076714 0.1058722
000220 81 27 3e 3b 83 d1 b8 3c e8 fb ae bd e9 48 bb bc
       0.0029015245 0.02256084 -0.08544141 -0.022861915
000230 e3 73 26 be 98 f0 ed bb e7 1b fe ba 6e 47 85 3d
       -0.16255145 -0.007261347 -0.0019386978 0.06507765
000240 65 84 85 3d 30 ec 35 3e ba 83 4b 3d d2 ba 16 bd
       0.06519393 0.1776588 0.04968617 -0.03679926
000250 f2 39 2d ba fe 19 cf bd fc 1c 1f bc 69 c8 ae bd
       -0.0006608061 -0.101123795 -0.0097115 -0.08534319
000260 c1 2e 24 bd ea ae 19 3e d7 69 0e bb 02 1b 8c bd
       -0.04008365 0.1500813 -0.0021730566 -0.06841089
000270 e8 0f 17 bd 42 20 de 3d ec a4 8e 3d 31 72 71 bd
       -0.036880404 0.108459964 0.0696505 -0.058946792
000280 59 fd 13 bc d8 49 b8 bd 40 52 a8 3d 17 62 09 bd
       -0.009032571 -0.089984596 0.08218813 -0.03354081
000290 0f fe 5c 3d 3e bd 94 3d 00 88 22 3d 5c 07 88 3b
       0.053953227 0.072626576 0.03968048 0.004151268
0002a0 65 2c e3 bc d2 fa 4d bd 5a 95 86 3c 5e d1 33 bd
       -0.02773113 -0.05028803 0.016428638 -0.04390084
0002b0 d4 ab bd bd ce a3 1b bd 35 1e 0d be 56 a9 87 bd
       -0.09261289 -0.037998013 -0.13781054 -0.06624095
0002c0 d8 d1 96 bc 3f 76 ae 3d 96 2d f5 3d 41 dd d2 bd
       -0.018410608 0.085186474 0.119715855 -0.10296107
0002d0 4a a8 95 3d de 24 a9 3d 5e 98 16 3e 17 c9 99 3d
       0.07307489 0.08258985 0.14706561 0.07509058
0002e0 6a 8d 6f 3d 5f bb a8 3c a3 a6 88 bb e6 58 9d 3c
       0.058484472 0.020597158 -0.0041702553 0.01920743
0002f0 52 d9 f4 3d fb e6 8c 3d 62 67 61 3d 32 55 6f ba
       0.11955513 0.068799935 0.055030234 -0.00091298216
000300 34 af da bc 43 64 35 3d 6c 32 29 bd e7 5d 74 bc
       -0.026694871 0.04428507 -0.04130785 -0.014914966
000310 41 da c0 bc 42 69 d4 bd 07 0f 90 3d 9e 72 66 3d
       -0.023541572 -0.10371639 0.07034116 0.05626165
000320 7e 87 bd bc a5 54 d0 3d eb 9f 43 bd 7d 26 89 3d
       -0.023135897 0.10172395 -0.04775993 0.06696794
000330 28 61 4c bd a4 04 ac bd 4d 71 98 3d d3 c6 78 3d
       -0.049897343 -0.08399323 0.074434854 0.06073649
000340 02 6a 7e bc 38 fe 06 3c cd db c1 bc 51 ec 48 3e
       -0.015528204 0.008239321 -0.02366438 0.19621398
000350 09 2a 3c bd d8 c8 2a 3e ae 6c 74 3d 39 47 90 3d
       -0.045938525 0.16678178 0.059673958 0.07044835
000360 44 6b 44 bc 0d 03 48 be 02 ad 73 ba 92 27 d6 bd
       -0.011988465 -0.19532414 -0.00092954945 -0.10456766
000370 dc a5 97 bd e9 45 c9 3b 9a ae 8f bd f3 77 00 3e
       -0.07404682 0.006142367 -0.070157245 0.12545757
000380 9f e2 8b bc 62 c3 4a bd 24 85 39 bb 7e fd cd 3c
       -0.017075835 -0.049502738 -0.0028308118 0.025145289
000390 42 d5 d3 3c bb f1 a2 bd 04 cd f9 bb 29 00 e4 bc
       0.025858525 -0.07956263 -0.0076233167 -0.027832108
0003a0 1b bf 45 3e 85 f2 7b bc 9b 83 9a 3c 7f 36 50 3d
       0.19311182 -0.015377645 0.018861583 0.05083322
0003b0 af 0f a3 3b 96 4a 06 bd 28 bc d3 bc 90 0e 90 3d
       0.004976235 -0.032785974 -0.025846556 0.070340276
0003c0 b9 db bb bd 32 ef 14 3e 0d 76 a7 3d 97 bc 88 3c
       -0.09172768 0.14544371 0.08176813 0.01669149
0003d0 e1 63 fc bd 92 2f b3 bc 3b 8f 76 bc 59 45 1f bd
       -0.12323738 -0.02187327 -0.015048797 -0.038884494
0003e0 5e 2e bb 3d 70 96 43 3c 3e 4a 93 3c fe 08 d9 3d
       0.09139703 0.011937723 0.017979737 0.10597418
0003f0 46 92 ea 3b 3a 5b 01 bd 0a 57 ed bc a4 82 a5 bd
       0.0071585504 -0.03158114 -0.028972168 -0.08081558

critic.2.bias f4 [64]
000000 24 a4 8f 3b 60 38 cd bd b4 0b 9a 3b bb 1c 18 be
       0.0043835808 -0.10020518 0.004701102 -0.1485471
000010 5c 6d 5a 3d 82 c7 63 bc 7b dd f2 bc 7a 6d 1c 3e
       0.05332695 -0.013902547 -0.029646626 0.15276137
000020 a2 bf f4 3d fd 09 ad 3d 76 7f 64 3d ca 08 94 be
       0.119506136 0.08449171 0.05578562 -0.28912956
000030 0c 0b 91 bd 45 4a 10 3d 47 60 c6 3c b5 13 24 3e
       -0.07082185 0.03522708 0.02421583 0.16023143
000040 79 96 cb 3d d3 f9 15 be e1 1c ce bd b5 b5 5a 3d
       0.0994081 -0.14646082 -0.10064102 0.053395946
000050 90 bf 99 bd 79 eb ad bd 09 67 bd 3d 7d 9a 0b bd
       -0.07507241 -0.084921785 0.09248168 -0.03408288
000060 f8 99 c3 bd 40 63 b1 3c 3e b5 81 be 73 c0 65 bd
       -0.095508516 0.021653771 -0.2533359 -0.056091737
000070 57 b1 7d bd c0 0b fe bb 46 a2 a8 3d b4 4a 1b 3d
       -0.061936703 -0.0077528656 0.08234076 0.03791304
000080 64 83 b1 bc e7 08 53 3e 95 56 dd 3d ff 2c e6 3d
       -0.021669097 0.20608865 0.1080753 0.11239051
000090 e6 d1 10 bc 8d 18 18 bc b8 cd 31 be ec f8 c3 bd
       -0.008839106 -0.009283197 -0.17363632 -0.095689625
0000a0 de 50 a0 be ce 22 88 bc 71 ee 9e 3d 5e 57 84 3e
       -0.31311697 -0.016618159 0.07760323 0.25847906
0000b0 0a fc a3 3c 82 47 c9 bd 6f 36 7f 3d 9c f8 57 bc
       0.020017643 -0.09828092 0.06230777 -0.013181832
0000c0 49 82 f0 3c 12 44 2f bd a2 dd 28 3e ce 0c 98 3c
       0.029359 -0.042789526 0.16490796 0.018560793
0000d0 30 25 02 bd 71 84 96 bd b5 c4 69 3d 64 52 f1 bc
       -0.031773746 -0.0734948 0.05707236 -0.029458232
0000e0 f6 37 af bd e9 0e b2 bd e9 87 2c bd 95 b5 61 3d
       -0.085555956 -0.0869425 -0.0421218 0.05510481
0000f0 03 26 0a be 74 ac de bd 65 56 08 bd 20 da 96 3b
       -0.13491063 -0.108727366 -0.033285517 0.0046036392

critic.4.weight f4 [1, 64]
000000 64 63 04 be d6 57 85 3b ef 5d e7 bb 2c 45 03 bb
       -0.1292854 0.0040693088 -0.0070607583 -0.0020030243
000010 ed bb 35 bb 87 a6 3c ba 24 1e 4c 3b f8 06 4a be
       -0.002773042 -0.00071964454 0.0031145895 -0.19729221
000020 c9 67 07 3c 25 18 44 3b b7 7f 3e 3b 14 9a fe 3d
       0.00826449 0.0029921618 0.0029067823 0.12431732
000030 ae d8 a0 3b 8c b8 1c 3b 1a e5 1f bb 9a ff 99 bd
       0.0049086427 0.002391371 -0.002439803 -0.07519455
000040 87 95 3b 3b 42 54 0f 3e 8c 1b 5a 3a 00 ac 46 3b
       0.002862306 0.13996986 0.0008320145 0.0030314922
000050 14 11 83 3a 61 a3 4b 3b 22 48 a6 3d c4 fd 67 3b
       0.0009999597 0.0031072723 0.08119227 0.0035399059
000060 e1 c6 de ba 6f 1a 1e ba 76 3b 28 3e 3a 2d ea bc
       -0.0016996526 -0.00060311606 0.16428933 -0.028586019
000070 a3 5e 1e 3b 99 43 86 3b 6b 9c 49 bb cd 7b 19 bb
       0.0024165295 0.0040974137 -0.0030763398 -0.0023419738
000080 4c 55 64 bb 58 44 b2 bd af 77 1f ba 51 55 47 3b
       -0.003484088 -0.08704442 -0.0006083203 0.0030415843
000090 99 52 e6 3a 30 e4 63 bb 0c 71 d7 bd 41 83 cc bb
       0.0017572223 -0.0034773462 -0.10519609 -0.0062412326
0000a0 4e 41 44 3d e7 96 ce bd e2 80 19 bc 38 69 21 be
       0.047913842 -0.10087376 -0.009369107 -0.15762794
0000b0 c9 d4 6b bb 46 1f e6 3d c0 7d 9f 3b 05 8d a0 bb
       -0.0035984984 0.11236434 0.0048672855 -0.0048996233
0000c0 c8 c0 f9 3a ec 6c 72 3a 23 e4 d2 bd fa cb cb 3a
       0.0019054646 0.0009247798 -0.1029742 0.0015548461
0000d0 af f5 35 3b 29 bc 04 3b be 6d 8e 3b 1e 39 ed 3a
       0.0027764847 0.0020253754 0.0043465784 0.0018098687
0000e0 d9 41 6c bb 50 06 c5 3b f6 5a 25 bb 64 59 b3 3b
       -0.003604999 0.0060127154 -0.002523122 0.0054733027
0000f0 8a 5d f6 bb 2e be 71 3d 4a 73 06 3c 7d 04 d1 bb
       -0.007518475 0.05901926 0.008206198 -0.006378709

exp_avg f4 [7]
000000 91 bf 9e bb d7 cc 06 bc f8 f1 63 b9 b8 7b d3 3a
       -0.004844614 -0.008227549 -0.00021738547 0.0016134894
000010 1f 56 e1 3b d3 cb 13 bb 75 5b f1 38
       0.0068767215 -0.0022551909 0.00011508811

exp_avg_sq f4 [7]
000000 af 36 12 3b ab d2 4a 3b 81 4b 01 3b f2 2e a6 3a
       0.0022310426 0.0030948322 0.0019728842 0.0012678786
000010 14 e9 c4 3a a6 af d2 3a fc 38 87 3a
       0.0015023076 0.0016074076 0.0010316665
