logs/rsl_rl/franka_reach/2025-06-16_20-11-58/model_500.pt (torch, 172795 bytes, 36 tensors)

std f4 [7]
00000000: b0d0 353e 0ec5 133e 276f 363e f890 323e
00000010: c7a6 2f3e fb41 4b3e 15f0 4d3e
0.17755389 0.14430639 0.17815839 0.17438114 0.17153464 0.19849388 0.20111115

actor.0.weight f4 [64, 32]
00000000: 74b5 a0be 4041 803e 1179 e3be 31fe d63e
00000010: cf07 4e3d 12f3 503e fd05 db3d 58b0 d53e
00000020: 5361 213f 2567 acbd 7dd2 663e 2111 713e
00000030: 73ed 213e 5f8f 053e e4a0 f1bd dec9 f7bd
00000040: e437 04bf fe4a 87bd e2af 36bf 9ab7 b2bd
00000050: 58d5 473f 25fc aabc c228 28bf ae42 7e3d
00000060: 3d5a 10be 81e0 61bd 6def 8bbe 8d67 6dbe
00000070: 0445 c73d 54d3 a9be 3219 d2ba 7e5e 81be
00000080: 56c9 e93c 7951 c63d 5a59 a5be 66a2 573f
00000090: 7d80 563f ad54 963e cf40 b23d 3103 13be
000000a0: 3d8e 773e fa30 cf3d 8ac9 45be 4e53 f83e
000000b0: 944f d3bd 7b7a 823c e991 9f3d d2ea 103e
000000c0: cc0f a33e d77b 91bf 593b 6bbf b73d 04c0
000000d0: d954 fbbe f4ae 113e e67b 913e 0e5e 963e
000000e0: 4579 673d a799 8c3d dac7 863d 347c 22be
000000f0: d5f7 c23d 446b aebd aac6 2a3d fc80 5abb
00000100: 9984 2d3f b61a 4bbe 94c0 533f 9082 82be
00000110: dd4b 723e 9c97 41bb a961 913e 8d18 253f
00000120: 9044 5f3f 6909 f2bd 2155 6ebc 1045 25be
00000130: 062d fd3d 2422 663d 28f3 9f3d ab44 e83d
00000140: 39ab 1bbf a15f 133f 3f1d a13c 7c4c e4bf
00000150: 3b2b b63e b00f 27bd 3c7c 84be a288 bf3d
00000160: bc2c bcbd 260e 92bd 1ce2 be3d 7a1d ebba
00000170: 83ac f83c 81e2 b53e 023d f8be 2ff3 f6be
00000180: 12d3 89bf dbb6 f93b 3efc f6bc 0d06 45bf
00000190: bcf7 7bbd ca83 eabe c93e 8e3e 15aa 4dbd
000001a0: 9028 243e d5c6 1abe 4a2e a8be 5f4b 8cbd
000001b0: 9a00 8d3e 24aa 7abe daa3 47be 715b 48bc
000001c0: 2642 183f 5afd a63e 33f0 02be e21c 9d3e
000001d0: 9508 013f 1144 1fbe 6460 13bf 2cd7 1dbe
000001e0: 23ae 1abb b3bb f9be 317d 88be 0404 f5bd
000001f0: 7c8a b8be e03a c8be 46f8 ec3d 8930 a0be
00000200: 295e 0fbd daba 01be e258 8a3d a04a aa3e
00000210: dc2b 18bf 2253 773f 91e9 bb3d 52bf 59be
00000220: a7d8 44be b1aa 7ebd f4ff 35be 7c41 e7bc
00000230: 7966 1a3c 587d adbd 2be9 e3bc 6a48 b6bd
00000240: 6ceb 88be c77e 0bbf a2c1 cbbe f319 f63f
00000250: 5068 623f ba8e 0dbe ece5 9bbe 8191 46bf
00000260: aa34 99bc a701 15bf b919 b83c 82ce ee3d
00000270: 4530 1ebe 90d4 ac3d 9d6c a8be b33c 413b
00000280: 366f ea3e 58d8 0fbf f7b0 dc3e 74e3 2bbe
00000290: 8419 a83e e2b1 9b3f 1981 d23c 8fbf be3e
000002a0: cf77 c23d 1f7e b2bd c79b e63d 7b3b 0fbe
000002b0: 79e2 c2bc 2700 283d 00c6 f23c d5e8 1bbe
000002c0: 6fe0 dabd ccd4 36bf b7e3 b83d 0d78 aabf
000002d0: 462d 4cbf e564 a93d cc95 643d d85d 6f3f
000002e0: f902 b53d d4a9 683e 9804 823e 4a8d c43d
000002f0: 5061 943d a6c6 333d 1937 be3d c7c5 40bd
00000300: eb49 c53d 5a2f 4d3d d9de 3a3d 8d53 06bf
00000310: 6b0c 0bbe 6898 f1be fd91 c03d 729c 833e
00000320: 8608 e13d 16ee 38bd a4b8 bd3d d81b 14bd
00000330: 6368 96be 680c 64bd 6ecc 803d 214e 4fbe
00000340: 7be9 813f 6085 c83d 2135 0dbe 85a0 1cbe
00000350: 451a 8cbb f779 dcbd 10bc e6be 1ba6 ba3e
00000360: 7d45 cc3c 0d43 4f3e 19cd da3e 12b3 e4bd
00000370: 2661 acbd 898d df3d 9de6 acbd b1c0 fabd
00000380: fdde 7d3f 6665 103c 163f 8e3f 527c 92be
00000390: e17a debe 0780 d6be 4ed2 46bf 50fb 6f3e
000003a0: 1973 083e 72db 8b3d e577 08bd 8d1b 8b3e
000003b0: 0fe5 b73e a001 103e cad2 3cbd 0ce9 79be
000003c0: 6216 243f cb21 3dbd 5ff4 2f3d f529 efbf
000003d0: 817e 16bf b1a6 f9bd 9cc5 0fbf 2d82 173e
000003e0: 3964 66bd e05a 4dbe 92a1 b6bd 64b3 10bf
000003f0: fc25 313d 27dc f6bd 8bf7 4fbb af09 d7bc
-0.31388438 0.25049782 -0.44428304 0.41990808 0.050300416 0.20405224 0.106945015 0.41736102
0.6303913 -0.08418111 0.22541232 0.2354169 0.15813236 0.13042973 -0.117982656 -0.1209905
-0.5164778 -0.066061005 -0.71362126 -0.087264255 0.7805991 -0.020872185 -0.6568719 0.06207531
-0.14096923 -0.055145744 -0.27331105 -0.23184033 0.097299606 -0.33169043 -0.0016029237 -0.25267404
0.028538387 0.096835084 -0.32294732 0.84232175 0.8378981 0.29361477 0.087037675 -0.14356686
0.24175353 0.101167634 -0.19315162 0.48501056 -0.10317913 0.015927544 0.07791502 0.14152077
0.3184799 -1.1365918 -0.9188743 -2.0662668 -0.4908817 0.14226896 0.2841484 0.29368633
0.056512136 0.06865244 0.065810874 -0.15867692 0.095199265 -0.08516553 0.041693367 -0.003334104
0.6778045 -0.19834408 0.82715726 -0.25490236 0.23661752 -0.002953983 0.2839482 0.64490587
0.87213993 -0.11818201 -0.0145466635 -0.16139627 0.12362103 0.056184903 0.0781005 0.113412224
-0.6080814 0.57567793 0.019667266 -1.7835841 0.35579857 -0.040786445 -0.25876033 0.093522325
-0.0918822 -0.07131605 0.09320471 -0.0017937862 0.030355697 0.3552437 -0.48484045 -0.4823241
-1.0767539 0.007620675 -0.030149575 -0.7696236 -0.061515555 -0.45803672 0.27782276 -0.05021103
0.16031098 -0.15114911 -0.32847816 -0.068503134 0.2753952 -0.24478966 -0.19496098 -0.012228833
0.59475935 0.32615167 -0.12786941 0.30686098 0.5040372 -0.15553309 -0.57568955 -0.15414113
-0.0023602329 -0.48776016 -0.26658013 -0.119636565 -0.36043155 -0.39107418 0.11570792 -0.3128703
-0.035001907 -0.12668934 0.06755234 0.3326006 -0.59441924 0.96611226 0.09175409 -0.21264389
-0.19223271 -0.062174503 -0.1777342 -0.028229468 0.009423845 -0.08471173 -0.027821144 -0.08900531
-0.26742113 -0.5449032 -0.39796168 1.9226669 0.8844042 -0.13823977 -0.30448854 -0.7756577
-0.01870187 -0.58205646 0.022473203 0.11660482 -0.15448101 0.084389806 -0.32895365 0.0029485642
0.45787972 -0.5618949 0.43103763 -0.16785985 0.32831967 1.216366 0.025696324 0.37255523
0.09495508 -0.08715462 0.11260181 -0.13987534 -0.023789631 0.04101577 0.02963543 -0.15225537
-0.106873386 -0.7141845 0.09027808 -1.3317887 -0.7975658 0.08271197 0.05580692 0.9350257
0.088384576 0.22721034 0.2539413 0.09597261 0.072451234 0.043890618 0.09287853 -0.047063615
0.09633239 0.050093986 0.04562268 -0.5247124 -0.13578956 -0.4718659 0.09402845 0.25705296
0.10987954 -0.04514893 0.09263733 -0.036159366 -0.29376516 -0.055675894 0.06288992 -0.20244648
1.0149378 0.09791064 -0.13789798 -0.15295608 -0.0042755925 -0.107654504 -0.45065355 0.36454853
0.024935478 0.20240422 0.42734602 -0.111669675 -0.08416967 0.109156676 -0.084424235 -0.12243784
0.9916838 0.008813238 1.1113002 -0.28610474 -0.43453124 -0.41894552 -0.7766465 0.23435712
0.13325156 0.06828965 -0.033317465 0.27169457 0.35916945 0.1406312 -0.04609946 -0.24405307
0.64096653 -0.046174806 0.04295766 -1.8684679 -0.5878678 -0.12189997 -0.561609 0.14795752
-0.056247924 -0.20054197 -0.08917536 -0.5652373 0.043249115 -0.120537095 -0.003173324 -0.026249735

actor.0.bias f4 [64]
00000000: 4636 73be 1e69 17be 8e0e 24bf 3aa1 10bc
00000010: b9f7 ed3d e117 a2be 6768 c4be d7d1 fcbc
00000020: d050 ba3e 4eee 7c3e 8852 ebbd a3dc c1bc
00000030: 53b8 f4bd bc36 76be b8e9 24bf 795d 93be
00000040: a69f 283f b61e 553e 0523 8a3e 5754 0d3e
00000050: 508b 083e a756 693e 12c4 a2be 5080 0e3e
00000060: 78a1 26bf 0461 333f 2c0e 8fbd 8958 cebe
00000070: 6b67 c5bd a24e 273e dd0f 3cbe 12f6 e53e
00000080: 4cfe 36bf 89e4 64be 74e2 a53e 8ba5 67bd
00000090: cf1a f93b 3dde 403d caad 0bbf b127 8cbe
000000a0: df81 ea3d 0077 4cbd 25ad 093f ccb8 3bbe
000000b0: 0016 b13d e611 ba3d e62a 7ebe d804 e9bc
000000c0: 6ac9 ed3e f061 08bf 0634 853d 54d9 54be
000000d0: 99cd b2ba e88d 7abe a252 11bf d53d 9cbe
000000e0: 49e0 d7be db49 8c3c b85f 0d3e 1a64 8f3e
000000f0: 3eab 5bbd d935 963e e6b1 8d3e c6de a5bd
-0.23751172 -0.14786193 -0.6408471 -0.008827502 0.11619515 -0.31658843 -0.38360903 -0.030861778
0.3638978 0.24700281 -0.11490351 -0.023664778 -0.119492196 -0.24044317 -0.64419127 -0.2878225
0.65868604 0.20812497 0.26979843 0.13801704 0.13334394 0.22786961 -0.31790215 0.13916135
-0.6509013 0.7006991 -0.06985125 -0.40301922 -0.09638866 0.1633859 -0.18365426 0.449143
-0.71481776 -0.22352804 0.32399333 -0.05655436 0.007602073 0.047086943 -0.54562056 -0.27374032
0.11450552 -0.049918175 0.5377982 -0.18332213 0.08646774 0.09085445 -0.24821052 -0.028444692
0.4644273 -0.5327444 0.06504063 -0.20786029 -0.0013641595 -0.24468195 -0.5676671 -0.30515924
-0.42163303 0.01712506 0.13806045 0.2800606 -0.053630106 0.29337958 0.27674788 -0.08099131

actor.2.weight f4 [64, 64]
00000000: a5ef 2dbe aca5 f73d 8ef4 f03e 128d 563e
00000010: edb0 f5bd 5de5 923e 3634 873e 5b4d d4bd
00000020: 0a10 2d3e 633e 05be acc1 fc3d 5657 8dbd
00000030: 909f 0c3d db90 9c3e d7eb 3b3e e78a 2dbd
00000040: f2f3 f4bc b1f2 2e3e 93e7 793d 5805 5cbd
00000050: 8c70 2bbe 3cc4 943e b2a6 b5bd b35f 8fbc
00000060: b81b bd3d 6a01 54bf f6d9 363d db4e a2be
00000070: 3fb9 7abe 46b3 31bd daa7 12be 6804 88be
00000080: bf3d 9bbe 9efa 8b3e 9641 453e cf33 04bf
00000090: 2c72 1f3d ef7f 0cbd 1883 c63e a986 eb3c
000000a0: 987e bd3d 3e4b e23d 614e 813e f57b eabb
000000b0: 3547 bdb9 8a40 303c 4555 3bbe 1e27 493e
000000c0: 81a9 3ebe 1db3 e4bd 5e35 6ebe 1230 e1be
000000d0: c9ef e3bc b4ec 02bd 9762 cebe 2cab 093e
000000e0: 1116 523c 0c88 39be 0738 c13d 21f3 f6be
000000f0: 78e0 42bd 4bf1 d33d 683b fa3d 9263 27be
00000100: d8d2 ae3d ec0f 9f3e 0615 9a3b 65eb 233e
00000110: da21 32be 03b1 a23c f7fb ec3c f3f3 b33d
00000120: 75df 5a3d 20fe 663e 2d5f 863d fe30 2fbd
00000130: 45aa 8cbd 44db 963e 67ed 003e 33fa dabd
00000140: 7e24 babd a1e6 e5bc 672b 9a3d 10ab 3e3b
00000150: 7891 ad3d f16a 4f3d 73fa c63b 3ba2 9c3d
00000160: 52d7 1f3d be95 a8bc 31e3 bebd e2e3 2dbd
00000170: 2b8e 3abe 0ca4 5b3c 8dc3 17be 6e66 323e
00000180: 86c9 4f3e 8e2d 833d c1b0 33be 86ef 55be
00000190: a738 b53b a8bc 5cbd 0577 b73d 51ec 1c3e
000001a0: 3b8d 7dbe 0098 80be 298c f43b 9f28 17bd
000001b0: 2f6f 753d 8c58 4c3d 0971 933d 56e9 0abe
000001c0: b567 8fbe 6104 0d3d e884 babd 9f63 9c3e
000001d0: 1e7a 1abd 25dd 0ebb b236 113c c789 073e
000001e0: 1d5a b7bc 2533 b8be 8d51 aa3c 5d84 5c3e
000001f0: 78ba 193e 22c1 b43b d906 c73d 5dad b2be
00000200: 57e9 a03e 97b8 66bd c040 dabe de98 c3be
00000210: d556 873e 722a acbe b502 a9bd 5894 45bd
00000220: fbe4 5dbc c173 06bd b4f4 28be 23e2 f63d
00000230: fc3d 843c 7844 cb3d 061e 533e 09ef f63d
00000240: 30ce 87be 7315 9dbd 2398 0fbd 4a84 8fbd
00000250: c6f4 c9bd eb6f 6e3e dcbf 8f3e 602d babd
00000260: 84b2 223e d1a3 74be dcd7 a3be 876f 7fbc
00000270: 0aea e73d 0e51 49bc 38a9 923d 9e8f 88be
00000280: 04da 6a3e b84e 833e 5e8b 343c 6c6f 23be
00000290: 1b1c 9abe 26a2 88be 287f 16be c1fb f3bd
000002a0: 122a 7bbd 762d 59be 48a2 4abe 29cc 4fbd
000002b0: f277 893e 31dc 2a3d e3d3 243e 087c 08be
000002c0: 01aa 4e3e efae 0d3e 30ac 013c 8f8f 463e
000002d0: d9a0 1e3e 43f2 52be 6d42 893d 31b3 01bd
000002e0: 498a 9a3d c266 09bc 4829 c8be 0e96 eebc
000002f0: d39b e53b 3f0e 11bd 662c 55be 9c36 ad3c
00000300: e04a 5f3d 1964 ad3c bbf9 4bbe 7490 acbe
00000310: e8f5 383e 25c2 893e 2320 0f3e 631b c5bd
00000320: cb74 a63d 7575 913e 8fca eabd faaf a0bd
00000330: 3d28 f43c 5877 e1bd 9eed d7bd 38f9 6abd
00000340: 69ba fd3c cff2 433d 82ef 963d de50 523e
00000350: a303 1f3e 5a01 2d3c cfcd bbbd 15ef f33d
00000360: c721 c9be 08d8 333e 07fd 21bd 249c 32be
00000370: 0f4f cc3b b927 093e 77eb bd3d e150 6bbd
00000380: 113b 0e3e f6df 28be be4e d9bd b5e0 3bbe
00000390: c142 c13e 62df aa3c 968f 76bb c7fa 043d
000003a0: 6fe2 c43d d829 21bd ffde 313d 05d1 363d
000003b0: 8a96 01be 8d29 bd3c 0654 57bc 7dfe 5e3e
000003c0: d8dc 4bbd 36b4 773d d4bc 45be 8389 fd3d
000003d0: d416 68bd 836f d93c a1c9 303e d2b6 97bb
000003e0: 5900 463e a91f a6bd 3756 c43d 86d0 293e
000003f0: 521e 1b3d fa86 5bbb 65e6 323e 28eb d33d
-0.16985948 0.12092146 0.4706158 0.20952252 -0.119966365 0.28690615 0.2640702 -0.10366317
0.1690065 -0.1301208 0.123416275 -0.06901424 0.03433186 0.30579266 0.18351685 -0.042368796
-0.029901478 0.17084767 0.061011862 -0.053716034 -0.16742152 0.29055965 -0.08869685 -0.017501688
0.092338026 -0.8281466 0.044641457 -0.31700787 -0.24484728 -0.04338386 -0.14321843 -0.26565862
-0.30320546 0.27339643 0.192633 -0.51641554 0.038927242 -0.034301694 0.38771892 0.028750734
0.092526615 0.110495076 0.2525511 -0.00715589 -0.00036101943 0.010757575 -0.18294246 0.19643828
-0.18619348 -0.11166976 -0.23262545 -0.43981987 -0.0278243 -0.03196402 -0.40309593 0.13444203
0.012822644 -0.18118304 0.094345145 -0.48232368 -0.04757735 0.10348757 0.12218362 -0.16346577
0.08536309 0.31066835 0.004702213 0.16007765 -0.17395726 0.019859796 0.02892874 0.08786764
0.05343576 0.22557878 0.06561122 -0.042771332 -0.06868414 0.2946416 0.12590562 -0.10692253
-0.090889916 -0.028064074 0.075278096 0.002909366 0.084750116 0.050639097 0.0060723363 0.076481305
0.039023705 -0.020579215 -0.09320677 -0.042453654 -0.18218295 0.013405811 -0.1482069 0.17421886
0.20291719 0.06405173 -0.17547895 -0.20892152 0.005530435 -0.053890854 0.08958248 0.15324523
-0.24760906 -0.25115967 0.0074629975 -0.036903974 0.059920486 0.049889132 0.07199294 -0.13565573
-0.2800881 0.034428004 -0.09107381 0.30544755 -0.037714116 -0.0021799293 0.008863138 0.13236152
-0.022381837 -0.3597652 0.02079084 0.21534868 0.15012538 0.0055161873 0.09718103 -0.3489789
0.31428024 -0.056328382 -0.42627525 -0.38202566 0.26433435 -0.33626133 -0.082524695 -0.048237175
-0.013543363 -0.032825235 -0.16499597 0.12054851 0.016142838 0.09925169 0.20616922 0.12057311
-0.26524496 -0.07670107 -0.0350572 -0.07007654 -0.0986114 0.23284881 0.28076065 -0.09090686
0.15888411 -0.23890616 -0.32000625 -0.015590555 0.11323936 -0.012287391 0.07161182 -0.2667207
0.22934729 0.25645995 0.011019556 -0.15960473 -0.30099568 -0.2668621 -0.14696944 -0.119132526
-0.06131942 -0.21208748 -0.19788468 -0.05073181 0.26849324 0.041713897 0.16096453 -0.13328564
0.20182039 0.13836263 0.007914588 0.19390701 0.15491046 -0.20600228 0.06702123 -0.03166503
0.07545907 -0.008386316 -0.39093995 -0.029124286 0.007007101 -0.035413977 -0.20817718 0.021144204
0.054514766 0.021165894 -0.19919483 -0.3370396 0.18062556 0.26905933 0.13977103 -0.09624364
0.08127745 0.28409925 -0.11464416 -0.07846065 0.029804343 -0.11009091 -0.10543369 -0.05736658
0.030972676 0.047838982 0.07369901 0.20538661 0.15528731 0.010559404 -0.09170114 0.11910836
-0.39283583 0.17562878 -0.039547946 -0.17442375 0.0062350105 0.13394059 0.09273427 -0.05745018
0.1388972 -0.16491684 -0.10610722 -0.18347438 0.37746242 0.02085847 -0.0037622205 0.032465722
0.09613501 -0.039346546 0.043425556 0.04463293 -0.12655082 0.023091102 -0.013142591 0.21776767
-0.04977116 0.060474597 -0.19310313 0.12379744 -0.056662396 0.02654243 0.17264415 -0.004629948
0.1933607 -0.081115074 0.09586757 0.16583452 0.037870713 -0.00334972 0.17470701 0.10347587

actor.2.bias f4 [64]
00000000: 7ba1 d0be 80ed 4dbd 5e16 00be b6a8 043e
00000010: 0db7 80be 40f5 a2be b65c e7bd c12d c4be
00000020: 089c 9ebd 7eb4 76be 84ba bdbe a86b 82be
00000030: be55 7abe ee2f 23bc c015 23be 84da a2bd
00000040: ff52 9bbe a12e 19bf 683d 61be 8cca a9be
00000050: a769 eebe 95d0 83be b3f5 8abe e46f 8cbd
00000060: d9c0 b3be 6d3b 0ebf 42ed c1be 6539 4cbe
00000070: efa2 9abd 7e2d 8dbe fb7e 663e 3415 d1be
00000080: 8065 f5bd 797a 32be 7ee3 0dbf 1ea8 e5be
00000090: 4df8 11bf 1aab c6be f605 20be aeef 4cbe
000000a0: 32ac f9be 0263 a5be f8c6 10be 8ad0 36bd
000000b0: 00f3 6bbe afe3 fcbe cf3b 32bc 5935 11be
000000c0: bde5 16bd bd99 99be 11db 5ebe ef79 ebbe
000000d0: a9c6 afbe 1f4c 69be 0b13 c3be 4db0 b8be
000000e0: 265f 12be 3cf5 99be 1884 70be ee2c e8be
000000f0: ae0b abbe 682f 81be 0cf7 60be ded6 053d
-0.407482 -0.050275326 -0.12508532 0.12954983 -0.25139657 -0.31827736 -0.1129698 -0.38316157
-0.07744604 -0.2409229 -0.37056363 -0.2547276 -0.2444677 -0.009960158 -0.15926266 -0.07951835
-0.30336758 -0.59836775 -0.21996081 -0.33162344 -0.4656498 -0.25745073 -0.2714058 -0.06857279
-0.3510807 -0.55559427 -0.37876326 -0.1994377 -0.07550608 -0.2757377 0.22509377 -0.4083649
-0.1198225 -0.17429532 -0.5542525 -0.44854826 -0.570195 -0.38802415 -0.15627274 -0.20013306
-0.48764187 -0.323021 -0.141384 -0.044632472 -0.23041916 -0.4939246 -0.010878517 -0.14180507
-0.03684019 -0.30000106 -0.21763255 -0.45991465 -0.34331253 -0.22782944 -0.38100466 -0.36072007
-0.14294109 -0.3006991 -0.2348789 -0.4534678 -0.33407348 -0.2523148 -0.21969241 0.032675616

actor.4.weight f4 [7, 64]
00000000: 624d 813d 9288 583a 6f60 1fbd ddf1 e93c
00000010: 01f7 bc3d 6584 e1bc 81cc 233b 29ed 03bc
00000020: ac94 6e3d 7be9 303c a361 6a3d 1fc7 813d
00000030: 42e4 8c3b 832f 923c f0eb c53c 94a1 ebbc
00000040: 74c0 ae3d bc73 d5bd 2015 ecbc cc76 72bd
00000050: 514a 563b d890 1a3d 0ce0 773d 937e 103e
00000060: 80bc 48bb cf17 d83d 6fb8 7f3c f787 97bc
00000070: 49af 8ebd 85b2 ca3c 1b53 4339 73e4 303e
00000080: 5c89 623e a571 9fbd 6191 0e3c fc6a 10ba
00000090: 6557 c3bd 873c 2bbd 6574 06be 5f9b e43d
000000a0: 219a b83d 9deb 223e 83a2 e6bd c39d 49bc
000000b0: 000e 28be c438 de3d f4b4 353d fc92 f43b
000000c0: 6e47 0bbb 50ed 02bd c1d6 d13d 0d74 7dbd
000000d0: 59a8 463d 3ec6 75bd 732d 223d 9954 783d
000000e0: 0178 79bd deb9 8bbd f6ce 503d 8adc 5abd
000000f0: e419 723e 944a 1a3e 32a5 e53d b9b2 3ebd
00000100: f8e4 5cbc 09f4 1ebc addf 44bb 5c41 a83c
00000110: c398 1a3d 80bd 873d a6fc a33c e319 103d
00000120: 4f3e cd3c 01dc 393d 41ad 9bbd 23d4 72bd
00000130: 5c80 153b 2dd9 933a f5ee 57bd b02f 6fbc
00000140: b86b 74bd b37d 39be 9090 5cbd 16d6 c83c
00000150: 2bfc 04be c049 22bd 929f 2ebc 2669 21bd
00000160: c587 183c 7a67 8bbc 6187 27bd 368f 69bb
00000170: 5d7d 053d 1704 8d3b 7310 143d 33e5 2c3d
00000180: 11d2 573e 22b2 943b 0a23 66be 0188 61bd
00000190: 8abe a0bd beae 08bd e2ad 14bd 4159 883d
000001a0: fcb0 70bd ccdf 3bbe 2e6c 293c a770 263c
000001b0: ae13 e4bc c5d4 ddbd 21b1 ccba e284 433c
000001c0: a0c3 1a3d 04bd a6bc 926d 1a3d a044 d23b
000001d0: 523d 453d 3154 0ebe 9e00 fb3c d1a8 90bd
000001e0: 9349 953d 50ce 98bd 2cad 05bd 5497 1dbd
000001f0: 08b9 cb3c 74c5 f2bc 537c 4f3d e9ed 533d
00000200: 82af 5d3e 9c33 8abb 8ad7 453a 88f7 07bd
00000210: 202b 5dbd bea8 f3bc add4 503c 80e0 ae3a
00000220: a080 5abc d632 143d 4d68 87bd 4cf2 24bd
00000230: a244 2bbd 947b 483c ab97 24be dc8a 31bd
00000240: e401 3abe 1c7c a73c e2bd 1e3b 7a16 1e3d
00000250: 0389 f13c 1053 f3bd bfc5 72bd 6178 993d
00000260: aa17 3bbd e098 f13d 6b8e 413d 1a45 9a3c
00000270: f817 e83c 68a4 fdbd 52ec 083b 59c3 683e
00000280: bea4 c43c 83b3 f6bd b4e9 da3c 839c babd
00000290: fb5d dabb 9305 9fbd 4fdd 96bd c707 1bbb
000002a0: 6f85 c23d 5b8d 503e ecf7 edbd 1607 e0bc
000002b0: fb04 cf3d afa9 2a3e 483d 893d f8a4 733c
000002c0: 51b0 233d d280 eebd 9747 df3d 14e9 583d
000002d0: 37fe c4bd 9829 06be 79ce 3f3c 4be7 343e
000002e0: fd91 3abd 6249 d53d 115e b73c baf7 3abe
000002f0: 7307 163e 93d1 9f3e 90a6 01bd df9f 423d
00000300: b370 17be 5c65 383c 6595 d83b 0cc6 e03c
00000310: 6abd acbd 7862 a8bc 8ef9 333e 8524 ba3d
00000320: 7a36 913b 93a7 45bd 48c2 883d 68c3 d93c
00000330: 846d 773c ae30 8cbc 264a aebe 7481 9bbc
00000340: 6b55 d53c 9fa5 49bd dc6e 743c 010f df3d
00000350: bfd9 56bc 8098 893b bc6d ab3d 6ccd 863d
00000360: 0d02 b1bc 0528 773d 6e06 0e3e e4a2 b73d
00000370: ac99 98bd 99eb 9e3d e0ae c53c 5804 983c
00000380: 06f4 16be e1dc 763c c313 bcbd b71a 44be
00000390: 0ea8 1f3e 4e44 bcbc 30d6 a6bd 6e5f bf3b
000003a0: cd1b 11be 3bca a0bd 99f9 cabd 76d4 5e3c
000003b0: f5fc b8bc c15a 1fbe c523 02bd de20 763d
000003c0: 07f5 81bd ee62 eabd 7a90 82bd 18ab c33c
000003d0: 5c6d 803d ee06 903d 21cd 38be 8e97 67bc
000003e0: aafe dfbd 31ca c0bb b0be b6bc e49f 7abe
000003f0: 01d6 463c 9918 3a3e 3618 bcbc 21fa a33b
0.06313588 0.00082600967 -0.038910326 0.028557712 0.092268 -0.027528951 0.002499372 -0.008052149
0.058247253 0.010797854 0.05722202 0.063368075 0.0042996714 0.017844921 0.024160355 -0.02876357
0.08532801 -0.10422465 -0.028818667 -0.059195325 0.0032698105 0.03773579 0.060516402 0.14110784
-0.0030629933 0.10551416 0.015607937 -0.01849745 -0.06967027 0.024743328 0.00018627608 0.17274646
0.22122711 -0.07785348 0.008701653 -0.0005509106 -0.095381536 -0.04180577 -0.13130338 0.11162447
0.09013773 0.15910192 -0.112614654 -0.01230568 -0.1641159 0.10850671 0.044362023 0.007463811
-0.0021252292 -0.0319646 0.10246039 -0.061878253 0.048500393 -0.06000351 0.039594125 0.060627554
-0.06090546 -0.06822561 0.050978623 -0.05343298 0.23642689 0.15067512 0.11213149 -0.046557162
-0.013482325 -0.009701737 -0.0030040548 0.020538978 0.03774334 0.06627941 0.020017933 0.035180937
0.025054125 0.045375828 -0.07601405 -0.05928434 0.0022812104 0.0011279933 -0.05271812 -0.014598772
-0.05967304 -0.18114357 -0.053848803 0.024516147 -0.1298682 -0.039621115 -0.010658162 -0.039406918
0.009309714 -0.017017115 -0.04090059 -0.003563834 0.03259026 0.004303466 0.0361485 0.04221077
0.21076228 0.0045378366 -0.22474304 -0.055061344 -0.078488424 -0.033369772 -0.03629864 0.06657649
-0.058762535 -0.1834709 0.010340733 0.010158694 -0.027841415 -0.10831598 -0.0015616753 0.011933537
0.03778422 -0.020353802 0.03770215 0.006416872 0.048154183 -0.13899304 0.030639943 -0.07063449
0.07289424 -0.07461226 -0.032635853 -0.038474396 0.024868503 -0.029635169 0.050655674 0.05174056
0.21648982 -0.004217578 0.00075470714 -0.03319505 -0.053996205 -0.029743548 0.012746018 0.0013342053
-0.013336331 0.036181293 -0.06611691 -0.040270135 -0.0418135 0.012236495 -0.16073482 -0.043345317
-0.18164784 0.020444922 0.0024222066 0.038595654 0.029484278 -0.11881077 -0.059270617 0.074936636
-0.045676865 0.11796737 0.04725496 0.018831778 0.028331742 -0.12384874 0.002089281 0.22730769
0.024004336 -0.12045958 0.026722766 -0.091118835 -0.0066640354 -0.07764735 -0.0736643 -0.0023655759
0.09498107 0.20366423 -0.11619553 -0.027347129 0.10108372 0.16666292 0.067011416 0.014870875
0.03996307 -0.11645664 0.109023266 0.052956656 -0.096188 -0.13101804 0.011706942 0.17666356
-0.04554938 0.10414387 0.022383722 -0.18258563 0.14651279 0.3121458 -0.031652987 0.047515746
-0.14789085 0.011254635 0.006609606 0.027438186 -0.08434565 -0.020554766 0.17575666 0.09088997
0.004431543 -0.048255514 0.06677681 0.026582435 0.015101794 -0.017113056 -0.34040946 -0.018982626
0.026041707 -0.049230214 0.014919009 0.10891534 -0.013113438 0.0041990876 0.083705395 0.0658215
-0.021607423 0.0603409 0.1386964 0.08966616 -0.074511856 0.077597804 0.024131238 0.018556759
-0.14741525 0.01506731 -0.09183457 -0.19150816 0.15591452 -0.022981789 -0.08146322 0.0058402335
-0.14170761 -0.078510724 -0.09910888 0.013600459 -0.022581557 -0.15561964 -0.031772394 0.06008994
-0.063455634 -0.114446506 -0.06375213 0.023885295 0.06270859 0.07032572 -0.18047 -0.014135255
-0.10937245 -0.005883478 -0.022307724 -0.24475056 0.012135983 0.18173446 -0.022960763 0.005004183

actor.4.bias f4 [7]
00000000: 5241 1f3d 9f39 433e 21f2 35be b64d 273e
00000010: 56e9 5e3e 4e80 9fbe d789 ec3d
0.038880654 0.1906495 -0.17768146 0.16338238 0.21768698 -0.31152576 0.11549728

critic.0.weight f4 [64, 32]
00000000: d8a1 57be 1f5f 2bbe 4295 8bbe da9e 933e
00000010: 6cc3 34be 791d d03d 7a79 95be 4f58 223e
00000020: 9217 6f3d e124 3a3c 0775 cd3d a7de cd3a
00000030: 73e7 3bbd 711e c3bb 7ac4 44bb 8601 83bd
00000040: bdc5 3dbd 0879 0ebd a151 6d3e 1ef1 6f3f
00000050: 5e1d 243f 2ef4 343d 3452 72be 884f 27bf
00000060: d488 fdbd a586 873d 8078 15be a5cc 11be
00000070: 71d1 67bd f5ab b6bd c055 293d e458 c6bc
00000080: fc26 a0bd c976 843e 552b bf3d 9d65 d83d
00000090: a9dc 3c3e 9aaa 9abd 8803 f93d 2c07 80bd
000000a0: 3f5f e7bc e1d2 353c c5e6 c73d 2178 a53b
000000b0: ae60 4c3c 82f1 12bd ef68 7c3a 2d7d 95bc
000000c0: 9d7c 1abf bc3c aabe dabb f43d fe38 99bf
000000d0: 41e9 a8be 179f 8d3d cf4e cb3e 8d71 643e
000000e0: 3fa2 1cbc 4fad 79bd 2d29 123d 501a 1a3d
000000f0: 7246 f03c 73ee 713d 0538 4f3c 7a34 c03c
00000100: abf0 bbbd 1b50 b33d efe8 42bd e261 89bd
00000110: 8edd 2f3e a8a7 3fbd 190d 0dbe 11e1 c33c
00000120: 6c22 ad3d 7897 41bd 6943 bbbd de5f d3bc
00000130: a94c 8bbc 0d0c 263c a136 a43c 2408 883c
00000140: e635 b73e 6db6 7e3e 0830 12bf c179 dabe
00000150: a3ab 1c3e 6a4a 603d d68d 083d 9b2b 47be
00000160: 72e8 b3bd 4e45 a13d 4ee8 583d 1b36 ed3b
00000170: 1565 6c3d dfbf a1bd 84dc 5e3d f63a c3bc
00000180: 8c18 2cbe cf9e 493d 6991 2cbe 07fb d3be
00000190: d60f c73b a1ec 323e a39e 4b3d 0134 6c3e
000001a0: a46f a63d b641 08be 6a30 cbbc 7a46 12be
000001b0: 45ac 06be 9eb1 03bc a913 74ba 5ecd 35bd
000001c0: 29df 98be 1193 a6bd 3d11 a9be da06 8abe
000001d0: 7fda ccbd ccc6 fdbd 3928 89bf 74ef 543e
000001e0: b240 253e 1100 983b 227d b7bb 5f0d 1fbd
000001f0: cc4d 09be 2575 5dbd 9f6a 973d b877 333d
00000200: 8617 9bbe 7ddf 11bd c828 26be 92cb 6d3e
00000210: 3766 c23e 2ea5 9f3d 98ce 6a3e 94b5 8d3d
00000220: 8bb4 9d3a 06e8 e8bc bbde 0abd c37d e6ba
00000230: f561 913c f983 653c 3f31 02bc fe11 dfbc
00000240: bd51 a1bd 79c6 5abd a5d1 d43e 40ed e5bd
00000250: 55a8 14be a102 243d b715 23bf 58fc ab3e
00000260: 6f4c 11be 1575 2bbc f1ee 7a3d a8e7 a1bd
00000270: 8ad1 193c 3204 ffbc 51eb 98bc 644b 4e3d
00000280: 8d0b 85bd b46b 2fbd a11c 21be 0854 c8bd
00000290: 8a5c 573d 6da1 0a3e 0046 94bd b492 89bd
000002a0: 2310 d93d 07f1 4d3d 8cb9 b93d f5d9 6c3d
000002b0: a14a 9fbd cba6 9dba 08f0 8a3c d9d7 81bc
000002c0: 6328 9ebc 3830 78be 8e57 f1be 8ea3 b8be
000002d0: 683e b3be 4ad1 1abe 1500 153f da8e f73e
000002e0: f8b0 913d 291f 94ba dbf8 803d 11e0 303d
000002f0: f071 cc3c 488f ab3b c158 903c 9615 b6bd
00000300: 52c0 2d3e 55e0 af3e 13c5 1d3e 62ed bebd
00000310: 7981 13bd 547b 273d 870e ffbd 6f68 20be
00000320: cac9 003d 133d 513d 0383 4f3b e3d7 f03c
00000330: 3906 fbbc 7b6e 33bb acc8 4b3b 9738 a6bc
00000340: b796 983d ad70 1dbe 482f 923e 9054 38c0
00000350: e0c6 dcbd e700 113e 0483 53bf 8b7e 633e
00000360: 2694 1ebd b0e5 8abd 520e 903d f5cc a23d
00000370: f6a4 0c3a 1fc9 a8bb ef3e 223d a610 6ebb
00000380: cb0d 3e3d 171b b83d 13b7 9cbd 8b80 84be
00000390: f485 55be f3cf 70be b46d 26be ea8e 1a3e
000003a0: 808c cd3d c1b2 94bc 4f6a a03c d6d7 2ebd
000003b0: 41d2 3cbd b50f 67ba e5d1 8d3c 6dc6 b03c
000003c0: f130 39bd 803c ad3c 86e3 773c b0c1 ae3e
000003d0: 191d c3bd 314c 023e bd41 0abf c053 c7bd
000003e0: 8fe7 073e 9e51 9fbd 9930 83bd eba9 d2bd
000003f0: 0c90 6fbc 1aa1 2cbd 4fe4 b9bc b21f 2cbd
-0.21057832 -0.16735505 -0.27262312 0.28832132 -0.17652673 0.101618715 -0.29194242 0.15854
0.058372088 0.011361332 0.10032087 0.0015706614 -0.045875024 -0.0059545566 -0.0030024336 -0.06396775
-0.046331156 -0.034783393 0.2317567 0.9372729 0.6410731 0.04417818 -0.2366417 -0.6535573
-0.123796135 0.06617478 -0.14596748 -0.14238222 -0.056596223 -0.08919517 0.041341543 -0.024212308
-0.07819936 0.25871876 0.09334437 0.10566256 0.1844355 -0.07552071 0.12158877 -0.06251368
-0.028243659 0.011097641 0.09760813 0.005049721 0.012474222 -0.03587485 0.00096286734 -0.018248165
-0.60346395 -0.33249462 0.11949892 -1.1970518 -0.3299046 0.069151096 0.39708564 0.22308941
-0.009560167 -0.060956296 0.0356838 0.03762275 0.029330466 0.059065294 0.012647633 0.023462523
-0.09176763 0.08755513 -0.047585424 -0.06708123 0.1717436 -0.04679075 -0.13774528 0.023911031
0.08453831 -0.047263592 -0.09143717 -0.025802549 -0.017004328 0.010134709 0.02004558 0.016605444
0.3578331 0.24874277 -0.5710454 -0.42671016 0.15299849 0.054758467 0.03333839 -0.19450228
-0.0878457 0.07874547 0.052955918 0.007239116 0.057713587 -0.07897925 0.05440952 -0.023831826
-0.16806239 0.049223717 -0.16852345 -0.41402456 0.006074886 0.1747308 0.049711835 0.23066713
0.081267625 -0.13306317 -0.024803359 -0.14284697 -0.13151653 -0.008037953 -0.0009310791 -0.044385307
-0.29857758 -0.081335194 -0.33020964 -0.26958352 -0.10002612 -0.12391433 -1.07154 0.20794469
0.1613796 0.00463868 -0.005599634 -0.03883111 -0.13408583 -0.054066796 0.07393383 0.043815345
-0.30291384 -0.035613526 -0.16226494 0.23222187 0.3796861 0.077951774 0.22930372 0.06919399
0.0012031955 -0.02843095 -0.03390382 -0.0017585087 0.017746905 0.0140085155 -0.0079463115 -0.027230259
-0.078769185 -0.053411935 0.41566196 -0.112268925 -0.14517339 0.04004157 -0.6370501 0.3359096
-0.14189313 -0.010464926 0.06126303 -0.07905513 0.009388337 -0.03112993 -0.018666895 0.050364867
-0.06496344 -0.042827323 -0.15733577 -0.09781653 0.052578487 0.13538142 -0.07239914 -0.067174345
0.10598781 0.05027869 0.090685934 0.057825048 -0.07777906 -0.0012027858 0.016960159 -0.015849994
-0.019306367 -0.24237144 -0.4713711 -0.36062282 -0.3500855 -0.151189 0.5820325 0.48351175
0.07113832 -0.001130079 0.062974654 0.043182436 0.024956673 0.0052355863 0.017620446 -0.08890836
0.16967896 0.3435084 0.15407209 -0.09322621 -0.036012147 0.0408891 -0.12453943 -0.15664838
0.03144244 0.051083636 0.0031663782 0.029399818 -0.030642616 -0.0027379084 0.0031094952 -0.020290656
0.074506216 -0.15375014 0.28551698 -2.8801613 -0.1078012 0.141605 -0.8262179 0.22216241
-0.038715504 -0.06782091 0.070339814 0.07949249 0.0005365157 -0.0051509286 0.0396108 -0.0036325841
0.046399873 0.08989542 -0.07652106 -0.2587932 -0.2085188 -0.23516826 -0.16252786 0.1509358
0.10036564 -0.018151643 0.019581942 -0.042686306 -0.04609895 -0.0008814291 0.017312 0.021578992
-0.04521269 0.021147013 0.015129929 0.34132147 -0.09527034 0.12724377 -0.5400656 -0.09732771
0.13271926 -0.07779239 -0.06405754 -0.102863155 -0.014621746 -0.042145826 -0.022691874 -0.042022415

critic.0.bias f4 [64]
00000000: 2f11 ec3d bf56 a2be 2a2f eb3d d052 01be
00000010: f2e3 bb3a 4699 09be 68cb fcba 31bc 7d3d
00000020: 850f 643d f11f aa3e 27a0 d23e d587 05be
00000030: 813e 24be c8ed eebd f7db a63e 64ce 3e3e
00000040: e437 d13c 974a 99bd 0f32 9b3d 7390 083f
00000050: 8f36 1b3f d0b4 15be c2ba 003e 2f78 f83c
00000060: 0949 193e 0db2 96bd da16 d83c d2f3 893e
00000070: 7697 1f3e 9d3b 54bd 17e2 eabd 091e b63e
00000080: 6ece abbd 206c 00be b356 6cbd 0639 b8bd
00000090: 4109 523e f17d de3e 63d1 c1bd f32e 143e
000000a0: dcff 373d 2299 823d 118f b03e 17ed 7cbe
000000b0: dad5 9ebe 57f8 903e 3031 87be 3427 5bbe
000000c0: 2cd0 8d3e 092d 84bd f1ab a7be b2db 83be
000000d0: 90b3 853e 0f6f eabd e38b cbbd 4d98 b1be
000000e0: 0eb6 503e 1e8b 00be ca8f 89be 3ad9 023e
000000f0: f578 ce3d 9ede 983d bec2 bf3d d1c2 a4bb
0.11526715 -0.31706807 0.11483605 -0.12629247 0.0014334901 -0.13437375 -0.0019286694 0.06194705
0.055678863 0.33227494 0.41137812 -0.13040097 -0.16039468 -0.11666447 0.32589695 0.1863342
0.025539346 -0.0748493 0.07577907 0.5334541 0.60630125 -0.14619756 0.12571242 0.030330746
0.14969267 -0.07358179 0.026378084 0.26943833 0.15585122 -0.051814664 -0.114689045 0.3556979
-0.08388983 -0.12541246 -0.05769987 -0.08995251 0.20511343 0.4345546 -0.094637655 0.14471035
0.04492174 0.06376864 0.3448415 -0.24699818 -0.3102253 0.28314468 -0.26404715 -0.21401674
0.27697885 -0.06453902 -0.32748368 -0.25753552 0.26113558 -0.11446964 -0.09938791 -0.3468651
0.20381948 -0.12553069 -0.26867515 0.12778178 0.100816645 0.07464336 0.09363316 -0.0050281067

critic.2.weight f4 [64, 64]
00000000: 9ab6 a6bd 131f 353b 2f31 33bc 7420 56bd
00000010: 8c0a a9bc 42ab b33d 00d9 0e3e 60b7 b9bd
00000020: 294d 17be 8c76 00bf dcb0 dabe d550 d73e
00000030: 8c39 d73d a79e c53e 7a7e b1be 56b3 a63d
00000040: fa15 f3bd e8b0 2a3f e032 2bbf 5d87 13bf
00000050: db6d 80bf cfd4 223f 82ed 81bd a170 88be
00000060: 5bf3 cbbd e12d 723e 6a46 2f3e 6649 6dbe
00000070: 5874 fdbd 847f 4e3e c2fe 663e e5a8 a8be
00000080: bdbf abbb 7205 133d 9a1b 023e 0e18 a5bc
00000090: cc37 85be 8709 1fbf 1126 ab3b e00d 84be
000000a0: f6de bb3c ac82 783e 3c84 79be cf83 353e
000000b0: 8616 253e 4719 babe 6cd2 883e 3d91 113f
000000c0: 218f 03bf f4a0 983c a369 dc3c 31ca 123f
000000d0: 8bf5 61be c112 bd3b 8aab b2bd 09cd 303e
000000e0: a741 92be a38a fa3c bf1a cb3d c639 19bd
000000f0: 25fd 55be eab2 3abe 0abb e4bd e128 05be
00000100: a220 67bd b9a1 abbd 5bba 1c3d 5ab4 4d3d
00000110: 6fcd 49bc 149b 963d 2367 d43a 49bd 50bd
00000120: 43ba 26be df73 b3bc 86ee d33d 66a0 f43d
00000130: 5867 ec3d 2774 0fbd aaf3 8a3d 83db 833c
00000140: d962 e53d c745 2bbd 4642 863c 2e00 94bd
00000150: 0913 413c 7750 953d eb26 2cbd ad8f 963c
00000160: 0f8b e63d a059 fb3d 04a4 883d eaf7 023d
00000170: bd95 003e 1ea2 ecbd 0aae 6b3d b3ba ec3d
00000180: b3d2 5c3d bccb 1bbe 3ce3 5b3d 2e6f 11be
00000190: 7609 efbd 1a0d 45bd 8f44 bd3d 7ecb e23d
000001a0: 3220 ce3c 11bd cd3c 761d 56bc 1f71 223e
000001b0: 474f ab3c 82ed c8bd 555a 0bbc f3bd 0c3d
000001c0: 1ec1 013d 597a 8e3c b92e 8a3d 8644 aa3c
000001d0: 0833 97bd 81a9 23be c950 ad39 1a15 72bd
000001e0: d89e 883d f22d 223c 095c 9a3d 402f 593d
000001f0: 89f9 6d3d 0829 7d3d b574 c43d 398f ae3d
00000200: f100 6c3d d3ff 513d 4748 9e3c 21be babd
00000210: 0a43 8a3d b56a 683a ec4f a1bd a45f c63d
00000220: aa4c 10ba 54dd 583d a046 72bd f023 c3bc
00000230: fb9c e4bd b0b0 e73c 8ad2 c4ba f25d c33d
00000240: a88a 963d 2e99 293e ac09 1c3d dba9 c0bc
00000250: c87f 893c 87df c2bd 2f35 5ebc ac05 a2bd
00000260: 5900 c9bc 1b5b 053e dd09 9bbb ef1e 97bd
00000270: cbf6 e4bc 5b83 013e 8730 9c3d 51cf 6abd
00000280: a06e 91bb 8b85 98bd dad4 b03d cb7f d1bc
00000290: 990c ba3d ca6c 9d3d 89b2 0e3d 3e9e 6f3c
000002a0: f971 84bd dfc3 87bd db71 073d 6d4f f6bc
000002b0: 7919 c1bd 318d bebc 871b 06be f560 adbd
000002c0: b95e 74bd 2b87 da3d 02d5 e93d b3c8 8ebd
000002d0: e123 b23d 2b9a 9b3d 64fd 033e 1bd4 9d3d
000002e0: 8319 5b3d c4f9 e43c f8fb b13c 2bf5 783c
000002f0: 933b 063e 7566 a93d 509b 8b3d 4774 fe39
00000300: 5b5e b13b 9e43 103d f151 d6bc d9ca b5bc
00000310: d58e debc c773 cfbd 2dfd 473d 361c ab3d
00000320: dc75 eebc e438 cb3d a226 43bd 0fca 7d3d
00000330: 766a 14bd 8f9a a1bd 68f1 b73d 251b 893d
00000340: 9558 b5ba aea7 88b9 66f4 89bc 8504 4d3e
00000350: 57c3 21bc f4e5 2b3e e4ee 6b3d 7cb4 8f3d
00000360: d22e 36bc b34e 21be 10ad 833c dab2 abbd
00000370: 1596 aebd 93fe f8ba 9e45 82bd 61a2 113e
00000380: 53d4 b3bc 6d07 14bd 059f 72bc 370f 993c
00000390: 3a26 833d cdef 90bd 7a1f 34bc 863e 88bc
000003a0: 25c4 383e bb24 d6bc 4dc4 c23c a2e4 6b3d
000003b0: 7055 823c 5399 8ebc cf32 10bd df3b 843d
000003c0: b71a b8bd 63ad 143e ac12 8f3d 6be5 593a
000003d0: 56dd f8bd 320d 10bd 4847 01bd d5e7 43bd
000003e0: 54a4 d63d c128 743c 8217 b5bc 982a e73d
000003f0: e8cb a03c 319b 34bd 3ad3 0dbd 8feb aabd
-0.08140297 0.002763693 -0.010937019 -0.052277043 -0.020634912 0.08772899 0.13949966 -0.09068179
-0.14775528 -0.5018089 -0.42713058 0.42053857 0.10509023 0.38597605 -0.34666806 0.08139674
-0.11869426 0.6667619 -0.66874504 -0.5762842 -1.0033525 0.6360597 -0.06344129 -0.2664843
-0.09958526 0.23650314 0.17116705 -0.2317253 -0.123757064 0.20165831 0.2255812 -0.32941356
-0.005241363 0.035893865 0.12705842 -0.020153072 -0.26019132 -0.6212391 0.0052230437 -0.25791836
0.022933464 0.24268597 -0.2436685 0.17726062 0.16121873 -0.3634741 0.2672304 0.5686224
-0.5139027 0.018631436 0.02690584 0.5733977 -0.22066323 0.005770058 -0.08724125 0.17265715
-0.28565714 0.030583685 0.09917211 -0.037408613 -0.20897348 -0.18232313 -0.11168487 -0.13003875
-0.056427605 -0.083804555 0.03826366 0.050220825 -0.012317046 0.073537976 0.0016205054 -0.050961766
-0.1628199 -0.021905838 0.10348229 0.11944656 0.11543149 -0.03502288 0.067847565 0.016095882
0.11200494 -0.04181459 0.016389024 -0.07226597 0.0117843235 0.07290738 -0.042029303 0.018379057
0.11256992 0.12272954 0.066719085 0.03197471 0.1255712 -0.11554359 0.057539023 0.115590475
0.053911876 -0.15214437 0.053683504 -0.14202568 -0.116717264 -0.048108198 0.09241592 0.11073969
0.025161836 0.025114568 -0.0130685475 0.15863465 0.020911826 -0.09810926 -0.008505424 0.034360837
0.03167831 0.017392324 0.06747193 0.020784628 -0.0738278 -0.1598263 0.0003305732 -0.059102155
0.06670922 0.0098986495 0.075370856 0.053023577 0.058099303 0.06180671 0.095925726 0.08523411
0.057618085 0.051269364 0.019321574 -0.091182955 0.06751068 0.0008865998 -0.07876572 0.09686211
-0.0005504588 0.05294545 -0.059149384 -0.023820847 -0.11162754 0.028282493 -0.0015016359 0.09539403
0.07350665 0.1656234 0.03809516 -0.023518493 0.016784564 -0.09515291 -0.013562485 -0.07911238
-0.024536299 0.13023035 -0.0047314004 -0.07378947 -0.027949711 0.12647764 0.07626443 -0.05732662
-0.0044382364 -0.07447346 0.08634348 -0.025573632 0.09084434 0.076867655 0.034838233 0.01462513
-0.06467051 -0.06629156 0.033067565 -0.03006717 -0.09428687 -0.023260685 -0.13096438 -0.08465759
-0.059660647 0.106703125 0.11417581 -0.06971874 0.086982496 0.075977646 0.1288963 0.077064715
0.053491127 0.027951129 0.021726593 0.015195171 0.13108663 0.08271495 0.06816733 0.0004853329
0.0054128594 0.035220735 -0.02616212 -0.022191452 -0.027167717 -0.10129505 0.04882543 0.0835499
-0.029108934 0.099229604 -0.047644265 0.061960276 -0.03623434 -0.07890808 0.089815915 0.066946305
-0.0013835604 -0.00026064873 -0.016840171 0.20021255 -0.009873233 0.16786939 0.05760087 0.070168465
-0.011119561 -0.15752678 0.016073734 -0.083837226 -0.085247196 -0.0018996767 -0.06360935 0.14222099
-0.02195183 -0.036139894 -0.014808421 0.018684013 0.064037755 -0.07076988 -0.010993833 -0.016631376
0.18043573 -0.026140561 0.023775244 0.057591088 0.01590988 -0.017407095 -0.035204705 0.06456732
-0.089894705 0.14519267 0.06985983 0.0008312079 -0.121515915 -0.035168834 -0.03156212 -0.047828514
0.10480562 0.014902295 -0.022105936 0.11287421 0.01962848 -0.044093315 -0.03462527 -0.083457105

critic.2.bias f4 [64]
00000000: 9eb2 7a3c 4d7e a8bd b02e 2cbc d072 15be
00000010: 4bf9 4c3d 9805 05bb 17b3 a7bc 85b5 0a3e
00000020: 65fb fd3d 0434 a43d 2ace 6d3d 1e43 95be
00000030: 5b97 bfbd 98c0 3d3d e555 753c dd51 3d3e
00000040: c7e9 ed3d aef9 21be 2096 bcbd 0d98 673d
00000050: 4415 abbd 7188 c1bd 882b 3b3d 5075 2bbd
00000060: d0d2 a9bd b485 763c 02d0 3abe f539 a1bc
00000070: 5b2b b4bd 36ca 8ebb 9e49 ae3d 0ae6 153d
00000080: e144 13bd c0e5 433e 51ad eb3d e0f9 da3d
00000090: a565 dbbc 78c9 d6bc eece 31be 077e d3bd
000000a0: 1ffa 8abe 99d4 0a3d 50bf 843d a36c 843e
000000b0: caae f43c a21d e6bd bf9b 793d 9ad3 69bc
000000c0: 795b 543d 2800 39bd ab34 323e 7eaa 773c
000000d0: f84f f4bc 45f9 99bd dbaf 6d3d 2b2a 38bc
000000e0: 1af2 c1bd f6d5 b7bd 4e98 18bd 57df 253d
000000f0: 73db 0ebe b5fc babd 111e 2fbd ab62 b53c
0.015301375 -0.08227215 -0.010509178 -0.14594579 0.05004243 -0.0020297524 -0.020471139 0.13545807
0.12401465 0.08017734 0.05805794 -0.2915277 -0.09355041 0.04632625 0.014974092 0.1848826
0.11616855 -0.15817901 -0.092083216 0.05654149 -0.083536655 -0.09449852 0.04569581 -0.041859925
-0.082921624 0.015046526 -0.18243411 -0.019680956 -0.08797332 -0.0043576015 0.08510135 0.036596335
-0.03595436 0.19130611 0.11507667 0.10692191 -0.026781866 -0.026219115 -0.17364094 -0.10326772
-0.27143952 0.033894155 0.064818025 0.25864133 0.029868502 -0.11236121 0.060939547 -0.014271641
0.051845048 -0.045166165 0.17402904 0.015116332 -0.029823288 -0.075182475 0.058029037 -0.011240522
-0.09470005 -0.08976357 -0.037254624 0.040496197 -0.139509 -0.09130231 -0.042753283 0.022141775

critic.4.weight f4 [1, 64]
00000000: 9eb3 04be 5420 273a 424f d53b 82d3 003b
00000010: f500 25bb 6b47 493b 0c5b a33b 15cd 88bc
00000020: 10c5 8eb8 7a69 0d3b 7f6b 5839 b083 f53d
00000030: 5176 06bb 6bb6 76bb dabb 2f3b 385f edbd
00000040: 2fa4 9aba a141 0e3e 65d2 273b 0530 04bc
00000050: 96d9 1cbb 8204 9e3a eefa 8c3d b02a 6a3a
00000060: 425b 033b efb4 51bb b756 8a3d 1c3d 77bb
00000070: a2ab 11bb ef04 7a3a b9fd c0ba 6664 8d3b
00000080: af3b 32bb dafc a1bd 8c83 60b9 116b a0ba
00000090: cf70 3abb e1e0 623b d336 bdbd 6c94 cdba
000000a0: 5c63 393d ce77 21be 8975 8ebb 01a0 22be
000000b0: 7357 b0bb 3016 f83d c27d 8ebb a850 573b
000000c0: 9c58 84ba ecd8 413a 60af 5ebd 9734 8439
000000d0: 96e2 a4ba 6aca 3a3a 5fae 783b 7fba 593b
000000e0: b47d fe38 a636 983b 1c7f b13a c1d8 34bb
000000f0: 9e1d 003b de3a 8e3d f6a6 af3b a611 1cbb
-0.12959144 0.00063753617 0.0065096924 0.0019657318 -0.0025177572 0.0030712734 0.004985219 -0.016699353
-6.8077934e-05 0.0021577762 0.0002063941 0.11988008 -0.00205173 -0.003764535 0.002681485 -0.11590427
-0.0011798198 0.13892223 0.0025607583 -0.008068089 -0.0023933402 0.0012055787 0.068837985 0.00089327525
0.0020043408 -0.0031998714 0.06754821 -0.0037725633 -0.0022227545 0.00095374783 -0.0014724053 0.004314947
-0.0027196219 -0.07909556 -0.0002141131 -0.001223894 -0.0028448587 0.0034618902 -0.092389725 -0.0015684492
0.045260772 -0.15768358 -0.0043475074 -0.15881349 -0.0053815185 0.12113607 -0.0043484876 0.0032854471
-0.0010097208 0.00073946896 -0.05436647 0.00025216184 -0.0012579735 0.0007125499 0.003794573 0.0033222733
0.00012135078 0.0046451865 0.001354191 -0.0027595016 0.0019548903 0.06944822 0.0053604795 -0.002381423

exp_avg f4 [7]
00000000: f5e4 4cbc 545c 593a df70 9bbb b526 d9ba
00000010: 5376 3abc 27de c8bb d5b8 723b
-0.0125057595 0.0008291651 -0.00474368 -0.0016567322 -0.01138075 -0.0061299982 0.0037036438

exp_avg_sq f4 [7]
00000000: 979f 8a3a ef93 113b 541f b43a 8487 be3a
00000010: b426 da3a 4c2c 933a 909e 9f3a
0.0010576126 0.002221342 0.0013742247 0.0014536236 0.0016643615 0.0011228411 0.0012177993

exp_avg f4 [64, 32]
00000000: 3478 ca38 365b 1cb9 1df5 bb37 53da 2738
00000010: 7960 eab7 f02a eb38 ae02 dbb9 fd7d 9e35
00000020: 7ab5 9c37 6a7c 2f39 03b6 2d39 1d90 1d39
00000030: c35c cd38 691f e0b9 985d 3539 841d ceb9
00000040: b552 bbb7 1c81 06b7 26fd bc37 38f7 5138
00000050: 0323 2939 6f7a d6ac b28b b038 71f2 1139
00000060: caf0 802c 391c 053a c154 1339 0bb6 4239
00000070: 7424 3c37 8ce3 30ba 0a78 1a3a 01b1 6bba
00000080: c052 6fb8 6bac af39 85a0 a838 66c5 a238
00000090: 0c06 8639 ab81 9ab9 8150 8738 2629 d9b7
000000a0: 657a fcb7 c5d5 87ba 4d36 3ab8 100c 973a
000000b0: 71b6 32b9 a1a7 583a 7481 d338 37b9 d137
000000c0: 7c73 d4b7 8279 e2b7 ccb6 b339 5862 a138
000000d0: ad9a 8039 11ee 91ad 64cd ac39 97db c639
000000e0: fd7a 7d2d 8fa1 42b9 f6b2 3b3a ad0f 3237
000000f0: df41 383a 7487 7539 f767 0aba 28c7 a139
00000100: ab4e 73b9 1290 b435 505e 173a ec63 0439
00000110: 8a5d ee39 3171 b9b7 acbc be39 6c7f 8b37
00000120: 972b d237 e32c cfb9 0665 87b9 dfad 8839
00000130: 8c98 cdb8 0bb7 3fba 3186 df39 559e 1c3a
00000140: 685d 4c36 8dec 3037 d282 0739 3f90 b638
00000150: c04b 06b8 48c8 762c 07eb 56ba a757 a9b8
00000160: f2ad 1dae c255 03ba a8fd 1eba 045a a23a
00000170: 742e b0b8 bab9 7a3a 509e bd39 efa0 f43a
00000180: 4fbb ff38 141d a439 1ee3 3eb9 1244 7f38
00000190: e1aa 5b38 933b f7b8 550b f337 8c58 87b7
000001a0: 106b 70b6 92ec 423a f70b 2e39 6739 24ba
000001b0: 24d2 abb8 53f7 643a 8f4f 283a 8623 1039
000001c0: 6a57 c236 2d16 8cb7 fd47 4c39 5fe9 e7b7
000001d0: 285d 7bb8 e759 a0ac 7caa c139 b459 db38
000001e0: 8727 8e2d 9d5b 9d39 4fa7 ca39 828e 2fba
000001f0: 98ea 233a 3171 0f3a 12ee efb8 f60c b6b6
00000200: e25c 77b9 f95a 483a b5e1 6ab9 14a0 a039
00000210: dfb4 d138 6bf3 02ba e9f5 82b8 0e9e b9b8
00000220: 8f55 75b8 eeaf ddb9 4ed1 de38 a366 a9b9
00000230: 8656 f739 229f 073a 8b0e 80ba 5dab 85ba
00000240: ddda dcb7 a49f f2b5 abd0 803a 1cd2 67b9
00000250: b09f 3d3a 5134 1fae 5d5f 35b9 4318 593a
00000260: 0c0e 05ad de0d 95ba 9171 923a ea85 85ba
00000270: c38b 353b 84cf ab38 3f09 12bb b085 03ba
00000280: d2d3 8f39 12fc ffb9 f372 36b9 9981 06ba
00000290: 4617 ac37 4889 393a 8cd4 9e37 5b9b 2838
000002a0: 4552 6238 a09e a339 4f4d 4a39 dc8e b538
000002b0: 884f 94b9 4cff 2538 8373 333b 77f6 3439
000002c0: 9d15 ef37 09a4 df36 fc9d 33ba 79c5 a139
000002d0: 3a98 11ba 662b 492d 027a 6439 0f7c 88b9
000002e0: e1b7 272d 81a9 923a f3c8 99ba 4130 56ba
000002f0: d04f 6cbb 5bee 55b9 2b24 463b c5a2 a1ba
00000300: b65f 4ab9 b545 bd39 0ae5 9438 c9dd ae39
00000310: 1e7b cc38 fa9a 89b9 1d70 d3b6 e453 bab7
00000320: b13c 6eb6 7cbb 70b9 0cbd 46b8 ab62 3339
00000330: 8af3 f738 af3a 98b8 ddc0 b438 c031 c938
00000340: 9aa5 c136 b098 a537 b818 1d39 8af6 5c38
00000350: 7a49 1d39 83f7 bf2c 3218 78b9 dd90 02b9
00000360: 4e27 36ad 634e c1b9 af71 7639 ecbd 48b9
00000370: 8527 953a 9b8a d4b9 4af2 7fba 69c6 fb39
00000380: 19d8 8f39 d8c6 053a 5654 ebb9 2c24 6739
00000390: 5916 3bb9 e0a6 c8b8 8371 bab9 6a1c 3538
000003a0: 81d8 1c37 a2f9 89ba f0f6 8039 1cd0 a43a
000003b0: 63ad 4ab9 3c44 6b3a 8cde 02b9 e1f6 863a
000003c0: e3f7 0fb7 ee58 9d36 9a6f 04ba ee59 8538
000003d0: c3e6 0dba 1054 242e dfa5 b43a 5d00 60ba
000003e0: 9386 842e 3b2b a539 de19 e038 f070 6dba
000003f0: 7bb5 833a e62f 89ba 4b1b 1839 4a67 67ba
9.6545e-05 -0.00014911298 2.2406277e-05 4.0019233e-05 -2.7939897e-05 0.00011213671 -0.00041772932 1.1808585e-06
1.8681156e-05 0.00016735648 0.0001656637 0.00015026373 9.79244e-05 -0.00042748012 0.00017296372 -0.00039313373
-2.233065e-05 -8.017083e-06 2.2529228e-05 5.0059723e-05 0.00016130139 -6.0958387e-12 8.418354e-05 0.00013918594
3.6647118e-12 0.0005077753 0.00014050586 0.00018569098 1.1214161e-05 -0.00067477743 0.0005892521 -0.0008990914
-5.7059107e-05 0.00033507062 8.040763e-05 7.76153e-05 0.00025562977 -0.0002946978 6.452297e-05 -2.5887577e-05
-3.0097735e-05 -0.0010363391 -4.4396427e-05 0.0011523981 -0.00017043368 0.0008264725 0.000100853766 2.5000989e-05
-2.5326146e-05 -2.6997881e-05 0.00034277735 7.695396e-05 0.00024529305 -1.6590314e-11 0.00032959424 0.0003792911
1.4408694e-11 -0.00018561467 0.0007160151 1.0613277e-05 0.00070288585 0.00023415481 -0.0005279774 0.00030856696
-0.00023203592 1.3452975e-06 0.00057742465 0.00012625725 0.0004546459 -2.2106427e-05 0.00036380196 1.6629427e-05
2.5054249e-05 -0.0003951556 -0.00025824475 0.00026069485 -9.803576e-05 -0.00073133473 0.00042633855 0.0005974521
3.0452738e-06 1.0545494e-05 0.00012923338 8.705304e-05 -3.2018637e-05 3.506988e-12 -0.0008198474 -8.0748745e-05
-3.585216e-11 -0.00050100323 -0.00060650194 0.0012386446 -8.4009866e-05 0.00095644186 0.0003616684 0.0018663685
0.000121942365 0.00031302182 -0.0001820442 6.0860133e-05 5.2372812e-05 -0.000117889744 2.8973134e-05 -1.6134487e-05
-3.5825105e-06 0.00074357644 0.0001659839 -0.0006264657 -8.193057e-05 0.0008734364 0.00064205466 0.00013746144
5.791827e-06 -1.6699627e-05 0.00019481774 -2.7646018e-05 -5.9929822e-05 -4.5574547e-12 0.0003693885 0.00010459442
1.6161085e-11 0.0003001363 0.00038653097 -0.00066969555 0.0006252914 0.0005471884 -0.00011440752 -5.4255315e-06
-0.00023590357 0.00076429505 -0.00022400061 0.00030636846 9.9995865e-05 -0.00049953785 -6.2446874e-05 -8.8509274e-05
-5.8492235e-05 -0.00042283483 0.00010624771 -0.00032310662 0.00047175976 0.0005173554 -0.0009769959 -0.0010198165
-2.632796e-05 -1.8076867e-06 0.0009827813 -0.00022108149 0.0007233573 -3.619888e-11 -0.0001729703 0.00082815083
-7.563294e-12 -0.0011371931 0.0011172761 -0.0010187004 0.0027701713 8.192568e-05 -0.0022283343 -0.00050171744
0.00027432904 -0.00048825197 -0.00017399694 -0.0005131006 2.0514835e-05 0.00070776464 1.8934043e-05 4.0199007e-05
5.395922e-05 0.00031207968 0.00019293021 8.657362e-05 -0.00028288015 3.957683e-05 0.0027382083 0.00017257953
2.8501085e-05 6.665014e-06 -0.00068518496 0.00030855442 -0.00055539946 1.1435164e-11 0.00021789226 -0.00026032372
9.53368e-12 0.0011189432 -0.0011732861 -0.00081706425 -0.0036058314 -0.00020402057 0.003023396 -0.0012331834
-0.00019299876 0.00036100825 7.099852e-05 0.0003335311 9.7504104e-05 -0.00026246143 -6.3013417e-06 -2.2211992e-05
-3.550009e-06 -0.00022958027 -4.7382942e-05 0.00017107527 0.000118232405 -7.2588555e-05 8.6189924e-05 9.5936935e-05
5.771127e-06 1.9740633e-05 0.00014981895 5.2681695e-05 0.00015000059 5.456026e-12 -0.00023660137 -0.00012451732
-1.035423e-11 -0.0003687023 0.00023502739 -0.00019144238 0.0011379576 -0.0004053906 -0.0009763582 0.00048022278
0.0002743609 0.00051031774 -0.00044885528 0.00022043352 -0.00017842035 -9.567826e-05 -0.00035561257 4.3180225e-05
9.348733e-06 -0.0010526667 0.00024598045 0.0012574228 -0.00019328813 0.0008974706 -0.00012480671 0.0010296964
-8.58118e-06 4.6893174e-06 -0.00050520303 6.358685e-05 -0.00054131093 3.7363945e-11 0.0013782344 -0.0008544976
6.02657e-11 0.00031503462 0.000106859705 -0.00090576615 0.0010048592 -0.0010466545 0.00014506017 -0.0008827342
