logs/rsl_rl/franka_reach/2025-06-16_20-11-58/model_800.pt (torch, 172795 bytes, 36 tensors)

std f4 [7]
0	0x3ddd35c2	0.10801269
1	0x3dc87d62	0.0978954
2	0x3dd26fa4	0.102752
3	0x3e0bb277	0.13642298
4	0x3ddcf20b	0.107883535
5	0x3decb909	0.1155873
6	0x3e0d8fb7	0.13824354

actor.0.weight f4 [64, 32]
0	0xbec21f84	-0.3791467
1	0x3e5a8454	0.21339542
2	0xbee820ac	-0.45337427
3	0x3ec3c064	0.3823272
4	0x3dd58eeb	0.1042765
5	0x3e6983c0	0.22804165
6	0x3e1b44c4	0.15162951
7	0x3ee69cd0	0.45041513
8	0x3f1dc773	0.6163246
9	0x3ce97681	0.02849889
10	0x3eaa2c77	0.3323705
11	0x3e55acf8	0.20866764
12	0x3e9caa26	0.30598563
13	0x3d92d76d	0.071699955
14	0xbd3a1044	-0.04542567
15	0xbdb1937d	-0.08670709
16	0xbf08108c	-0.5315025
17	0x3dd4ad89	0.10384662
18	0xbf465723	-0.7747671
19	0xbdcea790	-0.10090554
20	0x3f3c190d	0.73475724
21	0xbcacbca6	-0.021086048
22	0xbf32c33a	-0.6982914
23	0x3d99dd35	0.07512895
24	0xbe113ca2	-0.14183286
25	0xbdbd15a3	-0.092326425
26	0xbe91e02c	-0.28491342
27	0xbe7ba56b	-0.2457482
28	0x3d9e4f80	0.07730007
29	0xbea59587	-0.32340643
30	0x3b3e0b96	0.0028998605
31	0xbe773b20	-0.24143648
32	0x3cf26de8	0.029593423
33	0x3de1f7ce	0.11033593
34	0xbe980ed9	-0.29698828
35	0x3f5ad341	0.854786
36	0x3f594f9f	0.8488712
37	0x3e89566f	0.26823756
38	0x3dbe620c	0.09296045
39	0xbe1a8148	-0.1508838
40	0x3e563ec0	0.20922375
41	0x3de966bd	0.11396549
42	0xbe3551e3	-0.17707019
43	0x3f066b3a	0.52507365
44	0xbdcdd7cf	-0.10050928
45	0x3d8ba684	0.0681887
46	0x3dc91ac9	0.09819562
47	0x3e34a705	0.17641838
48	0x3ecfffe0	0.40624905
49	0xbf90a21f	-1.1299475
50	0xbf7aa817	-0.97912735
51	0xc0021e36	-2.033094
52	0xbf045e5a	-0.5170647
53	0x3e10d9db	0.14145605
54	0x3e910546	0.28324336
55	0x3ea8a9c6	0.32942027
56	0x3d668aec	0.05628483
57	0x3db7f8a9	0.08982975
58	0x3dca18a7	0.09867983
59	0xbe066f01	-0.13128282
60	0x3dc020e3	0.09381273
61	0xbdd289ed	-0.102802135
62	0x3c0f951e	0.00876358
63	0x3b8e9a45	0.0043518865
64	0x3f2bbf70	0.67088985
65	0xbe2c728a	-0.16840568
66	0x3f4a9c29	0.7914453
67	0xbe779f26	-0.24181804
68	0x3e69aa73	0.22818927
69	0x3c58563c	0.013204154
70	0x3e7c2d86	0.24626741
71	0x3f23bd8d	0.63961107
72	0x3f55e64d	0.83554536
73	0xbe0b8c2b	-0.13627689
74	0x3c188408	0.009308822
75	0xbe11be9c	-0.14232868
76	0x3da9a27c	0.082829446
77	0x3da04595	0.07825772
78	0x3e31835b	0.17335264
79	0x3dc07129	0.093965836
80	0xbf507e62	-0.81442845
81	0x3f256cc0	0.64619064
82	0x3ce47407	0.027887357
83	0xbfe020ab	-1.750997
84	0x3ead38ff	0.33832547
85	0xbd21f4e5	-0.03954019
86	0xbe6908b5	-0.22757228
87	0x3d4e6109	0.05038551
88	0xbdba41c3	-0.09094574
89	0xbd2c64a9	-0.042088185
90	0x3dfb6419	0.122749515
91	0xbce4b306	-0.027917396
92	0x3d3ad007	0.045608547
93	0x3ea8e955	0.32990518
94	0xbefb5885	-0.49090973
95	0xbf00f282	-0.5037004
96	0xbf8cfa7a	-1.1013939
97	0xbb9e517f	-0.0048314924
98	0x3beae44c	0.0071683284
99	0xbf3f0860	-0.74622154
100	0xbd9fab20	-0.077963114
101	0xbeecaf81	-0.4622765
102	0x3e88820b	0.26661715
103	0xbd5e6020	-0.05429089
104	0x3e2cd86c	0.16879433
105	0xbe53aff8	-0.20672596
106	0xbe99ca91	-0.30037358
107	0x3dc82c2b	0.09774049
108	0x3e700708	0.23440182
109	0xbe878efa	-0.2647627
110	0xbe3c1afb	-0.18369667
111	0x3c9e64ef	0.019335238
112	0x3ef9de4d	0.48802415
113	0x3eadd07b	0.3394812
114	0xbe0241f2	-0.12720469
115	0x3e9f14a5	0.31070438
116	0x3efedd33	0.49778137
117	0xbe1ee9a5	-0.15518816
118	0xbf11ba88	-0.5692525
119	0xbe2e41a9	-0.17017235
120	0xbb0f4d5d	-0.002186618
121	0xbeffee89	-0.49986675
122	0xbe718210	-0.23584771
123	0xbda10877	-0.07862943
124	0xbeae45f4	-0.34037745
125	0xbed5636b	-0.41677412
126	0x3e0a7edd	0.13524957
127	0xbea54aa7	-0.32283518
128	0xbd2e11bf	-0.042497393
129	0xbe04f497	-0.12983929
130	0x3dade9c6	0.08491854
131	0x3e932ebc	0.28746593
132	0xbf089c98	-0.53363943
133	0x3f78856a	0.97078574
134	0x3db05cb4	0.08611432
135	0xbe4e2963	-0.20132975
136	0xbe495017	-0.19659458
137	0x3cb856d6	0.022502344
138	0xbe2c9780	-0.16854668
139	0xbe00eab9	-0.1258954
140	0x3d5b9cb8	0.053616256
141	0xbdd6e472	-0.10492791
142	0xbde99431	-0.114052184
143	0xbde39718	-0.11112803
144	0xbe8aa327	-0.270776
145	0xbeb9f481	-0.36319354
146	0xbedc5b4c	-0.43038404
147	0x3ff7cb2a	1.9358876
148	0x3f655b4c	0.8959243
149	0xbe0d9855	-0.13827641
150	0xbe94dd4e	-0.29075092
151	0xbf46478a	-0.7745291
152	0xbc9480ae	-0.018127766
153	0xbf15fa11	-0.58584696
154	0x3d0197b7	0.031638827
155	0x3deccd79	0.11562628
156	0xbe231214	-0.15924865
157	0x3d50a43f	0.050937887
158	0xbea74f60	-0.32677746
159	0xbceb0b38	-0.028691873
160	0x3eea7adb	0.45796856
161	0xbf1999e6	-0.60000455
162	0x3ecdc050	0.40185785
163	0xbe2c5c0d	-0.1683199
164	0x3eab91f3	0.33509788
165	0x3f966975	1.1750933
166	0x3d21c8bd	0.03949808
167	0x3ec0ab48	0.37630677
168	0x3e11f9b1	0.14255406
169	0xbdaee2d0	-0.08539355
170	0x3cfbb944	0.03072799
171	0xbdc069da	-0.093951896
172	0xbcd9e506	-0.026598465
173	0x3a7813bd	0.00094633905
174	0xbb80298d	-0.0039112032
175	0xbd32eab5	-0.043680865
176	0x3ba59a91	0.005053826
177	0xbf40ef9e	-0.75365627
178	0x3dcad901	0.099046715
179	0xbfa9fe0b	-1.3280653
180	0xbf47a370	-0.7798376
181	0x3da8381b	0.08213826
182	0x3d72498d	0.059152175
183	0x3f71cff1	0.9445792
184	0x3db53b5e	0.08849214
185	0x3e690c18	0.2275852
186	0x3e6292f7	0.22126375
187	0x3d9ed80f	0.07756054
188	0x3d94df3a	0.072691396
189	0x3d96968f	0.073529355
190	0x3d88a79e	0.066725954
191	0xbd1040a4	-0.035217896
192	0x3dcaecb4	0.09908429
193	0x3cd245ce	0.025668051
194	0xbca41c09	-0.0200329
195	0xbf11abc1	-0.569027
196	0xbdcbb6e8	-0.09946996
197	0xbeeae246	-0.45875758
198	0x3db22ecd	0.08700333
199	0x3e94db2f	0.29073474
200	0x3dddf51e	0.10837768
201	0x3d2b4586	0.04181435
202	0x3e330aae	0.17484543
203	0x3d81bbbe	0.06334637
204	0xbeb39d96	-0.35081166
205	0xbd6937f4	-0.056938127
206	0x3da20d22	0.07912661
207	0xbe5a4cd2	-0.21318367
208	0x3fb0bc7f	1.3807524
209	0x3eec0396	0.46096486
210	0xbe3edcff	-0.18638991
211	0xbdf723f2	-0.12067403
212	0xbcaa026b	-0.020753106
213	0xbddb4cb2	-0.10707988
214	0xbedacce9	-0.4273446
215	0x3ead5d98	0.3386047
216	0x3ccf23b9	0.025285589
217	0x3e672ff4	0.22576886
218	0x3ebd2a54	0.36946356
219	0xbe0376f8	-0.12838352
220	0xbda0c0d1	-0.07849277
221	0x3dd7d6cc	0.10539016
222	0xbd849352	-0.064734116
223	0xbdf9cdff	-0.12197494
224	0x3f789041	0.97095114
225	0x3ad74b65	0.0016425668
226	0x3f9367aa	1.1516011
227	0xbe97b961	-0.2963362
228	0xbeccbd81	-0.3998833
229	0xbed31998	-0.41230464
230	0xbf3dbed7	-0.74119323
231	0x3e77fc3a	0.2421731
232	0x3debd9cd	0.115161516
233	0x3d923bc4	0.07140306
234	0xbb74b2d5	-0.0037338038
235	0x3e6b6ef2	0.22991541
236	0x3ecfc128	0.40577054
237	0x3e2e2931	0.17007901
238	0xbaa61cb8	-0.0012673354
239	0xbe884b2b	-0.2661985
240	0x3f5613e3	0.83624095
241	0xbd11088d	-0.035408545
242	0x3d1209de	0.03565394
243	0xbffd629d	-1.9795719
244	0xbf16163e	-0.5862769
245	0xbdf9f13c	-0.12204215
246	0xbf16c134	-0.58888555
247	0x3e1c5a6c	0.15268868
248	0xbd6ad625	-0.05733313
249	0xbe4ff41d	-0.20307966
250	0xbde52162	-0.11188008
251	0xbf08c4e1	-0.53425413
252	0x3ccf32e7	0.025292827
253	0xbd9cf86e	-0.07664572
254	0x3c8cf49e	0.017206486
255	0xbadd6572	-0.0016891195

actor.0.bias f4 [64]
0	0xbe8aaea9	-0.2708638
1	0xbe07f7ed	-0.1327817
2	0xbf25267b	-0.6451184
3	0xbbfd7d93	-0.007735917
4	0x3e0470eb	0.129337
5	0xbea433b9	-0.3207071
6	0xbeca0d8e	-0.39463466
7	0xbccd8c79	-0.025091397
8	0x3ec55633	0.38542327
9	0x3e8a1ec8	0.2697661
10	0xbde157cc	-0.11003074
11	0xbca9f1f0	-0.020745248
12	0xbdf842c0	-0.121221066
13	0xbe837132	-0.256723
14	0xbf2ab788	-0.66686296
15	0xbe8ef3cc	-0.27920377
16	0x3f2a0ca5	0.66425544
17	0x3e544662	0.20729974
18	0x3e8c4dfb	0.27403244
19	0x3e46bf7d	0.19408984
20	0x3e0d7614	0.13814574
21	0x3e6e217e	0.23254964
22	0xbead6dba	-0.33872777
23	0x3e1c3cab	0.15257518
24	0xbf2a454d	-0.66511995
25	0x3f36044c	0.71100307
26	0xbd99e013	-0.07513442
27	0xbedae34b	-0.42751536
28	0xbde6435a	-0.11243315
29	0x3e3abc26	0.18235835
30	0xbe553375	-0.2082041
31	0x3ee2bb80	0.44283676
32	0xbf378c6b	-0.71698636
33	0xbe4cbe36	-0.19994435
34	0x3eb57478	0.3544042
35	0xbd8d2682	-0.068921104
36	0x3d0cd52c	0.034382984
37	0x3d2fa62b	0.04288308
38	0xbf11c834	-0.5694611
39	0xbe96dd18	-0.29465556
40	0x3e04c77b	0.12966721
41	0xbd8ac805	-0.06776432
42	0x3f0c7871	0.5487128
43	0xbe4b6a5f	-0.19864796
44	0x3dd9e1f3	0.106387995
45	0x3db3a2cb	0.08771285
46	0xbe80d30e	-0.25161022
47	0xbce254d8	-0.027628347
48	0x3f012238	0.5044284
49	0xbf06e343	-0.52690524
50	0x3d886258	0.066593826
51	0xbe50236c	-0.20326012
52	0xbc940625	-0.018069336
53	0xbe800130	-0.25000906
54	0xbf134f4b	-0.57542866
55	0xbe991638	-0.29899764
56	0xbed32763	-0.41240987
57	0x3d082433	0.033237647
58	0x3e10ea04	0.1415177
59	0x3e8f86f3	0.28032646
60	0xbd67e5e6	-0.056615733
61	0x3e94fe99	0.29100493
62	0x3e90ed2e	0.28305954
63	0xbdb08e1e	-0.08620857

actor.2.weight f4 [64, 64]
0	0xbe05d9b0	-0.13071322
1	0x3e13e5ef	0.14443181
2	0x3ef1fcee	0.47263283
3	0x3e82a7e2	0.2551871
4	0xbdf22f18	-0.11825389
5	0x3e897dcb	0.26853785
6	0x3e84a750	0.259089
7	0xbdade5c4	-0.0849109
8	0x3e3f3a37	0.18674551
9	0xbe146562	-0.144918
10	0x3de33368	0.11093789
11	0xbd883776	-0.06651203
12	0x3cb92ee4	0.022605367
13	0x3e66ce5d	0.22539659
14	0x3e373f31	0.178952
15	0xbd15bf1b	-0.036559206
16	0xbae3fb72	-0.0017393662
17	0x3e1ea7ec	0.15493745
18	0x3d8c5da5	0.06853799
19	0xbd2ae357	-0.041720714
20	0xbe294977	-0.16531931
21	0x3e49312d	0.19647665
22	0xbdb73a3f	-0.089466564
23	0xbd1d09ba	-0.038339354
24	0x3d8c3f58	0.06848019
25	0xbf49874b	-0.78722066
26	0x3cf64113	0.030060327
27	0xbea6652e	-0.3249907
28	0xbe5cd11c	-0.21564144
29	0xbcfbd330	-0.03074035
30	0xbe0b3bdd	-0.13597055
31	0xbe6d2dbc	-0.23161978
32	0xbe94b3b8	-0.29043365
33	0x3eab7140	0.3348484
34	0x3e1e4ea8	0.15459692
35	0xbf025362	-0.5090848
36	0x3db180c6	0.0866714
37	0xbd4b2b28	-0.049601704
38	0x3ec04969	0.37556008
39	0x3d27154f	0.040791806
40	0x3da6640d	0.08124552
41	0x3e1035b4	0.14082986
42	0x3e82911c	0.25501335
43	0xbcc7c7b6	-0.024387222
44	0xbc72b94b	-0.014814685
45	0xba59ef4d	-0.00083135517
46	0xbe230475	-0.15919669
47	0x3e5abc40	0.21360874
48	0xbe55d3f4	-0.20881635
49	0xbdaf00c1	-0.08545066
50	0xbe6f504f	-0.23370479
51	0xbef72eb0	-0.48277807
52	0xb7f68be5	-2.9390629e-05
53	0xbc6e3516	-0.014539024
54	0xbecc9997	-0.3996093
55	0x3e2b5eb4	0.16735345
56	0x3cc9053a	0.024538625
57	0xbe2e771b	-0.17037623
58	0x3e08bf78	0.1335429
59	0xbeed8f57	-0.46398422
60	0xbc68587f	-0.014181255
61	0x3dc1750f	0.09446155
62	0x3e086bae	0.13322327
63	0xbe369022	-0.1782842
64	0x3e12d4a6	0.14338931
65	0x3eb06d54	0.3445841
66	0xbcb2d22f	-0.021828739
67	0x3e0e4e27	0.13897
68	0xbe53b94b	-0.20676152
69	0xbc899853	-0.016796267
70	0x3d38487f	0.044991013
71	0x3dfc9c53	0.12334504
72	0x3d09a99c	0.033609018
73	0x3e3bdbc1	0.18345548
74	0x3d3c10b5	0.04591437
75	0xbd4cf4f8	-0.050038308
76	0xbda7db97	-0.0819618
77	0x3e8a7228	0.2704022
78	0x3df1d7f6	0.118087694
79	0xbdd7a8b1	-0.10530222
80	0xbdb59442	-0.088661686
81	0xbc706238	-0.014671855
82	0x3dc2c82b	0.09510835
83	0xbd120db6	-0.035657607
84	0x3daba8b4	0.08381787
85	0x3dbc045e	0.091805205
86	0xbc808abf	-0.01569116
87	0x3d7e9eeb	0.062163275
88	0x3d6b45a8	0.057439476
89	0xbc932ab5	-0.0179647
90	0xbd9a35d2	-0.07529797
91	0xbd154cd5	-0.036450226
92	0xbe258ef5	-0.16167815
93	0xbd1302ee	-0.035891466
94	0xbe24d44a	-0.16096607
95	0x3e2f1187	0.1709653
96	0x3e680c56	0.22660956
97	0x3d83d93b	0.06437918
98	0xbe82eb2c	-0.25570047
99	0xbe30e7ca	-0.1727592
100	0xbcd1251b	-0.025530389
101	0xbccf55e2	-0.025309507
102	0x3d8ab151	0.06772102
103	0x3e03845f	0.12843464
104	0xbe874383	-0.26418695
105	0xbeb041dd	-0.3442525
106	0xbcabb652	-0.02096096
107	0xbd405ee5	-0.0469655
108	0x3dbf817d	0.0935087
109	0x3d13d74c	0.036093995
110	0x3db22eb3	0.087003134
111	0xbe153bde	-0.14573619
112	0xbeb1efc1	-0.3475323
113	0x3d9bf2ba	0.07614656
114	0xbe1b6cbe	-0.151782
115	0x3eb8d681	0.36101153
116	0xbc977b5b	-0.018491438
117	0x3b1b138e	0.0023662779
118	0x3d2411f7	0.040056195
119	0x3e1e2910	0.15445352
120	0x3d919129	0.07107765
121	0xbea5689d	-0.32306376
122	0xbabf5a4c	-0.0014599054
123	0x3e7a08ee	0.24417469
124	0x3e3c753f	0.18404101
125	0xbc6b462d	-0.014359993
126	0x3e03548c	0.12825221
127	0xbea1e974	-0.31623423
128	0x3e948a8a	0.29011947
129	0xbd887a14	-0.066639096
130	0xbeda631a	-0.42653733
131	0xbeb03ea0	-0.3442278
132	0x3e82f204	0.25575268
133	0xbeaa741c	-0.3329171
134	0xbd1de062	-0.038544066
135	0xbd2f908c	-0.04286246
136	0x3c10f5e9	0.008847692
137	0xbd126bef	-0.035747465
138	0xbdceec1c	-0.10103628
139	0x3dc5e7d1	0.09663356
140	0xbbb30463	-0.0054631694
141	0x3dd1c8c8	0.10243374
142	0x3e642401	0.2227936
143	0x3e450ffe	0.19244382
144	0xbe73ad17	-0.23796497
145	0xbdd781bc	-0.10522792
146	0xbb502bef	-0.0031764468
147	0xbcde33b9	-0.027124273
148	0xbe02ea86	-0.12784776
149	0x3e69cc08	0.22831738
150	0x3e8f2169	0.27955177
151	0xbdccaedd	-0.0999429
152	0x3e381fc2	0.17980865
153	0xbe87ea3e	-0.265459
154	0xbeb18ca5	-0.34677616
155	0xbb6adc2f	-0.0035836806
156	0x3d4c7405	0.049915332
157	0x3c661e43	0.014045301
158	0x3dda31cd	0.1065403
159	0xbe8cc073	-0.27490577
160	0x3e41bf29	0.18920578
161	0x3e8d445e	0.27591223
162	0x3ad83520	0.0016495325
163	0xbe19b546	-0.15010557
164	0xbe9a91ad	-0.30189267
165	0xbe9dd82e	-0.30828995
166	0xbe0cfd77	-0.13768564
167	0xbdeafa90	-0.11473572
168	0xbd9ac98a	-0.07557972
169	0xbe1a1108	-0.1504556
170	0xbe6c8c06	-0.2310029
171	0xbd739f91	-0.059478346
172	0x3e698c24	0.22807366
173	0x3c93cdc7	0.018042458
174	0x3e290835	0.16507037
175	0xbde44e26	-0.11147718
176	0x3e707421	0.234818
177	0x3e1cc8f7	0.15311037
178	0x3d295c29	0.041347656
179	0x3e383d35	0.17992099
180	0x3e3c041d	0.18360944
181	0xbe66feab	-0.22558086
182	0x3dfec1aa	0.12439282
183	0xbd888721	-0.06666399
184	0x3e2fd883	0.17172436
185	0xbd51df2a	-0.051238216
186	0xbee064e7	-0.43826982
187	0xbdd884f4	-0.10572234
188	0x3d056a7a	0.032572247
189	0xbdae4051	-0.08508361
190	0xbe4b78d1	-0.19870307
191	0x3bf44a61	0.0074551557
192	0x3c89636a	0.016771037
193	0x3d40e3d3	0.04709227
194	0xbe75d1d5	-0.24005826
195	0xbec76c74	-0.3894993
196	0x3e1f3a9a	0.15549698
197	0x3e866319	0.2624748
198	0x3e22590e	0.15854284
199	0xbdd3340f	-0.10312664
200	0x3d0a9539	0.033833716
201	0x3e7f88e5	0.24954565
202	0xbd25fb23	-0.040522706
203	0xbd78e2f6	-0.06076332
204	0x3cdb2472	0.026750777
205	0xbd8783ca	-0.06616934
206	0xbdf9be29	-0.12194473
207	0xbd99110c	-0.074739546
208	0x3b498259	0.003074786
209	0x3d4d5292	0.050127573
210	0x3e23195a	0.1592764
211	0x3e3e53c9	0.18586649
212	0x3e1ebcde	0.15501735
213	0x3c2f2e8b	0.010692249
214	0xbdbd7b25	-0.092520036
215	0x3e08d3a4	0.13361984
216	0xbebc693f	-0.36799046
217	0x3e2a3f62	0.16625741
218	0xbd8e0948	-0.06935364
219	0xbe2e2726	-0.17007121
220	0xbd184ff5	-0.037185628
221	0x3e2eadfa	0.17058554
222	0x3dcaefd8	0.09909028
223	0xbca80f12	-0.020514999
224	0x3e09212b	0.13391559
225	0xbe26fad6	-0.16306624
226	0xbdbe6c59	-0.092980094
227	0xbe3be4fc	-0.1834907
228	0x3ed6c063	0.41943654
229	0x3d859ae4	0.06523684
230	0xbca5fc9d	-0.020262057
231	0xbc1303ab	-0.0089730425
232	0x3de62c2a	0.112388924
233	0xbd1d2849	-0.038368497
234	0x3d2aa9e7	0.041665938
235	0x3d6d5e5e	0.057951324
236	0xbdfe4e51	-0.124172814
237	0x3d2215ca	0.03957156
238	0xbd87a2d5	-0.066228546
239	0x3e3eb2f1	0.18622948
240	0xbd10c557	-0.035344448
241	0x3daba3b5	0.08380834
242	0xbe1458b7	-0.14486967
243	0x3dfc727c	0.12326524
244	0xbd891d05	-0.06694988
245	0x3d2d603d	0.042328108
246	0x3e285cf7	0.16441713
247	0xbbb6c339	-0.0055774716
248	0x3e3f8d77	0.18706308
249	0xbe009d32	-0.12559965
250	0x3d0aa8bd	0.033852328
251	0x3e10f531	0.14156033
252	0x3d7eb55a	0.06218467
253	0xbd0fd67b	-0.035116654
254	0x3e201d20	0.1563611
255	0x3dfe2e22	0.12411143

actor.2.bias f4 [64]
0	0xbed7a881	-0.42120746
1	0xbd3167b1	-0.04331178
2	0xbe025ef8	-0.1273154
3	0x3e1185cb	0.14211194
4	0xbe84e41c	-0.25955284
5	0xbeb13f42	-0.34618574
6	0xbdd9558b	-0.10612019
7	0xbec2c1d4	-0.38038504
8	0xbdbffff6	-0.093749925
9	0xbe46f835	-0.19430621
10	0xbec233de	-0.37930197
11	0xbe8d002a	-0.27539188
12	0xbe86d26e	-0.2633242
13	0xbc8056e2	-0.015666429
14	0xbe3f786f	-0.18698286
15	0xbda9926e	-0.08279882
16	0xbe975283	-0.2955514
17	0xbf15cc68	-0.58515024
18	0xbe5ade62	-0.21373895
19	0xbeaaeeaf	-0.33385226
20	0xbf00064f	-0.50009626
21	0xbe83a224	-0.2570964
22	0xbe9207eb	-0.28521666
23	0xbd724fb1	-0.05915803
24	0xbeb8c2f4	-0.36086237
25	0xbf148046	-0.5800823
26	0xbecc47ed	-0.39898625
27	0xbe61bab4	-0.22043878
28	0xbd7eb1db	-0.062181335
29	0xbe909b44	-0.28243458
30	0x3e5cc50b	0.21559541
31	0xbecc3d86	-0.3989069
32	0xbe07f727	-0.13277875
33	0xbe368aa6	-0.17826328
34	0xbf082c3d	-0.531925
35	0xbef7f939	-0.4843233
36	0xbf12cfe8	-0.5734849
37	0xbedf6e2e	-0.43638748
38	0xbe194e69	-0.14971317
39	0xbe554a7e	-0.20829198
40	0xbef37250	-0.4754815
41	0xbead4145	-0.3383886
42	0xbe17676a	-0.14785543
43	0xbd355eef	-0.04427999
44	0xbe7d2381	-0.24720575
45	0xbf05c2e3	-0.522505
46	0xbc8e5557	-0.017374678
47	0xbe040c2d	-0.1289527
48	0xbcf9fff0	-0.030517548
49	0xbea58106	-0.32325
50	0xbe6f0944	-0.23343378
51	0xbeeff02b	-0.4686292
52	0xbeb1f786	-0.34759158
53	0xbe7e7430	-0.2484901
54	0xbeccace6	-0.3997566
55	0xbebf8f6d	-0.37414113
56	0xbe014b31	-0.1262634
57	0xbe91588e	-0.28387874
58	0xbe7e2467	-0.24818574
59	0xbee68201	-0.4502106
60	0xbea9c588	-0.33158517
61	0xbe7746e5	-0.24148138
62	0xbe72425d	-0.23658128
63	0x3d50b67f	0.05095529

actor.4.weight f4 [7, 64]
0	0x3d9b519b	0.075839244
1	0x3ba67a14	0.005080471
2	0xbd86c973	-0.06581392
3	0x3cd558c7	0.026043309
4	0x3d99a4ff	0.07502174
5	0xbca6743f	-0.020319102
6	0xbb00f037	-0.001967443
7	0xbd0821d6	-0.033235393
8	0x3cd11c2f	0.025526134
9	0xb92df9c1	-0.00016591606
10	0x3d89fbce	0.06737481
11	0x3dc50844	0.09620717
12	0xbccbba2a	-0.024869043
13	0x3cb96957	0.022633238
14	0x3c5cf39e	0.013485817
15	0xbd52d1b8	-0.051469535
16	0x3d9f3a2c	0.07774767
17	0xbdbe249d	-0.09284327
18	0xbd1bd98a	-0.03804926
19	0xbdb9fb92	-0.09081186
20	0xbc2c9184	-0.0105327405
21	0x3d639cd0	0.05556947
22	0xbb0dd7ac	-0.0021643443
23	0x3e063614	0.13106567
24	0xbcce398b	-0.025173923
25	0x3e00b05e	0.12567279
26	0x3d067bbe	0.032832853
27	0xbcc7c76b	-0.024387082
28	0xbd30ac98	-0.04313335
29	0x3d1c62d4	0.038180187
30	0xbccdf9ed	-0.025143588
31	0x3e2d4276	0.16919884
32	0x3e4fdcfa	0.2029914
33	0xbdb821e5	-0.0899084
34	0xbb0cf0b2	-0.002150577
35	0x3ca0e709	0.019641416
36	0xbd9d3fb8	-0.07678169
37	0xbd0058c9	-0.031334672
38	0xbe0d3894	-0.13791114
39	0x3de9e7c9	0.11421163
40	0x3dd55547	0.10416656
41	0x3ddd80c7	0.10815578
42	0xbdd5f831	-0.104477294
43	0x3d4dceed	0.050246168
44	0xbde6a269	-0.11261446
45	0x3e07eb29	0.132733
46	0x3d488f88	0.048965007
47	0x3c0b6025	0.008506809
48	0x3d8e4481	0.0694666
49	0xbd5736dd	-0.052542556
50	0x3daf25f8	0.08552164
51	0xbd45a945	-0.04825713
52	0x3daa1d90	0.0830642
53	0xbd9001bc	-0.07031581
54	0x3d42b052	0.047531433
55	0x3d423e2b	0.04742257
56	0xbd7ed5be	-0.06221556
57	0xbd8ce076	-0.0687875
58	0x3d6b3d50	0.05743152
59	0xbc8a2f5d	-0.016868288
60	0x3e6a27c8	0.22866738
61	0x3e08c2a1	0.13355495
62	0x3d9e03cf	0.0771557
63	0xbdceebf4	-0.10103598
64	0xbce6f1ec	-0.02819153
65	0xbce604a4	-0.028078385
66	0x3d059fd8	0.032623142
67	0x3c5c5eae	0.013450308
68	0x3d755888	0.059898883
69	0x3d41af1c	0.047286138
70	0x3c95012a	0.018189032
71	0x3d19d2ac	0.037554428
72	0xbc0940af	-0.008377238
73	0x3da4b097	0.08041494
74	0xbd71bd08	-0.059018165
75	0xbcdd0c4b	-0.0269834
76	0xbd08a51d	-0.03336059
77	0x3d207ab8	0.039179534
78	0xbd50af16	-0.050948225
79	0xbce7b6f4	-0.028285481
80	0xbcced265	-0.025246808
81	0xbe36e63d	-0.17861266
82	0xbda43839	-0.08018536
83	0x3cfe2d49	0.031027453
84	0xbddf2d9d	-0.10897372
85	0xbdc2af5c	-0.095061034
86	0xbba304e1	-0.004974947
87	0xbd0e09f5	-0.034677465
88	0x3c458f73	0.012058127
89	0x3c05f72b	0.008176605
90	0xbd9912f1	-0.07474316
91	0x3cc4a084	0.024002321
92	0x3d2fc433	0.04291172
93	0xbc914630	-0.017733663
94	0x3d1aa1e1	0.037752036
95	0x3d1274fa	0.03575609
96	0x3e3dd299	0.18537368
97	0xbd04e7be	-0.03244757
98	0xbe5e4125	-0.21704538
99	0xbceac2e0	-0.028657377
100	0xbbdbbbcc	-0.0067057367
101	0xbd169f16	-0.03677281
102	0xbd012795	-0.03153189
103	0x3d3794f0	0.044819772
104	0xbd330fe1	-0.043716315
105	0xbe10eb26	-0.14152202
106	0xbbdf4d16	-0.0068146093
107	0x3da685aa	0.08130963
108	0xbb920bf0	-0.0044569895
109	0xbdcd6c11	-0.10030378
110	0xbb8f20e6	-0.0043679355
111	0x3c0960ae	0.008384867
112	0x3d1aee13	0.0378247
113	0xbc669d98	-0.014075659
114	0x3d07b6e7	0.033133414
115	0x3b3f5f50	0.0029201098
116	0x3d868634	0.06568566
117	0xbdfc87cf	-0.12330591
118	0x3d2497a6	0.040183686
119	0xbdcc9721	-0.09989763
120	0x3d6d0aa8	0.05787149
121	0xbd2fd1e8	-0.04292479
122	0xbc8bd35a	-0.017068554
123	0x3cf7ea29	0.030263023
124	0x3ca7fc54	0.020506062
125	0xbcf9d227	-0.030495716
126	0x3c22324f	0.00989969
127	0x3c0773c6	0.008267349
128	0x3e581064	0.21100003
129	0xbcdc33d7	-0.026880188
130	0x3cf63d48	0.030058518
131	0xbcb8d8d5	-0.022564331
132	0xbd49c2b4	-0.04925795
133	0xbd3086fc	-0.04309748
134	0x3ccd144c	0.025034092
135	0x3ba3a074	0.0049934927
136	0xbc876fab	-0.01653274
137	0x3d0733b6	0.0330083
138	0xbd8fd737	-0.07023471
139	0xbd6021b7	-0.054719653
140	0xbd7db515	-0.06194027
141	0xba91bf0f	-0.0011119562
142	0xbe4889a4	-0.19583756
143	0xbd2232cd	-0.03959923
144	0xbe34fbdb	-0.176742
145	0x3c4844ec	0.0122234635
146	0x3c857764	0.016292281
147	0x3d266b78	0.040629834
148	0x3cc9851f	0.02459961
149	0xbdf677da	-0.120345786
150	0xbd940fe6	-0.07229595
151	0x3d695600	0.05696678
152	0xbd5e1295	-0.05421694
153	0x3dfad461	0.12247539
154	0x3bd2c0ec	0.0064316895
155	0x3cdaf243	0.026726848
156	0x3cf9c67a	0.030490149
157	0xbdebf01c	-0.115204066
158	0x3cfea63c	0.031085126
159	0x3e5aecf4	0.21379453
160	0xbcd4c1f1	-0.025971385
161	0xbddaf6cd	-0.10691605
162	0x3cf08e21	0.029364647
163	0xbdc66904	-0.09687999
164	0xbd78da93	-0.060755324
165	0xbdb50694	-0.08839145
166	0xbd8cb159	-0.06869764
167	0x3da2f1df	0.079562895
168	0x3d5a6ce2	0.053326495
169	0x3e49717d	0.19672199
170	0xbde5019d	-0.11181948
171	0xbcdeb9cd	-0.027188206
172	0x3da10b61	0.078634985
173	0x3e286d7b	0.16448013
174	0x3d7f279e	0.06229364
175	0x3d1553ce	0.036456876
176	0x3ce76cf7	0.0282502
177	0xbde93f90	-0.11389077
178	0x3d740f70	0.059585035
179	0x3d8c0bf3	0.06838217
180	0xbd9a7fd6	-0.07543914
181	0xbe0fb065	-0.14032133
182	0xbc961ef3	-0.018325305
183	0x3e3d5363	0.18488841
184	0xbcd0f89a	-0.025509167
185	0x3db39e04	0.087703735
186	0x3d077280	0.03306818
187	0xbe08d59a	-0.13362733
188	0x3e0b052b	0.1357619
189	0x3e9d188d	0.30682793
190	0xbd45395f	-0.048150416
191	0x3d2f4533	0.042790603
192	0xbe16780d	-0.14694233
193	0x3d94b453	0.072609566
194	0xbab32b50	-0.0013669524
195	0x3d35ceb7	0.04438659
196	0xbdb06599	-0.08613128
197	0xbcbde826	-0.023181986
198	0x3e1ba64d	0.15200157
199	0x3d9e38b1	0.07725657
200	0x3d66b0a8	0.056320816
201	0xbd035124	-0.032059804
202	0x3d636409	0.055515323
203	0x3c2addc4	0.01042885
204	0x3bca6d56	0.0061775846
205	0x3c2bacbf	0.010478198
206	0xbea3fa64	-0.3202697
207	0x3bcf6df5	0.0063302466
208	0x3ca0a202	0.019608501
209	0xbd221bd1	-0.03957731
210	0xbc9691ac	-0.018380009
211	0x3dec8c18	0.11550158
212	0xbbc74456	-0.0060811443
213	0x3bf47b64	0.0074609984
214	0x3dcf75d6	0.10129897
215	0x3d525a57	0.051355686
216	0xbcf55cd5	-0.029951492
217	0x3d66f395	0.05638464
218	0x3e157a29	0.14597382
219	0x3db9ac3d	0.09066055
220	0xbd34f77d	-0.044181336
221	0x3db8b6b4	0.09019223
222	0x3cfcd9a3	0.030865496
223	0x3cb066d1	0.021533402
224	0xbe147962	-0.14499429
225	0x39634ab1	0.00021676232
226	0xbd9b086d	-0.075699665
227	0xbe34965a	-0.1763548
228	0x3e415b88	0.18882573
229	0xbd29435e	-0.041324012
230	0xbd92d602	-0.07169725
231	0x3cc9614b	0.024582526
232	0xbe200751	-0.15627791
233	0xbd387c73	-0.04504056
234	0xbde33e01	-0.11095811
235	0x3cd2292e	0.025654402
236	0xbd3343d9	-0.043765876
237	0xbe26ee25	-0.16301782
238	0xbcf512ce	-0.029916193
239	0x3d643fca	0.055724896
240	0xbd61ab63	-0.055095088
241	0xbdbc2690	-0.09187043
242	0xbd9519d2	-0.072803155
243	0xbb75df11	-0.003751699
244	0x3d2d3845	0.04228999
245	0x3d02e1fe	0.031953804
246	0xbe33b56f	-0.1754968
247	0xbbd19775	-0.006396229
248	0xbde81351	-0.11331809
249	0xbc797a6d	-0.0152269425
250	0xbcae3dbe	-0.021269675
251	0xbe508204	-0.20362097
252	0x3c1670d9	0.009182178
253	0x3e2ca216	0.16858706
254	0xbd11f740	-0.035636187
255	0x3c9d21e5	0.019181201

actor.4.bias f4 [7]
0	0x3c975f04	0.018477924
1	0x3e40c559	0.18825282
2	0xbe281946	-0.16415891
3	0x3e233890	0.15939546
4	0x3e57280d	0.21011372
5	0xbea44662	-0.32084948
6	0x3e053897	0.13009869

critic.0.weight f4 [64, 32]
0	0xbe6be884	-0.23037916
1	0xbe2c3821	-0.16818286
2	0xbe60a6c7	-0.2193862
3	0x3ea306e8	0.31841207
4	0xbe18d597	-0.14925228
5	0x3d99dba7	0.075125985
6	0xbe926887	-0.28595373
7	0x3e086c7b	0.13322632
8	0x3d2e8554	0.04260762
9	0x3cf22d0a	0.029562492
10	0x3d80093e	0.06251763
11	0x3ce343e9	0.027742343
12	0x3bd980e6	0.0066376803
13	0xbd217132	-0.039414592
14	0xbb4029e8	-0.0029321853
15	0xbcfec5c1	-0.031100156
16	0xbda7e2f4	-0.08197585
17	0xbd50f07f	-0.051010605
18	0x3e594a97	0.2121986
19	0x3f8d3e8c	1.1034713
20	0x3f6e21be	0.93020236
21	0x3d34ef4b	0.04417352
22	0xbe513d54	-0.20433551
23	0xbf20bdf7	-0.62789863
24	0xbdfd8482	-0.123787895
25	0x3b4951b6	0.003071887
26	0xbdeaa8e8	-0.114579976
27	0xbe2ed003	-0.17071538
28	0xbd3c3ba5	-0.04595532
29	0xbdb34ec4	-0.08755258
30	0x3c611b20	0.013739377
31	0xbcc8cdb4	-0.02451215
32	0xbe366b4a	-0.17814365
33	0x3e917bca	0.28414756
34	0xbda088fb	-0.07838627
35	0x3e7d066c	0.24709481
36	0x3cd5e264	0.026108928
37	0xbe2f84f7	-0.17140566
38	0x3db4229b	0.08795663
39	0xbc94325f	-0.018090425
40	0xbc80e226	-0.015732836
41	0x3b2e3600	0.002658248
42	0x3e0ee8b7	0.13955961
43	0x3bdf9f18	0.0068243854
44	0x3c2fb71a	0.010724807
45	0xbcb20af4	-0.021733738
46	0xbb0b6e26	-0.002127537
47	0xbb4d47a3	-0.0031323216
48	0xbf2e9ed9	-0.6821113
49	0xbeff830c	-0.49904668
50	0x3ea7a03e	0.32739443
51	0xbf978d93	-1.184008
52	0xbfc706dd	-1.554897
53	0x3d8da5bb	0.06916376
54	0x3e971f06	0.29515857
55	0xbd5f1691	-0.05446488
56	0xbc1cbe68	-0.009566881
57	0xbd8f1e4f	-0.06988203
58	0xbd96b924	-0.073595315
59	0xbd173707	-0.036917713
60	0x3d554017	0.052063074
61	0x3c8ea67f	0.017413376
62	0xbe041e63	-0.12902217
63	0xbc48f82c	-0.0122662
64	0x3ca4727e	0.020074125
65	0x3e5a0c23	0.21293692
66	0xbcf0ed91	-0.029410155
67	0xbdb85b8c	-0.09001836
68	0x3e2dd7ce	0.16976854
69	0xbcd17235	-0.025567153
70	0xbd617b1d	-0.05504905
71	0xbbccf40c	-0.0062546786
72	0x3d64e1a2	0.055879243
73	0xbd93cd6e	-0.07216917
74	0xbc178736	-0.009248545
75	0xbdcbc3e2	-0.09949471
76	0x3b58c7a3	0.0033077977
77	0x3d71df9f	0.059051152
78	0xbb28ffbe	-0.00257872
79	0x3c010847	0.007875509
80	0x3e775ca4	0.24156433
81	0xbc09f444	-0.008420054
82	0xbf2b7dee	-0.6698903
83	0xbec1618c	-0.37769735
84	0x3ef942bb	0.48683724
85	0x3d604aea	0.054758944
86	0xbcecc3f8	-0.028902039
87	0xbe4c9433	-0.19978409
88	0xbdb3e97b	-0.08784767
89	0x3dab40f1	0.08361996
90	0x3db404f3	0.087900065
91	0x3d8d2cfb	0.06893345
92	0x3d85cd61	0.065333135
93	0xbdd9fb8b	-0.10643681
94	0x3d257144	0.04039122
95	0x3c03cf51	0.008045034
96	0xbe35a2c4	-0.17737871
97	0x3d366d04	0.04453756
98	0xbe2bf138	-0.16791236
99	0xbed4238e	-0.41433376
100	0xbd123c8f	-0.035702284
101	0x3e45ef3d	0.19329543
102	0x3c6da5b7	0.0145048415
103	0x3e865a64	0.26240838
104	0x3dcbdb41	0.09953929
105	0xbe3d93ba	-0.18513384
106	0xbd148db3	-0.036267947
107	0xbe4bc5cc	-0.19899672
108	0xbdfe8d82	-0.12429334
109	0xbca6e465	-0.020372579
110	0xb902ec63	-0.00012485827
111	0xbd2abcb3	-0.041683864
112	0xbe7667f7	-0.24063097
113	0xbd02fb16	-0.031977735
114	0xbeadd0b7	-0.339483
115	0x3d6331cf	0.055467423
116	0xbe52f4a0	-0.2060113
117	0xbdfdc363	-0.12390783
118	0xbf8f1800	-1.1179199
119	0x3e149caa	0.14512888
120	0x3e253fe4	0.16137654
121	0xbb44edfa	-0.0030049072
122	0x3d5c4eb1	0.053785983
123	0xbd037240	-0.03209138
124	0xbe06263a	-0.1310052
125	0xbd98542d	-0.0743793
126	0x3dd2e15f	0.102968924
127	0x3d372cfa	0.044720627
128	0xbea51e98	-0.32249904
129	0xbd3b58b4	-0.04573889
130	0xbe6498cf	-0.22323917
131	0x3e805b28	0.25069547
132	0x3ec4aca5	0.38412967
133	0x3de48483	0.11158087
134	0x3e734659	0.23757304
135	0x3d8df55c	0.06931564
136	0x38fffa15	0.00012205929
137	0xbc80db4e	-0.015729573
138	0x3bbe10d8	0.005800348
139	0x3ac21e94	0.0014810138
140	0xbd812dfb	-0.06307598
141	0x3bd038ad	0.0063544125
142	0xbcd999a5	-0.026562521
143	0xbce90e11	-0.02844909
144	0xbe45e8b4	-0.1932705
145	0xbe64c569	-0.22340931
146	0x3ed56235	0.4167649
147	0xbc84d990	-0.016217023
148	0xbe70f7cb	-0.23532026
149	0x3d24068c	0.040045306
150	0xbf209a67	-0.627356
151	0x3ea5352a	0.32267123
152	0xbe114ba6	-0.14189014
153	0xbbf71c55	-0.0075412192
154	0x3da6826e	0.08130346
155	0xbdbfbb4d	-0.09361897
156	0xbc6b2942	-0.014353098
157	0xbcc8da47	-0.024518145
158	0xbcc7191c	-0.024303965
159	0x3d7d3285	0.061815757
160	0xbd6d9657	-0.058004703
161	0xbdda038f	-0.1064521
162	0xbe2dff25	-0.16991861
163	0xbdedf235	-0.11618463
164	0x3da6004b	0.08105525
165	0x3e3c9d88	0.18419468
166	0xbd3b1125	-0.045670647
167	0xbd5d84b8	-0.05408165
168	0x3df6d9df	0.12053274
169	0x3de570c6	0.112031505
170	0x3e5d7d27	0.21629773
171	0x3ddffdf7	0.10937112
172	0xbe23b5ef	-0.15987371
173	0xbcde1055	-0.027107397
174	0xbbbb25f6	-0.0057113124
175	0xbcf166b4	-0.029467918
176	0x3db48464	0.08814314
177	0xbdd4d5d6	-0.103923485
178	0xbeebb8e3	-0.46039495
179	0xbf269e65	-0.6508544
180	0xbef420db	-0.47681317
181	0xbe1ad180	-0.1511898
182	0x3f146071	0.5795966
183	0x3ef97a7c	0.4872626
184	0x3d91b081	0.071137436
185	0x3cf84c71	0.030309888
186	0x3d82bd82	0.06383802
187	0x3da62585	0.08112625
188	0x3c89b9a5	0.016812155
189	0x3c2f5cad	0.010703248
190	0x3d789233	0.0606863
191	0xbdb7ade8	-0.08968717
192	0x3e3b7c90	0.18309236
193	0x3ea5cc13	0.3238226
194	0x3dcf144c	0.10111293
195	0xbdb835a9	-0.0899461
196	0xbd0e0bd6	-0.034679256
197	0x3d30582f	0.04305285
198	0xbdd30dba	-0.103053525
199	0xbe0b2215	-0.1358722
200	0x3d3ca126	0.04605212
201	0x3d317df7	0.04333302
202	0x3ba5ba69	0.005057622
203	0x3d16e767	0.036841776
204	0xbd2f7693	-0.04283769
205	0xbbe309c9	-0.0069286567
206	0x3bd6eb0b	0.006558781
207	0xbbc49e59	-0.006000322
208	0x3d5c164a	0.053732194
209	0xbe2076eb	-0.15670364
210	0x3e84ff86	0.259762
211	0xc0423271	-3.0343287
212	0xbe24e7a7	-0.16103993
213	0x3e110117	0.14160572
214	0xbf53c739	-0.82725865
215	0x3e647d1f	0.22313355
216	0xbd1e94db	-0.03871618
217	0xbd52f150	-0.051499665
218	0x3d3b66d9	0.04575238
219	0x3d5f327e	0.054491512
220	0xbb8d615a	-0.0043145837
221	0xbba4eb5a	-0.005032939
222	0x3d116922	0.035500653
223	0x3a8947f8	0.0010473719
224	0x3d3dba8d	0.046320487
225	0x3d960bd4	0.07326475
226	0xbe0aee7c	-0.13567537
227	0xbe7a27b9	-0.24429215
228	0xbe7af3b8	-0.24507034
229	0xbe69ae39	-0.22820367
230	0xbe3d3ba6	-0.18479785
231	0x3e18c3d7	0.14918457
232	0x3db37330	0.08762205
233	0x3d1ecea5	0.03877129
234	0x3dd97c65	0.106194295
235	0x3c2d6c65	0.010584925
236	0x3c7b3e16	0.015334627
237	0xbb0e1ec7	-0.0021685825
238	0xba52f3e5	-0.00080472074
239	0xbc3349e6	-0.010942912
240	0x3dc097a3	0.094039224
241	0x3e3c07f4	0.18362409
242	0x3d5a82f3	0.05334754
243	0x3eeb6686	0.45976657
244	0xbe66d6d3	-0.22542886
245	0x3e024d32	0.1272476
246	0xbf0cab81	-0.54949194
247	0xbe06c998	-0.1316284
248	0x3e07e7a0	0.13271952
249	0xbd58a209	-0.052888904
250	0xbc2661c8	-0.010155149
251	0xbe1b7a73	-0.1518343
252	0xbc2f6ba1	-0.010706813
253	0xbd63656e	-0.055516653
254	0xbca1b928	-0.01974161
255	0xbd8063f7	-0.06269067

critic.0.bias f4 [64]
0	0x3dcfa45d	0.10138772
1	0xbe2489f9	-0.16068257
2	0x3ddc9cec	0.10772118
3	0xbe203b65	-0.15647657
4	0x3a81ae05	0.0009893781
5	0xbdffd647	-0.12492042
6	0xbc2fe926	-0.010736739
7	0x3daf2255	0.0855147
8	0x3d9b985c	0.075974196
9	0x3ec496a6	0.38396186
10	0x3ed580f6	0.41699952
11	0xbe473b47	-0.19456206
12	0xbe3d7ee7	-0.1850544
13	0xbe3978b2	-0.18112448
14	0x3e9e6b86	0.3094141
15	0x3e1be803	0.15225224
16	0xbc88ce70	-0.0167
17	0xbe04a790	-0.12954545
18	0x3de3f486	0.111306235
19	0x3f063c6f	0.52435964
20	0x3f22750b	0.63459843
21	0xbe29784f	-0.165498
22	0x3da1e83e	0.07905625
23	0x3d0d19e9	0.034448538
24	0x3e7f6e33	0.24944381
25	0xbdb403fb	-0.08789822
26	0x3d8c2688	0.06843287
27	0x3ea85be4	0.32882607
28	0x3e247ce0	0.16063261
29	0xbe04e105	-0.12976463
30	0xbd8f1071	-0.06985558
31	0x3ec03e95	0.37547746
32	0xbdd6c9f9	-0.10487742
33	0xbe53561e	-0.2063832
34	0xbda27031	-0.07931555
35	0xbde0b469	-0.109719105
36	0x3e5c8f15	0.21538956
37	0x3efed97c	0.49775302
38	0xbe110b3a	-0.14164439
39	0x3e476104	0.19470602
40	0xbbef9864	-0.0073118676
41	0x3d437900	0.047722816
42	0x3e9af945	0.30268303
43	0xbe9653d1	-0.29360822
44	0xbea27251	-0.31727841
45	0x3ea2cbe1	0.31796172
46	0xbe6a89ac	-0.2290408
47	0xbe6d913d	-0.23199935
48	0x3e7b3c36	0.24534687
49	0x3abb9695	0.0014311845
50	0xbe8e4c47	-0.2779257
51	0xbe9150a5	-0.2838184
52	0x3e905029	0.28186157
53	0xbdadeb6c	-0.08492169
54	0xbdd893e8	-0.10575086
55	0xbeac7df9	-0.3368986
56	0x3e8573d8	0.26064944
57	0xbe10d8a2	-0.14145139
58	0xbe546540	-0.20741749
59	0x3e4473c9	0.19184794
60	0x3dd8de0b	0.10589226
61	0x3d8f9040	0.070099354
62	0x3dbdaaec	0.092611164
63	0xbc8d7c02	-0.017271046

critic.2.weight f4 [64, 64]
0	0xbd43eac6	-0.04783132
1	0xbd5e5dc6	-0.054288648
2	0x3d85f6ca	0.06541212
3	0xbd2a67f4	-0.041603044
4	0xbcd71c59	-0.026258634
5	0x3dda0b7e	0.10646723
6	0x3e0760da	0.1322054
7	0xbdc18a2a	-0.09450181
8	0xbe36c600	-0.17848969
9	0xbf013217	-0.50467056
10	0xbed2bb14	-0.41158354
11	0x3edb5cc9	0.42844227
12	0x3ddd4060	0.10803294
13	0x3ece0a01	0.40242007
14	0xbe7f68de	-0.24942347
15	0x3db1e5c9	0.08686406
16	0xbdfdc4c4	-0.12391046
17	0x3f275f0c	0.65379405
18	0xbf29bb33	-0.6630127
19	0xbf16145b	-0.5862481
20	0xbf883725	-1.0641829
21	0x3f24d5e7	0.6438889
22	0xbd90c097	-0.070679836
23	0xbe82f7dc	-0.25579727
24	0xbdc7e462	-0.097603574
25	0x3e9bc7d5	0.30425897
26	0x3e2f65b3	0.17128639
27	0xbe8cab99	-0.2747467
28	0xbdc86420	-0.09784722
29	0x3e81d01b	0.25354084
30	0x3e6c9ec5	0.23107441
31	0xbe935cd3	-0.28781757
32	0xbaad6cb7	-0.0013231252
33	0x3d958366	0.07300453
34	0x3de20032	0.110351935
35	0xbcec903f	-0.028877376
36	0xbea2914b	-0.31751475
37	0xbf2539e2	-0.6454145
38	0xbc3d1a45	-0.011541908
39	0xbe7dc370	-0.24781585
40	0x3d39cfcf	0.045364197
41	0x3e6d2632	0.23159102
42	0xbd306ece	-0.04307442
43	0x3e476b84	0.19474608
44	0x3e2ef0b9	0.17084016
45	0xbea3ff5f	-0.3203077
46	0x3e783f4f	0.242429
47	0x3f16aeda	0.5886055
48	0xbf104137	-0.5634951
49	0xbd281d92	-0.041043825
50	0xbd3eccae	-0.046581917
51	0x3f2b367c	0.6688001
52	0xbe604767	-0.21902238
53	0xbdad7292	-0.08469118
54	0xbda421c6	-0.08014254
55	0x3e42abff	0.19010924
56	0xbeaff96d	-0.34369984
57	0x3cbe6056	0.023239296
58	0x3de1c88a	0.11024578
59	0xbb9155f9	-0.0044352976
60	0xbe47b1ac	-0.1950137
61	0xbe28f7a0	-0.16500711
62	0xbdb849db	-0.08998462
63	0xbe0b6884	-0.13614088
64	0xbd540471	-0.05176205
65	0xbcd725c4	-0.026263125
66	0x3d3e89a8	0.046517998
67	0x3d522fce	0.05131512
68	0xbc501f22	-0.012702735
69	0x3d99b1b3	0.075045966
70	0xbb692bca	-0.0035579079
71	0xbd5c0dfa	-0.053724267
72	0xbe3dc2e8	-0.18531382
73	0xbc2307ed	-0.00995062
74	0x3de8e192	0.11371149
75	0x3e049d62	0.12950662
76	0x3dfe3c5d	0.12413857
77	0xbd3e3fd7	-0.0464476
78	0x3dcd2a68	0.10017854
79	0x3c85f765	0.016353318
80	0x3dedb277	0.11606305
81	0xbd541c4e	-0.051784806
82	0x3d109136	0.035294734
83	0xbd819382	-0.06326963
84	0x3cbafa14	0.022824325
85	0x3d9094ad	0.07059608
86	0xbd499e05	-0.049222965
87	0x3ced4fe3	0.028968757
88	0x3de280aa	0.11059697
89	0x3e106f22	0.14104894
90	0x3d75e087	0.06002858
91	0x3d1e4cee	0.038647585
92	0x3e00dc7e	0.12584111
93	0xbdfcf88a	-0.123520926
94	0x3d45a953	0.048257183
95	0x3df3188b	0.118699156
96	0x3d755651	0.05989677
97	0xbe12c3cc	-0.14332503
98	0x3d745b2b	0.059657257
99	0xbe0d73e8	-0.13813746
100	0xbdd84cb2	-0.105615035
101	0xbcfb2d2f	-0.030661194
102	0x3da80b54	0.08205286
103	0x3e076054	0.1322034
104	0xbb18569c	-0.0023244983
105	0x3ca292f9	0.019845473
106	0x3c68db28	0.014212407
107	0x3e05932b	0.13044421
108	0x3c5c92e8	0.01346276
109	0xbda74f2d	-0.081693985
110	0xbd0d4666	-0.034490965
111	0x3ca1e388	0.019761816
112	0x3d05b39b	0.03264199
113	0x3c196c75	0.009364237
114	0x3d8d8ade	0.069112524
115	0x3c849c7f	0.016187904
116	0xbd8d6be1	-0.06905342
117	0xbe114b96	-0.1418899
118	0xba80da08	-0.0009830603
119	0xbd86bc8e	-0.06578933
120	0x3d90d49a	0.070718005
121	0x3c68c75f	0.01420769
122	0x3d3e9220	0.046526074
123	0x3d7272d7	0.05919155
124	0x3d3b121f	0.04567158
125	0x3d7ade3c	0.061247095
126	0x3dd25570	0.10270202
127	0x3db635a2	0.088969484
128	0x3d9b5dc9	0.075862475
129	0x3d078306	0.033083938
130	0x3cf1d973	0.029522633
131	0xbdd72e7a	-0.105069116
132	0x3d77c1fe	0.06048774
133	0xbb43a95a	-0.002985558
134	0xbda25d21	-0.07927919
135	0x3e00a208	0.1256181
136	0xbb958901	-0.0045634513
137	0x3c8e6c60	0.017385662
138	0xbda545cd	-0.08069954
139	0xbc773e22	-0.015090497
140	0xbe1c8704	-0.1528588
141	0x39e8b850	0.00044387812
142	0xbce3c710	-0.027804881
143	0x3dad894c	0.08473453
144	0x3d5b0795	0.053474028
145	0x3e3719ad	0.17880888
146	0x3d34234c	0.043978974
147	0xbd169b81	-0.036769394
148	0xbbe05616	-0.0068461997
149	0xbdce4105	-0.10070995
150	0xbc395917	-0.011312745
151	0xbdb5a982	-0.08870222
152	0xbc99522c	-0.01871594
153	0x3e13dac2	0.14438918
154	0xb91551bd	-0.00014240197
155	0xbda2f8e9	-0.07957632
156	0xbd1dcda9	-0.03852621
157	0x3deafb13	0.1147367
158	0x3d96c6cd	0.07362137
159	0xbd8178e8	-0.06321889
160	0xbc7152ee	-0.014729245
161	0xbdb97a47	-0.09056526
162	0x3dbf1cdf	0.093316786
163	0xbd1e094a	-0.038583077
164	0x3d596f9a	0.053084947
165	0x3d9c3ade	0.076284155
166	0x3d210838	0.03931448
167	0x3b3f2114	0.0029164003
168	0xbd06fec3	-0.032957803
169	0xbd4a0417	-0.049320307
170	0xbb67d3f0	-0.0035374127
171	0xbd1827b7	-0.03714725
172	0xbdb69e74	-0.08916941
173	0xbcfae437	-0.0306264
174	0xbe021a44	-0.12705332
175	0xbd843d68	-0.06457025
176	0xbd188d76	-0.037244283
177	0x3dda2b97	0.10652845
178	0x3df41f73	0.11920061
179	0xbdc927b6	-0.098220274
180	0x3d9cf168	0.07663232
181	0x3d9df2a4	0.07712296
182	0x3e182eb3	0.14861564
183	0x3dac3214	0.08407989
184	0x3d754c5d	0.05988728
185	0x3cf7f301	0.03026724
186	0x3c3e6394	0.011620421
187	0x3c1f0422	0.009705575
188	0x3df9ee57	0.12203663
189	0x3d8a8c5f	0.06765055
190	0x3d58bbbd	0.052913416
191	0xbbb1e96b	-0.005429437
192	0xbcb7755c	-0.022394828
193	0x3d31e99a	0.04343567
194	0xbd4eac77	-0.050457444
195	0xbca27c17	-0.019834561
196	0xbc927bdd	-0.017881328
197	0xbde4710d	-0.11154375
198	0x3d888c14	0.06667343
199	0x3d83a370	0.064276576
200	0xbcb8ed0a	-0.022573967
201	0x3dd735df	0.10508322
202	0xbd4271b8	-0.047471732
203	0x3d9290c9	0.07156522
204	0xbd480786	-0.0488353
205	0xbdb4b73e	-0.08824013
206	0x3da4a875	0.08039943
207	0x3d6df9ee	0.05809968
208	0xbc720721	-0.0147722075
209	0x3bcb5c15	0.0062060454
210	0xbc73e762	-0.014886709
211	0x3e41f526	0.18941173
212	0xbd16fd5a	-0.03686271
213	0x3e2ef84b	0.17086904
214	0x3d848ab6	0.064717695
215	0x3d84ffb0	0.06494081
216	0xbc9c7842	-0.019100312
217	0xbe3ef104	-0.18646628
218	0xba9db037	-0.0012030666
219	0xbdb9835e	-0.090582594
220	0xbd9f5f83	-0.07781889
221	0xbaeaea8f	-0.0017922687
222	0xbd9566c3	-0.07294991
223	0x3e0022eb	0.1251332
224	0xbc68aab2	-0.014200853
225	0xbd3f5e4d	-0.04672079
226	0xbbe1bb7b	-0.0068888045
227	0x3cd0c77f	0.025485752
228	0x3d150ad4	0.03638728
229	0xbdb0b872	-0.0862893
230	0xbb08382e	-0.0020785439
231	0xbcd09ce5	-0.025465438
232	0x3e3adcca	0.18248287
233	0xbca460c6	-0.020065676
234	0x3b3b860f	0.002861384
235	0x3d6444a6	0.05572953
236	0x3c983d7a	0.018584002
237	0xbd1c7abb	-0.038202982
238	0xbd2b96c0	-0.041891813
239	0x3d914cfe	0.07094763
240	0xbdab1426	-0.083534524
241	0x3e1bfe39	0.15233697
242	0x3daf1b5f	0.085501425
243	0x3b39a4d6	0.002832701
244	0xbe0241af	-0.12720369
245	0xbc93ef20	-0.01805836
246	0xbcb44926	-0.022007536
247	0xbd62f1e2	-0.05540646
248	0x3dcc4e39	0.09975857
249	0x3b61ae03	0.0034435994
250	0x3b888222	0.0041659037
251	0x3dd3c03d	0.10339401
252	0x3c01d275	0.007923712
253	0xbd38bb60	-0.04510057
254	0xbcfb6fe8	-0.03069301
255	0xbda0e1dc	-0.07855579

critic.2.bias f4 [64]
0	0x3bcba8d5	0.0062151947
1	0xbdb9a499	-0.09064598
2	0x3c0513a9	0.008122363
3	0xbe173a7e	-0.14768407
4	0x3d62c2e2	0.055361636
5	0xbc3ac9c5	-0.011400645
6	0xbcc24645	-0.023715148
7	0x3e07254c	0.13197821
8	0x3df83c63	0.12120893
9	0x3da6999c	0.081347674
10	0x3d7875f8	0.06065938
11	0xbe958b07	-0.29207632
12	0xbda1d8ae	-0.079026565
13	0x3d09ae39	0.033613417
14	0x3cd664bf	0.026171086
15	0x3e1dbae3	0.15403323
16	0x3ddab11c	0.10678312
17	0xbe180749	-0.14846529
18	0xbdc93e51	-0.09826339
19	0x3d36f2ac	0.044665024
20	0xbda3a517	-0.07990473
21	0xbdb94367	-0.09046059
22	0x3da86278	0.082219064
23	0xbd05da6e	-0.032679014
24	0xbdb946ec	-0.090467304
25	0x3cb7a7bf	0.022418855
26	0xbe693f11	-0.22777964
27	0xbd5445cf	-0.051824387
28	0xbd8d4fe2	-0.06900002
29	0xbc018965	-0.007906293
30	0x3da3db4d	0.08000813
31	0x3d29b748	0.041434556
32	0xbca605d5	-0.020266453
33	0x3e56dd4c	0.20982856
34	0x3df3a716	0.118971035
35	0x3ddeea11	0.108844884
36	0xbc86338b	-0.016382
37	0xbbc63288	-0.0060485043
38	0xbe316895	-0.17325051
39	0xbdcbccb6	-0.09951155
40	0xbe9bd8fc	-0.30438983
41	0xbbb1fb18	-0.005431544
42	0x3d9c543d	0.07633255
43	0x3e86d6c3	0.26335725
44	0x3c97f2ff	0.018548487
45	0xbdd08590	-0.10181725
46	0x3d81a547	0.06330352
47	0xbc35e584	-0.011102084
48	0x3d0b75cd	0.03404789
49	0xbd126e45	-0.035749692
50	0x3e2c9da4	0.1685701
51	0x3c9670af	0.018364279
52	0xbced4c51	-0.028967055
53	0xbda2a323	-0.07941272
54	0x3d79fb42	0.061030634
55	0xbcb927f2	-0.022602055
56	0xbdace290	-0.08441651
57	0xbdaf701d	-0.08566306
58	0xbd30149c	-0.042988405
59	0x3d2dc423	0.04242338
60	0xbe07bce2	-0.13255647
61	0xbddcc4f2	-0.10779752
62	0xbd1b7a47	-0.03795841
63	0x3c371731	0.011174963

critic.4.weight f4 [1, 64]
0	0xbe0377f9	-0.12838735
1	0xbb75480d	-0.0037426979
2	0x3a8fcb12	0.0010970554
3	0x39d6b62c	0.0004095299
4	0xbb8635f0	-0.0040957853
5	0xbb0f7ca0	-0.002189435
6	0xbb305c19	-0.0026910363
7	0xbe4166fa	-0.18886939
8	0xbb6d8ffd	-0.0036249154
9	0xbb56c6a6	-0.0032772212
10	0x3bc49e63	0.0060003265
11	0x3dfb7ddd	0.12279866
12	0x3ba26b24	0.00495662
13	0x3b75546c	0.0037434353
14	0x3b9223c5	0.0044598305
15	0xbd99ffeb	-0.075195156
16	0x3b0f8ab1	0.0021902735
17	0x3e0e9bab	0.1392657
18	0xb90ca887	-0.00013414222
19	0xbb8e16f6	-0.0043362333
20	0x3acf76a4	0.0015828204
21	0x3aa74315	0.0012761081
22	0x3d9cd4e5	0.07657794
23	0x3bb26da4	0.005445199
24	0x3a90d568	0.0011049928
25	0xbba1e621	-0.0049407636
26	0x3dff7ddc	0.12475178
27	0xbcbb4ed1	-0.022864731
28	0xba907602	-0.0011021497
29	0xbba61c26	-0.0050692735
30	0xb98eb521	-0.00027219302
31	0xbb1d41e4	-0.0023995573
32	0xbb603951	-0.003421385
33	0xbdb17619	-0.086651035
34	0x3b972575	0.0046126195
35	0x388b47a8	6.6413835e-05
36	0xba907f7d	-0.0011024323
37	0xbb14f2c9	-0.002272772
38	0xbdc3b5f1	-0.09556187
39	0xba0c0b02	-0.00053422165
40	0x3d764df5	0.06013294
41	0xbdda260e	-0.106517896
42	0xbbc0b6de	-0.0058811745
43	0xbe205d97	-0.15660702
44	0x3ad39b80	0.0016144365
45	0x3deb1b4d	0.114798166
46	0xba127749	-0.0005587233
47	0x3b3266fb	0.0027222026
48	0xbb2b6e2a	-0.0026158192
49	0xbb4c3c3a	-0.0031163828
50	0xbde738ca	-0.112901285
51	0x3b51e4e4	0.0032027299
52	0x3a7dc517	0.0009680553
53	0x3b105112	0.0022020978
54	0x3ae413bd	0.0017400902
55	0x3a038a8d	0.0005017899
56	0x3a8e3768	0.0010850253
57	0x3892bbbf	6.996793e-05
58	0xb86602cb	-5.4838874e-05
59	0xbbc28d24	-0.0059372354
60	0xbb0c8525	-0.0021441665
61	0x3d781a54	0.060571983
62	0xbc039451	-0.008030967
63	0xbb6b5244	-0.0035907188

exp_avg f4 [7]
0	0x3a0e0157	0.000541707
1	0x3c18b914	0.00932147
2	0x3b9a6801	0.0047121053
3	0x3ad93b44	0.0016573449
4	0xba5238c1	-0.0008019321
5	0x3b5bb6b9	0.003352566
6	0x3b8c8ce3	0.004289256

exp_avg_sq f4 [7]
0	0x3aef2dec	0.0018247939
1	0x3b0b7a76	0.002128271
2	0x3b011e45	0.001970188
3	0x3a90881a	0.001102689
4	0x3aea1b78	0.001786097
5	0x3aceee80	0.0015787631
6	0x3a8e85d0	0.001087362
